improved_vrpb_policy_best.pth (torch, 42797 bytes, 6 tensors)

fc1.weight f4 [128, 6]
0.24332431 0.120791905 0.025152411 -0.26173332 -0.017170448 -0.31629077 -0.087743826 -0.19460855
0.38004074 0.10127938 -0.21297683 0.22406709 -0.011795072 0.10845013 -0.3755911 -0.09915531
0.130971 0.36127502 0.086394034 0.11792585 -0.19194648 0.09166208 0.34358662 -0.09580624
0.2931334 0.3539665 -0.3816639 -0.3485181 -0.08329286 0.14524049 0.29345885 -0.33999985
-0.3525438 0.19664699 -0.1818094 0.11847836 -0.17949188 0.0026184858 0.33503333 0.38020915
-0.10361615 0.23320603 -0.17303044 -0.20641708 0.026387053 0.39615288 0.31942764 0.28010976
-0.28776565 -0.028361078 -0.22474717 -0.007047501 -0.23601405 0.30158108 -0.19670585 -0.10455829
-0.3222788 -0.11194259 -0.035922706 -0.00020891428 0.254192 0.00035766544 -0.3354376 -0.3865696
-0.026958078 -0.10434678 -0.046826616 -0.1836228 0.051567603 -0.39339834 -0.09871 -0.20716038
-0.34478366 0.39070255 -0.014789134 0.35813862 -0.38475987 0.32209623 -0.22854033 0.05987218
0.086621195 0.14976388 -0.009599805 0.25330436 -0.16104709 -0.23460726 -0.18291737 0.014909933
0.10895469 -0.34047413 -0.25063846 0.17142503 0.31987387 0.0858581 0.3285301 0.17883313
-0.29968885 0.15791953 0.3669492 -0.18276744 -0.34498987 0.37252355 0.16543937 -0.32481173
-0.16444157 0.17066044 -0.38857117 -0.16298278 0.1566124 -0.01450184 -0.347892 -0.1776371
0.13057578 0.26123202 -0.3162235 -0.37825945 0.009764314 -0.19625208 0.37580296 -0.15638608
0.104265876 -0.25371188 0.056080703 0.3801656 0.23970221 0.33095932 0.21006103 0.18344036
-0.18553793 0.21023531 0.13454714 -0.2965892 -0.23199481 0.05582884 -0.15117404 0.09789187
0.17549303 -0.079452425 -0.23172387 0.11357146 0.27702996 0.08921352 -0.10830903 -0.21264082
0.2810589 0.052843027 0.114704624 -0.3423954 0.14384124 0.33002192 -0.37817702 -0.16397525
0.03756578 -0.33970487 -0.13059321 -0.00685066 -0.31401122 -0.077937216 0.05884544 -0.2001259
0.17705135 0.22333717 0.0880474 0.088879324 -0.31359923 0.054546762 -0.08680135 -0.30603454
0.12543312 0.17893167 0.19526942 0.25076592 -0.07406758 -0.25798726 -0.1291632 0.3244012
-0.017971175 0.10748079 0.013543679 -0.11657059 0.303863 -0.32568958 0.336735 -0.14070845
0.12168792 -0.09900808 -0.097685695 -0.09879688 -0.30304074 -0.23680934 -0.31316784 -0.0023335814
-0.2864559 0.17304862 -0.025402812 0.34761947 -0.27855074 -0.08648157 0.012595014 0.16980268
-0.2111995 -0.24011558 -0.37811202 0.3023057 -0.08838389 0.24426249 -0.2265723 0.25169945
0.29866186 -0.07278207 0.17630878 -0.30119723 -0.35304257 0.38821077 -0.3718647 0.052969784
0.29744384 0.07296401 -0.09701417 0.37949488 0.32018864 0.31212723 0.1303322 0.011908034
0.25608525 0.23874041 -0.03901319 0.38244092 -0.016402304 -0.39123297 0.27891862 0.40896553
0.21621895 0.1156978 -0.3506184 -0.115704924 0.2613924 0.39105013 -0.15304834 -0.14368117
0.119698316 -0.34552655 -0.3805669 0.02689808 0.23131509 -0.13959849 -0.013229782 0.08797882
-0.011211509 -0.048016142 -0.31518048 0.38195497 0.20512863 0.20686379 0.052452516 0.18306044
00000000: 022a 793e bf61 f73d 6e0c ce3c e901 86be
00000010: 0aa9 8cbc ddf0 a1be 09b3 b3bd 7747 47be
00000020: b394 c23e 906b cf3d 9916 5abe d871 653e
00000030: 1e40 41bc 1a1b de3d 7a4d c0be f011 cbbd
00000040: 431d 063e 0af9 b83e 5bef b03d 1c83 f13d
00000050: 9e8d 44be 54b9 bb3d 96ea af3e 1036 c4bd
00000060: 9515 963e 193b b53e 7369 c3be f770 b2be
00000070: 7295 aabd ecb9 143e 3d40 963e 7614 aebe
00000080: 9f80 b4be d45d 493e 3e2c 3abe c8a4 f23d
00000090: b8cc 37be e79a 2b3b 7d89 ab3e c6aa c23e
000000a0: b434 d4bd 90cd 6e3e e42e 31be 005f 53be
000000b0: a929 d83c 8dd4 ca3e 058c a33e 8c6a 8f3e
000000c0: 0556 93be 7e55 e8bc 1f24 66be b9ee e6bb
000000d0: abad 71be d668 9a3e 426d 49be a822 d6bd
000000e0: ba01 a5be 2842 e5bd b023 13bd 0010 5bb9
000000f0: 7425 823e 0b85 bb39 7abe abbe 73ec c5be
00000100: 30d7 dcbc c4b3 d5bd 44cd 3fbd 9e07 3cbe
00000110: 8d38 533d 826b c9be 7828 cabd da21 54be
00000120: 7c87 b0be 2a0a c83e 204e 72bc f25d b73e
00000130: 3fff c4be cce9 a43e 7a06 6abe 883c 753d
00000140: 7466 b13d b45b 193e 8048 1dbc 1cb1 813e
00000150: 87e9 24be e33c 70be b14e 3bbe cb48 743c
00000160: a323 df3d a052 aebe af53 80be 0b8a 2f3e
00000170: 82c6 a33e 5fd6 af3d 1935 a83e 0820 373e
00000180: d170 99be a8b5 213e c4e0 bb3e 6327 3bbe
00000190: 83a2 b0be 68bb be3e f068 293e b94d a6be
000001a0: 5f63 28be 9cc1 2e3e cdf2 c6be f5e4 26be
000001b0: 005f 203e 2099 6dbc e61e b2be 80e6 35be
000001c0: a8b5 053e 34c0 853e 0ce8 a1be 39ab c1be
000001d0: 80fa 1f3c 4ef6 48be 3f69 c03e ac23 20be
000001e0: 5989 d53d 86e6 81be e1b4 653d 11a5 c23e
000001f0: 7f74 753e 8073 a93e 3d1a 573e cad7 3b3e
00000200: a8fd 3dbe ed47 573e bac6 093e 8ada 97be
00000210: 0c90 6dbe c8ac 643d 5ecd 1abe 887b c83d
00000220: 72b4 333e f4b7 a2bd 0649 6dbe 2798 e83d
00000230: dfd6 8d3e 94b5 b63d 20d1 ddbd 84be 59be
00000240: f4e6 8f3e ee71 583d 42ea ea3d 734e afbe
00000250: 1e4b 133e a2f8 a83e 6ba0 c1be 21e9 27be
00000260: 93de 193d cced adbe 3aba 05be 807b e0bb
00000270: 14c6 a0be 8c9d 9fbd eb07 713d ceed 4cbe
00000280: f34c 353e 80b2 643e 3252 b43d 5d06 b63d
00000290: 1490 a0be 6d6c 5f3d e8c4 b1bd 8fb0 9cbe
000002a0: 8a71 003e dd39 373e b5f4 473e 6464 803e
000002b0: beb0 97bd e816 84be 5c43 04be ea17 a63e
000002c0: 4938 93bc e31e dc3d 4fe6 5d3c 90bc eebd
000002d0: ee93 9b3e c9c0 a6be 8868 ac3e e015 10be
000002e0: 8437 f93d c0c4 cabd 700f c8bd 0556 cabd
000002f0: 2828 9bbe 267e 72be 8957 a0be 00ef 18bb
00000300: 59aa 92be a833 313e 8f19 d0bc 2efb b13e
00000310: 349e 8ebe 401d b1bd 515b 4e3c c1e0 2d3e
00000320: af44 58be dce0 75be e697 c1be d0c7 9a3e
00000330: 9d02 b5bd f21f 7a3e 9202 68be c0de 803e
00000340: 35ea 983e c40e 95bd 4a8a 343e 8636 9abe
00000350: ffc1 b4be 90c3 c63e 0d65 bebe d8f6 583d
00000360: 8f4a 983e 286e 953d 5daf c6bd 274d c23e
00000370: c4ef a33e 24cf 9f3e ce75 053e ea19 433c
00000380: 9b1d 833e 5e78 743e 4bcc 1fbd 4ccf c33e
00000390: 205e 86bc b04f c8be 6cce 8e3e ee63 d13e
000003a0: 8068 5d3e f8f2 ec3d 4184 b3be b4f6 ecbd
000003b0: 3ad5 853e b937 c83e b4b8 1cbe 2821 13be
000003c0: 6424 f53d dbe8 b0be aad9 c2be 5d59 dc3c
000003d0: dddd 6c3e e8f2 0ebe bac1 58bc 3d2e b43d
000003e0: 7ab0 37bc 93ac 44bd 565f a1be 9a8f c33e
000003f0: 3d0d 523e 1ad4 533e 73d8 563d 3274 3b3e

fc1.bias f4 [128]
0.25288215 -0.009948788 0.07686516 0.3161466 0.35129815 -0.19298054 -0.29668158 -0.12869577
0.28566778 -0.0029566586 0.10331734 0.13051018 -0.3491172 -0.39481416 0.20869672 0.21537709
0.08780924 -0.2589624 -0.32419512 -0.3127326 0.17314312 0.13913517 -0.24991764 0.12915458
-0.015642853 0.36214983 0.32234123 0.27699834 0.19690968 0.2693968 -0.38593242 0.09446167
0.18710357 0.23782109 0.38956815 -0.24420156 -0.01666682 0.049103666 -0.083291225 0.20930101
-0.20101215 0.21130887 0.017776776 0.16208462 0.01877453 0.043900106 -0.38636813 0.30969763
0.059231292 -0.19829774 -0.09557595 -0.11458502 0.12007818 0.30380833 0.31924415 -0.20201416
0.32836008 0.2893499 0.12874714 -0.10056138 -0.16189376 -0.22609082 -0.06643171 0.33398703
-0.086762995 -0.3961647 -0.23946676 -0.20739563 -0.04383002 -0.239043 -0.030638013 -0.064054415
-0.14831248 -0.20634145 -0.14009655 -0.032252416 -0.2306752 -0.21096772 -0.036168963 -0.29022723
-0.10658637 0.06869525 -0.17961468 0.2709801 0.032807633 -0.215532 -0.21220253 0.11379881
-0.24968643 -0.00486589 0.3788282 -0.058373094 0.14726017 -0.30141133 0.03863364 0.05829005
0.053255625 -0.0419085 0.40102395 -0.3155107 -0.39898935 0.16984184 0.20129149 -0.11269222
0.17984563 0.1902424 0.40960547 -0.15680593 0.3681401 -0.14370647 0.28550366 -0.20526502
-0.14651349 -0.18824139 0.32502273 0.1211284 0.14568105 0.13013956 0.22150461 -0.10010353
0.39348486 -0.054710466 0.21757026 -0.25283048 -0.16496202 0.041612808 -0.07043666 0.026039267
00000000: c579 813e 3e00 23bc 7b6b 9d3d f8dd a13e
00000010: 5add b33e b19c 45be a6e6 97be d3c8 03be
00000020: 0c43 923e 80c4 41bb 0b98 d33d 76a4 053e
00000030: 7dbf b2be 1525 cabe 98b4 553e d08b 5c3e
00000040: 55d5 b33d b896 84be e7fc a5be 7d1e a0be
00000050: 6e4c 313e 7379 0e3e 69ea 7fbe 1941 043e
00000060: 7125 80bc b46b b93e e909 a53e bad2 8d3e
00000070: b1a2 493e 61ee 893e ef98 c5be 1f75 c13d
00000080: 1498 3f3e 5f87 733e 7a75 c73e f90f 7abe
00000090: db88 88bc ed20 493d 9794 aabd 0153 563e
000000a0: 21d6 4dbe 5a61 583e 9aa0 913c 83f9 253e
000000b0: 0bcd 993c 99d0 333d 0bd2 c5be b090 9e3e
000000c0: 839c 723d 900e 4bbe 53bd c3bd 8dab eabd
000000d0: 8deb f53d c48c 9b3e f873 a33e cddc 4ebe
000000e0: d01e a83e ac25 943e 4ad6 033e 20f3 cdbd
000000f0: 7ac7 25be 5a84 67be 590d 88bd 5900 ab3e
00000100: ccb0 b1bd 19d6 cabe c636 75be 855f 54be
00000110: 1b87 33bd b0c7 74be 92fc fabc f62e 83bd
00000120: 3adf 17be 2c4b 53be 7875 0fbe 1c1b 04bd
00000130: 1f36 6cbe ec07 58be e825 14bd aa98 94be
00000140: f449 dabd 18b0 8c3d e9ec 37be e7bd 8a3e
00000150: 4c61 063d 6cb4 5cbe 9f4b 59be 5a0f e93d
00000160: cdad 7fbe 0b72 9fbb c5f5 c13e a018 6fbd
00000170: 5fcb 163e 9652 9abe 4f3e 1e3d 8cc1 6e3d
00000180: 9222 5a3d 3fa8 2bbd 0353 cd3e 9e8a a1be
00000190: 5548 ccbe 05eb 2d3e 5b1f 4e3e 2ecb e6bd
000001a0: 7429 383e e7ce 423e cfb7 d13e bc91 20be
000001b0: dc7c bc3e ca27 13be 892d 923e fe30 52be
000001c0: a207 16be 5ac2 40be 6169 a63e 2b12 f83d
000001d0: 6a2d 153e 4e43 053e 1bd2 623e 1403 cdbd
000001e0: d976 c93e 1518 60bd bdca 5e3e ff72 81be
000001f0: ceeb 28be 3172 2a3d 1841 90bd 4d50 d53c

fc2.weight f4 [64, 128]
0.068052314 -0.01992704 -0.020631105 -0.042756196 0.043901928 0.003656894 -0.056618676 -0.069348425
0.018160984 -0.0691621 0.08200387 -0.011917435 0.08149103 0.01955808 0.042150684 0.04740887
-0.014147915 0.029548913 -0.035729874 -0.010765478 -0.06660711 0.014406413 -0.01250004 -0.021454498
0.027159758 0.024348319 -0.08458744 0.048695944 0.047268026 0.017237946 0.005482264 0.059118904
0.0035144463 -0.08546044 -0.03520164 -0.052333962 0.0062982664 -0.0014807135 -0.073272094 0.01773221
0.07390582 -0.067714736 0.08620108 -0.0018865764 -0.073258325 -0.0584033 -0.057645075 0.050674297
0.05898381 0.05099272 -0.078826964 0.0073207393 -0.020694226 0.06308841 -0.064410426 -0.009025559
0.007879987 -0.03594061 0.025525257 -0.031132516 0.04870691 0.023694664 -0.0017196536 0.071367554
0.028638795 0.039418943 0.04027512 0.062341236 0.056888603 0.051904164 -0.04375019 -0.0155066475
0.037344493 -0.06927383 -0.057740137 -0.05382458 -0.053354032 0.068344735 -0.01869297 -0.066389956
-0.030268677 -0.0042981654 0.08314834 -0.052847795 -0.08688041 -0.014464043 0.01965794 -0.012470417
-0.0039853826 0.04071247 -0.050409433 0.026133083 -0.02076085 -0.049806952 -0.086804576 -0.014626607
-0.050107196 0.0508968 0.07678845 -0.023555726 -0.025824457 -0.025368914 -0.027393587 -0.07479521
0.08417622 0.04908582 -0.07946698 0.0046438947 -0.0017974153 -0.04151429 -0.067279026 -0.0022841468
0.00032604486 -0.018047184 0.013214871 0.06530333 0.04543888 -0.021599777 -0.022426672 -0.050160956
-0.08320179 -0.018209524 0.004729815 -0.025605977 0.013434425 0.06940053 0.08539941 -0.04150002
-0.047971625 -0.06495826 -0.06657548 0.057149757 -0.034777146 0.004858639 -0.035755202 0.053937793
0.047283486 0.06332671 0.0666679 0.018054321 -0.043414183 -0.08808039 0.045112144 0.03236418
0.033140298 0.003498517 -0.037771847 -0.039148793 0.02472617 -0.044088557 -0.03131576 0.071164146
0.05456688 0.0654382 0.030391082 -0.07199739 0.08178094 -0.014899111 -0.015731452 0.021314312
-0.082177036 0.033484522 -0.028139634 0.011615383 -0.054430496 0.053665098 0.034554064 0.0848301
-0.042678524 -0.056178905 0.02026324 0.027864635 -0.031763293 0.0062405937 0.054368503 -0.034672275
-0.055218287 0.07591253 0.020048251 0.04323761 0.06623913 -0.058009196 0.06555806 -0.06358462
0.034654923 0.063974455 -0.06514766 0.03978034 -0.062424235 -0.030961443 -0.0021525852 -0.00049497694
-0.05235638 0.014174193 -0.08578508 0.051061634 0.06913426 0.05820631 0.060062833 0.0043252613
0.07684082 -0.044004843 -0.08351754 -0.0583269 0.08323378 -0.028074283 -0.07656638 0.0031769846
0.03336651 -0.06772707 0.085424066 0.009048459 0.015915561 -0.016502332 0.013729074 0.06322946
-0.07078116 0.061986614 -0.045239273 -0.05224263 0.01872405 -0.008863948 0.032678835 0.005412436
0.0039454764 0.0455048 -0.00783669 -0.06114515 0.06144785 -0.01945796 0.0125201 -0.03313081
0.04819788 -0.07395086 0.031876985 0.056553297 0.058209863 -0.05625266 0.02231528 0.055863835
0.07702509 0.054519918 0.028364783 -0.06305768 -0.06952503 0.0054705674 0.04932205 0.01711572
0.088518195 0.0071056182 -0.05067941 -0.015148464 0.08218592 -0.07081637 0.04114353 0.050148703
00000000: 035f 8b3d 083e a3bc 9002 a9bc 1f21 2fbd
00000010: 82d2 333d 80a8 6f3b fce8 67bd 8c06 8ebd
00000020: 58c6 943c dca4 8dbd a5f1 a73d 5841 43bc
00000030: c5e4 a63d 4438 a03c 32a6 2c3d ce2f 423d
00000040: a8cc 67bc 9010 f23c 7d59 12bd b061 30bc
00000050: 4f69 88bd e008 6c3c f8cc 4cbc 58c1 afbc
00000060: 247e de3c 2076 c73c 2e3c adbd 6675 473d
00000070: 1e9c 413d 9836 8d3c 90a4 b33b aa26 723d
00000080: a052 663b e205 afbd 982f 10bd 235c 56bd
00000090: b061 ce3b 8014 c2ba ae0f 96bd 2443 913c
000000a0: ef5b 973d 06ae 8abd 318a b03d 0047 f7ba
000000b0: 7608 96bd 4c38 6fbd 3e1d 6cbd da8f 4f3d
000000c0: 0299 713d bedd 503d 0870 a1bd d0e2 ef3b
000000d0: f086 a9bc 7f34 813d 9de9 83bd f0df 13bc
000000e0: 101b 013c 7636 13bd 581a d13c 9e09 ffbc
000000f0: e680 473d 501b c23c 0066 e1ba 2729 923d
00000100: e89b ea3c c275 213d 86f7 243d 8659 7f3d
00000110: 0604 693d 7699 543d 6633 33bd 980f 7ebc
00000120: 8af6 183d 70df 8dbd ec80 6cbd 2a77 5cbd
00000130: c289 5abd 53f8 8b3d 0022 99bc 75f7 87bd
00000140: 04f6 f7bc a0d7 8cbb ad49 aa3d ee76 58bd
00000150: 5bee b1bd 98fa 6cbc b009 a13c b850 4cbc
00000160: d097 82bb 1ec2 263d 1f7a 4ebd 0c15 d63c
00000170: a812 aabc 6002 4cbd 99c6 b1bd 70a4 6fbc
00000180: 343d 4dbd 2a79 503d 4343 9d3d f0f7 c0bc
00000190: d08d d3bc 78d2 cfbc 8468 e0bc 3b2e 99bd
000001a0: 9564 ac3d 360e 493d 96bf a2bd d02b 983b
000001b0: 4097 ebba e30a 2abd 96c9 89bd a0b1 15bb
000001c0: 00f1 aa39 b0d7 93bc 3083 583c c1bd 853d
000001d0: 1e1e 3a3d 04f2 b0bc 24b8 b7bc 9375 4dbd
000001e0: b365 aabd 242c 95bc 90fc 9a3b a0c3 d1bc
000001f0: 101c 5c3c dd21 8e3d e3e5 ae3d edfb 29bd
00000200: e57d 44bd d608 85bd ba58 88bd dd15 6a3d
00000210: 7b72 0ebd 3835 9f3b 0c74 12bd e0ed 5c3d
00000220: 54ac 413d 6fb1 813d 2e89 883d a8e6 933c
00000230: 12d3 31bd 7e63 b4bd 83c7 383d 4d90 043d
00000240: 1fbe 073d 6047 653b a7b6 1abd 7c5a 20bd
00000250: 898e ca3c 3496 34bd f444 00bd 82be 913d
00000260: 8581 5f3d 7704 863d b8f6 f83c 5e73 93bd
00000270: c47c a73d 671b 74bc 3fdf 80bc 5a9b ae3c
00000280: 6f4c a8bd 1127 093d 1785 e6bc 734e 3e3c
00000290: 83f2 5ebd efcf 5b3d 9088 0d3d 67bb ad3d
000002a0: adcf 2ebd da1b 66bd 18ff a53c 6044 e43c
000002b0: 3a1a 02bd e57d cc3b 82b1 5e3d 8404 0ebd
000002c0: 922c 62bd 0778 9b3d 3b3c a43c ec19 313d
000002d0: 62a8 873d 0d9b 6dbd 4e43 863d a738 82bd
000002e0: 52f2 0d3d 0a05 833d 236c 85bd b6f0 223d
000002f0: 8eb0 7fbd daa2 fdbc 6312 0dbb 57c1 01ba
00000300: a573 56bd e03a 683c 17b0 afbd 0126 513d
00000310: 4396 8d3d bd69 6e3d 7204 763d ecba 8d3b
00000320: b85e 9d3d 6c3e 34bd 3e0b abbd 30e8 6ebd
00000330: 7976 aa3d 0afc e5bc d6ce 9cbd f534 503b
00000340: 52ab 083d 7db4 8abd d0f2 ae3d fd3f 143c
00000350: 5a61 823c e62f 87bc e9ef 603c 727e 813d
00000360: b6f5 90bd ade5 7d3d d14c 39bd 5efc 55bd
00000370: 2e63 993c 183a 11bc 3eda 053d ce5a b13b
00000380: 0e49 813b 3e63 3a3d 7665 00bc 5673 7abd
00000390: beb0 7b3d 4d66 9fbc 1b21 4d3c 2cb4 07bd
000003a0: 246b 453d 8c73 97bd 7191 023d 6ea4 673d
000003b0: 776d 6e3d 3069 66bd 89ce b63c 7ad1 643d
000003c0: 55bf 9d3d 4750 5f3d 435d e83c 6324 81bd
000003d0: 2463 8ebd 7242 b33b eb05 4a3d 4436 8c3c
000003e0: 0749 b53d 3fd6 e83b 3795 4fbd 4331 78bc
000003f0: 1751 a83d 2c08 91bd 1e86 283d ba68 4d3d

fc2.bias f4 [64]
-0.061225567 0.010100432 -0.08390737 -0.011268664 0.057436083 0.029990528 -0.057595015 -0.04852286
0.08019202 0.0413549 -0.0008594202 -0.0083257705 -0.042918913 0.0760287 -0.08283136 0.054659825
-0.036466695 0.074553005 -0.0458418 0.052098367 0.044360776 -0.062686965 0.066311926 0.036166195
0.0676487 -0.011247684 0.066883996 0.042340495 -0.015878549 -0.0666617 0.0414016 0.0041361153
0.018509232 -0.021942068 0.0541308 0.007835641 0.08159169 -0.0008185561 -0.0028055322 0.062375717
0.06877205 -0.08714284 0.03576221 -0.06058793 0.020198524 0.08062188 -0.021128783 -0.081166334
-0.0026889953 0.0064182337 -0.03215963 -0.079795554 0.041974105 -0.06454923 0.0043659657 -0.041386623
0.083145946 -0.026355762 -0.0789798 0.00091106526 -0.016437717 0.034157615 -0.058534816 0.05987013
00000000: a9c7 7abd 487c 253c a1d7 abbd 34a0 38bc
00000010: 1942 6b3d b2ae f53c c0e8 6bbd e8bf 46bd
00000020: b73b a43d c163 293d b74a 61ba d068 08bc
00000030: becb 2fbd efb4 9b3d 7da3 a9bd fbe2 5f3d
00000040: 1a5e 15bd 3faf 983d 9cc4 3bbd 1965 553d
00000050: a5b3 353d 0662 80bd 8cce 873d 0123 143d
00000060: 678b 8a3d 3548 38bc 7afa 883d 3a6d 2d3d
00000070: bb13 82bc ee85 88bd b994 293d 4088 873b
00000080: aca0 973c dabf b3bc 42b8 5d3d 0f61 003c
00000090: 8b19 a73d 5f94 56ba 05dd 37bb ae7d 7f3d
000000a0: 5cd8 8c3d f277 b2bd 657b 123d 0d2b 78bd
000000b0: 6077 a53c 161d a53d 4516 adbc 893a a6bd
000000c0: db39 30bb 0c50 d23b d1b9 03bd da6b a3bd
000000d0: 0aed 2b3d 6332 84bd 6010 8f3b 0585 29bd
000000e0: 6c48 aa3d 0ae8 d7bc 29c0 a1bd 8ed4 6e3a
000000f0: 64a8 86bc dbe8 0b3d 34c2 6fbd 623a 753d

fc3_action.weight f4 [11, 64]
0.08832525 -0.03655761 0.06979838 0.12003883 -0.10828226 -0.13065526 -0.0062810928 0.06160324
-0.053123284 0.06804894 -0.08668242 0.025871605 0.06320626 -0.076967545 -0.057045195 -0.1123497
-0.11795294 0.005654326 0.041781917 -0.12238367 0.08044175 0.031391967 0.010061917 -0.011378015
0.09120564 -0.071987025 -0.11336512 -0.03891652 0.010137675 -0.032348365 0.025382878 0.048695356
-0.0354248 0.08280264 -0.011944902 -0.012623645 0.08756532 -0.048409157 0.057569634 0.032564834
0.115312435 -0.0813166 -0.059405487 -0.05558398 -0.008200523 0.04786073 -0.039842717 0.11651446
-0.12827145 -0.13945577 0.00658324 -0.09273099 -0.025438458 0.11723879 0.07152833 0.099145085
0.044223398 -0.067302644 -0.028023088 0.057814177 0.0589073 -0.104427986 -0.10388036 0.009760395
-0.03219892 -0.023753954 -0.00802908 0.083684966 -0.014320187 -0.00732873 -0.012401782 -0.10033556
-0.052027803 -0.07369684 0.049992528 -0.028228968 0.022605121 -0.0012278986 0.02011293 -0.026910294
-0.08980003 -0.0779119 0.08255796 -0.05566603 -0.07833447 -0.050895974 0.101576306 0.021713063
-0.025064902 0.054059498 0.0646734 -0.0051613776 0.02242661 -0.07023764 -0.0032271754 -0.07617149
-0.11872122 -0.10308174 0.05127693 0.08857517 0.09600154 -0.03531717 -0.015938204 0.008474842
0.050813593 0.0021985793 0.02471771 -0.00771641 -0.009060125 -0.015023807 0.06305872 0.08358458
0.037984475 -0.10155566 0.008167652 0.094286725 -0.016451567 0.04084924 0.124491066 -0.08481022
0.06501401 0.015278966 -0.08431195 0.06323606 0.12191501 -0.027301818 0.079766974 0.09696226
-0.09054378 -0.091288425 -0.0988377 -0.06650852 -0.10228708 -0.034034308 0.0048636883 -0.094994776
0.06836459 -0.117475696 0.11407909 -0.02593252 -0.10186759 -0.048411 0.051782724 0.118989244
-0.09036012 -0.08475543 -0.05311671 0.028736595 -0.07344811 -0.075090244 0.05780817 -0.031565983
-0.03895827 -0.039854433 -0.0720304 -0.089635715 0.10975837 0.007887393 0.092550345 0.071630746
0.057743873 -0.08818925 0.11581772 -0.10854196 0.104377724 0.07392535 0.064430274 -0.010233268
-0.07872654 -0.11253808 -0.059937663 0.054718997 -0.03936712 -0.09324618 0.12102625 -0.066548645
-0.057334274 -0.06209631 0.016285323 -0.10755668 -0.089068696 0.0018417655 -0.08729905 0.099720426
0.07526811 0.08232692 -0.028618503 -0.0024867698 -0.012275562 -0.0019434929 0.10650657 -0.008116394
0.0872989 -0.0043333466 -0.09024106 -0.006605016 0.12710999 0.032202404 0.05116405 0.11253157
-0.051172994 0.019745436 0.0818505 -0.03700818 0.07238944 0.11617549 -0.010575321 0.028696628
-0.11359747 0.0520444 -0.09890969 0.02983085 -0.07501699 -0.077267185 0.100746304 -0.10163266
-0.070019744 -0.070355386 -0.07937475 0.007678437 -0.015830142 0.02400574 0.11785702 0.03893073
0.10697244 -0.084393635 0.10059837 0.09502241 0.0825236 -0.11903646 -0.025178934 -0.029077396
0.046640456 0.08702337 0.1195896 -0.043684 0.122865625 -0.04544647 -0.039379884 -0.100773245
-0.105031155 0.06767867 -0.042184696 -0.08997909 0.12041585 0.047065757 -0.042351186 0.06031709
-0.08371671 -0.08538048 0.09460239 -0.1166055 -0.09704645 0.033631727 -0.012228936 0.09084171
00000000: dee3 b43d 6fbd 15bd 74f2 8e3d ebd6 f53d
00000010: 17c3 ddbd 7eca 05be a0d1 cdbb ae53 7c3d
00000020: cd97 59bd 3e5d 8b3d 8d86 b1bd b0f0 d33c
00000030: 4972 813d 29a1 9dbd 39a8 69bd 9917 e6bd
00000040: 5091 f1bd ed47 b93b 8423 2b3d 4aa4 fabd
00000050: a5be a43d dd94 003d bdda 243c db6a 3abc
00000060: 06ca ba3d ef6d 93bd f92b e8bd ee66 1fbd
00000070: 7e18 263c b87f 04bd c1ef cf3c c874 473d
00000080: 9819 11bd 6e94 a93d 8db4 43bc 68d3 4ebc
00000090: 7255 b33d ae48 46bd 23ce 6b3d b462 053d
000000a0: ed28 ec3d 5189 a6bd 2b53 73bd 07ac 63bd
000000b0: 7d5b 06bc 9d09 443d 1e32 23bd 229f ee3d
000000c0: 9759 03be 7ecd 0ebe 38b8 d73b bfe9 bdbd
000000d0: 5064 d0bc e41a f03d 727d 923d 940c cb3d
000000e0: 9823 353d f8d5 89bd ad90 e5bc 8fce 6c3d
000000f0: c848 713d 57de d5bd 3abf d4bd 10ea 1f3c
00000100: 04e3 03bd a797 c2bc 678c 03bc 0663 ab3d
00000110: 389f 6abc d825 f0bb d830 4bbc bb7c cdbd
00000120: 1b1b 55bd 5eee 96bd f7c4 4c3d 7040 e7bc
00000130: 602e b93c 71f1 a0ba dfc3 a43c fa72 dcbc
00000140: 14e9 b7bd 4690 9fbd 2614 a93d 1002 64bd
00000150: d36d a0bd 4c78 50bd 3d07 d03d 98df b13c
00000160: e954 cdbc 7e6d 5d3d 7d73 843d c620 a9bb
00000170: 03b8 b73c c0d8 8fbd 057f 53bb ccff 9bbd
00000180: 1c24 f3bd 851c d3bd c207 523d e666 b53d
00000190: 759c c43d bda8 10bd d690 82bc 10da 0a3c
000001a0: ea21 503d 0a16 103b cc7c ca3c f0d9 fcbb
000001b0: eb70 14bc 6a26 76bc ee24 813d 642e ab3d
000001c0: 9c95 1b3d 6afc cfbd 9ed1 053c 6619 c13d
000001d0: 70c5 86bc 8851 273d 2cf5 fe3d fbb0 adbd
000001e0: 1126 853d a154 7a3c beab acbd e881 813d
000001f0: 94ae f93d 10a8 dfbc de5c a33d 2694 c63d
00000200: 046f b9bd 6df5 babd 6c6b cabd 9e35 88bd
00000210: e37b d1bd 8f67 0bbd 935f 9f3b 9f8c c2bd
00000220: bc02 8c3d 1997 f0bd 4ca2 e93d 7070 d4bc
00000230: f49f d0bd 9d4a 46bd 1f1a 543d a2b0 f33d
00000240: ba0e b9bd 4194 adbd e890 59bd 0269 eb3c
00000250: f66b 96bd eac8 99bd 42c8 6c3d 554b 01bd
00000260: b592 1fbd 673e 23bd ad84 93bd ee92 b7bd
00000270: ffc8 e03d 203a 013c 098b bd3d 24b3 923d
00000280: d784 6c3d 919c b4bd d731 ed3d 3f4b debd
00000290: fdc3 d53d 2d66 973d 05f4 833d 70a9 27bc
000002a0: 613b a1bd 5d7a e6bd 3281 75bd 0721 603d
000002b0: 6b3f 21bd daf7 bebd 9cdc f73d a84a 88bd
000002c0: 58d7 6abd b358 7ebd cc68 853c ad46 dcbd
000002d0: a669 b6bd 6567 f13a d8c9 b2bd 393a cc3d
000002e0: 2b26 9a3d 049b a83d 5a71 eabc 13f9 22bb
000002f0: 701f 49bc cdbc feba 1e20 da3d a0fa 04bc
00000300: c4c9 b23d bffe 8dbb 4ed0 b8bd e46e d8bb
00000310: 1f29 023e abe6 033d 6591 513d f476 e63d
00000320: c69a 51bd 2ec1 a13c 3ca1 a73d e495 17bd
00000330: ea40 943d 6aed ed3d 1c44 2dbc 3115 eb3c
00000340: caa5 e8bd 822c 553d 2a91 cabd d45f f43c
00000350: 82a2 99bd 423e 9ebd 1454 ce3d c924 d0bd
00000360: 8366 8fbd 7c16 90bd 3b8f a2bd 669b fb3b
00000370: 37ae 81bc b0a7 c43c 055f f13d d475 1f3d
00000380: 5e14 db3d 92d6 acbd 8506 ce3d 1c9b c23d
00000390: 2202 a93d 63c9 f3bd 0d44 cebc b833 eebc
000003a0: 100a 3f3d 4f39 b23d 64eb f43d feed 32bd
000003b0: f9a0 fb3d 1426 3abd cd4c 21bd 3462 cebd
000003c0: 931a d7bd 1d9b 8a3d dcc9 2cbd f546 b8bd
000003d0: 969c f63d 06c8 403d 7078 2dbd 0e0f 773d
000003e0: ab73 abbd f6db aebd e6be c13d ddce eebd
000003f0: 4ac0 c6bd 6cc1 093d e05b 48bc 380b ba3d

fc3_action.bias f4 [11]
-0.11915021 -0.028251067 0.045550007 0.0424688 -0.053824343 0.07305597 0.1182328 -0.09622759
-0.11792375 0.011307727 -0.064959094
00000000: 0605 f4bd c86e e7bc a592 3a3d c4f3 2d3d
00000010: ea76 5cbd 5e9e 953d 0a24 f23d f912 c5bd
00000020: 0282 f1bd 0b44 393c 4609 85bd
