improved_vrpb_policy_best.pth (torch, 42797 bytes, 6 tensors)

fc1.weight f4 [128, 6]
000000 1f ca 36 be b8 06 fc 3d c0 ee c6 bd 50 b8 96 3d
       -0.1785054 0.12305969 -0.09713507 0.073593736
000010 58 9f 91 bd 00 db b4 3b 1e d4 79 3e 62 a9 4f 3e
       -0.071104705 0.005519271 0.24397323 0.20279458
000020 fc a3 6b be c2 96 c5 3d 65 50 bb be d6 22 cb 3e
       -0.23011774 0.096478954 -0.36584774 0.39675015
000030 6e 20 48 be c0 57 a4 be 13 6a 4a be 4c f9 58 bc
       -0.19543621 -0.32098198 -0.19767027 -0.013243031
000040 a2 ff 70 3a 40 90 2a bd 68 e6 5b 3e 93 8c a8 3e
       0.00091933657 -0.041641474 0.21474612 0.3291975
000050 99 5d fc bd ed 88 c1 be 82 fe d0 3d 1e d1 a0 be
       -0.1232254 -0.3779978 0.102047935 -0.31409544
000060 9a b6 98 be 6e c9 b7 3e ab c8 94 3e ea be 55 3e
       -0.29826814 0.35895866 0.29059348 0.20873609
000070 11 79 ae be 48 33 a7 3e e2 05 68 be 0e 23 c9 be
       -0.3407674 0.32656312 -0.22658494 -0.39284557
000080 9b 55 c0 be 12 90 c8 3e 0e 62 af be a8 99 15 3e
       -0.37565312 0.39172417 -0.34254497 0.14609396
000090 cf db 5f be 7d 5d 77 bd 9c a9 b7 3d e0 23 85 3d
       -0.21861194 -0.06039189 0.08967897 0.06500983
0000a0 ca 9a 28 bd 3e 20 2c be a7 f7 ae 3e 14 46 9e 3e
       -0.041163243 -0.16809174 0.3417332 0.3091284
0000b0 6f a5 35 3e 74 0a 54 3d 59 85 ba be 84 10 38 3e
       0.17738889 0.05176778 -0.3642986 0.1797505
0000c0 05 68 d0 be 8e b0 5d be 3f 99 bb 3e 94 83 ae 3e
       -0.4070436 -0.21649382 0.36640355 0.3408476
0000d0 6f b8 83 be ba 8e 02 be 93 fe b6 bd c7 e4 54 3e
       -0.2572665 -0.12749758 -0.08935275 0.20790397
0000e0 f1 51 bd 3c 4a b4 c3 3e 03 1c 02 be a0 a5 a3 be
       0.023110362 0.38223487 -0.12705998 -0.319623
0000f0 6e 3e b4 be 42 a3 44 3e fc 72 24 3e 6d fd 93 3e
       -0.3520388 0.19202903 0.16059488 0.28904286
000100 b0 07 c3 3e 22 a9 b4 3e 4c cc a7 be a9 83 9d be
       0.38091803 0.35285288 -0.32773054 -0.3076451
000110 31 de 2f be f2 2d 84 3e 65 9b dc 3d ec 89 1e 3e
       -0.17174603 0.25816303 0.10771827 0.154823
000120 ea 48 b5 3e b8 d4 2c bd fd 4a 40 bd bf 19 83 be
       0.35407192 -0.042195052 -0.046946514 -0.2560558
000130 b8 52 c7 3e f8 69 c9 3e 30 cb 27 bd 64 06 17 3e
       0.38930297 0.3933866 -0.04096526 0.14748532
000140 92 ee a4 3e 00 f9 8a bd a4 18 e4 bd 70 46 96 3d
       0.32213265 -0.06785774 -0.11137512 0.07337654
000150 35 be 7c 3d 54 a4 b7 3d 53 8f 63 3d 4f 80 ae 3e
       0.061704833 0.0896689 0.055556607 0.34082267
000160 17 25 e7 bd b0 f8 48 3e cc 1e cf 3e 42 4e 99 3e
       -0.11286371 0.19626117 0.40453184 0.29942518
000170 18 80 3a 3e 12 27 85 3e f5 d6 b7 be ac fe 8f bd
       0.18212926 0.2600637 -0.35906187 -0.07030997
000180 57 13 09 3e d9 7d 66 bb 09 bf 05 3e 2e e6 2c 3d
       0.13386284 -0.0035170226 0.13061155 0.042211704
000190 33 20 28 3e 58 09 c4 3d 70 39 0f be d1 f1 01 be
       0.16418533 0.09572095 -0.13986754 -0.12689902
0001a0 39 1a e4 3d 69 c0 69 be 80 37 93 3e 4c 4d 5d 3e
       0.11137814 -0.22827305 0.2875328 0.21611518
0001b0 60 d6 94 be 64 aa 83 bd 00 b8 87 ba a4 b5 d4 bd
       -0.29069805 -0.06428984 -0.0010354519 -0.10386208
0001c0 f0 9f 66 bd 83 e7 c8 be 01 57 e0 3d 32 89 39 bd
       -0.056304872 -0.3923913 0.10954095 -0.045296855
0001d0 8b 73 06 3e d9 3c c0 3e 04 9a 92 3d d8 75 66 bd
       0.13130014 0.37546423 0.071582824 -0.05626473
0001e0 21 60 8c be 5b 1c 00 3e e5 86 b0 3e 86 cb 1a be
       -0.2741709 0.12510817 0.34477916 -0.151167
0001f0 bb 89 c4 3e 64 a4 68 3e d8 1d e2 3d c8 23 87 bd
       0.3838633 0.2271896 0.110408485 -0.065986216
000200 74 d3 88 be 5f 73 51 be 8e a1 3a be d0 e7 03 be
       -0.26723826 -0.20454167 -0.1822569 -0.12881398
000210 e1 0c 26 be 0c 73 26 be ff 5d 8b be b4 8e 92 bd
       -0.1621585 -0.16254824 -0.2722015 -0.07156125
000220 a2 3b 99 be fc 53 3b 3e d4 db b2 bd 68 80 87 be
       -0.2992831 0.18293756 -0.08733335 -0.26465154
000230 f8 33 61 3e 69 e7 57 be b0 02 98 be 02 90 cb be
       0.21992481 -0.2108437 -0.2968955 -0.39758307
000240 9c 8c 58 be 3c e1 17 be 80 ad a4 be 6d 53 c2 3e
       -0.21147388 -0.14832014 -0.3216362 0.37954274
000250 7b d3 39 be ac 0c 83 3e 91 a6 61 3e 4f 3d fe bd
       -0.1814708 0.25595605 0.22036196 -0.124140374
000260 0e d2 12 be 1a f3 27 bd 75 fb a6 be 51 55 54 be
       -0.14337942 -0.041003324 -0.3261372 -0.2073567
000270 14 e6 38 bd 12 1c be be a4 ff 27 bd a6 10 ba 3e
       -0.045141295 -0.3713079 -0.041015282 0.36340827
000280 1c 75 af be e4 a5 6b 3e a2 fc 91 3e 2c 28 5a 3e
       -0.34269035 0.23012501 0.28513056 0.21304387
000290 26 f6 79 bc d9 11 c2 be e0 78 93 3e 10 cd a4 3e
       -0.01525644 -0.37904242 0.28803158 0.321877
0002a0 15 78 46 be c4 74 c0 be 48 6f 98 be 30 3a 3d bd
       -0.19381745 -0.37589085 -0.297724 -0.04619807
0002b0 20 09 a8 bd e4 4b b1 3d 15 62 99 be 03 82 73 be
       -0.082048655 0.08657053 -0.29957643 -0.23780064
0002c0 b2 29 86 be 93 eb 11 3e 38 df 48 3e a8 fb b0 3d
       -0.26203686 0.1425002 0.19616401 0.086417496
0002d0 19 d7 82 3d b0 1b fc 3d 33 c1 92 be d5 4d 52 3e
       0.06388683 0.123099685 -0.28663024 0.20537503
0002e0 01 15 93 3d 65 79 39 be 63 d1 e9 3d dd a5 80 3e
       0.071817406 -0.18112715 0.114168905 0.25126544
0002f0 c5 4f 5d be ae a4 a1 3e 47 52 a9 be 5a 7f a7 3e
       -0.21612461 0.31570953 -0.33070585 0.3271435
000300 00 be 42 be 51 51 f6 bc 73 17 bf 3e 13 8a 10 3e
       -0.19017792 -0.030068072 0.37322578 0.14115171
000310 24 b7 2e be a0 c0 a6 be f7 47 2a be 6c 1e bc bd
       -0.1706205 -0.32568836 -0.16629015 -0.0918549
000320 26 72 bc be db c8 fa 3d 98 f2 cb be 88 2c 78 bd
       -0.36805838 0.122453414 -0.39833522 -0.060589343
000330 18 49 1b 3d 11 54 91 3e 1e ce 3e bd e7 03 b0 3e
       0.037911505 0.2838445 -0.046583287 0.34377977
000340 93 22 4b 3e ae 7e 9c 3e e2 fe a7 3e 48 69 d6 3d
       0.19837408 0.305654 0.32811648 0.104692996
000350 e1 73 a0 3d d3 6a d1 3c 90 e7 35 3e 5c e1 21 be
       0.07834602 0.025563633 0.17764115 -0.15808624
000360 7f 94 84 3e 4d be b1 3d 94 74 05 bd e3 31 35 be
       0.25894544 0.08678875 -0.03258188 -0.17694812
000370 15 3c c9 bd 8e 3a 8d be 7c 32 3b be b3 37 9d 3e
       -0.09825913 -0.27583736 -0.18280977 0.30706558
000380 f1 ff 38 be f6 14 a6 be 49 97 14 3e c4 6f 43 3e
       -0.18066384 -0.32437867 0.14510836 0.19085604
000390 99 22 f5 bc bb 05 4e bd 8e 28 ba bd bf 02 c3 be
       -0.029923724 -0.050298434 -0.090897664 -0.38088033
0003a0 62 34 6c 3e e0 8b 1c be 19 9e c6 3e 37 fc f0 bd
       0.23066857 -0.15287733 0.38792494 -0.11766856
0003b0 66 f7 bb be 64 12 28 3e fd 99 fd 3d 6a 23 81 3e
       -0.36712188 0.16413265 0.123828866 0.2522233
0003c0 ee e4 8e be 8d a3 83 be 69 d9 90 be 56 1e 81 3e
       -0.27909034 -0.25710717 -0.2829087 0.25218457
0003d0 14 c3 1f be a0 49 1f 3d a0 d5 a0 3d 18 4d e7 3d
       -0.1560176 0.038888574 0.07853246 0.11294001
0003e0 2f d3 c2 be 60 76 70 3d 0d 62 9d be 18 9f e6 3d
       -0.38051745 0.05870664 -0.3073887 0.112608135
0003f0 9a 54 ef 3c 73 47 94 be ad 33 b0 be 10 c5 06 be
       0.029215146 -0.2896076 -0.34414425 -0.13161111

fc1.bias f4 [128]
000000 77 84 5a be 54 72 49 3e 6d a4 e5 3d 39 a3 57 be
       -0.21339594 0.19672519 0.11213002 -0.21058358
000010 f9 ab bc 3e 3b 5c 0c 3e 83 51 ac 3d cb 11 b9 3e
       0.36849955 0.13707058 0.084139846 0.36146387
000020 6a f4 be 3e 3e ed 84 3d 2d 6e d1 3a b9 fd 34 bd
       0.37295848 0.06490563 0.001597827 -0.04418728
000030 35 bc b5 be 43 cc be be 28 25 89 3e ba d7 80 3e
       -0.35495153 -0.37265214 0.2678616 0.25164586
000040 c3 91 8c 3e 7b b7 23 3e e0 01 51 3c 5f c1 c6 3e
       0.27454957 0.15987961 0.012756795 0.38819405
000050 a5 81 6d 3c a3 e3 72 be 1a ac 79 3e a2 fd 13 be
       0.014496242 -0.23719649 0.24382058 -0.14452222
000060 ea d2 17 be ed a5 1d bd e3 20 65 be 3c d0 8c be
       -0.14826551 -0.038488317 -0.22375827 -0.2750262
000070 7d e9 cf be f6 38 b3 bd bd c0 9a be 06 40 72 3d
       -0.40607825 -0.08751099 -0.30225173 0.05914309
000080 4a 12 46 3e 07 a7 f2 ba 82 de 24 3e 59 51 b9 3e
       0.19342914 -0.0018512913 0.16100505 0.36194876
000090 a4 6b 27 be 37 7c 20 be 97 30 30 3d 89 71 35 3e
       -0.16349655 -0.15672384 0.04301509 0.17719091
0000a0 bf 50 c6 be 72 b2 81 be 17 67 54 3e 7f 14 f9 bc
       -0.3873348 -0.25331455 0.2074245 -0.030405281
0000b0 5c 7c 41 3d 66 de 64 be fa b5 bd be 05 9e 2a 3e
       0.04723774 -0.22350463 -0.370529 0.16661842
0000c0 3f 6d 39 3e 1a d0 ce be 0b 96 bc 3e de 96 64 3e
       0.1810808 -0.40393144 0.36833224 0.22323176
0000d0 82 df 6b be d6 b3 e3 3d a7 05 97 3e 11 48 ea bd
       -0.2303448 0.11118285 0.294965 -0.11439527
0000e0 35 a4 14 3e cb b6 a9 3e fa 32 ef bc ca 63 c9 be
       0.14515765 0.33147272 -0.029199112 -0.39333946
0000f0 95 83 83 3b 09 2a d1 be 96 a6 01 be 38 32 c7 3e
       0.0040134885 -0.40852383 -0.12661204 0.389055
000100 20 2a a0 be 49 d2 85 3e d0 92 a7 3e 62 e2 7f bd
       -0.3128214 0.26136997 0.32729197 -0.062471755
000110 3f b1 aa 3e 2f 21 89 3d fc 16 ab be 90 89 68 3e
       0.33338353 0.066957824 -0.33415973 0.22708726
000120 1b 67 0f 3e 4f d4 bd be b5 93 a9 3e 43 ce bb 3e
       0.14004175 -0.3707604 0.33120504 0.36680803
000130 dd f3 49 be fc 97 3f 3e a5 a4 60 bb c7 25 0a be
       -0.19721933 0.18710321 -0.0034277823 -0.13490973
000140 54 72 9d 3e 78 fd 88 be a5 44 0f bd 80 69 b3 3e
       0.30751288 -0.2675588 -0.034977574 0.35041428
000150 97 dd 3e 3e 32 da e4 3d 8b 73 57 3d 95 b2 bb 3e
       0.18639217 0.1117443 0.052600425 0.36659685
000160 a7 9c f6 3d 07 68 99 ba 15 01 b6 3e a9 d0 b7 3e
       0.12041598 -0.0011703976 0.355477 0.35901383
000170 c2 49 45 be db e7 49 be 6f 81 aa 3e 41 47 86 be
       -0.19266418 -0.19717352 0.33301875 -0.26226237
000180 d5 b5 0b 3e dc c1 16 3e ca ef 70 3d bc 89 b8 bc
       0.13643582 0.14722389 0.05882243 -0.022526614
000190 ca 52 98 3d 30 9a 15 3e d5 86 77 3e 6f c7 10 be
       0.07437666 0.14609599 0.24172528 -0.14138578
0001a0 d7 e3 22 bd 37 4e b5 3e 31 98 a8 3e e0 a5 70 be
       -0.039768066 0.35411236 0.32928613 -0.23500776
0001b0 b9 17 b4 be e5 fa a4 3e c7 ce 95 3e 00 13 aa bd
       -0.3517435 0.32222667 0.2925932 -0.08304405
0001c0 a6 7e 1f 3e 7f af 53 be c4 8d 86 be e1 23 38 be
       0.15575656 -0.20672415 -0.26280034 -0.17982437
0001d0 f7 80 35 3e 5f 33 07 3c 83 c3 0b 3e 69 d1 c1 be
       0.17724977 0.008251994 0.136488 -0.3785508
0001e0 05 6d 68 3e ce ec 67 3d a3 17 73 be 19 ca f6 bd
       0.22697838 0.05662232 -0.23739485 -0.12050266
0001f0 9c d1 3b 3e 34 85 97 be 45 f9 a7 be 78 9b 4b 3d
       0.18341678 -0.29593813 -0.32807365 0.049708813

fc2.weight f4 [64, 128]
000000 a5 24 af 3d 18 ba ba bc f3 28 a4 3d a6 5b 40 bd
       0.08551911 -0.022793815 0.08015623 -0.046962403
000010 3a a8 e1 3c 1e 45 0a 3d 02 16 b5 3d 4a 3a e8 3b
       0.027546037 0.03375732 0.08842088 0.0070870267
000020 2e ef af 3d 7f a0 5e bd 28 c4 13 3d 1a fa 95 3d
       0.08590542 -0.05435228 0.03607574 0.07323094
000030 7e 90 74 3d 08 98 b0 3c e4 ea b4 3c ec f3 63 3d
       0.05970811 0.02155687 0.02208466 0.055652544
000040 2e 5a 12 bd 2c da 09 bc 0f 7e 0c bd c4 30 ca 39
       -0.035730533 -0.008413833 -0.034299906 0.00038564776
000050 ae 62 30 3d 10 40 3a 3c d3 d5 5d 3c 1a f0 6d bd
       0.04306286 0.011367813 0.013539749 -0.058090307
000060 17 f5 9d 3b cd d3 90 3d a6 ed b6 3c 5d f6 6c 3c
       0.0048204768 0.07071648 0.022330116 0.014463034
000070 22 7f 41 3d f6 12 1b bc 0f 14 06 3d 34 ab c4 3c
       0.047240384 -0.00946497 0.032733973 0.024007417
000080 55 ff 80 bd 06 28 85 3b a9 8b 50 3d 8e c4 96 3c
       -0.06298701 0.004063609 0.05091444 0.018404271
000090 30 04 86 bd 6a 85 5b bc a3 7e 8f bd f6 49 06 bd
       -0.065437675 -0.013398508 -0.07006576 -0.03278538
0000a0 e4 46 86 bc 56 f0 5b 3d 72 8a 6d bd f4 ee 8f 3d
       -0.016391225 0.053696 -0.05799336 0.070279986
0000b0 43 e5 8d 3d 56 59 9d 3d dc 38 34 bd c5 d0 1e 3b
       0.06928494 0.07683055 -0.043999538 0.0024233323
0000c0 01 c0 c0 3c 8b 6c a4 bd e2 15 27 bc 72 44 76 3d
       0.023529055 -0.080285154 -0.010198088 0.06012387
0000d0 7c 0f 98 3c 39 25 55 bd 33 53 9f 3c 4b 77 1b bd
       0.018562071 -0.05203745 0.019448852 -0.037955564
0000e0 79 8c 49 bd 2d 28 b1 3d b3 12 10 3d d0 84 a5 bb
       -0.04920623 0.08650241 0.035174083 -0.005051233
0000f0 a7 e3 c2 3b 73 ee 5c 3d 14 f8 e4 bc 6b fa af 3d
       0.0059475484 0.05393834 -0.027950324 0.08592685
000100 c3 c3 5a bd 8d 40 af 3d da 33 6a 3d bc 15 18 3d
       -0.05340935 0.08557234 0.057178356 0.037130103
000110 8b c7 68 bd 5f a4 0f 3d e2 c8 7a 3d f4 7d 97 3d
       -0.056830924 0.035068866 0.061226733 0.073970705
000120 9a 25 8b 3c 03 e6 19 bd fe fc 4d 3d c0 19 0e bd
       0.016985703 -0.037572872 0.0502901 -0.034692526
000130 0a 68 a1 bd c3 eb 01 3c 1a 18 9b bd f3 47 30 3d
       -0.07881172 0.007929745 -0.075729564 0.043037366
000140 23 d7 29 3d 33 ac 96 bd e2 21 84 bd c0 43 01 3d
       0.041464936 -0.07357063 -0.06451775 0.031558752
000150 ae f5 a9 3d 3e bd 39 3c 6c 07 0f bd 22 5f d2 3c
       0.08298813 0.011336623 -0.034919187 0.025680128
000160 43 41 cf 3c 28 84 3d 3d 14 c0 3f 3c cb 40 3c bd
       0.025299674 0.046268612 0.01170351 -0.04596023
000170 04 ce 3a 3c 49 78 8b 3b fe 05 87 3d 37 49 2b bd
       0.011401657 0.0042562825 0.0659294 -0.04181787
000180 44 37 01 bd 1e ed 75 bd ae 31 2a 3d 15 5f 00 3d
       -0.031546846 -0.060040586 0.041551284 0.031340677
000190 a1 f4 57 bd df a7 94 3c 32 b4 48 bd e6 b7 65 3d
       -0.05272353 0.018146453 -0.048999973 0.056083582
0001a0 e9 dd db bc 86 a0 89 bd e9 cd 9c 3d fd 43 ad bd
       -0.026839213 -0.067200705 0.07656462 -0.08460233
0001b0 1c 43 b6 bc 3e c3 97 bd d2 09 2d 3d 2d 3e 96 3d
       -0.022248797 -0.07410286 0.042245694 0.07336078
0001c0 1a 87 bc 3c 3a e9 11 bd 74 85 a6 bc a9 b5 b0 bb
       0.02301364 -0.035622813 -0.020327307 -0.0053927493
0001d0 a3 3f 98 3c f5 e5 91 bd 3c f6 74 3d 0e 88 87 bd
       0.018585032 -0.07123939 0.05980514 -0.06617747
0001e0 0d 6e 26 3d f7 2b 54 3d 6a 91 5d 3d e6 5e 22 3d
       0.040632296 0.05179974 0.054093756 0.039641283
0001f0 db 4c 14 3d 84 f1 d7 3c 9c 25 6b bd 62 e1 20 3d
       0.036206108 0.02636028 -0.057408914 0.03927744
000200 c8 1c 14 3d 2a 33 ac bd 3a 08 22 3d bf 43 97 bd
       0.03616026 -0.08408196 0.039558627 -0.073859684
000210 00 73 82 39 36 94 ab bd b3 85 24 bd 66 85 6d 3d
       0.00024881214 -0.08377878 -0.040166568 0.057988547
000220 ba a3 54 3d 98 22 1d bc c6 96 46 3d 90 53 43 bd
       0.051913954 -0.009590767 0.048483633 -0.047687113
000230 68 9e 9c 3c 18 b5 10 3d 40 aa ee 3b 0a d1 85 bd
       0.019118503 0.035328954 0.007283479 -0.06534012
000240 22 60 91 bd 80 86 f4 bb 2e 7d 44 3d 62 87 fd bc
       -0.07098414 -0.0074623227 0.047970943 -0.030948345
000250 de 19 1d 3d 21 50 a8 3d 00 80 4b b7 b0 7c 29 3c
       0.038354747 0.082184084 -1.2129545e-05 0.010344669
000260 62 e0 ee bc 07 eb ae bd f0 ce db 3c 9f a4 a2 3d
       -0.029159728 -0.08540922 0.026832074 0.07941555
000270 70 20 65 bc 98 b0 5e bd ba d9 24 3d b3 07 85 3d
       -0.0139847845 -0.05436763 0.040246703 0.06495609
000280 85 ee aa bd 2f a5 68 bd bf 49 83 bd a4 a6 8b bd
       -0.08346275 -0.056798156 -0.0641055 -0.068188936
000290 f3 86 a8 3d aa 62 24 3d 00 a9 15 3b 6b 94 5c bd
       0.082288645 0.040133156 0.0022836328 -0.05385248
0002a0 e8 46 7b 3c 20 46 a6 3c a7 aa 98 3d e4 2e fc 3c
       0.01533673 0.02029711 0.07454424 0.030784078
0002b0 92 88 8f bd 7f b6 12 bd 20 1e 93 bb 6e 89 14 3d
       -0.070084706 -0.035818573 -0.004489675 0.036263876
0002c0 40 e8 22 bd 23 d9 9e 3d 16 68 65 3d f2 c2 56 bd
       -0.039772272 0.07756259 0.056007467 -0.052432008
0002d0 8b 3d 7c bd 10 97 fb bb 36 cc 92 bd e2 ee 33 3d
       -0.06158213 -0.00767792 -0.071678564 0.04392899
0002e0 25 f2 9b 3d 4a 99 7d 3d 5f 8b 34 bd 00 80 28 bb
       0.07614545 0.061913766 -0.044078227 -0.002571106
0002f0 9c 92 0c bd d4 dd aa bc c8 d6 20 3c 2c 5c f7 3c
       -0.034319505 -0.020857729 0.009816833 0.030195318
000300 73 ab 53 bd d2 b4 03 3d 2a d0 dd bc 6f 6b 55 bd
       -0.05167718 0.032154866 -0.0270768 -0.05210441
000310 80 b0 20 bd be 57 74 3d 0e d0 24 3d 95 c0 89 3d
       -0.039230824 0.05965399 0.04023748 0.06726185
000320 86 68 eb bc 4b ae a4 3d d8 00 48 bc 38 8d 76 bc
       -0.028736364 0.08041056 -0.012207232 -0.015048318
000330 10 2a 82 bd b9 61 96 3d 87 b4 a6 bd 60 b2 bc 3c
       -0.06355679 0.07342858 -0.081399016 0.023034275
000340 20 00 77 bb 92 54 45 3d 54 39 5b bd 58 c4 8e bd
       -0.0037689283 0.048176356 -0.05352147 -0.06971043
000350 e8 56 73 bc 1c ae 9f bc 69 30 a9 bd 88 bc c7 bc
       -0.014852263 -0.019492202 -0.08261187 -0.02438189
000360 da c7 78 3d 76 81 1a 3d 98 32 24 3c 3f 32 9a 3d
       0.06073747 0.03772112 0.010021828 0.07529115
000370 8e cd 53 3d 90 54 1b bc 18 e1 de 3c 01 b4 ad 3d
       0.051709704 -0.0094806105 0.027206942 0.08481599
000380 00 b8 e4 bc de c0 52 3d b8 f8 62 3c fc 45 b1 bd
       -0.02791977 0.051453464 0.0138532445 -0.086559266
000390 d5 9e 2d bd 96 92 38 3d 0e d0 b1 bd f4 aa 96 bc
       -0.042387802 0.04506167 -0.086822614 -0.018392064
0003a0 17 f4 0e bd 3c cc a5 3c 42 c9 94 bd 44 6c af bc
       -0.03490075 0.020238988 -0.072649494 -0.02141393
0003b0 6a b5 6f 3d 95 c7 a4 bd 88 6b 20 3c 92 f5 4b bd
       0.05852262 -0.0804588 0.009791262 -0.04979474
0003c0 0a f8 1b 3d e0 b5 14 3c 14 88 9a 3c 4a d6 08 bd
       0.038078345 0.0090765655 0.018863715 -0.033407487
0003d0 7b 80 af 3d d0 1f 8c bd 6a 50 47 bd 34 4c a8 bd
       0.085694276 -0.06842005 -0.048660673 -0.082176596
0003e0 12 b9 30 3d c3 eb 8f 3d 32 11 71 3d 3d 8c 99 3d
       0.043145247 0.0702739 0.05885429 0.074974515
0003f0 68 18 09 bc d3 16 a5 3d c6 dc 4f 3d 0a ba 5f 3d
       -0.008367635 0.08060994 0.050747655 0.05462078

fc2.bias f4 [64]
000000 7e b5 93 3d 30 2c b3 bb 80 d7 9c 3d c6 1a af bc
       0.07212351 -0.005467914 0.07658291 -0.021375071
000010 b3 ba ab bd 83 45 52 3c dc 50 61 3d 54 c4 9b 3d
       -0.083852194 0.012833956 0.055008754 0.07605806
000020 98 3e 61 3c 51 8d 86 3d bd 02 3b bd 90 34 51 3c
       0.013747834 0.06569923 -0.04565691 0.0127688795
000030 74 d1 a6 bc 35 0f 95 3c 50 87 7b 3c 1f 5c 1c 3d
       -0.020363547 0.018195728 0.015352085 0.03817379
000040 07 f7 1e bd f2 1c a4 bc 99 9a 37 bd 03 dd 81 bd
       -0.038809802 -0.020033333 -0.04482517 -0.06340983
000050 c0 19 3a 3d c4 fd 35 bd ac 6a 6d bc 90 fa 49 bd
       0.045434713 -0.044431463 -0.014490765 -0.04931122
000060 0e 1a 75 3d 80 e4 f8 3c 1b f8 22 3d 39 dd 63 3d
       0.0598393 0.030382395 0.039787393 0.055630896
000070 dd 1d 19 3d ef ab a3 3c 47 45 33 3d 75 94 f6 3c
       0.037381995 0.019979445 0.04376724 0.030100087
000080 50 9c 1d bd b5 d4 49 3d 34 5c 00 bc 3a 6e 78 3d
       -0.03847915 0.04927512 -0.007834483 0.060651995
000090 fb ae c4 bb b7 92 11 3d 21 b1 5f bd dc 87 8d 3d
       -0.0060023046 0.03554031 -0.054612283 0.06910679
0000a0 5b 40 3a 3c 39 c9 96 3c 11 90 b8 3c 2a c3 98 bd
       0.011367883 0.018406497 0.022529634 -0.074590996
0000b0 e3 dc 8c 3d 6f 70 8f bc bb 85 02 bc 14 cc 85 bc
       0.06878068 -0.017509667 -0.007966454 -0.016332664
0000c0 ff 91 44 3d c9 9f c3 bb 25 67 01 bc 8e d9 5f 3b
       0.047990795 -0.0059699756 -0.007898127 0.0034156772
0000d0 c2 e5 b4 3d 22 77 59 3d 80 6e 26 ba 7c b4 b4 bd
       0.08832885 0.05309213 -0.0006348863 -0.08823487
0000e0 92 3b 3d bd 2f d7 5b bd ea 7e 88 bd 75 23 87 bc
       -0.04619939 -0.053672012 -0.06664832 -0.0164964
0000f0 90 44 00 3d d9 24 81 3d 93 ee aa bd f5 ca 07 3d
       0.031315386 0.06305856 -0.08346286 0.03315254

fc3_action.weight f4 [11, 64]
000000 ac 2c de bd 54 1b 9a 3d 2b d1 b5 bd 9c 8a 7f 3b
       -0.10848364 0.07524744 -0.08877786 0.003899253
000010 9c 56 e7 3d e8 6c ef bd d4 1d 13 bc 1e 5c 82 3d
       0.11295816 -0.11690694 -0.00897928 0.06365226
000020 67 e8 04 bd 88 b9 bf bc fa 87 03 bc b2 3f bd bd
       -0.0324482 -0.023403898 -0.008028025 -0.092406645
000030 3e 06 ca 3c 5b 30 0a bc a8 3d ab bc 65 76 d6 bd
       0.02466118 -0.00843438 -0.020903423 -0.10471801
000040 58 41 ef 3d f6 ae 10 3d 2d 85 69 bc bb 18 e9 bd
       0.11682385 0.035323106 -0.014252943 -0.1138167
000050 18 3c 04 3d 53 37 22 bc 7a d3 a3 bd b2 9b 94 bb
       0.032283872 -0.009900886 -0.0799932 -0.004535162
000060 80 27 93 bd 30 b8 4b 3c e2 eb 9f bd 7c b2 d0 bd
       -0.071852684 0.01243405 -0.07808663 -0.10190293
000070 36 54 23 3d 7f 49 b7 bd 82 7d bf bd b4 8d eb 3d
       0.03987523 -0.08949565 -0.093501106 0.11501637
000080 b5 b2 c9 bd 63 cc 76 3d 68 cf e7 3b da d1 87 3d
       -0.09848539 0.060253512 0.0070742853 0.06631823
000090 0d c9 0b bc cd 3b 11 bb 48 21 6e bd 0a aa a3 3d
       -0.008531821 -0.0022160888 -0.05813721 0.07991417
0000a0 49 d9 a2 3d 43 0c 1f 3c 20 aa 60 bd 35 e1 87 3d
       0.079516 0.009707513 -0.054849744 0.06634752
0000b0 1e 4c 8c 3d c5 ac b8 3d e9 2c fd bd 33 0e d3 3d
       0.06850456 0.09017328 -0.123620816 0.10305443
0000c0 41 f9 86 bd 34 91 da 3c 35 a0 a1 3d 37 f7 05 3d
       -0.0659051 0.026680566 0.07891885 0.032706466
0000d0 17 83 cf bd 95 fd 81 3d 80 55 aa 3c 40 1c a9 bc
       -0.10132425 0.06347195 0.020792723 -0.020643353
0000e0 51 62 98 3d ca 33 18 bd 73 aa 08 3d f8 30 b7 3d
       0.07440627 -0.037158765 0.033365678 0.08944887
0000f0 e2 66 ac bd fd cd b0 bd 56 20 c3 bd 8c c1 5c 3d
       -0.08418061 -0.08633039 -0.09527652 0.05389552
000100 f4 4f d7 3d a8 75 ce 3d 05 38 75 3c 21 d0 bf bd
       0.10513297 0.10081035 0.014966969 -0.09365869
000110 f0 0a dc bd 1f b1 ca 3d b9 0a 76 bc 26 ce e5 bd
       -0.10744274 0.098970644 -0.015017205 -0.1122096
000120 77 63 9d bc 4c 22 6b bd d7 81 18 bc ed f5 d5 bd
       -0.019212468 -0.057405755 -0.0093083 -0.10447297
000130 d5 a5 80 3d 40 91 4a bb 30 49 e9 bd 52 d8 fc bb
       0.0628163 -0.003090933 -0.113909125 -0.007716217
000140 7d b1 f8 3d 07 91 fb 3c 37 68 e2 bd ad 58 65 bc
       0.12143228 0.030708803 -0.11055034 -0.013998193
000150 85 2c f1 bd e7 7e 2c 3d e1 f7 9f 3d b8 76 6c 3d
       -0.117760696 0.04211321 0.07810951 0.057730407
000160 20 cd d5 3d d8 86 4f bd 1e 21 02 be f0 03 82 bd
       0.10439515 -0.050665706 -0.12707946 -0.06348407
000170 f0 dc 85 3a bf 9b ce 3d a3 c6 83 3d 1c 89 4a 3d
       0.0010212939 0.100883 0.06434371 0.049447164
000180 ac 2d 6e 3b a8 06 cc 3d dc 88 8f 3d 56 43 3b 3c
       0.003634314 0.09962207 0.07008526 0.011429628
000190 65 d0 be bd 7a 14 05 bd c4 ca d6 3d 3b b8 f7 3d
       -0.09317092 -0.03249023 0.10487893 0.12095686
0001a0 2e d6 d6 bd 9c 24 db bd e5 cb b5 3d be be 70 bd
       -0.1049007 -0.10700342 0.088767804 -0.058775656
0001b0 fb f0 06 3d 7b 46 89 3d 16 13 f9 3d 68 f6 9e bc
       0.03294466 0.06702896 0.121618435 -0.019404605
0001c0 60 f1 f0 bd cf 45 1f 3d 82 55 49 bd fc 2b a7 bc
       -0.11764789 0.038884934 -0.049153812 -0.020406716
0001d0 9a 04 82 bd 26 94 84 3c 76 1a f7 bd 2a 6d c9 3d
       -0.06348534 0.016183924 -0.12065594 0.098352745
0001e0 bd e4 ce bd 29 79 01 3e 07 41 08 bd 6c a0 c3 3d
       -0.10102222 0.12643875 -0.03326514 0.095520824
0001f0 92 6f 4e bd f8 44 f7 bd f0 4f b5 bc e5 86 aa bd
       -0.05039937 -0.120737016 -0.022132844 -0.0832651
000200 e1 fa 37 3d e8 5a b4 bd a6 7e 46 3d 4e 15 de 3b
       0.04491699 -0.088064015 0.048460625 0.006777442
000210 fc 3b ba 3d 43 83 8b bd 8b 69 85 bd bd 82 b4 bd
       0.09093472 -0.068121456 -0.06514271 -0.08813999
000220 da 7d 7b 3a 78 01 b4 bd 2b f7 29 3d b3 47 2d 3d
       0.00095936435 -0.08789343 0.041495483 0.042304706
000230 50 00 f2 bd d8 1c 14 bd e2 c2 b7 3d 07 89 8d 3d
       -0.11816466 -0.03616032 0.08972718 0.069109015
000240 22 70 eb 3c 56 93 5f 3b a2 34 0c 3d 9a 73 b1 3d
       0.028739993 0.0034114919 0.034229882 0.086646274
000250 06 fb e1 bc 8b 49 88 bc 05 cc 00 3e 38 92 b1 bd
       -0.027585518 -0.01663663 0.12577827 -0.08670467
000260 08 9e f7 bc 40 40 47 bb bd f6 1b 3d ca b8 d0 3c
       -0.030226722 -0.0030403286 0.038077105 0.02547874
000270 56 47 a7 bb 69 4c 75 3d 2a 87 79 bd 6d 3e 5b bd
       -0.0051049395 0.059887324 -0.060919918 -0.05352633
000280 74 b5 7f 3d 9e 87 7d bd c7 15 5e 3d 26 64 cf bd
       0.062428907 -0.061896913 0.054219987 -0.10126524
000290 39 08 03 bd 74 9c 06 bd 68 84 5b bd e0 b9 09 bc
       -0.031990264 -0.03286405 -0.05359307 -0.008406132
0002a0 14 fb a5 3d 1d 68 1c 3c 8a 99 97 bd 3b 6c f3 bc
       0.0810453 0.009546307 -0.07402332 -0.029714694
0002b0 5e d9 a1 3d 78 bc 00 3e 84 18 8d 3d f8 54 d1 3d
       0.079027876 0.12571895 0.068894416 0.10221285
0002c0 06 47 9c 3d aa ac a5 bc 83 5c 70 bc 18 ef c7 bd
       0.07630734 -0.020223934 -0.014670494 -0.097624004
0002d0 95 d2 22 3d d0 5f 75 bd d0 75 d3 bc de c4 a6 3d
       0.039751608 -0.059905827 -0.025813013 0.08143018
0002e0 3d 98 00 3d 23 d4 54 bd ac e6 b3 ba 2d 93 d8 3c
       0.031395186 -0.05196012 -0.0013725362 0.026437366
0002f0 6a 5a cd 3d 33 0f a7 bd b0 8e dd 3d 2c 0e da bd
       0.10027011 -0.08157196 0.10818231 -0.10647234
000300 d7 d1 d9 3c 7c c8 88 bd c3 b0 e8 bd 7d 49 da 3d
       0.026589317 -0.06678864 -0.113618396 0.10658548
000310 be 11 a8 3d bf ae 90 bc d0 9e 7f bd d6 20 35 3d
       0.08206509 -0.01766145 -0.062407315 0.044220768
000320 50 ca 33 bd 20 9a 89 bb 24 5c 75 3d b4 c6 c3 bd
       -0.043894112 -0.0041992813 0.059902325 -0.09559384
000330 f3 63 df 3d 58 ad db 3d 50 ed cc bc 1a 82 77 3d
       0.10907736 0.10726422 -0.025015503 0.06042681
000340 f8 2a b3 bd 14 f6 f3 bd 52 f9 eb 3d 58 a8 c5 bc
       -0.0874843 -0.1191217 0.115221635 -0.024128124
000350 c2 eb b3 3d c4 90 98 bd 25 f8 c1 3d f2 bb 16 3d
       0.087852016 -0.07449487 0.09471158 0.036800332
000360 08 af be 3d b0 d7 e4 3c b9 60 57 bd 62 9e 86 bd
       0.09310728 0.027934879 -0.052582476 -0.06573178
000370 54 6a f4 bd 36 88 3c bd 76 cb f8 3d f8 ce 0d bc
       -0.11934343 -0.04602834 0.12148182 -0.008655302
000380 e4 25 ef 3d a4 11 a1 3d 87 be 92 3d ef a7 ea bc
       0.11677149 0.07864693 0.071652465 -0.02864453
000390 79 f8 eb bc 32 fe 7e 3d c2 f6 ac bd db 88 90 3d
       -0.028805004 0.06225414 -0.08445503 0.07057353
0003a0 a6 53 47 bd ea 75 cb bd 23 ea be 3d 3e 01 46 bd
       -0.048663758 -0.099346 0.09322002 -0.04834103
0003b0 ae 17 eb 3d f9 e7 cd 3b 5f a8 17 3c ca 4d ee 3d
       0.11479126 0.006283757 0.009256451 0.11635931
0003c0 68 d9 7c bd c1 93 c5 3d 89 ba ca bc f3 e2 e0 bd
       -0.061730772 0.096473224 -0.02474715 -0.10980787
0003d0 35 e5 fd 3d 3f 67 0b 3d 58 97 f6 3c 1c 45 21 3d
       0.123972334 0.03403401 0.030101463 0.03937255
0003e0 42 54 0a bd 52 cb 93 3d 17 e7 d6 3d 71 d6 10 3d
       -0.03377176 0.07216515 0.10493296 0.035360757
0003f0 37 24 25 bd bf 6c ba bd f6 38 a5 3d 24 fd f9 3d
       -0.04031774 -0.09102773 0.08067505 0.12206486

fc3_action.bias f4 [11]
000000 b0 f0 71 3d c0 0a a8 bc 8a d9 e9 bd e2 dc b4 3c
       0.059067428 -0.020512938 -0.114184454 0.022077981
000010 82 22 e2 bd d2 35 a8 bd 04 ed 15 3d ac aa 9e bc
       -0.11041738 -0.082133904 0.03660299 -0.019368492
000020 b2 b6 d0 bd 2d 78 f2 bc d8 bb ce 3d
       -0.10191096 -0.02959832 0.10094422
