improved_vrpb_policy_final.pth (torch, 42809 bytes, 6 tensors)

fc1.weight f4 [128, 6]
0.24379264 0.12094122 0.025834065 -0.2621273 -0.017614912 -0.31629077 -0.0880634 -0.19417389
0.38008934 0.10062384 -0.21348241 0.22406709 -0.011514274 0.10871461 -0.37527737 -0.09966709
0.13055599 0.36127502 0.08642123 0.11803821 -0.19168937 0.09071645 0.3427549 -0.09580624
0.29343405 0.35440376 -0.38143542 -0.3488313 -0.08358322 0.14524049 0.29387382 -0.33961517
-0.3521648 0.1968947 -0.18158138 0.11847836 -0.1796549 0.0024633587 0.3348245 0.38020056
-0.103556216 0.23320603 -0.17286798 -0.20655572 0.026355278 0.3965749 0.31985283 0.28010976
-0.2877385 -0.028141875 -0.2246369 -0.006980857 -0.23597294 0.30158108 -0.19670585 -0.10455829
-0.3222788 -0.11194259 -0.035922706 -0.00020891428 0.2548905 0.00084137515 -0.33506125 -0.38639355
-0.026424108 -0.10434678 -0.04558961 -0.18299389 0.0525154 -0.3931907 -0.097624674 -0.20716038
-0.34478366 0.39070255 -0.014789134 0.35813862 -0.38475987 0.32209623 -0.22854033 0.05987218
0.086621195 0.14976388 -0.009599805 0.25330436 -0.160537 -0.23424935 -0.18260933 0.014530384
0.10855027 -0.34047413 -0.25080258 0.17163348 0.31988415 0.08537722 0.32817295 0.17883313
-0.2992571 0.15806942 0.3672436 -0.18235905 -0.34460765 0.37252355 0.16543937 -0.32481173
-0.16444157 0.17066044 -0.38857117 -0.16298278 0.1566124 -0.01450184 -0.347892 -0.1776371
0.13057578 0.26123202 -0.3162235 -0.37825945 0.009764314 -0.19625208 0.37580624 -0.15638608
0.104563504 -0.253593 0.056443397 0.38052586 0.23998721 0.33095932 0.21005277 0.18286705
-0.18605879 0.21043293 0.13469703 -0.2965892 -0.23199481 0.05582884 -0.15117404 0.097896844
0.17549801 -0.079452425 -0.23148242 0.11370128 0.27731103 0.08899909 -0.10855272 -0.21264082
0.28156832 0.0529198 0.11527883 -0.3429429 0.14341713 0.33002192 -0.3771028 -0.16376516
0.038131252 -0.33940795 -0.13051876 -0.00685066 -0.31365246 -0.07767844 0.059154876 -0.20030822
0.17677315 0.22333717 0.087858416 0.08850713 -0.31384504 0.054454397 -0.08695027 -0.30603454
0.12592249 0.17965476 0.19603121 0.25050262 -0.0742379 -0.25798726 -0.1289561 0.3242581
-0.017733796 0.10769411 0.0136706885 -0.11657059 0.30425853 -0.325228 0.33744726 -0.14035615
0.121534325 -0.09900808 -0.09742672 -0.09865152 -0.30304074 -0.23680934 -0.31331006 -0.0023335814
-0.28621343 0.17300367 -0.02546375 0.34781826 -0.2784321 -0.08648157 0.014169363 0.17056558
-0.2098041 -0.2392657 -0.37746635 0.3023057 -0.08896263 0.24400355 -0.22704548 0.25171417
0.29873 -0.07278207 0.17641595 -0.30119723 -0.352664 0.38863125 -0.37194023 0.052969784
0.29777646 0.0729585 -0.09660539 0.37969658 0.3202461 0.31212723 0.12994845 0.011426751
0.25541565 0.23886596 -0.038958006 0.38244092 -0.016166558 -0.39088163 0.27934483 0.4081705
0.21546675 0.1156978 -0.3506492 -0.11574773 0.2610969 0.39182097 -0.1523521 -0.14368117
0.11988054 -0.3450914 -0.38029343 0.026967367 0.2313985 -0.13959849 -0.01262974 0.088282555
-0.010708216 -0.047312897 -0.31451005 0.38195497 0.2051631 0.2070401 0.052592844 0.18279818
00000000: c7a4 793e 08b0 f73d f6a1 d33c 8d35 86be
00000010: 264d 90bc ddf0 a1be 955a b4bd 85d5 46be
00000020: 129b c23e df13 ce3d 229b 5abe d871 653e
00000030: 5ea6 3cbc c4a5 de3d 5b24 c0be 421e ccbd
00000040: 78b0 053e 0af9 b83e 9dfd b03d 04be f13d
00000050: 384a 44be 8cc9 b93d 927d af3e 1036 c4bd
00000060: fd3c 963e 6974 b53e 814b c3be 049a b2be
00000070: ae2d abbd ecb9 143e a176 963e 0ae2 adbe
00000080: f24e b4be c49e 493e 78f0 39be c8a4 f23d
00000090: 74f7 37be 4d70 213b 1e6e ab3e a6a9 c23e
000000a0: 4815 d4bd 90cd 6e3e 4e04 31be 5883 53be
000000b0: 06e7 d73c de0b cb3e c0c3 a33e 8c6a 8f3e
000000c0: 7652 93be ca89 e6bc 3707 66be acbf e4bb
000000d0: e4a2 71be d668 9a3e 426d 49be a822 d6bd
000000e0: ba01 a5be 2842 e5bd b023 13bd 0010 5bb9
000000f0: 0281 823e bb8f 5c3a 268d abbe 60d5 c5be
00000100: 5f77 d8bc c4b3 d5bd 2cbc 3abd c062 3bbe
00000110: 631a 573d 4b50 c9be 72ef c7bd da21 54be
00000120: 7c87 b0be 2a0a c83e 204e 72bc f25d b73e
00000130: 3fff c4be cce9 a43e 7a06 6abe 883c 753d
00000140: 7466 b13d b45b 193e 8048 1dbc 1cb1 813e
00000150: d063 24be 10df 6fbe f1fd 3abe d910 6e3c
00000160: 9b4f de3d a052 aebe 3269 80be b0c0 2f3e
00000170: dbc7 a33e 40da ae3d 4906 a83e 0820 373e
00000180: 3a38 99be f3dc 213e 5a07 bc3e 55bc 3abe
00000190: 6a70 b0be 68bb be3e f068 293e b94d a6be
000001a0: 5f63 28be 9cc1 2e3e cdf2 c6be f5e4 26be
000001b0: 005f 203e 2099 6dbc e61e b2be 80e6 35be
000001c0: a8b5 053e 34c0 853e 0ce8 a1be 39ab c1be
000001d0: 80fa 1f3c 4ef6 48be ad69 c03e ac23 20be
000001e0: 6425 d63d f1d6 81be 3131 673d 49d4 c23e
000001f0: 35bf 753e 8073 a93e 1318 573e 8041 3b3e
00000200: 3286 3ebe bb7b 573e 05ee 093e 8ada 97be
00000210: 0c90 6dbe c8ac 643d 5ecd 1abe 247e c83d
00000220: c0b5 333e f4b7 a2bd ba09 6dbe 37dc e83d
00000230: b6fb 8d3e 2845 b63d e350 debd 84be 59be
00000240: b929 903e 6fc2 583d 4f17 ec3d 3696 afbe
00000250: f1db 123e a2f8 a83e 9e13 c1be 0eb2 27be
00000260: 842f 1c3d e1c6 adbe b6a6 05be 807b e0bb
00000270: 0e97 a0be e015 9fbd 624c 723d 991d 4dbe
00000280: 0504 353e 80b2 643e 1def b33d 3a43 b53d
00000290: 4cb0 a0be 930b 5f3d fc12 b2bd 8fb0 9cbe
000002a0: d3f1 003e 6bf7 373e 68bc 483e e141 803e
000002b0: 0a0a 98bd e816 84be 110d 04be 2805 a63e
000002c0: 7746 91bc bb8e dc3d 06fb 5f3c 90bc eebd
000002d0: c6c7 9b3e 4984 a6be e3c5 ac3e 86b9 0fbe
000002e0: fde6 f83d c0c4 cabd a987 c7bd cf09 cabd
000002f0: 2828 9bbe 267e 72be 2d6a a0be 00ef 18bb
00000300: 918a 92be e027 313e 5b99 d0bc 3c15 b23e
00000310: a78e 8ebe 401d b1bd 9e26 683c bea8 2e3e
00000320: e3d6 56be 1102 75be 4543 c1be d0c7 9a3e
00000330: 0a32 b6bd 11dc 793e 9c7e 68be aee0 803e
00000340: 23f3 983e c40e 95bd 62a6 343e 8636 9abe
00000350: 6090 b4be adfa c63e f36e bebe d8f6 583d
00000360: 2876 983e 446b 953d 0cd9 c5bd 9767 c23e
00000370: 4cf7 a33e 24cf 9f3e 3511 053e 4437 3b3c
00000380: d7c5 823e 4799 743e 6e92 1fbd 4ccf c33e
00000390: bb6f 84bc a321 c8be 4906 8f3e b9fb d03e
000003a0: 51a3 5c3e f8f2 ec3d 4b88 b3be 250d edbd
000003b0: 7eae 853e c29c c83e 3002 1cbe 2821 13be
000003c0: ee83 f53d d2af b0be d2b5 c2be abea dc3c
000003d0: baf3 6c3e e8f2 0ebe f8ec 4ebc 7ccd b43d
000003e0: 8371 2fbc 2bcb 41bd 7607 a1be 9a8f c33e
000003f0: 4716 523e 5202 543e 986b 573d 722f 3b3e

fc1.bias f4 [128]
0.25330988 -0.010225416 0.07671124 0.31553724 0.35153413 -0.19260009 -0.29675275 -0.12832546
0.28566095 -0.0029566586 0.10347531 0.13178289 -0.3491172 -0.39481416 0.20878014 0.21512088
0.088190325 -0.2589624 -0.32419512 -0.31272933 0.17356512 0.13903324 -0.24991268 0.1292162
-0.015132676 0.363008 0.32246596 0.276646 0.19721185 0.26965633 -0.38542584 0.09442931
0.18749589 0.23898369 0.38915753 -0.24387006 -0.016431203 0.048651032 -0.083640605 0.20969947
-0.20090704 0.21241039 0.017799156 0.16267483 0.01833311 0.043760605 -0.38636813 0.30973014
0.059181366 -0.1984354 -0.095248945 -0.11491235 0.12054988 0.3039516 0.31937227 -0.20188205
0.32847035 0.2888546 0.1284458 -0.10056138 -0.16189376 -0.2260675 -0.066872954 0.33426392
-0.08665341 -0.39616448 -0.23946676 -0.20801988 -0.04331934 -0.23904116 -0.03038243 -0.06352253
-0.14877388 -0.20633364 -0.14037234 -0.030971512 -0.23099051 -0.21070622 -0.036168963 -0.29005975
-0.10658637 0.06886555 -0.17993385 0.27083677 0.033187166 -0.21549283 -0.2122184 0.11364643
-0.24968643 -0.0054198103 0.37883854 -0.058373094 0.14694044 -0.30141133 0.038663216 0.058043443
0.053407967 -0.042485096 0.40117866 -0.3155107 -0.39898935 0.17029731 0.20254275 -0.11145197
0.18018503 0.19014946 0.4097513 -0.15680593 0.36816466 -0.1424851 0.28533354 -0.20505384
-0.14577425 -0.1880414 0.3249212 0.12156676 0.14614125 0.13044252 0.22178183 -0.10010353
0.39339307 -0.054387633 0.21869543 -0.2523088 -0.16496202 0.04113864 -0.07043666 0.025594248
00000000: d5b1 813e 8188 27bc c81a 9d3d 198e a13e
00000010: 48fc b33e f538 45be faef 97be c067 03be
00000020: 2742 923e 80c4 41bb ddea d33d 18f2 063e
00000030: 7dbf b2be 1525 cabe 76ca 553e a648 5c3e
00000040: 219d b43d b896 84be e7fc a5be 0f1e a0be
00000050: 0ebb 313e bb5e 0e3e 1ce9 7fbe 4051 043e
00000060: 0bef 77bc 2fdc b93e 421a a53e 8ba4 8d3e
00000070: e7f1 493e 6510 8a3e 8956 c5be 2764 c13d
00000080: ecfe 3f3e 24b8 743e a83f c73e 13b9 79be
00000090: bb9a 86bc 4e46 473d c44b abbd 75bb 563e
000000a0: 93ba 4dbe 1c82 593e 89cf 913c 3b94 263e
000000b0: 512f 963c 523e 333d 0bd2 c5be f394 9e3e
000000c0: 2968 723d a632 4bbe e111 c3bd 2b57 ebbd
000000d0: dbe2 f63d 8b9f 9b3e c384 a33e 2bba 4ebe
000000e0: 442d a83e c0e4 933e 4c87 033e 20f3 cdbd
000000f0: 7ac7 25be 3d7e 67be b0f4 88bd a424 ab3e
00000100: 5877 b1bd 12d6 cabe c636 75be 2a03 55be
00000110: 9f6f 31bd 35c7 74be 93e4 f8bc 1a18 82bd
00000120: 2e58 18be 2049 53be c4bd 0fbe f8b7 fdbc
00000130: c788 6cbe 5fc3 57be e825 14bd b682 94be
00000140: f449 dabd 6209 8d3d 9440 38be 1eab 8a3e
00000150: 44ef 073d 27aa 5cbe c84f 59be 76bf e83d
00000160: cdad 7fbe aa98 b1bb 20f7 c13e a018 6fbd
00000170: 8e77 163e 9652 9abe 525d 1e3d f6be 6d3d
00000180: 50c2 5a3d da04 2ebd 4a67 cd3e 9e8a a1be
00000190: 5548 ccbe 6b62 2e3e 5e67 4f3e ee40 e4bd
000001a0: 6d82 383e 8ab6 423e ecca d13e bc91 20be
000001b0: 1480 bc3e 9de7 11be 3d17 923e a2f9 51be
000001c0: d845 15be ed8d 40be 125c a63e fef7 f83d
000001d0: 0da6 153e b992 053e c71a 633e 1403 cdbd
000001e0: d16a c93e 91c5 5ebd b2f1 5f3e 9e2e 81be
000001f0: ceeb 28be fe80 283d 1841 90bd 07ab d13c

fc2.weight f4 [64, 128]
0.068052314 -0.01992704 -0.020631105 -0.042756196 0.043901928 0.003656894 -0.056618676 -0.069348425
0.018160984 -0.0691621 0.08200387 -0.011917435 0.08149103 0.01955808 0.042150684 0.04740887
-0.014147915 0.029548913 -0.035729874 -0.010765478 -0.06660711 0.014406413 -0.01250004 -0.021454498
0.027159758 0.024348319 -0.08458744 0.048695944 0.047268026 0.017237946 0.005482264 0.059118904
0.0035144463 -0.08546044 -0.03520164 -0.052333962 0.0062982664 -0.0014807135 -0.073272094 0.01773221
0.07390582 -0.067714736 0.08620108 -0.0018865764 -0.073258325 -0.0584033 -0.057645075 0.050674297
0.05898381 0.05099272 -0.078826964 0.0073207393 -0.020694226 0.06308841 -0.064410426 -0.009025559
0.007879987 -0.03594061 0.025525257 -0.031132516 0.04870691 0.023694664 -0.0017196536 0.071367554
0.028638795 0.039418943 0.04027512 0.062341236 0.056888603 0.051904164 -0.04375019 -0.0155066475
0.037344493 -0.06927383 -0.057740137 -0.05382458 -0.053354032 0.068344735 -0.01869297 -0.066389956
-0.030268677 -0.0042981654 0.08314834 -0.052847795 -0.08688041 -0.014464043 0.01965794 -0.012470417
-0.0039853826 0.04071247 -0.050409433 0.026133083 -0.02076085 -0.049806952 -0.086804576 -0.014626607
-0.050107196 0.0508968 0.07678845 -0.023555726 -0.025824457 -0.025368914 -0.027393587 -0.07479521
0.08417622 0.04908582 -0.07946698 0.0046438947 -0.0017974153 -0.04151429 -0.067279026 -0.0022841468
0.00032604486 -0.018047184 0.013214871 0.06530333 0.04543888 -0.021599777 -0.022426672 -0.050160956
-0.08320179 -0.018209524 0.004729815 -0.025605977 0.013434425 0.06940053 0.08539941 -0.04150002
-0.04781219 -0.06470032 -0.066591285 0.056987345 -0.03462916 0.005020829 -0.035896827 0.05373895
0.046587627 0.06332671 0.06701484 0.018319855 -0.043414183 -0.08808039 0.0449295 0.032250825
0.03359464 0.003498517 -0.037771847 -0.039153583 0.024509015 -0.044291254 -0.031567466 0.071107395
0.05506183 0.06522975 0.030377366 -0.07221819 0.08159026 -0.015052804 -0.015400293 0.020921087
-0.082541466 0.033244055 -0.02832102 0.012082521 -0.054643974 0.053463895 0.03429252 0.08456842
-0.042872965 -0.056179084 0.020067481 0.02810666 -0.03188707 0.0062676896 0.054368503 -0.034561217
-0.054821156 0.07591217 0.019886306 0.043120988 0.066782705 -0.058234394 0.0652274 -0.063651025
0.03441275 0.06351679 -0.06543033 0.03978034 -0.062424235 -0.030971276 -0.001928774 -0.00027969017
-0.05236596 0.014174036 -0.08578508 0.051781334 0.068799235 0.058204465 0.060650207 0.00477326
0.076680295 -0.043667365 -0.08319938 -0.05805334 0.08304234 -0.028126515 -0.07656638 0.003044455
0.03336651 -0.06772835 0.08557171 0.008794027 0.016001571 -0.01686885 0.013621171 0.06326805
-0.07078116 0.06176569 -0.04550428 -0.05224263 0.018585308 -0.008863948 0.032900084 0.0052703805
0.003754913 0.0454309 -0.007959028 -0.06114515 0.06144785 -0.019689178 0.012844213 -0.032614313
0.04815642 -0.07417507 0.03171056 0.056553297 0.05811075 -0.055864207 0.022304013 0.05639962
0.07728417 0.05461309 0.028332222 -0.06319107 -0.06961645 0.0055797244 0.0493331 0.01711572
0.08843497 0.007901045 -0.05048235 -0.015479233 0.08218592 -0.07105044 0.04114353 0.05032452
00000000: 035f 8b3d 083e a3bc 9002 a9bc 1f21 2fbd
00000010: 82d2 333d 80a8 6f3b fce8 67bd 8c06 8ebd
00000020: 58c6 943c dca4 8dbd a5f1 a73d 5841 43bc
00000030: c5e4 a63d 4438 a03c 32a6 2c3d ce2f 423d
00000040: a8cc 67bc 9010 f23c 7d59 12bd b061 30bc
00000050: 4f69 88bd e008 6c3c f8cc 4cbc 58c1 afbc
00000060: 247e de3c 2076 c73c 2e3c adbd 6675 473d
00000070: 1e9c 413d 9836 8d3c 90a4 b33b aa26 723d
00000080: a052 663b e205 afbd 982f 10bd 235c 56bd
00000090: b061 ce3b 8014 c2ba ae0f 96bd 2443 913c
000000a0: ef5b 973d 06ae 8abd 318a b03d 0047 f7ba
000000b0: 7608 96bd 4c38 6fbd 3e1d 6cbd da8f 4f3d
000000c0: 0299 713d bedd 503d 0870 a1bd d0e2 ef3b
000000d0: f086 a9bc 7f34 813d 9de9 83bd f0df 13bc
000000e0: 101b 013c 7636 13bd 581a d13c 9e09 ffbc
000000f0: e680 473d 501b c23c 0066 e1ba 2729 923d
00000100: e89b ea3c c275 213d 86f7 243d 8659 7f3d
00000110: 0604 693d 7699 543d 6633 33bd 980f 7ebc
00000120: 8af6 183d 70df 8dbd ec80 6cbd 2a77 5cbd
00000130: c289 5abd 53f8 8b3d 0022 99bc 75f7 87bd
00000140: 04f6 f7bc a0d7 8cbb ad49 aa3d ee76 58bd
00000150: 5bee b1bd 98fa 6cbc b009 a13c b850 4cbc
00000160: d097 82bb 1ec2 263d 1f7a 4ebd 0c15 d63c
00000170: a812 aabc 6002 4cbd 99c6 b1bd 70a4 6fbc
00000180: 343d 4dbd 2a79 503d 4343 9d3d f0f7 c0bc
00000190: d08d d3bc 78d2 cfbc 8468 e0bc 3b2e 99bd
000001a0: 9564 ac3d 360e 493d 96bf a2bd d02b 983b
000001b0: 4097 ebba e30a 2abd 96c9 89bd a0b1 15bb
000001c0: 00f1 aa39 b0d7 93bc 3083 583c c1bd 853d
000001d0: 1e1e 3a3d 04f2 b0bc 24b8 b7bc 9375 4dbd
000001e0: b365 aabd 242c 95bc 90fc 9a3b a0c3 d1bc
000001f0: 101c 5c3c dd21 8e3d e3e5 ae3d edfb 29bd
00000200: b7d6 43bd 9a81 84bd 0361 88bd 906b 693d
00000210: 4ed7 0dbd c485 a43b 8d08 13bd 601d 5c3d
00000220: abd2 3e3d 6fb1 813d 143f 893d 8513 963c
00000230: 12d3 31bd 7e63 b4bd ff07 383d 7119 043d
00000240: 899a 093d 6047 653b a7b6 1abd 825f 20bd
00000250: 21c7 c83c bf6a 35bd e34c 01bd c1a0 913d
00000260: 8388 613d 2d97 853d f4d9 f83c 21e7 93bd
00000270: cb18 a73d 09a0 76bc 8351 7cbc b362 ab3c
00000280: 800b a9bd eb2a 083d 7c01 e8bc c4f5 453c
00000290: 5cd2 5fbd f5fc 5a3d 5076 0c3d 3532 ad3d
000002a0: 909b 2fbd 0a1c 66bd 8f64 a43c f03f e63c
000002b0: 049c 02bd 3161 cd3b 82b1 5e3d 1090 0dbd
000002c0: 268c 60bd d777 9b3d 9be8 a23c a29f 303d
000002d0: 5fc5 883d 3087 6ebd f195 853d 785b 82bd
000002e0: 62f4 0c3d 1715 823d 5600 86bd b6f0 223d
000002f0: 8eb0 7fbd 79b7 fdbc ebce fcba 61a3 92b9
00000300: b07d 56bd 373a 683c 17b0 afbd aa18 543d
00000310: 9de6 8c3d ce67 6e3d 5a6c 783d 0269 9c3b
00000320: 8f0a 9d3d 8ddc 32bd 7064 aabd 57c9 6dbd
00000330: 1a12 aa3d 9469 e6bc d6ce 9cbd 7b85 473b
00000340: 52ab 083d 29b5 8abd 3840 af3d d314 103c
00000350: ba15 833c 8b30 8abc 552b 5f3c ae92 813d
00000360: b6f5 90bd 05fe 7c3d b262 3abd 5efc 55bd
00000370: 3740 983c 183a 11bc 3dc2 063d 28b3 ac3b
00000380: fd14 763b c015 3a3d 9566 02bc 5673 7abd
00000390: beb0 7b3d 334b a1bc 8970 523c 9696 05bd
000003a0: ab3f 453d 19e9 97bd efe2 013d 6ea4 673d
000003b0: 8a05 6e3d ded1 64bd e8b6 b63c 4a03 673d
000003c0: 2a47 9e3d fab1 5f3d fa18 e83c 526a 81bd
000003d0: 1293 8ebd 1fd6 b63b 8111 4a3d 4436 8c3c
000003e0: 651d b53d 6273 013c 95c6 4ebd 9c9c 7dbc
000003f0: 1751 a83d e582 91bd 1e86 283d 1521 4e3d

fc2.bias f4 [64]
-0.061225567 0.009958066 -0.08389376 -0.011657189 0.057537448 0.029944858 -0.057595015 -0.04855449
0.08068556 0.04132834 -0.00040289861 -0.0083257705 -0.042918913 0.07549029 -0.08296906 0.05499137
-0.036466695 0.07419127 -0.0458418 0.052118856 0.0443465 -0.06268838 0.066397436 0.035785437
0.067194335 -0.011407199 0.06698718 0.042340495 -0.015605775 -0.0666617 0.041440904 0.0041361153
0.018746978 -0.02193807 0.054511875 0.00791415 0.081278145 -0.0004395791 -0.0029525755 0.062375717
0.06877205 -0.08733392 0.03538407 -0.060146134 0.020213295 0.080105886 -0.02071262 -0.081166334
-0.0018567467 0.006524043 -0.032077968 -0.07983193 0.041974105 -0.06471469 0.0042082546 -0.041379258
0.082908265 -0.026109936 -0.07910379 0.00080506277 -0.016437717 0.034760542 -0.058534816 0.05987013
00000000: a9c7 7abd 2827 233c 7ed0 abbd cbfd 3ebc
00000010: 63ac 6b3d eb4e f53c c0e8 6bbd 13e1 46bd
00000020: 793e a53d e847 293d 233c d3b9 d068 08bc
00000030: becb 2fbd a79a 9a3d afeb a9bd a13e 613d
00000040: 1a5e 15bd 98f1 973d 9cc4 3bbd 957a 553d
00000050: ada4 353d c462 80bd 61fb 873d c093 123d
00000060: 2f9d 893d 43e5 3abc 9330 893d 3a6d 2d3d
00000070: 5daf 7fbc ee85 88bd f0bd 293d 4088 873b
00000080: 4393 993c 78b7 b3bc d847 5f3d 5aaa 013c
00000090: 2875 a63d 4f77 e6b9 ff7f 41bb ae7d 7f3d
000000a0: 5cd8 8c3d 20dc b2bd e3ee 103d cb5b 76bd
000000b0: 5a96 a53c 8e0e a43d 83ad a9bc 893a a6bd
000000c0: 155e f3ba a4c7 d53b 3064 03bd ec7e a3bd
000000d0: 0aed 2b3d 2389 84bd 66e5 893b 4c7d 29bd
000000e0: cfcb a93d 81e4 d5bc 2b01 a2bd d90a 533a
000000f0: 64a8 86bc 1261 0e3d 34c2 6fbd 623a 753d

fc3_action.weight f4 [11, 64]
0.08832525 -0.037217606 0.069769494 0.12029533 -0.10964812 -0.13119626 -0.0062810928 0.061580215
-0.053946186 0.068041146 -0.08754299 0.025871605 0.06320626 -0.07748246 -0.05679704 -0.1132159
-0.11795294 0.0047045723 0.041781917 -0.12292085 0.08044161 0.03139119 0.010222715 -0.011733067
0.09091029 -0.07250846 -0.11423205 -0.03891652 0.009744255 -0.032348365 0.025104223 0.048695356
-0.03601374 0.08280264 -0.012366194 -0.012680481 0.087501206 -0.04830207 0.05750078 0.032564834
0.115312435 -0.08069236 -0.060227826 -0.05521007 -0.008200693 0.047546398 -0.040569097 0.11651446
-0.12950657 -0.14028329 0.006080397 -0.09321478 -0.025438458 0.11719452 0.07107277 0.09903738
0.04399412 -0.06729275 -0.029005865 0.05774806 0.0589073 -0.105979234 -0.10388036 0.009760395
-0.03219892 -0.023894986 -0.008033352 0.08345408 -0.014347781 -0.0076030777 -0.012401782 -0.100332186
-0.051867347 -0.07369684 0.049651165 -0.028228968 0.022605121 -0.0015340052 0.019955715 -0.027275903
-0.08980003 -0.07801976 0.08255796 -0.055965364 -0.07833447 -0.050895974 0.10111466 0.021649761
-0.02507851 0.053779777 0.06436378 -0.0051613776 0.02229621 -0.07023764 -0.0034772204 -0.07617149
-0.11852186 -0.103081785 0.050837036 0.08865431 0.09549958 -0.035486426 -0.01588087 0.008474842
0.050813593 0.0020923985 0.024445442 -0.007966209 -0.009060125 -0.015244374 0.06347587 0.08358458
0.03844199 -0.101716205 0.0079127075 0.09399819 -0.016451567 0.04084924 0.12468875 -0.0847932
0.064821154 0.015144017 -0.08460765 0.062960945 0.12191501 -0.027084364 0.079766974 0.09696226
-0.09054378 -0.09056077 -0.09867092 -0.06604829 -0.10105989 -0.033222463 0.0048636883 -0.09499474
0.0689283 -0.117475696 0.11510668 -0.02593252 -0.10186759 -0.047604907 0.052294027 0.12015835
-0.09036012 -0.08380745 -0.05311671 0.029585425 -0.0734477 -0.075090244 0.05875832 -0.031004278
-0.038826745 -0.038853694 -0.071063854 -0.089635715 0.11039034 0.007887393 0.09332436 0.071630746
0.057866298 -0.08843956 0.116809964 -0.108528614 0.105795294 0.074448645 0.064408116 -0.010233268
-0.07872654 -0.11305717 -0.059042457 0.055265445 -0.03936712 -0.09268514 0.12107953 -0.066548645
-0.056311138 -0.06129168 0.01686418 -0.10673337 -0.089068696 0.0018416902 -0.08744767 0.09979628
0.07574098 0.08275203 -0.02761653 -0.002100682 -0.012275562 -0.00084129913 0.10650657 -0.008116394
0.0872989 -0.0047280467 -0.090374015 -0.006886316 0.12661412 0.03174382 0.05116405 0.112580076
-0.05133895 0.019745436 0.081308834 -0.03700818 0.07238944 0.11576355 -0.010816989 0.028101936
-0.11359747 0.05152534 -0.09890969 0.029376213 -0.07501737 -0.077267185 0.1002156 -0.10195455
-0.07000529 -0.07082075 -0.07986683 0.007678437 -0.016161548 0.02400574 0.11743901 0.03893073
0.107135534 -0.084126756 0.10012476 0.09501303 0.08196143 -0.11928667 -0.025101628 -0.029077396
0.046640456 0.08686941 0.11910326 -0.044060685 0.122865625 -0.045826364 -0.039348073 -0.100773245
-0.105099835 0.06732777 -0.04243467 -0.090479635 0.12041585 0.047065757 -0.042451024 0.06017119
-0.08385707 -0.085421756 0.09398369 -0.11675642 -0.09704645 0.033480253 -0.012228936 0.09084171
00000000: dee3 b43d 7d71 18bd 4fe3 8e3d 665d f63d
00000010: 328f e0bd 5058 06be a0d1 cdbb 893b 7c3d
00000020: adf6 5cbd 2859 8b3d bd49 b3bd b0f0 d33c
00000030: 4972 813d 20af 9ebd 03a4 68bd bddd e7bd
00000040: 5091 f1bd d028 9a3b 8423 2b3d edbd fbbd
00000050: 92be a43d 0c94 003d 2d7d 273c 0d3c 40bc
00000060: 2d2f ba3d 517f 94bd 7ef2 e9bd ee66 1fbd
00000070: 5ea6 1f3c b87f 04bd 5fa7 cd3c c874 473d
00000080: 2583 13bd 6e94 a93d 949b 4abc cbc1 4fbc
00000090: d533 b33d 64d8 45bd f085 6b3d b462 053d
000000a0: ed28 ec3d 0942 a5bd 74b1 76bd f423 62bd
000000b0: 335c 06bc 03c0 423d c82b 26bd 229f ee3d
000000c0: 5f9d 04be 6ca6 0fbe 113e c73b 64e7 bebd
000000d0: 5064 d0bc ae03 f03d 9a8e 913d 1cd4 ca3d
000000e0: 2e33 343d c8d0 89bd b59d edbc 3b89 6c3d
000000f0: c848 713d a40b d9bd 3abf d4bd 10ea 1f3c
00000100: 04e3 03bd 6bbf c3bc 529e 03bc f9e9 aa3d
00000110: f512 6bbc 3d23 f9bb d830 4bbc f67a cdbd
00000120: db72 54bd 5eee 96bd 055f 4b3d 7040 e7bc
00000130: 602e b93c ac10 c9ba 2b7a a33c b771 dfbc
00000140: 14e9 b7bd d3c8 9fbd 2614 a93d f03b 65bd
00000150: d36d a0bd 4c78 50bd 3415 cf3d d75a b13c
00000160: 7371 cdbc 2f48 5c3d 28d1 833d c620 a9bb
00000170: 8ba6 b63c c0d8 8fbd 14e2 63bb ccff 9bbd
00000180: 97bb f2bd 8b1c d3bd 7f3a 503d 6490 b53d
00000190: 4995 c33d 375a 11bd 9918 82bc 10da 0a3c
000001a0: ea21 503d 9f20 093b cf41 c83c b484 02bc
000001b0: eb70 14bc 8ac3 79bc a3ff 813d 642e ab3d
000001c0: 5975 1d3d 9650 d0bd 4da4 013c 1f82 c03d
000001d0: 70c5 86bc 8851 273d d15c ff3d 0fa8 adbd
000001e0: f4c0 843d 9c1e 783c c746 adbd abf1 803d
000001f0: 94ae f93d 07e0 ddbc de5c a33d 2694 c63d
00000200: 046f b9bd ed77 b9bd fb13 cabd 5344 87bd
00000210: 7df8 cebd 4714 08bd 935f 9f3b 9a8c c2bd
00000220: 482a 8d3d 1997 f0bd 0dbd eb3d 7070 d4bc
00000230: f49f d0bd 5dfd 42bd 4332 563d 9515 f63d
00000240: ba0e b9bd 3ea3 abbd e890 59bd 225d f23c
00000250: bf6b 96bd eac8 99bd 90ac 703d affc fdbc
00000260: cb08 1fbd 0d25 1fbd ed89 91bd ee92 b7bd
00000270: 5514 e23d 203a 013c d820 bf3d 24b3 923d
00000280: 3605 6d3d cd1f b5bd 103a ef3d 4044 debd
00000290: 34ab d83d 8878 983d 67e8 833d 70a9 27bc
000002a0: 613b a1bd 848a e7bd 81d6 71bd 055e 623d
000002b0: 6b3f 21bd b5d1 bdbd 8bf8 f73d a84a 88bd
000002c0: 82a6 66bd fc0c 7bbd c026 8a3c 0697 dabd
000002d0: a669 b6bd de64 f13a c417 b3bd fe61 cc3d
000002e0: 161e 9b3d e579 a93d 103c e2bc 98ab 09bb
000002f0: 701f 49bc a18a 5cba 1e20 da3d a0fa 04bc
00000300: c4c9 b23d bbed 9abb 0316 b9bd 9ba6 e1bb
00000310: 22a7 013e cf05 023d 6591 513d 6290 e63d
00000320: ca48 52bd 2ec1 a13c 3f85 a63d e495 17bd
00000330: ea40 943d 7115 ed3d bd39 31bc 0836 e63c
00000340: caa5 e8bd 3c0c 533d 2a91 cabd 62a6 f03c
00000350: b5a2 99bd 423e 9ebd d63d cd3d 8ccd d0bd
00000360: ef5e 8fbd 780a 91bd 3891 a3bd 669b fb3b
00000370: 3965 84bc b0a7 c43c dd83 f03d d475 1f3d
00000380: e069 db3d a64a acbd 360e cd3d 3196 c23d
00000390: 65db a73d 924c f4bd eea1 cdbc b833 eebc
000003a0: 100a 3f3d 97e8 b13d 69ec f33d fa78 34bd
000003b0: f9a0 fb3d 6db4 3bbd 722b 21bd 3462 cebd
000003c0: 953e d7bd 24e3 893d facf 2dbd 634d b9bd
000003d0: 969c f63d 06c8 403d 20e1 2dbd 1176 763d
000003e0: 41bd abbd 9af1 aebd 857a c03d fd1d efbd
000003f0: 4ac0 c6bd 9722 093d e05b 48bc 380b ba3d

fc3_action.bias f4 [11]
-0.11975824 -0.028476542 0.04628556 0.042115606 -0.053651582 0.07352617 0.118077844 -0.09623358
-0.11801412 0.011130805 -0.06461285
00000000: cf43 f5bd a347 e9bc ed95 3d3d 6a81 2c3d
00000010: c3c1 5bbd e394 963d ccd2 f13d 1c16 c5bd
00000020: 63b1 f1bd fb5d 363c be53 84bd
