improved_vrpb_strict_eval_policy_v2_best.pth (torch, 43041 bytes, 6 tensors)

fc1.weight f4 [128, 6]
0	0xbecf9d47	-0.4054968
1	0xbe9eb756	-0.3099925
2	0x3de8ea43	0.11372807
3	0x3eb439e6	0.35200423
4	0x3ea877a4	0.3290378
5	0xbb4ff980	-0.0031734407
6	0xbcd0fd9c	-0.025511555
7	0x3d3843c4	0.0449865
8	0xbebe1090	-0.3712201
9	0x3e7028d4	0.23453075
10	0xbea40775	-0.3203694
11	0xbeb84892	-0.35992867
12	0xbeb49560	-0.35270214
13	0x3e09179a	0.1338791
14	0x3df14801	0.11781312
15	0x3d3a589b	0.045494657
16	0x3e87fc0a	0.26559478
17	0x3ceeea20	0.029164374
18	0xbc624ce0	-0.013812274
19	0xbe615c49	-0.2200786
20	0xbd0ecb28	-0.034861714
21	0xbde2619c	-0.11053774
22	0x3d2569e0	0.040384173
23	0x3ece5e48	0.40306306
24	0x3ec55c65	0.38547054
25	0xbd8ff1a7	-0.070285134
26	0x3ebc6881	0.3679848
27	0xbe001e37	-0.12511526
28	0x3ebf9a30	0.37422323
29	0x3eac0f9c	0.3360566
30	0x3eced736	0.40398568
31	0xbe839750	-0.2570138
32	0xbe87fc33	-0.265596
33	0xbeb644da	-0.35599405
34	0x3e0d074b	0.13772313
35	0x39e69000	0.00043976307
36	0x3e07ece4	0.1327396
37	0x3e90080a	0.28131133
38	0xbe01681a	-0.12637368
39	0x3ddc4738	0.107557714
40	0xbea8da5f	-0.32979104
41	0x3e1f8d5c	0.15581268
42	0x3e623ece	0.2209427
43	0x3eb0fa89	0.34566143
44	0xbed319d4	-0.41230643
45	0x3ea0135a	0.31264764
46	0xbecb48a5	-0.3970386
47	0x3b4db080	0.003138572
48	0xbe8aed63	-0.27134237
49	0x3edd27b0	0.43194342
50	0x3ed24770	0.41070127
51	0x3e7c52f4	0.24641019
52	0x3e4b7f1e	0.1987271
53	0x3e982102	0.29712683
54	0xbe286344	-0.16444117
55	0xbe69234e	-0.22767374
56	0x3eea66a5	0.45781437
57	0xbe984f96	-0.2974822
58	0x3ea51852	0.32245117
59	0xbe38f3e6	-0.1806179
60	0xbe9ff0a8	-0.31238294
61	0x3e3fab68	0.1871773
62	0xbe8f9320	-0.28041935
63	0xbe474418	-0.1945957
64	0x3c49b100	0.0123102665
65	0xbe0198a2	-0.12655881
66	0xbec2bbf1	-0.38034013
67	0x3e184cb8	0.14873016
68	0xbe805efa	-0.2507246
69	0xbec29452	-0.38003784
70	0xbe49e991	-0.19718005
71	0x3eabcaac	0.33553064
72	0x3ec8c9b2	0.3921638
73	0x3ed3e723	0.4138728
74	0x3dbde173	0.09271517
75	0xbe47de43	-0.1951838
76	0xbe40d138	-0.1882981
77	0x3e4437ec	0.19161958
78	0x3ed158f3	0.40888175
79	0x3e89a6b8	0.2688501
80	0xbda00106	-0.07812695
81	0x3ed24470	0.4106784
82	0x3e28532e	0.1643798
83	0x3e1bf160	0.15228796
84	0xbe822e45	-0.25425926
85	0x3e7eb083	0.24872021
86	0xbea63595	-0.32462755
87	0xbdec6b8b	-0.1154395
88	0x3e8b68c6	0.27228373
89	0x3eb26bce	0.34847873
90	0xbb3a7034	-0.0028448226
91	0xbec3c6aa	-0.38237506
92	0xbd9ff002	-0.0780945
93	0xbeba37cb	-0.36370692
94	0x3ebe8ff0	0.3721919
95	0xbebde8ef	-0.37091777
96	0x3d9079e7	0.07054501
97	0x3e44cf4a	0.192197
98	0x3d1073b5	0.035266597
99	0xbea6e624	-0.32597458
100	0x3e74b0ee	0.23895618
101	0x3e81fa9e	0.25386518
102	0x3d6ba088	0.05752614
103	0xbe8487e8	-0.25884938
104	0xbea7f41d	-0.3280343
105	0xbbf2d940	-0.007411152
106	0xbd6b4698	-0.05744037
107	0xbe9a3830	-0.30120993
108	0x3ef2964d	0.47380295
109	0x3d64b208	0.055833846
110	0x3eee27fa	0.46514875
111	0xbea9b3d5	-0.33145013
112	0xbd7c6d00	-0.061627388
113	0x3e40c980	0.18826866
114	0x3e610a05	0.21976478
115	0x3e79b645	0.24385937
116	0x3e95ca75	0.29256025
117	0x3c255eac	0.010093372
118	0xbec12654	-0.37724555
119	0xbd1a4508	-0.03766349
120	0x3e0f5801	0.13998415
121	0xbd90c665	-0.07069091
122	0xbe3723c6	-0.1788474
123	0x3e0cff3b	0.13769238
124	0x3d50ced7	0.050978508
125	0x3e3d2ce0	0.1847415
126	0x3b36183c	0.002778544
127	0xbe40461b	-0.18776743
128	0xbd9ea16d	-0.07745633
129	0xbde8aee3	-0.11361482
130	0xbeafb134	-0.34314883
131	0xbe8ef29d	-0.27919474
132	0xbe5eca9c	-0.21756977
133	0xbe31d0a2	-0.17364743
134	0xbc980760	-0.018558204
135	0x3e4f83c3	0.20265107
136	0xbe3e607f	-0.18591498
137	0x3e35fd70	0.1777246
138	0x3e48efe8	0.19622767
139	0xbe0e3972	-0.13889101
140	0x3e524de4	0.20537525
141	0x3ed26150	0.4108987
142	0x3e6d080e	0.23147604
143	0xbbd0ec40	-0.0063758194
144	0x3d4469a8	0.047952324
145	0xbe92a673	-0.28642616
146	0x3ec8567f	0.3912849
147	0xbe8a817a	-0.27051908
148	0xbe06dd39	-0.13170327
149	0x3e9d3904	0.30707562
150	0xbd042df1	-0.032270376
151	0x3e6bc4ba	0.23024264
152	0x3d10b60d	0.035329867
153	0xbe66d651	-0.22542693
154	0xbe7f2a80	-0.24918556
155	0x3ec2750e	0.3797993
156	0x3e84ce60	0.25938702
157	0x3ec27de5	0.37986675
158	0x3ea595c3	0.32340822
159	0xbd3435ed	-0.04399674
160	0x3e7904ed	0.24318285
161	0x3ebd5720	0.36980534
162	0x3e0fdb7c	0.1404857
163	0x3edb2184	0.42799008
164	0xbd9ff1e7	-0.07809811
165	0xbe64255c	-0.22279876
166	0x3e675065	0.22589262
167	0xbe4b43c7	-0.19850074
168	0xbe80cda4	-0.2515689
169	0xbe6b0ba7	-0.22953664
170	0xbe7a7697	-0.24459301
171	0x3ecda1f6	0.4016263
172	0x3ec6d2d2	0.38832718
173	0x3e414600	0.18874359
174	0xbe142d64	-0.1447044
175	0xbe40d63e	-0.18831727
176	0xbeb73cb6	-0.35788506
177	0x3ecf1f40	0.4045353
178	0x3ea29308	0.317528
179	0xbdaebb3c	-0.08531806
180	0x3e5d079a	0.21584931
181	0xbcd4a1a6	-0.025955986
182	0x3eee5fcf	0.4655747
183	0x3e9f24f1	0.31082872
184	0xbe646d67	-0.22307359
185	0x3e753bec	0.2394864
186	0xbe84b711	-0.2592092
187	0xbe4f8116	-0.20264086
188	0x3e881d11	0.26584676
189	0x3e66ddd2	0.22545555
190	0xbe76dd57	-0.24107872
191	0xbe8a5a7e	-0.27022165
192	0xbe352aef	-0.17692159
193	0xbd9356b8	-0.07194275
194	0x3ab2fb00	0.0013655126
195	0xbeb279ad	-0.34858456
196	0x3eae0544	0.33988392
197	0xbeb853f0	-0.3600154
198	0xbdf9fe0a	-0.12206657
199	0xbe2e31a1	-0.1701112
200	0xbeaccbe9	-0.3374932
201	0xbcc5f79d	-0.024165923
202	0xbea51fe1	-0.32250884
203	0x3e92f062	0.28699023
204	0x3e383f9f	0.1799302
205	0x3e21724d	0.15766259
206	0x3e428911	0.18997599
207	0xbe76c320	-0.24097872
208	0x3e80d6ce	0.25163883
209	0xbe074a96	-0.13212046
210	0xbca6cefc	-0.02036237
211	0x3e7a84b5	0.24464686
212	0x3d57ff98	0.052733988
213	0x3d56c43e	0.052433245
214	0xbeb3ca46	-0.3511526
215	0x3e26251c	0.16225094
216	0x3d8d7d54	0.0690867
217	0x3d62be88	0.055357486
218	0xbeb3e307	-0.35134146
219	0xbddf4b08	-0.10902983
220	0xbe991e0d	-0.2990574
221	0xbd87a7ec	-0.066238254
222	0x3edc61b7	0.430433
223	0x3eb1d626	0.34733695
224	0x3e1a0462	0.15040734
225	0xbc424fd2	-0.011859851
226	0xbe1b5e23	-0.15172629
227	0xbea698a1	-0.32538322
228	0xbecc7c4b	-0.39938578
229	0xbec92ee7	-0.39293596
230	0xbe8c0b3c	-0.2735232
231	0xbdf53336	-0.11972658
232	0x3e883878	0.26605582
233	0x3dcede30	0.10100973
234	0x3e660e39	0.22466363
235	0x3e94f685	0.2909433
236	0xbe0c8302	-0.1372185
237	0xbeb59377	-0.3546407
238	0x3e09ff05	0.13476188
239	0xbe890800	-0.26763916
240	0x3e7ed0dd	0.24884363
241	0x3edba533	0.42899475
242	0x3eec41e7	0.4614403
243	0xbd9ec0a2	-0.077515855
244	0xbe25ca0a	-0.16190353
245	0x3e2d19f4	0.16904432
246	0x3ead5170	0.33851194
247	0xbdfa638e	-0.1222602
248	0x3d31df8f	0.043426093
249	0x3c6d3c97	0.014479778
250	0x3e02d954	0.12778217
251	0x3e706198	0.23474729
252	0x3dafbac0	0.085805416
253	0xbca89a2f	-0.020581333
254	0x3e64e99f	0.22354744
255	0x3d672210	0.05642897

fc1.bias f4 [128]
0	0xbea59b5b	-0.3234509
1	0x3cfd803f	0.030944942
2	0x3b7e6347	0.0038816498
3	0xbebce182	-0.368908
4	0x3ec4ce01	0.38438419
5	0x3e893224	0.26796067
6	0xbe71ea25	-0.23624475
7	0x3ea0aedf	0.31383416
8	0x3e9e2cfd	0.30893698
9	0x3e5f878d	0.21829052
10	0xbeb5eb2e	-0.3553099
11	0x3e0046dd	0.12527032
12	0x3ec27425	0.37979236
13	0x3e8d9652	0.27653748
14	0x3d7cf845	0.061760206
15	0xbe0f7697	-0.14010082
16	0x3eb19018	0.34680247
17	0xbd7acf78	-0.061233014
18	0x3ec80c06	0.39071673
19	0xbeb8de4c	-0.361071
20	0x3da4bd57	0.08043926
21	0x3d8b77ba	0.068099454
22	0x3e9324cb	0.28739008
23	0xbe5a7c98	-0.21336591
24	0xbd42e4fa	-0.04758165
25	0xbba00af4	-0.004884118
26	0x3ea8f14f	0.32996604
27	0x3dbdeb5e	0.09273408
28	0x3e60dc5b	0.21959059
29	0xbe838630	-0.25688314
30	0x3e59d913	0.21274213
31	0x3e93f097	0.28894493
32	0xbeb20096	-0.34766072
33	0x3dcd4338	0.100225866
34	0xbeb01093	-0.34387645
35	0x3ee35786	0.44402713
36	0xbe9bd58f	-0.3043637
37	0xbe1511d7	-0.14557587
38	0x3e699c94	0.22813636
39	0x3ed04ceb	0.40683684
40	0x3ea4016b	0.32032332
41	0xbd10db3e	-0.035365336
42	0x3e14f289	0.14545645
43	0xbd247f6a	-0.040160574
44	0x3eb28511	0.34867147
45	0xbe1e2f50	-0.15447736
46	0xbebf381c	-0.37347496
47	0xbe7d15c9	-0.24715342
48	0xbe209884	-0.1568318
49	0xbe5595e2	-0.20857957
50	0xbc00f3e6	-0.00787065
51	0x3e738fb5	0.23785289
52	0x3c90ab11	0.017659696
53	0xbe3618da	-0.17782918
54	0x3e8b5f65	0.27221218
55	0xbd2acaf0	-0.041697443
56	0x3ed9f5ec	0.42570436
57	0x3e98be8a	0.2983287
58	0x3ddbebd4	0.1073834
59	0x3d0c37b9	0.03423283
60	0x3e862754	0.2620188
61	0xbd28e36d	-0.041232515
62	0x3ed8280e	0.4221806
63	0xbec31f3c	-0.38109767
64	0xbe297ec3	-0.16552262
65	0x3ec811d5	0.39076105
66	0x3d7a54de	0.061116092
67	0xbdf4d4b8	-0.119546354
68	0xbe7915c1	-0.24324705
69	0xbe94d638	-0.29069686
70	0xbebd21dc	-0.36939895
71	0xbec63ee1	-0.38719848
72	0xbdd75307	-0.10513883
73	0x3d158f0c	0.036513373
74	0x3edacfee	0.42736763
75	0x3e993850	0.29925776
76	0xbe66ca11	-0.2253802
77	0x3d85346e	0.06504141
78	0x3e81ec82	0.25375754
79	0x3db9551c	0.090494365
80	0x3e8e2cb0	0.2776847
81	0xbec11eab	-0.3771871
82	0x3d000323	0.03125299
83	0xbe9fa3cb	-0.31179652
84	0x3eaf5f5a	0.34252435
85	0x3ec8bd7e	0.3920707
86	0xbe236e31	-0.15960003
87	0x3db9bf1f	0.090696566
88	0x3e79250e	0.24330541
89	0x3ea93bec	0.3305353
90	0x3e9b800d	0.30371132
91	0x3e758c67	0.2397934
92	0x3ee2f22b	0.44325384
93	0xbe8331c4	-0.25623906
94	0xbea8c07f	-0.32959363
95	0x3ca6ea93	0.020375526
96	0xbe426635	-0.18984301
97	0xbca06d49	-0.019583361
98	0xbe1223c3	-0.14271455
99	0x3e30a333	0.17249756
100	0x3e4199b6	0.18906292
101	0xbe9c92ee	-0.30580848
102	0x3eb9f865	0.36322322
103	0xbe9ccea8	-0.30626416
104	0x3db97b1d	0.09056685
105	0x3ebacc5d	0.36484042
106	0xbe9caf9c	-0.3060273
107	0x3ec08591	0.37601903
108	0xbe630e3c	-0.22173399
109	0xbdb8270d	-0.08991823
110	0xbe69b7c6	-0.2282401
111	0xbe589ee9	-0.2115437
112	0xbe4e23dd	-0.20130868
113	0xbe15cb3c	-0.14628309
114	0x3ec4c846	0.38434047
115	0xbd9281cc	-0.07153663
116	0x3ec6c1ae	0.3881964
117	0xbd9ef5ce	-0.07761727
118	0xbd8090cb	-0.06277617
119	0x3c96bed6	0.018401545
120	0x3e716a2a	0.23575655
121	0xbdea579f	-0.11442494
122	0xbe467bd2	-0.19383171
123	0x3d9d138f	0.07669746
124	0xbdad4e20	-0.08462167
125	0x3c4cf0eb	0.012508611
126	0x3e24f4b9	0.1610898
127	0x3eaaa5ca	0.33329612

fc2.weight f4 [64, 128]
0	0x3d155bfe	0.036464684
1	0x3d2e53e0	0.04256046
2	0xbd3f0617	-0.046636667
3	0x3cdb4bcc	0.026769541
4	0xbc066317	-0.008202336
5	0x3bca0573	0.0061652004
6	0x3cdeaea4	0.027182885
7	0x3d84f01b	0.06491109
8	0x3d2c31f2	0.04203982
9	0xbd102f26	-0.035201214
10	0xbcfab2ee	-0.030602898
11	0x3d5f4dd2	0.054517575
12	0xbcc38294	-0.023865975
13	0xbc422f61	-0.011852116
14	0x3cf2ca79	0.029637562
15	0x3d2e501f	0.04255688
16	0x3cf84abf	0.03030908
17	0x3d3a217a	0.045442082
18	0x3de384fd	0.1110935
19	0x3ca90f2e	0.020637121
20	0xbcf93649	-0.030421393
21	0x3d23839c	0.039920434
22	0x3cf461bd	0.029831761
23	0xbc955121	-0.018227162
24	0x3d96edf9	0.073696084
25	0xbd65b4a2	-0.056080468
26	0x3dabd768	0.08390695
27	0xbc43aa1e	-0.011942415
28	0x3d4be8ee	0.049782686
29	0xbd48ff58	-0.04907164
30	0x3d8642b9	0.06555695
31	0xbd3f8ec3	-0.046767008
32	0x3c9e9e5c	0.019362621
33	0x3d802596	0.06257169
34	0xbd052396	-0.03250464
35	0xbcf1083f	-0.029422877
36	0x3cb78f70	0.022407264
37	0x3de0946a	0.10965808
38	0x3b446c41	0.002997175
39	0x3c9db302	0.019250397
40	0x3daff48e	0.08591567
41	0x3db79412	0.08963789
42	0x3cc17974	0.023617484
43	0x3db16e91	0.08663667
44	0x3dbad1f7	0.09122079
45	0xbcce93a7	-0.02521689
46	0x3d78452e	0.06061285
47	0xbc57e249	-0.013176509
48	0xbd761ba5	-0.060084958
49	0x3c36c8c0	0.011156261
50	0xbd8a53f0	-0.06754291
51	0xbd20abfb	-0.039226513
52	0xbd7fa491	-0.062412802
53	0x3bea5530	0.0071512684
54	0xbba640a8	-0.0050736256
55	0xbc8ea3ca	-0.017412085
56	0x3dc8f5ef	0.09812533
57	0x3d9c37a8	0.07627803
58	0x3dd5aafd	0.10433004
59	0x3d86a45b	0.06574317
60	0x3db17bef	0.086662166
61	0xbcf4f188	-0.029900327
62	0xbd43344e	-0.047657304
63	0xbd7952d6	-0.060870014
64	0xbc79f588	-0.015256293
65	0xbd334ed6	-0.043776356
66	0x3db52b3f	0.08846139
67	0xbd08d3b3	-0.033405017
68	0x3dbc942b	0.09207948
69	0x3c494293	0.012283939
70	0xbd857219	-0.06515903
71	0x3d3f5c5a	0.046718933
72	0xbd1a34af	-0.0376479
73	0x3d58767c	0.05284737
74	0x3d92dfc6	0.07171588
75	0x3cbf8d4c	0.023382805
76	0xbd9b5f26	-0.075865075
77	0xbbd6bb59	-0.0065530953
78	0x3d63e9f3	0.055643033
79	0xbc9e0b1d	-0.019292409
80	0xbd90e897	-0.07075613
81	0xbd3f8b75	-0.046763856
82	0xbcbecd20	-0.02329117
83	0xbd4fad9a	-0.05070267
84	0x3be651e0	0.007028803
85	0x3dd8c512	0.10584463
86	0xbd0510d9	-0.03248677
87	0x3b0deef6	0.0021657324
88	0x3db8b33d	0.09018562
89	0xbd36647c	-0.044529423
90	0xbd026873	-0.03183789
91	0x3d9023e0	0.070380926
92	0xb9c01804	-0.00036638987
93	0x3d291f15	0.041289408
94	0xbd20f685	-0.0392976
95	0x3d457383	0.048205864
96	0x3daefe01	0.08544541
97	0x3db7c7fc	0.08973691
98	0xbbd890ac	-0.006609043
99	0x3a13c158	0.00056364154
100	0x3d78c79f	0.06073725
101	0xbcf85dab	-0.030318102
102	0x3dbc459e	0.09192966
103	0xbd877e84	-0.06615928
104	0xb9fdf690	-0.00048439624
105	0xbc121f0b	-0.008918534
106	0xbda623d6	-0.08112304
107	0xbd52bd32	-0.051449962
108	0x3c9a42be	0.018830653
109	0x3db79774	0.08964434
110	0xbd7794f7	-0.0604448
111	0x3d410eed	0.047133375
112	0xbcfd38f3	-0.030910945
113	0xbc1de7e0	-0.009637803
114	0xbc460983	-0.012087229
115	0xbd5f12d9	-0.054461334
116	0xbd1c8ae1	-0.038218383
117	0x3d408fe9	0.047012243
118	0xbd9aa7d4	-0.07551542
119	0x3baf8769	0.0053567183
120	0x3d53717e	0.051621906
121	0x3d877f1f	0.06616043
122	0xbd8a04c9	-0.06739194
123	0xbd5eb193	-0.054368567
124	0xbcf1b8ff	-0.029507158
125	0x3bb76d7c	0.0055977684
126	0xbcb04a4e	-0.021519806
127	0xbd23d94c	-0.040002152
128	0x3d35e2e4	0.044405833
129	0x3caec5ac	0.021334492
130	0x3c3a47f8	0.011369698
131	0xbd9b4729	-0.07581932
132	0xbd7c234e	-0.061557107
133	0x3da21850	0.079147935
134	0xbb9e2a40	-0.004826814
135	0xbbbb0c94	-0.0057082865
136	0xbda426ac	-0.080151886
137	0xbd3c8516	-0.04602536
138	0xbbef7d80	-0.007308662
139	0x3c7b5ac6	0.015341466
140	0x3d1b17d8	0.037864536
141	0xbd9f2d0e	-0.077722654
142	0x3d619e43	0.05508257
143	0xbd9cead1	-0.07661975
144	0x3d9f6924	0.07783726
145	0xbcc7e240	-0.024399877
146	0xbc800e69	-0.015631871
147	0xbd5f1f96	-0.054473482
148	0x3d3fc8d6	0.04682239
149	0x3d951b07	0.07280546
150	0xba6c48ec	-0.0009013552
151	0x3ca99524	0.020700999
152	0xbd48d4d7	-0.049031105
153	0xbd8b90e4	-0.06814745
154	0x3cf2d67c	0.02964329
155	0x3da45c38	0.08025402
156	0x3d8b0950	0.067888856
157	0xbbbba9a5	-0.0057270103
158	0xbda43057	-0.080170326
159	0xbd43cffa	-0.047805764
160	0x380f9800	3.4235418e-05
161	0xbda7d95e	-0.081957564
162	0xbd83727f	-0.06418323
163	0xbd202825	-0.039100785
164	0x3d8731a3	0.06601264
165	0xbc2e97a8	-0.010656275
166	0xbd05af27	-0.03263774
167	0x3d7aff78	0.06127879
168	0x3cba8654	0.02276913
169	0xbd74d958	-0.059777588
170	0x3c7e73bc	0.015530523
171	0x3ce22104	0.027603634
172	0xbcdbace1	-0.026815834
173	0xbc9a818c	-0.0188606
174	0x3d57efba	0.052718855
175	0xbbe1cee0	-0.0068911165
176	0xbd4f6569	-0.05063382
177	0x3d553c46	0.052059434
178	0x3d2a769e	0.04161703
179	0x3bb53d1d	0.005530967
180	0x3afe4d40	0.0019401684
181	0x3c4f91c0	0.012669027
182	0x3cd4d22a	0.02597912
183	0xbca90718	-0.020633265
184	0x3d42ca04	0.04755594
185	0x3da7e5c3	0.081981204
186	0x3c8f4a89	0.017491596
187	0x3d899c0d	0.067192174
188	0x3d84dcc9	0.06487424
189	0xbd90613f	-0.07049798
190	0xbd3ac4f1	-0.045597974
191	0x3d8ad305	0.0677853
192	0x3c7fe748	0.015619107
193	0xbbe1dc4e	-0.0068927174
194	0xbd29e982	-0.041482456
195	0xbd53d643	-0.051718008
196	0xbd70ecaa	-0.05881945
197	0xbdb5e83b	-0.08882185
198	0xbd3e0514	-0.04639156
199	0x3d9e2399	0.077216335
200	0x3d214997	0.03937682
201	0x3d8815ae	0.0664476
202	0xbd9c92a2	-0.076451555
203	0x3d034eb9	0.032057498
204	0xbd49074c	-0.049079224
205	0x3cd2b8f0	0.02572295
206	0xbd7f8b16	-0.062388502
207	0xbd82a115	-0.0637838
208	0xbd92b818	-0.07164019
209	0x3d28686c	0.04111521
210	0xbd98f03b	-0.07467695
211	0x3c116ab0	0.008875534
212	0x3d91fa6c	0.07127842
213	0x3cc5dc2f	0.024152843
214	0x3d97cc15	0.074119724
215	0xbd65a087	-0.056061294
216	0x3b9b7de5	0.0047452324
217	0x3d5b0370	0.053470075
218	0xbbccc36e	-0.006248883
219	0xbd10a502	-0.035313614
220	0xbc227683	-0.009915951
221	0x3ca8a2d4	0.020585455
222	0xbc629e03	-0.013831618
223	0x3da1c1e3	0.07898309
224	0xbda4a672	-0.080395594
225	0xbd9e6729	-0.0773452
226	0xbcaac325	-0.020845005
227	0x3d04282f	0.032264885
228	0xbd9f9104	-0.077913314
229	0xbda8b190	-0.08236992
230	0x3d91c5c5	0.071178
231	0xbda3ac27	-0.0799182
232	0xbd53e2d4	-0.051729992
233	0xbcc56a7d	-0.02409863
234	0x3b03c020	0.002010353
235	0x3d72a756	0.059241615
236	0xbd581ee5	-0.05276384
237	0xbc87f868	-0.016597942
238	0x3d2b5687	0.041830566
239	0xbdab26de	-0.08357023
240	0xbcd568c0	-0.026050925
241	0x3c35f6ad	0.011106175
242	0xbdb30cc9	-0.08742673
243	0xbdab32cf	-0.083593
244	0xbdad775e	-0.08470033
245	0xbd998712	-0.07496466
246	0x3d1bfa71	0.038080636
247	0x3ca73561	0.020411195
248	0x3d9f8271	0.077885516
249	0xbc9a010a	-0.018799324
250	0xbd956a70	-0.07295692
251	0xbda04ebc	-0.078275174
252	0xbd841430	-0.06449163
253	0x3d17329b	0.036913496
254	0x3d659a76	0.05605551
255	0x3d144410	0.036197722

fc2.bias f4 [64]
0	0x3d61ba9c	0.055109605
1	0xbd8a9e5b	-0.06768485
2	0xbd57c02a	-0.052673496
3	0x3d2adc74	0.041714147
4	0xbd7a65a3	-0.061132085
5	0x3d95f409	0.07321937
6	0xbcc09b9c	-0.0235117
7	0xbdb30aa2	-0.087422624
8	0xbcb9d651	-0.022685202
9	0xbdacdd42	-0.08440639
10	0x3de54346	0.11194472
11	0x3d25865a	0.04041133
12	0x3ca7b2b6	0.020470958
13	0xbd3816de	-0.044943683
14	0x3d92cb69	0.07167704
15	0x3dadd302	0.08487512
16	0xbbe4ac80	-0.0069785714
17	0x3c76b041	0.015056671
18	0x3bd1b1a0	0.0063993484
19	0x3d9f9257	0.07791584
20	0x3cc990b4	0.024605133
21	0xbb3189d1	-0.0027090202
22	0xbc9e62dc	-0.01933425
23	0xbcf74eab	-0.030188879
24	0xbd8f68e4	-0.07002428
25	0x3dbea1a8	0.09308177
26	0x3d132fdb	0.03593431
27	0x3c6b94e6	0.014378762
28	0x3d10d23e	0.035356753
29	0xbdb1a15a	-0.086733535
30	0xbc8ea96f	-0.017414777
31	0x3c89142d	0.016733253
32	0x3cb51a43	0.02210725
33	0x3d920c53	0.07131257
34	0x3cfcd69d	0.030864054
35	0xbd86844f	-0.065682046
36	0xbc4008c2	-0.011720838
37	0x3c0827e8	0.008310296
38	0xbd6851ab	-0.05671851
39	0xbc9c2fe1	-0.0190658
40	0xbd471382	-0.04860259
41	0xbcc88775	-0.024478653
42	0x3c263073	0.010143387
43	0xbd480082	-0.04882861
44	0xbcd8f795	-0.026485244
45	0x3b8f2726	0.0043686805
46	0x3db7d569	0.08976252
47	0xbdb2490d	-0.087053396
48	0x3d3a6154	0.045502976
49	0x3be6ea60	0.0070469826
50	0xbd8818f8	-0.066453874
51	0xbd949d1b	-0.07256528
52	0x3b8c9cc0	0.004291147
53	0x3d3926d7	0.045203056
54	0x3d9175d9	0.07102556
55	0xbd79d196	-0.060990892
56	0x3d7e875a	0.0621408
57	0xbd4ba2ee	-0.04971593
58	0xbd02861e	-0.031866185
59	0x3cf99340	0.030465722
60	0x3c5e95f0	0.013585553
61	0x3da352c2	0.07974769
62	0x3dcb3b94	0.09923473
63	0x3da25e2c	0.07928118

fc3_action.weight f4 [11, 64]
0	0xbe0f5c60	-0.14000082
1	0x3d2bc151	0.041932408
2	0xbc931e60	-0.01795882
3	0x3da4ecc1	0.0805297
4	0x3d253b86	0.04033997
5	0xbcf4c5f4	-0.029879548
6	0xbdf89146	-0.12137084
7	0x3d936362	0.0719669
8	0xbdc3fbce	-0.09569512
9	0xbdf49888	-0.119431555
10	0xbe26e910	-0.16299844
11	0xbd1d243e	-0.03836464
12	0xbdea3351	-0.11435569
13	0x3d1791e1	0.037004355
14	0xbdbb2609	-0.09138114
15	0xbe0c1aa4	-0.13682038
16	0xbc52a625	-0.012856995
17	0x3ce3027f	0.027711151
18	0x3ddbd774	0.10734454
19	0xbe4a1f3e	-0.1973848
20	0x3da84d82	0.082179084
21	0xbdf56565	-0.1198223
22	0x3deb3588	0.1148482
23	0xbd5ed9b8	-0.05440685
24	0xbbc4a140	-0.006000668
25	0xbdf5f34e	-0.12009297
26	0x3df04daa	0.11733563
27	0xbe129f4c	-0.1431858
28	0x3d860d2b	0.0654548
29	0xbd7e9fbc	-0.062164053
30	0x3d7cc4d0	0.061711133
31	0xbe1ab432	-0.15107802
32	0x3ddcba0b	0.107776724
33	0xbd81002a	-0.062988594
34	0xbdb81813	-0.08988967
35	0x3dbeabf8	0.09310144
36	0x3d8e39da	0.06944628
37	0x3dfca708	0.12336546
38	0xbd30f9f4	-0.043207124
39	0xbe2cea4f	-0.16886257
40	0x3de24907	0.11049085
41	0x3dfed97e	0.12443827
42	0x3aaf22d5	0.0013361821
43	0x3d313cc7	0.043270852
44	0x3d5fdec0	0.05465579
45	0xbe2dbdf1	-0.16966988
46	0xbdf59a10	-0.11992276
47	0x3d603574	0.054738477
48	0xbe3fd233	-0.18732528
49	0x3dcd004a	0.10009821
50	0xbd3cf6e8	-0.046133906
51	0xbd0780cc	-0.033081815
52	0xbd329b20	-0.04360497
53	0xbde84301	-0.11340905
54	0x3df6d979	0.12053198
55	0x3c88c050	0.016693264
56	0xbdd76dc6	-0.105189845
57	0x3daded0e	0.0849248
58	0xbe3555f3	-0.17708568
59	0xbdd6940c	-0.104774565
60	0xbd8c5e10	-0.068538785
61	0xbe45fd52	-0.19334915
62	0xbe389809	-0.18026747
63	0xbde8feef	-0.1137675
64	0xbd860fe3	-0.06545999
65	0xbc699188	-0.014255889
66	0xbba2cec0	-0.004968494
67	0x3dbfa3d1	0.093574174
68	0xbdc204e5	-0.0947359
69	0x3d358391	0.044314925
70	0x3de2028e	0.110356435
71	0xbde46abc	-0.111531705
72	0xbd1e09bb	-0.0385835
73	0xbdd3c1ce	-0.103397
74	0x3da0f2cf	0.07858812
75	0x3d74b26f	0.05974048
76	0x3dc5a4ea	0.096505955
77	0x3c951946	0.018200528
78	0x3d99d84b	0.07511958
79	0x3dd745dc	0.105113715
80	0x3d29b34c	0.041430756
81	0xbd1941ed	-0.037416387
82	0xbde02744	-0.10944989
83	0x3cec7588	0.028864637
84	0x3d30d69c	0.043173417
85	0x3dd21112	0.10257162
86	0x3c963205	0.018334398
87	0x3cdc90a1	0.026924433
88	0xbd62c80e	-0.05536657
89	0x3e1e70b9	0.15472688
90	0x3de2d693	0.11076083
91	0xb9e10b4d	-0.00042923764
92	0x3d1ed41e	0.03877651
93	0x3df9b06e	0.121918544
94	0x3ded7917	0.11595362
95	0x3d861993	0.06547847
96	0x3caff04d	0.021476889
97	0x3d38d6fc	0.0451269
98	0x3c753638	0.01496654
99	0x3d102400	0.035190582
100	0x3de8d5d5	0.1136891
101	0x3d6bc960	0.057565093
102	0xbd855c12	-0.06511702
103	0x3db6823e	0.089115605
104	0x3b16f0a4	0.0023031617
105	0xbd88e326	-0.0668395
106	0xbdb7bcd0	-0.0897156
107	0x3e1c8ffe	0.15289304
108	0xbddc0bd0	-0.107444406
109	0x3defff12	0.11718573
110	0x3cd68c01	0.026189806
111	0xbd7087a4	-0.058723107
112	0x3c50b10d	0.012737525
113	0xbdf80aca	-0.12111433
114	0xbd9a9a7a	-0.07548995
115	0x3d7be118	0.061493963
116	0xbd981160	-0.07425189
117	0x3d8bf819	0.0683443
118	0xbdc1fa7e	-0.09471606
119	0xbdeaea4c	-0.1147047
120	0x3d99421a	0.07483311
121	0x3d6be0ba	0.057587363
122	0x3db854cb	0.09000548
123	0x3d3ff428	0.046863705
124	0xbc23e610	-0.010003582
125	0x3de2b80b	0.1107026
126	0x3da9718b	0.0827361
127	0xbcbeb54e	-0.023279812
128	0x3d9cb5af	0.07651841
129	0x3db8b9ec	0.09019837
130	0x3da22f04	0.07919124
131	0xbd74f65b	-0.059805255
132	0xbd349140	-0.044083834
133	0xbd988ea2	-0.0744908
134	0xbd9e6f1a	-0.07736035
135	0x3c03c070	0.008041486
136	0xbd6290a1	-0.05531371
137	0xbde52c32	-0.1119007
138	0x3def45b6	0.11683218
139	0x3da684ac	0.08130774
140	0xbc276a71	-0.010218249
141	0xbd2ef851	-0.04271728
142	0xbcf13628	-0.029444769
143	0x3d337e70	0.043821752
144	0x3df5d667	0.120037846
145	0xbd13c042	-0.036072023
146	0x3da768b4	0.081742674
147	0xbc86fad4	-0.016477026
148	0x3c78cc70	0.01518546
149	0xbbfb4ab6	-0.0076688183
150	0xbd65bbdd	-0.056087364
151	0xbd97ac0b	-0.074058615
152	0x3d166b3d	0.036723364
153	0x3d174cb9	0.036938403
154	0x3d87eaa2	0.066365495
155	0xbd6f1156	-0.058366142
156	0x3dd1091f	0.10206818
157	0x3d8eff44	0.06982282
158	0x3d63057c	0.055425152
159	0xbb485eea	-0.0030574151
160	0xbdb89074	-0.09011927
161	0xbd8abf0a	-0.06774719
162	0xbc5f3127	-0.013622559
163	0x3cad15d8	0.02112858
164	0x3de61738	0.112348974
165	0xbdc28dfa	-0.09499736
166	0x3df84c00	0.12123871
167	0xbde4e380	-0.11176205
168	0xbca3a9e3	-0.01997847
169	0x3c93bb45	0.018033633
170	0x3e00c41b	0.12574808
171	0xbb975820	-0.0046186596
172	0x3b7701c8	0.003769027
173	0x3d229fda	0.039703228
174	0x3d8ef446	0.06980185
175	0xbde53bc6	-0.111930415
176	0x3d90d8d9	0.070726104
177	0xbd1acb88	-0.03779176
178	0x3d014414	0.031559065
179	0x3dddbbae	0.10826813
180	0x3dcdcdb0	0.100489974
181	0xbdf4bd0c	-0.1195012
182	0x3d6634ae	0.056202583
183	0x3d10ff00	0.035399437
184	0x3cd58b99	0.026067542
185	0x3cda6605	0.026659975
186	0xbd360e6a	-0.04444734
187	0xbd0ceb8b	-0.03440432
188	0x3d1afa6c	0.037836477
189	0xbdfcf25d	-0.123509146
190	0x3d902b78	0.07039541
191	0x3cd0cefb	0.025489321
192	0x3daba48d	0.08380995
193	0xbd275e8c	-0.04086165
194	0x3df706ec	0.12061867
195	0x3c13aa00	0.009012699
196	0xbc907415	-0.017633477
197	0x3dfab013	0.12240615
198	0x3acef800	0.0015790462
199	0x3d9c2048	0.07623345
200	0x3d36cd6a	0.044629492
201	0xbd759a78	-0.059961766
202	0xbd10162b	-0.03517739
203	0xbd751943	-0.059838545
204	0x3d189f8c	0.03726153
205	0xbccde351	-0.025132807
206	0xbe0b058f	-0.13576339
207	0xbde2a161	-0.11065937
208	0x3d8b849b	0.06812402
209	0x3dbdbae4	0.09264162
210	0xbd115de8	-0.035489947
211	0x3da721fa	0.081607774
212	0x3d8cd7bc	0.068770856
213	0xbb18847f	-0.0023272333
214	0x3def6551	0.116892464
215	0xb9a8c97b	-0.00032193572
216	0x3df7d771	0.12101639
217	0x3dd9d92c	0.106371254
218	0xbd17bdaa	-0.037046112
219	0xbbf64754	-0.007515827
220	0x3db4cb7d	0.08827875
221	0xbdb07b5a	-0.086172774
222	0x3d9e11db	0.077182494
223	0x3de4a265	0.11163787
224	0xbdaa224d	-0.083073236
225	0x3b32bf80	0.0027274787
226	0xbe03b916	-0.12863573
227	0xbddb72d8	-0.10715264
228	0xbcf380cc	-0.029724501
229	0x3db86faa	0.09005673
230	0xbd0075e8	-0.031362444
231	0x3df08019	0.11743183
232	0xbdcc71e0	-0.099826574
233	0x3da411c2	0.080111995
234	0xbde24b3a	-0.110495046
235	0xbd9db632	-0.077007666
236	0xbda67c09	-0.081291266
237	0xbd8d7d1a	-0.06908627
238	0x3b344d4e	0.0027511897
239	0x3dd72c88	0.105065405
240	0x3df3082d	0.11866794
241	0xbc55a360	-0.01303944
242	0x3cb01d1b	0.021498254
243	0x3dc9e4c8	0.0985809
244	0xbc9c62d0	-0.019090086
245	0x3c3099f3	0.010778892
246	0x3b971eba	0.004611817
247	0xbc91f588	-0.017817274
248	0x3d15407e	0.036438458
249	0x3d26ec58	0.04075274
250	0x3bca6c0e	0.006177432
251	0xbd9a5bb6	-0.07537024
252	0xbca234b8	-0.019800529
253	0x3d810915	0.063005604
254	0x3d9f8fb5	0.07791082
255	0x3d6655a7	0.05623403

fc3_action.bias f4 [11]
0	0xbd1dbf5a	-0.038512565
1	0x3d2e3cf2	0.04253859
2	0x3d4a9341	0.04945684
3	0x3bdf2af4	0.0068105403
4	0x3c44526a	0.01198254
5	0x3d3438e8	0.043999583
6	0xbcff7595	-0.031183997
7	0x3d98e16a	0.07464869
8	0x3b9fdd6b	0.00487869
9	0xbd83af59	-0.06429929
10	0x3d80df1a	0.06292553
