improved_vrpb_best.pth (torch, 49945 bytes, 6 tensors)

fc1.weight f4 [128, 5]
0	0xbdc786f4	-0.09742537
1	0xbeaa7a51	-0.33296445
2	0xbe9c0127	-0.3046963
3	0x3e954686	0.29155368
4	0x3e2971a8	0.16547263
5	0x3ec80fba	0.39074498
6	0x3e272c77	0.16325556
7	0xbe8c0335	-0.27346197
8	0x3bdf4c85	0.0068145418
9	0x3d7251c0	0.059159994
10	0x3ecc8883	0.399479
11	0x3df5cc00	0.120018005
12	0x3df69caa	0.120416
13	0x3e9444d0	0.2895875
14	0xbede5e2d	-0.43431225
15	0xbdd74c9a	-0.105126575
16	0xbda3c5be	-0.07996701
17	0xbed55ed9	-0.41673926
18	0x3e3068ae	0.17227432
19	0xbee0c68a	-0.43901473
20	0xbe52e392	-0.20594624
21	0x3e30927c	0.1724338
22	0x3cde3910	0.027126819
23	0xbeae0ac6	-0.33992594
24	0x3e558be0	0.2085414
25	0xbe11b130	-0.14227748
26	0xbea1d4c0	-0.31607628
27	0x3ea35180	0.31898117
28	0x3e0f4c72	0.13994005
29	0xbdb8e524	-0.0902808
30	0xbec8401d	-0.39111415
31	0xbe83de3f	-0.25755498
32	0x3e6f1a62	0.23349908
33	0x3e968c26	0.294038
34	0xbea64478	-0.32474113
35	0x3ed22636	0.41044778
36	0xbec694ab	-0.387853
37	0xbe33a1e3	-0.17542224
38	0xbdee171e	-0.11625503
39	0x3eaa9ea4	0.33324158
40	0xbed07991	-0.40717748
41	0x3ece50f8	0.4029615
42	0x3dba6818	0.091018856
43	0xbe2fc15d	-0.17163606
44	0x3ed95e68	0.4245484
45	0x3e71d660	0.23616934
46	0xbc017940	-0.007902443
47	0xbe976f06	-0.29576892
48	0x3ce22440	0.027605176
49	0x3de6d968	0.11271936
50	0x3d7cf0c2	0.061753042
51	0x3e7eef29	0.2489592
52	0x3d818822	0.063247934
53	0xbcdcbec7	-0.026946438
54	0x3eb2f86e	0.34955162
55	0x3ea2666a	0.3171876
56	0x3d495917	0.04915723
57	0xbd99ae23	-0.07503917
58	0xbee544aa	-0.4477895
59	0x3ddac1d0	0.10681498
60	0x3e94616d	0.2898058
61	0x3eb85308	0.36000848
62	0x3d68eaca	0.056864537
63	0xbe88e886	-0.267399
64	0xbcef7000	-0.02922821
65	0xbeaf594d	-0.3424782
66	0x3de1c9c0	0.11024809
67	0xbe77f2fb	-0.24213783
68	0xbe5bb7cd	-0.21456833
69	0xbdc1c21c	-0.094608516
70	0x3deacc5e	0.11464761
71	0x3d9a0f0e	0.07522403
72	0x3c7653c8	0.015034623
73	0xbe89c14a	-0.2690528
74	0xbebeee27	-0.3729107
75	0xbde2dae0	-0.11076903
76	0x3e00d370	0.12580657
77	0xbe991c2e	-0.29904312
78	0xbddba6d8	-0.10725182
79	0xbe53d807	-0.20687877
80	0xbb5b3084	-0.0033445666
81	0xbe302c3f	-0.17204379
82	0x3d38fb25	0.045161385
83	0x3df12b1f	0.11775803
84	0x3dae17a0	0.085006
85	0x3ec6b14b	0.3880714
86	0xbe8e1b69	-0.27755287
87	0xbd01c58f	-0.031682547
88	0x3ed7d3ca	0.4215377
89	0xbedcab14	-0.43099272
90	0x3ecff251	0.4061456
91	0x394f38e9	0.00019762259
92	0x3d41a320	0.04727471
93	0xbe9d1d9e	-0.3068666
94	0x3e92ab88	0.28646493
95	0x3dbbd2f9	0.09171099
96	0xbe7151bd	-0.23566337
97	0xbe4d374b	-0.20040624
98	0x3e4b4522	0.19850591
99	0xbee2b3f6	-0.44277924
100	0x3e93eaa2	0.28889948
101	0xbde49738	-0.11161655
102	0x3ebaee36	0.36509866
103	0xbd307781	-0.043082718
104	0x3e76f7e8	0.24118006
105	0xbd795685	-0.060873527
106	0xbe9e2c19	-0.3089302
107	0xbe1a7ff6	-0.15087876
108	0x3edb3606	0.42814654
109	0x3e0e37b4	0.13888437
110	0xbedef6d7	-0.435477
111	0xbea72dc9	-0.3265212
112	0x3ee49093	0.4464155
113	0xbecd5a37	-0.4010789
114	0x3e01c044	0.12671
115	0xbe18db3e	-0.14927384
116	0xbe8c9776	-0.27459306
117	0xbe0db550	-0.13838696
118	0xbeb0e11c	-0.34546745
119	0x3cf2b4d0	0.029627234
120	0xbe389eda	-0.18029347
121	0xbee28c7b	-0.44247803
122	0xbccc01c5	-0.024903188
123	0x3da0ff96	0.07861249
124	0xbedc82a6	-0.43068427
125	0x3e3b3f3c	0.18285841
126	0x3dd7648b	0.10517224
127	0x3e52f32f	0.2060058
128	0x3e36736c	0.17817467
129	0x3ebd49cc	0.36970365
130	0x3e2a8a94	0.16654426
131	0x3e52190e	0.2051737
132	0x3ec4ec75	0.38461652
133	0xbea65f45	-0.3249456
134	0x3ed77cd8	0.42087436
135	0xbe2b93c4	-0.16755587
136	0x3da5d35d	0.08096955
137	0xbe4f1885	-0.20224197
138	0xbd362568	-0.044469267
139	0x3e814fd2	0.2525621
140	0x3e868a3b	0.26277336
141	0x3e0cefc4	0.13763338
142	0x3ea8c837	0.32965252
143	0xbe8b3ae7	-0.27193376
144	0xbe9053fc	-0.28189075
145	0xbe8c0d1c	-0.27353752
146	0x3df3897b	0.11891457
147	0xbed35f49	-0.41283634
148	0x3e9a8d7a	0.30186063
149	0x3e4c51ec	0.19953126
150	0x3e36e704	0.17861563
151	0xbe58a608	-0.21157086
152	0xbe672f3e	-0.22576615
153	0xbed9d97c	-0.4254874
154	0x3c8cf990	0.017208844
155	0xbe8e2ebf	-0.2777004
156	0xbe2de4ef	-0.16981862
157	0x3d42ca97	0.047556486
158	0xbe9d3afa	-0.30709058
159	0xbedd9347	-0.43276426
160	0xbd99a7bc	-0.07502696
161	0x3df9d908	0.121995986
162	0xbeb98f7b	-0.3624228
163	0xbedd6439	-0.43240526
164	0xbed76325	-0.4206783
165	0x3d84b966	0.064806744
166	0xbac82fc8	-0.0015273029
167	0xbe4ce7b8	-0.20010269
168	0x3eb3ec2d	0.35141125
169	0x3e02342c	0.12715214
170	0xbe45e8cf	-0.1932709
171	0x3dda432b	0.106573425
172	0x3e046a40	0.12931156
173	0xbe9539db	-0.29145703
174	0x3d0e5ec8	0.03475836
175	0x3ecdd5cf	0.40202186
176	0xbe3d120c	-0.18463916
177	0xbe678deb	-0.22612731
178	0x3df49366	0.119421765
179	0xbd681328	-0.056658894
180	0x3e362b77	0.17790018
181	0xbd91fa79	-0.07127852
182	0xbd411f96	-0.047149263
183	0x3edd682d	0.43243542
184	0x3eaf903e	0.34289736
185	0x3ebfedd4	0.37486136
186	0x3e6ee9ec	0.23331422
187	0x3e122cff	0.14274977
188	0x3e9ec891	0.31012395
189	0xbd779520	-0.06044495
190	0xbdcbffd2	-0.09960903
191	0x3e290b10	0.16508126
192	0x3e8d4fe4	0.27600014
193	0xbe859a5a	-0.26094323
194	0xbecf389c	-0.40472877
195	0xbe9a5406	-0.3014223
196	0x3ec22822	0.37921244
197	0xbeb920af	-0.36157748
198	0x3dd989b7	0.1062197
199	0xbcd92650	-0.026507527
200	0x3e56b2c0	0.20966625
201	0xbe92007a	-0.2851599
202	0xbe340cd9	-0.17583026
203	0x3ebca34d	0.3684334
204	0x3e8a54ec	0.27017915
205	0xbe920593	-0.28519878
206	0x3e3f138e	0.18659803
207	0x3ea7bc68	0.3276093
208	0x3c990b74	0.01868222
209	0x3e46be8c	0.19408625
210	0x3e04d64d	0.12972374
211	0xbe8195ce	-0.25309604
212	0x3eb5801a	0.35449296
213	0xbeb6bd75	-0.3569142
214	0x3e084f34	0.13311464
215	0xbeb9e11e	-0.36304563
216	0xbddf27db	-0.10896274
217	0xbecbaf61	-0.3978224
218	0xbcd2c22e	-0.025727358
219	0xbe2702b2	-0.16309622
220	0xbed95efa	-0.42455274
221	0x3ea67e07	0.32518026
222	0x3e030d06	0.12797937
223	0xbe82a4aa	-0.25516254
224	0xbedbdbdb	-0.42941174
225	0xbedf6c7f	-0.43637463
226	0xbe63c452	-0.22242859
227	0xbdd1b834	-0.10240212
228	0x3e9882f0	0.29787397
229	0xbeadf412	-0.33975273
230	0xbe7c9a58	-0.24668252
231	0x3ecbcf09	0.39806393
232	0x3e450c11	0.19242884
233	0x3edc11fb	0.42982468
234	0xbde282b8	-0.11060089
235	0x3d79f029	0.06102005
236	0xbe2cdad2	-0.16880348
237	0x3e7f5c5a	0.24937573
238	0x3ee514df	0.44742486
239	0xbb23c480	-0.002498895
240	0x3e66fa10	0.22556329
241	0x3d2d7b36	0.04235383
242	0x3ea53529	0.3226712
243	0x3e8183fa	0.25296003
244	0xbecba6f9	-0.39775828
245	0x3ec4a9a2	0.3841067
246	0x3ee40be9	0.44540337
247	0xbee365b4	-0.4441353
248	0xbda9b845	-0.082871
249	0xbe3b7bb8	-0.18308914
250	0xbdc251c7	-0.09488254
251	0x3ec54954	0.38532507
252	0x3dd28b66	0.102804944
253	0xbea965ac	-0.33085382
254	0xbebe277e	-0.37139505
255	0x3d19c9f8	0.037546128

fc1.bias f4 [128]
0	0xbeb7c15b	-0.35889706
1	0x3ec88ba1	0.39169028
2	0x3eacd552	0.337565
3	0xbc2e3e48	-0.010634966
4	0xbeb70b27	-0.35750696
5	0xbdfd7bfd	-0.123771645
6	0xbe822f2d	-0.25426617
7	0xbdad5192	-0.08462824
8	0x3e8e783e	0.27826113
9	0xbeb1c5aa	-0.34721118
10	0xbeae5249	-0.34047154
11	0xbd7fefc2	-0.06248451
12	0x3e255d63	0.16148905
13	0xbdd78994	-0.10524288
14	0x3e6d50bf	0.23175333
15	0xbdc26ad0	-0.09493029
16	0xb8c09d16	-9.184533e-05
17	0x3ea03708	0.31291986
18	0xbe9feff4	-0.31237757
19	0x3e4ff7c7	0.20309363
20	0xbe8b826b	-0.2724794
21	0x3ec53fb1	0.38525155
22	0x3e50ccae	0.20390579
23	0xbe2c0efa	-0.16802588
24	0x3e350870	0.17679
25	0xbd3ebe9f	-0.04656851
26	0xbe575989	-0.21030249
27	0x3dc3c456	0.095589325
28	0x3e7ce73f	0.24697588
29	0x3e8fd380	0.2809105
30	0xbecdee6f	-0.40220973
31	0x3eba2296	0.36354512
32	0xbed6fd23	-0.41990003
33	0xbe812665	-0.25224605
34	0xbcd60169	-0.02612372
35	0xbda12ce1	-0.07869888
36	0x3e121e81	0.14269449
37	0x3e7aa6c5	0.2447768
38	0x3ea4b896	0.32172078
39	0xbe0ecbbe	-0.13944909
40	0xbdf9c77c	-0.12196252
41	0x3ad120cc	0.0015955209
42	0x3ee38410	0.44436693
43	0x3e978a7b	0.2959784
44	0x3d152253	0.036409687
45	0xbd8e3682	-0.0694399
46	0xbda273f6	-0.07932274
47	0xbed0b8df	-0.40766045
48	0x3e2eefee	0.17083713
49	0x3e6fb8ea	0.23410383
50	0xbe0bfe1c	-0.13671154
51	0xbe4b6009	-0.19860853
52	0xbeb47a8c	-0.35249746
53	0xbed28885	-0.4111978
54	0x3e6358c3	0.22201829
55	0x3c3cb9b0	0.011518881
56	0x3ecad750	0.39617395
57	0x3d6f91dc	0.05848871
58	0x3eb28c71	0.34872773
59	0xbdd00648	-0.10157448
60	0xbe61ac4a	-0.2203838
61	0xbda4613a	-0.08026357
62	0xbea458d6	-0.32099026
63	0xbd3b7d2e	-0.045773678
64	0xbd665609	-0.056234393
65	0x3e82da6a	0.25557262
66	0xbe0a2eee	-0.13494465
67	0xbb11c8f9	-0.0022245033
68	0xbb541bb8	-0.0032365154
69	0xbde4384c	-0.1114355
70	0x3ed48fb0	0.41515875
71	0xbed510de	-0.4161443
72	0xbd0f317b	-0.034959298
73	0xbe898c0a	-0.26864654
74	0x3cb1ab6b	0.021688184
75	0x3ee1d5da	0.44108468
76	0x3ecf4700	0.40483856
77	0x3e506c59	0.20353831
78	0x3de1c7c0	0.110244274
79	0x3ee05a6b	0.43818983
80	0xbe14baff	-0.14524458
81	0xbe64c64c	-0.22341269
82	0xbe26ac8d	-0.1627676
83	0x3e3d85bd	0.18508048
84	0xbe11e570	-0.1424768
85	0x3ede5bac	0.43429315
86	0xbeb7af54	-0.35875952
87	0x3e31a406	0.17347726
88	0xbe61efcc	-0.22064131
89	0xbedadc87	-0.42746374
90	0x3d73ad2d	0.059491325
91	0x3e620ca0	0.22075129
92	0x3cdefda4	0.027220555
93	0x3ecc8b23	0.39949903
94	0xbed6d566	-0.41959685
95	0x3ec37882	0.38177878
96	0x3e037423	0.12837271
97	0x3e9782d1	0.29591992
98	0x3e6247d9	0.2209772
99	0x3e68685d	0.22696061
100	0x3ea30670	0.3184085
101	0xbdafc99d	-0.085833766
102	0xbe0c659d	-0.13710637
103	0x3e70fd0d	0.23534031
104	0x3c954c53	0.01822487
105	0xbe9ed98b	-0.31025347
106	0x3d58c755	0.052924473
107	0x3e937745	0.28801933
108	0x3ed0c660	0.40776348
109	0xbed0c182	-0.40772635
110	0x3ede6a1c	0.4344033
111	0xbe4e28c5	-0.2013274
112	0x3d9d4c13	0.07680526
113	0xbe42b5d4	-0.19014674
114	0xbe936279	-0.28786066
115	0x3ea1b581	0.3158379
116	0x3e33b049	0.17547716
117	0xbe94369d	-0.28947917
118	0x3e3f34f5	0.18672545
119	0xbeb1cdf2	-0.34727436
120	0x3d178a16	0.036996923
121	0xbdcf9190	-0.10135186
122	0xbed73bf9	-0.42037943
123	0x3ede1b9a	0.43380433
124	0x3dcbe26f	0.09955298
125	0xbe924334	-0.28566897
126	0xbedb1d0b	-0.42795596
127	0x3e54c9c9	0.207801

fc2.weight f4 [64, 128]
0	0xbd8c0f00	-0.068387985
1	0x3d186320	0.037203908
2	0xbc571850	-0.013128355
3	0x3d6afde0	0.05737102
4	0xbd6ee164	-0.058320418
5	0xbd29ae62	-0.04142607
6	0xbd6e0c01	-0.058116917
7	0xbd43b1b0	-0.047776878
8	0xbda592ac	-0.08084616
9	0x3cdae6e4	0.026721425
10	0xbcb462e0	-0.022019804
11	0xbbb84e22	-0.0056245485
12	0x3daf85eb	0.08570465
13	0xbdafe1ae	-0.08587967
14	0x3c6dca79	0.014513605
15	0x3d69fc56	0.057125412
16	0x3d765849	0.06014279
17	0x3bf3d273	0.007440859
18	0xbd85cf97	-0.06533735
19	0x3d1d2a7c	0.038370594
20	0xbd2f1b4b	-0.042750638
21	0xbd740a05	-0.059579868
22	0xbcbe3211	-0.023217233
23	0xbd88ff30	-0.06689298
24	0xbda94aab	-0.08266195
25	0xbcad80f8	-0.021179661
26	0xbd3e3765	-0.046439547
27	0x3d52e0ec	0.051484033
28	0x3d989d1f	0.074518435
29	0x3d1adce5	0.037808318
30	0xbc932608	-0.01796247
31	0x3d82419a	0.06360169
32	0x3b8c7a90	0.0042870715
33	0xbc90bf25	-0.01766927
34	0x3d5b9d5f	0.053616878
35	0x3d8cd1d7	0.06875961
36	0xbda28e24	-0.079372674
37	0x3c825dbf	0.015913842
38	0x3d0dab66	0.034587286
39	0xbdb4fa79	-0.08836836
40	0x3cddd0b0	0.027077049
41	0xbc8c8cc6	-0.01715697
42	0xbda99576	-0.082804605
43	0x3c163b7f	0.009169458
44	0x3d8657c8	0.06559712
45	0xbd877afd	-0.06615255
46	0x3d9809a4	0.07423714
47	0x3d828b2b	0.063742004
48	0x3cf750da	0.03018992
49	0x3db2b74c	0.08726367
50	0x3cf93046	0.030418526
51	0xbd0ac3a3	-0.03387798
52	0x3db41b38	0.08794254
53	0xbca800cc	-0.020508192
54	0xbd43e1a3	-0.047822606
55	0x3d46f2ed	0.048571516
56	0x3d054a6b	0.032541674
57	0x3da0777c	0.0783529
58	0x3d8e5fbc	0.06951854
59	0x3c51228b	0.012764583
60	0x3d9b65c8	0.075877726
61	0x3da0f8ce	0.07859956
62	0xbd929ca9	-0.07158787
63	0x3da6f68b	0.08152493
64	0xbd2c9f2c	-0.042143986
65	0x3c13a4a3	0.00901142
66	0xbd852c57	-0.06502598
67	0xbd3f69ab	-0.046731632
68	0xbd7400f2	-0.059571214
69	0xbd730dc6	-0.059339307
70	0x3d1c6cf9	0.038189862
71	0x3da6844b	0.08130702
72	0xbc6a308e	-0.014293803
73	0x3b7a4a09	0.00381911
74	0x3d86a95a	0.0657527
75	0x3d7c2709	0.061560664
76	0xbda660aa	-0.08123906
77	0x3db24981	0.08705426
78	0x3bae3f18	0.00531758
79	0xbd4702f1	-0.04858679
80	0xbd5c2a68	-0.05375138
81	0xbdad2a1a	-0.08455296
82	0x3c4168e2	0.011804791
83	0xbcddd77f	-0.027080296
84	0xbdb5d5d6	-0.088786766
85	0x3d8ba909	0.0681935
86	0x3d8dc639	0.069225736
87	0xbce55912	-0.027996574
88	0x3d50201f	0.050811883
89	0xbd88dc05	-0.066825904
90	0x3daee16a	0.08539088
91	0x3d3c9656	0.04604181
92	0x3cbb266e	0.022845473
93	0x3d3d5b03	0.046229374
94	0xbdac294c	-0.08406314
95	0xbd1e26ab	-0.038611095
96	0xbc2d58ef	-0.010580285
97	0xbd676490	-0.05649239
98	0x3bff60e3	0.007793532
99	0xbd3dc0e7	-0.046326544
100	0x3d481cb8	0.048855513
101	0x3dadd6e6	0.08488254
102	0xbb91cb47	-0.0044492814
103	0xbd8c083b	-0.06837507
104	0xbd2aa55e	-0.041661613
105	0x3d5f6321	0.054537896
106	0x3d152ce8	0.03641978
107	0xbd5b4b73	-0.05353875
108	0x3d6b171d	0.05739509
109	0xbca71e30	-0.020400137
110	0x3d50990d	0.05092721
111	0xbd167191	-0.0367294
112	0xbd8b21d8	-0.067935646
113	0x3d3bf15e	0.045884483
114	0x3d8bafd8	0.06820649
115	0x3dadaa0c	0.084796995
116	0xbd9fcdbf	-0.07802915
117	0x3cdab3fd	0.026697153
118	0xbd445b06	-0.04793837
119	0x3da0aeb3	0.07845821
120	0x3d10fb0e	0.035395674
121	0x3d83b221	0.0643046
122	0x3d31e896	0.0434347
123	0x3c85b563	0.016321843
124	0x3d021b19	0.031764124
125	0x3d6642be	0.056215994
126	0xbc907074	-0.017631747
127	0xbd020339	-0.031741355
128	0x3d3d00b2	0.04614324
129	0xbcb4dd54	-0.022078194
130	0x3d747e29	0.05969063
131	0xb9a75c13	-0.00031921323
132	0x3d76c35a	0.060244896
133	0x3d3d97e1	0.04628742
134	0xbcdcbb2b	-0.026944717
135	0x3ce704f6	0.028200608
136	0x3d93ee19	0.07223148
137	0x3d84544d	0.064613916
138	0x3d1c3960	0.038140655
139	0x3c3a06b1	0.011354134
140	0x3a304b76	0.0006725112
141	0xbc0c16c8	-0.008550353
142	0xbd8d98d3	-0.069139145
143	0x3db24879	0.08705229
144	0x3ac219a6	0.0014808669
145	0x3d66b5d1	0.056325737
146	0x3d83366c	0.064068645
147	0x3b70d743	0.00367494
148	0xbd68ceb2	-0.056837745
149	0xbd6a8385	-0.057254333
150	0x3d2a7d40	0.041623354
151	0xbd29eea8	-0.041487366
152	0xbd24061a	-0.04004488
153	0xbd154999	-0.03644714
154	0x3db02fef	0.086028926
155	0x3d708003	0.05871583
156	0xb9d1e2c4	-0.0004003254
157	0x3d812ef7	0.06307786
158	0xbc655748	-0.01399786
159	0x3d946e3b	0.07247587
160	0x3d0577b6	0.03258487
161	0x3cf2b4ac	0.029627167
162	0xbd83db93	-0.06438365
163	0x3da43a91	0.08018983
164	0xbd3fd815	-0.04683693
165	0xbd295a90	-0.041346133
166	0x3d525cd7	0.05135807
167	0xbcacad78	-0.02107881
168	0x3d853996	0.06505124
169	0xbd6685aa	-0.056279816
170	0x3d545b5b	0.051844936
171	0x3d523f6e	0.051330023
172	0x3cd273de	0.025690015
173	0xbd537099	-0.051621053
174	0x3c920a65	0.017827222
175	0xbd63da99	-0.055628393
176	0xbbfacc3a	-0.0076537402
177	0x3d02e679	0.031958077
178	0x3c125cf3	0.008933294
179	0x3d10d82f	0.03536242
180	0xbcd8d04b	-0.02646651
181	0xbc234770	-0.0099657625
182	0x3be148b6	0.006875123
183	0xbd1492cb	-0.036272805
184	0xbd5607a7	-0.05225339
185	0x3d76cbb9	0.06025288
186	0xbda14b8d	-0.07875738
187	0xbdb09bb3	-0.08623447
188	0x3d520aa7	0.05127969
189	0xbca1ad0b	-0.019735834
190	0x3da018ac	0.07817206
191	0xbd9cf874	-0.07664576
192	0x3db73b27	0.08946829
193	0xbd3b535a	-0.045733787
194	0xbd7974f2	-0.060902543
195	0xbd8c7cd7	-0.06859749
196	0xbb84cf0e	-0.004053003
197	0x3d4cf6c6	0.05004003
198	0xbcc72f36	-0.024314504
199	0xbdaa1a3f	-0.08305787
200	0x3d2b7e39	0.041868422
201	0xbd9ec05b	-0.07751533
202	0x3d4ef331	0.050524894
203	0xbaa62b8a	-0.001267777
204	0x3d9a7710	0.075422406
205	0x3cd10f2a	0.025519926
206	0x3c863169	0.016380982
207	0xbd347989	-0.044061217
208	0x3d875a7b	0.06609055
209	0x3cf40a5c	0.029790096
210	0xbd6619b2	-0.05617685
211	0xbdaab0e3	-0.0833452
212	0x3dabbab5	0.08385221
213	0x3d13a042	0.036041506
214	0x3d71f722	0.059073575
215	0x3d62abd1	0.05533964
216	0x3c6d2abb	0.01447552
217	0x3d8f7e97	0.07006567
218	0xbd7ca132	-0.061677165
219	0xbb6c64a3	-0.0036070726
220	0xbd9000de	-0.070314154
221	0x3cc370d0	0.023857504
222	0x3ca0f29c	0.019646935
223	0x3d7e8153	0.062135052
224	0x3c6527f9	0.013986581
225	0xbd817b9f	-0.06322407
226	0x3bb3eef6	0.005491133
227	0x3dabb022	0.08383204
228	0x3d85a3eb	0.065254055
229	0x3d511d71	0.05105347
230	0xbcea2766	-0.02858324
231	0xbd27e741	-0.040992025
232	0xbacc54d8	-0.001558925
233	0xbcde47e1	-0.027133884
234	0x3d5639dc	0.052301273
235	0xbd51b985	-0.051202316
236	0x3d51c587	0.051213767
237	0x3d9fef31	0.07809294
238	0xbcfb0ed5	-0.03064672
239	0xbd969dbf	-0.073543064
240	0x3c6b8ac6	0.014376348
241	0x3d187fa1	0.03723109
242	0xbd9af6d4	-0.0756661
243	0x3c472609	0.012155064
244	0x3c0fc676	0.008775344
245	0x3d368b12	0.04456622
246	0x3c401510	0.011723772
247	0x3d2347b6	0.03986331
248	0x3cb47edd	0.02203315
249	0xbd9414c0	-0.0723052
250	0xbd7ffeb0	-0.06249875
251	0xbd3fee68	-0.04685822
252	0x3da2217a	0.079165414
253	0xbce49772	-0.027904246
254	0x3d9a5cd7	0.07537239
255	0x3d3bb7bc	0.04582952

fc2.bias f4 [64]
0	0x3d9fafe4	0.0779722
1	0xbc681aae	-0.014166517
2	0xbcea0372	-0.028566096
3	0x3ca5dec3	0.020247823
4	0x3d1484c1	0.036259416
5	0x3d8e43fd	0.069465615
6	0xbc6dfa4f	-0.01452501
7	0xbd3675c3	-0.0445459
8	0x3d34eaec	0.04416935
9	0x3d94d0bf	0.07266378
10	0xbdb636c6	-0.08897166
11	0xbd8262be	-0.0636649
12	0x3cbd8615	0.023135224
13	0x3cde2040	0.027114987
14	0x3d17d0e5	0.03706445
15	0xbd15d940	-0.03658414
16	0xbd88a7a8	-0.06672603
17	0x3da435b6	0.08018057
18	0x3c82a3cd	0.015947247
19	0xbb240b20	-0.0025031045
20	0x3b735c80	0.0037133992
21	0xbd39de98	-0.045378298
22	0x3d5aa24c	0.053377435
23	0x3b97bee0	0.0046309084
24	0x3d744e84	0.05964519
25	0x3d041e61	0.032255534
26	0xbca1d5a8	-0.0197552
27	0xbce94554	-0.028475441
28	0x3d5aebf6	0.053447686
29	0xbd49d749	-0.049277578
30	0xbccb484c	-0.024814747
31	0xbd6b41fc	-0.057435974
32	0x3cccabb0	0.02498421
33	0x3d2af04a	0.041733064
34	0x3bb0365e	0.005377575
35	0xbc9515f8	-0.018198952
36	0xbd05f10f	-0.032700595
37	0xbba2d0af	-0.0049687247
38	0xbc756478	-0.014977567
39	0xbaa952e5	-0.0012918381
40	0x3da37fab	0.07983335
41	0x3d59433c	0.053042635
42	0xbd24f7f7	-0.04027554
43	0xbd01bc7c	-0.031673893
44	0xbc97a856	-0.018512886
45	0xbda5655a	-0.08075972
46	0x3d572d9e	0.05253374
47	0xbd8718c2	-0.06596519
48	0x3b2c152c	0.0026257737
49	0x3d8a4317	0.067510776
50	0xbd274bd5	-0.040843803
51	0x3c99f3e1	0.018793048
52	0x3c9daf93	0.01924876
53	0xbd137617	-0.03600129
54	0xbd8e2047	-0.0693975
55	0x3d4997e1	0.04921711
56	0xbd9ecd9b	-0.0775406
57	0x3d704952	0.058663674
58	0x3d380de8	0.044935137
59	0x3da0deb0	0.07854974
60	0x3d315fca	0.043304242
61	0x3d6d3903	0.0579157
62	0xbd3a6ae9	-0.045512114
63	0x3cc08022	0.023498598

fc3_action.weight f4 [41, 64]
0	0x3d714f78	0.058913678
1	0x3d3ab31a	0.04558096
2	0xbb06997d	-0.0020538263
3	0x3c66ce99	0.014087343
4	0x3dadc55c	0.08484909
5	0x3cf5775e	0.029964145
6	0xbd072088	-0.03299001
7	0xbc61dcaa	-0.013785521
8	0xbdf3a8f0	-0.11897457
9	0x3d2077e2	0.03917683
10	0xbdc1b1ee	-0.094577655
11	0xbda3dab8	-0.08000702
12	0xbde5e791	-0.112258084
13	0xbb7dbbff	-0.003871679
14	0xba1b1881	-0.0005916432
15	0xbda40516	-0.080087826
16	0xbde30853	-0.11085572
17	0xbd5f9048	-0.054580957
18	0x3cfd5e69	0.030928807
19	0x3a564e00	0.0008175075
20	0xbd38a25c	-0.045076713
21	0x3db51086	0.08841042
22	0xbde11edb	-0.10992213
23	0x3d2869c4	0.04111649
24	0x3dbe700c	0.09298715
25	0x3d1d05de	0.038335674
26	0x3d07cdc8	0.033155233
27	0xbd583154	-0.052781418
28	0x3c91cedb	0.017798832
29	0xbcbe46d8	-0.02322714
30	0xbd4b432c	-0.049624607
31	0xbdd10be6	-0.102073476
32	0x3dd761e0	0.10516715
33	0xbcc2f62d	-0.023799026
34	0x3cb130b8	0.021629676
35	0xbd2e4145	-0.042542715
36	0x3c9eeaba	0.019399036
37	0xbdacd052	-0.084381714
38	0xbc134680	-0.0089889765
39	0x3d494cda	0.049145557
40	0x3dca811c	0.09887907
41	0x3da54d1c	0.08071348
42	0xbbfd1304	-0.007723214
43	0xbd80507e	-0.06265353
44	0xbdbaa76e	-0.09113966
45	0x3dcb6275	0.099308886
46	0x3d00702c	0.031356975
47	0xbd49d402	-0.049274452
48	0xbc4f36df	-0.01264736
49	0xbdd6452e	-0.10462414
50	0xbd3ba175	-0.045808274
51	0xbc2a343e	-0.010388432
52	0xbc8ff56a	-0.017573077
53	0x3d4753a4	0.04866375
54	0x3ddf3dc2	0.10900451
55	0x3b74c0b0	0.0037346296
56	0x3ca4155e	0.02002972
57	0xbd882fe6	-0.06649761
58	0x3c7d077d	0.01544368
59	0xbdc9bf91	-0.098509915
60	0xbd2fb5ce	-0.04289799
61	0xbdcf0b88	-0.10109621
62	0xbc3f3be0	-0.01167199
63	0x3c8a64e0	0.016893804
64	0x3d80449d	0.06263087
65	0x3dc7f04c	0.0976263
66	0x3df1dbdd	0.11809514
67	0x3d2a1b58	0.041529983
68	0xbe00c3e9	-0.12574734
69	0xbbcdaa41	-0.0062763994
70	0xbd9b6e52	-0.07589401
71	0x3d8f9672	0.07011117
72	0x3cc9a8e0	0.024616659
73	0xbdc2f800	-0.095199585
74	0x3de144bc	0.10999438
75	0x3cc8c048	0.02450575
76	0xbbaa134d	-0.005190289
77	0xbd67c3aa	-0.056583084
78	0x3d2bf83d	0.041984785
79	0xbdf386a0	-0.11890912
80	0x3dd0a788	0.10188204
81	0x3da3e209	0.08002097
82	0xbdfb7c5a	-0.122795776
83	0xbcf35738	-0.029704675
84	0x3dfe3a10	0.12413418
85	0x3db9b318	0.090673625
86	0x3d9af112	0.07565512
87	0xbd2d05bc	-0.042241797
88	0xbd947658	-0.07249135
89	0xbcb9a578	-0.02266191
90	0x3c8cde50	0.01719585
91	0xbc5abe03	-0.013350966
92	0xbc56e0ed	-0.01311515
93	0x3de08c24	0.1096423
94	0xbdf1d914	-0.118089825
95	0x3daa9dce	0.0833088
96	0x3c0f9cf0	0.008765444
97	0xbd9d5e8a	-0.076840475
98	0xbcc32a24	-0.023823805
99	0x3db4aa67	0.08821564
100	0x3d351f57	0.04421934
101	0xbcb6f947	-0.022335662
102	0xbd44f36c	-0.048083708
103	0xbbc13c71	-0.0058970978
104	0xbad55081	-0.0016274602
105	0xbccba0ca	-0.024856944
106	0x3ca679f8	0.020321831
107	0xbd02efcc	-0.03196697
108	0xbdf5d364	-0.1200321
109	0xbd545c00	-0.05184555
110	0xbcb43624	-0.021998473
111	0x3ab1eef6	0.0013575244
112	0xbd31e389	-0.043429885
113	0xbdf9f244	-0.122044116
114	0xbb9e942c	-0.004839441
115	0x3d8291d1	0.063754685
116	0x3cd1eaf1	0.025624724
117	0xbd3dce44	-0.04633929
118	0x3d061ad8	0.032740444
119	0x3c385b63	0.011252257
120	0x3daca07d	0.08429048
121	0x3df07a87	0.1174212
122	0x3cdce90e	0.026966598
123	0x3d9ee820	0.07759118
124	0xbdc7c621	-0.09754587
125	0x3dbb2853	0.091385506
126	0xbdea48e4	-0.11439684
127	0xbdf5131f	-0.11966538
128	0x3d8cefff	0.06881713
129	0x3ddae8b1	0.106889136
130	0x3b107d44	0.002204732
131	0x3d17e197	0.037080374
132	0xbdfe0de7	-0.124049954
133	0xbd70d7c2	-0.058799513
134	0xbccc7b6d	-0.024961198
135	0xbd0dad17	-0.0345889
136	0xbd3a6200	-0.045503616
137	0xbd3dbe14	-0.04632385
138	0xbdc95c47	-0.09832054
139	0xbcb7cc88	-0.022436395
140	0xbd401557	-0.04689535
141	0xbd2d596d	-0.04232161
142	0x3d652086	0.05593922
143	0x3cc0d428	0.023538664
144	0x3d44c3be	0.048038237
145	0xbbfa655e	-0.0076414784
146	0x3d3ce8eb	0.046120565
147	0x3cbd5308	0.023110881
148	0x3d8e80e6	0.06958179
149	0x3d86a46e	0.06574331
150	0x3d3d5991	0.046227995
151	0xbd961768	-0.07328683
152	0xbd0bb530	-0.03410834
153	0xbd5c2f40	-0.053756
154	0xbd0605c0	-0.032720327
155	0xbda382b0	-0.07983911
156	0xbde55b07	-0.11199003
157	0x3db95620	0.0904963
158	0xbb986ac0	-0.0046513975
159	0xbdf70066	-0.12060623
160	0xbddf265e	-0.1089599
161	0x3df8b871	0.121445544
162	0x3db8a3e1	0.090156324
163	0x3d7ade63	0.06124724
164	0x3db54564	0.08851126
165	0x3dc0e5d7	0.094188385
166	0x3db26b74	0.08711901
167	0x3cb1921b	0.021676114
168	0xbd0bfd77	-0.03417727
169	0x3d8c19a5	0.06840829
170	0x3b090395	0.0020906676
171	0xbb944340	-0.0045246184
172	0xbd2ae3e1	-0.04172123
173	0x3d2ebbb5	0.04265948
174	0xbd2cc67e	-0.042181484
175	0x3da6d118	0.0814535
176	0x3d3a9fa6	0.04556241
177	0xbd476f3c	-0.048690066
178	0x3cb971d7	0.02263729
179	0x3ca9b2a0	0.020715058
180	0x3db54084	0.08850196
181	0xbbea8120	-0.007156506
182	0x3d8f3c96	0.06993978
183	0xbd647fc0	-0.055785894
184	0x3d4367a1	0.04770625
185	0xbd8d2eb9	-0.06893677
186	0x3db3eb43	0.08785107
187	0x3d47dfa7	0.048797276
188	0xbb4afa8b	-0.003097209
189	0x3d9a2c74	0.0752801
190	0x3df7349e	0.12070583
191	0x3ccafe30	0.02477941
192	0xbdfe6ed3	-0.12423482
193	0xbc477aa7	-0.012175239
194	0xbd1f042c	-0.038822338
195	0xbd859a28	-0.065235436
196	0xbda2a391	-0.07941354
197	0x3c9bf516	0.019037765
198	0x3bb45c60	0.005504176
199	0xbda681b2	-0.08130206
200	0x3df2e828	0.118606865
201	0x3d99e85d	0.07515023
202	0xbc8b946c	-0.017038547
203	0xbca723e8	-0.020402864
204	0x3d769b44	0.060206667
205	0x3dcb6a21	0.09932352
206	0x3d9a431e	0.07532333
207	0x3c0f9fd0	0.00876613
208	0xbdf70f9f	-0.12063526
209	0xbd8e8c32	-0.06960334
210	0x3cf7a991	0.030232223
211	0x3ccb7008	0.024833694
212	0x3dabc35e	0.08386873
213	0xbd0d9ad0	-0.03457147
214	0x3d32987f	0.043602463
215	0xbb88c080	-0.0041733384
216	0xbc3d4417	-0.011551878
217	0xbd05c941	-0.032662634
218	0xbd97d914	-0.07414451
219	0xbda9de0f	-0.082943074
220	0x3d8c61f5	0.06854621
221	0x3d8746e0	0.06605315
222	0xbd5a12d8	-0.053240627
223	0xbd61804c	-0.055053994
224	0x3c89da30	0.016827673
225	0xbdcececd	-0.10098038
226	0x3ce4f4cf	0.027948765
227	0xbc9ca29b	-0.019120505
228	0xbd5cf55d	-0.053944934
229	0xbdd8db35	-0.105886854
230	0x3d9d2742	0.076735035
231	0xbdbe0f5a	-0.09280272
232	0xbd311614	-0.043233946
233	0xbd484524	-0.048894063
234	0xbd81401e	-0.063110575
235	0x3d8bbd94	0.068232685
236	0x3da1d5b6	0.0790209
237	0x3b7e45eb	0.0038798999
238	0xbdeaace1	-0.11458755
239	0xbc9e6d1a	-0.019339133
240	0xbd81faa3	-0.06346633
241	0x3d96414f	0.073366754
242	0x3cf8bed8	0.030364439
243	0xbdd0c25c	-0.10193321
244	0x3d96588e	0.07341109
245	0x3dd074da	0.10178538
246	0x3d9b83f0	0.075935245
247	0x3ccaf0b8	0.024772987
248	0x3de3069b	0.11085244
249	0xbd89f3a3	-0.06735923
250	0x3dd18c2e	0.10231815
251	0xbcdeac1e	-0.027181681
252	0xbd62330d	-0.055224467
253	0x3cc409af	0.023930399
254	0xbd73bbb0	-0.059505165
255	0x3c39dafb	0.011343713

fc3_action.bias f4 [41]
0	0xbc43a510	-0.011941209
1	0x3d51f0f6	0.05125519
2	0x3dc59cd5	0.09649054
3	0xbde022d5	-0.10944144
4	0x3b48d832	0.003064644
5	0xbd45f4df	-0.04832923
6	0xbda90113	-0.08252158
7	0x3d2c8f4f	0.042128857
8	0x3cb05d78	0.021528944
9	0xbda5fc89	-0.08104808
10	0x3cab1986	0.020886194
11	0xbd9df254	-0.07712236
12	0xbd092d80	-0.033490658
13	0x3d1acb1e	0.037791364
14	0x3d8067f5	0.06269828
15	0xbd924b1e	-0.07143234
16	0xbdc93e04	-0.09826282
17	0xbdf839bd	-0.12120388
18	0xbdfa87ec	-0.12232956
19	0xbdfbde4f	-0.122982614
20	0xbd4b7c64	-0.049679175
21	0xbcd39258	-0.025826618
22	0x3c63f4ec	0.013913374
23	0x3d95f887	0.073227935
24	0xbc9195f6	-0.017771702
25	0xbb174a23	-0.002308496
26	0xbd464b0d	-0.048411418
27	0xbd7cb501	-0.061696056
28	0xbd65d7d8	-0.056114048
29	0x3d75cd13	0.060010027
30	0x3d775e26	0.06039252
31	0x3dbe1d80	0.092829704
32	0xbdcf30bc	-0.10116717
33	0xbd66d305	-0.056353588
34	0xbd9f1ea4	-0.07769516
35	0x3b7e7754	0.003882845
36	0xbdde64d2	-0.10859074
37	0x3d6d1458	0.05788073
38	0x3be85336	0.0070899976
39	0xbdce6f59	-0.10079832
40	0xbdf62195	-0.12018124
