improved_vrpb_final.pth (torch, 49957 bytes, 6 tensors)

fc1.weight f4 [128, 5]
00000000: f486 c7bd 517a aabe 2701 9cbe 8646 953e
00000010: a871 293e 9769 c73e 0ecc 253e 20bb 8cbe
00000020: 1072 b03b c051 723d 1292 cb3e 7f01 f03d
00000030: af37 f33d cc76 933e 2d5e debe 21fe d8bd
00000040: 4c77 a5bd 1ea9 d5be 0933 303e 8ac6 e0be
00000050: 92e3 52be 7c92 303e 1039 de3c c60a aebe
00000060: e08b 553e e636 10be 165e a2be d08c a33e
00000070: 57c0 0f3e 24e5 b8bd 2239 c8be 9f90 83be
00000080: c335 703e 4c0d 973e 7844 a6be eee2 d13e
00000090: 05e5 c6be 59fc 32be a1d5 eebd a49e aa3e
000000a0: aa20 d0be 6294 ce3e 4308 bc3d 3202 2fbe
000000b0: 685e d93e 60d6 713e 4079 01bc 066f 97be
000000c0: 4024 e23c 68d9 e63d c2f0 7c3d 29ef 7e3e
000000d0: 2288 813d c7be dcbc 6ef8 b23e 2b7f a23e
000000e0: 8e24 473d 6851 9abd 25de e4be d0c1 da3d
000000f0: 1a62 943e 6037 b93e 946e 6e3d 1240 88be
00000100: 0070 efbc 4d59 afbe c0c9 e13d fbf2 77be
00000110: cdb7 5bbe 1cc2 c1bd c42b ea3d 7ebe 9a3d
00000120: 2183 793c b6a1 89be 27ee bebe e0da e2bd
00000130: 70d3 003e 2e1c 99be d8a6 dbbd 07d8 53be
00000140: 16c9 7ebb f94a 31be 7966 363d 6a04 f03d
00000150: a017 ae3d ab07 c73e 5099 8ebe 1034 07bd
00000160: 2940 d73e 14ab dcbe 6e38 cf3e cf56 62ba
00000170: ce53 3d3d 45be 9dbe 88ab 923e 2ec8 bc3d
00000180: 62d0 6fbe b0a4 4cbe 81e5 4b3e f6b3 e2be
00000190: 3b39 943e cdc7 e2bd bf5b bb3e 26e5 2cbd
000001a0: e8f7 763e d27e 72bd e78f 9dbe 7dbb 18be
000001b0: 7a07 dc3e b437 0e3e f5c5 debe f07f a7be
000001c0: 2cd5 e43e d415 cdbe 44c0 013e 3edb 18be
000001d0: 7697 8cbe 50b5 0dbe 1ce1 b0be d0b4 f23c
000001e0: ed5e 38be 6cf1 e2be e4ea c7bc c7c8 a13d
000001f0: a682 dcbe c0b0 393e 0457 d33d fbe4 503e
00000200: 634e 343e cc49 bd3e 7e1b 2a3e 726e 523e
00000210: 0775 c53e 6db7 a5be d87c d73e 98a1 2cbe
00000220: 8ac1 a33d ac5d 50be c1c2 3cbd d24f 813e
00000230: f59a 863e fdbd 0c3e e375 a83e 839d 8bbe
00000240: fc53 90be c599 8bbe cc01 f63d 4050 d3be
00000250: 00a3 9a3e ec51 4c3e 04e7 363e 08a6 58be
00000260: 3e2f 67be 7cd9 d9be 90f9 8c3c da7f 8dbe
00000270: 5592 2cbe 128f 473d 68ab 9cbe 4793 ddbe
00000280: bca7 99bd 08d9 f93d 7b8f b9be 3964 ddbe
00000290: 2563 d7be 66b9 843d c82f c8ba b8e7 4cbe
000002a0: 2dec b33e 2c34 023e bbe6 42be 7b38 df3d
000002b0: f5d8 063e c863 94be c85e 0e3d 8dd0 cd3e
000002c0: ceb5 3cbe 529d 67be ab7f f43d 2813 68bd
000002d0: ab46 353e 6b0f 95bd 3662 45bd 13c8 dc3e
000002e0: 3e90 af3e ba37 c03e 3243 6f3e 65d4 113e
000002f0: 49a7 9e3e 2095 77bd d5ad cbbd b5f4 273e
00000300: 7ccc 8c3e 8a1f 86be 9c38 cfbe 0ac5 99be
00000310: 0f94 c23e 5808 b9be 5576 da3d 5026 d9bc
00000320: 0ab1 553e 9e4f 92be 3e3f 34be 3678 bc3e
00000330: ec54 8a3e fc14 92be 5021 3d3e c9fb a63e
00000340: 478a 8e3c 8cbe 463e 33a5 043e 7405 82be
00000350: 1500 b53e 1d2c b7be 344f 083e e567 b9be
00000360: b765 ddbd 8ecf cbbe 941e d4bc b202 27be
00000370: 0ba7 d9be 66b2 a63e 5506 043e c733 82be
00000380: dbdb dbbe 8f51 dfbe cb65 63be 64bd d1bd
00000390: be7c 983e 12f4 adbe 6ed4 7dbe f93e cb3e
000003a0: 8e3f 443e a4a4 db3e b882 e2bd d872 7a3d
000003b0: 1f4a 2dbe fb64 7f3e a41b e53e 80c4 23bb
000003c0: 81fa 663e c760 2d3d 7f31 a53e b17f 813e
000003d0: f9a6 cbbe eb9e c33e df3d e33e ebaa e4be
000003e0: bbe5 aebd b87b 3bbe 75d4 c5bd 3b9a c43e
000003f0: 68ba d03d b2ca a9be 7e27 bebe a643 163d
-0.09742537 -0.33296445 -0.3046963 0.29155368 0.16547263 0.38947746 0.16191122 -0.27486515
0.005384691 0.059159994 0.3975988 0.11719035 0.11875855 0.28801572 -0.43431225 -0.10595346
-0.08079395 -0.4173059 0.17206968 -0.43901473 -0.20594624 0.1724338 0.027126819 -0.33992594
0.2085414 -0.14083442 -0.31712407 0.3194337 0.14038216 -0.0902808 -0.3910609 -0.25696275
0.23458008 0.29502332 -0.32474113 0.40993446 -0.38846603 -0.17479075 -0.1166184 0.33324158
-0.4064992 0.40347582 0.09181263 -0.17090681 0.4245484 0.23616934 -0.007902443 -0.29576892
0.027605176 0.11271936 0.061753042 0.2489592 0.063247934 -0.026946438 0.34955162 0.31737646
0.048618846 -0.07535058 -0.44700733 0.10681498 0.28981096 0.3617506 0.058210924 -0.26611382
-0.02922821 -0.3424782 0.11024809 -0.24213783 -0.21456833 -0.094608516 0.11434129 0.07555865
0.0152290175 -0.26881188 -0.3729107 -0.11076903 0.12580657 -0.29904312 -0.10725182 -0.20687877
-0.003887718 -0.17313756 0.04453132 0.11719592 0.085006 0.38873038 -0.27851343 -0.033008635
0.42041138 -0.43099272 0.4047274 -0.00086341513 0.0462225 -0.30809227 0.28646493 0.09217869
-0.23419335 -0.19984698 0.19911768 -0.44277924 0.28949913 -0.11073265 0.36593434 -0.04221072
0.24118006 -0.059202977 -0.3077385 -0.14915271 0.42974454 0.13888437 -0.43510404 -0.32714796
0.44693887 -0.40055716 0.12671 -0.14927384 -0.27459306 -0.13838696 -0.34546745 0.029627234
-0.18004961 -0.44324815 -0.024403997 0.07899623 -0.43068427 0.18133831 0.10319331 0.20399849
0.17608027 0.36970365 0.1661205 0.20549944 0.38565847 -0.32366505 0.42087436 -0.16858518
0.07995899 -0.20348233 -0.04608417 0.2525621 0.26290098 0.1374435 0.3290244 -0.2726861
-0.28189075 -0.27265754 0.120120615 -0.41272163 0.30202484 0.19953126 0.17861563 -0.21157086
-0.22576615 -0.4254874 0.017208844 -0.27636606 -0.16852696 0.048720427 -0.30599523 -0.43276426
-0.07502696 0.121995986 -0.3624228 -0.43240526 -0.4206783 0.064806744 -0.0015273029 -0.20010269
0.35141125 0.12715214 -0.19033329 0.10899445 0.131687 -0.28982377 0.03475836 0.40198174
-0.18428728 -0.22618607 0.11938413 -0.056658894 0.17702739 -0.07278331 -0.048189364 0.43121395
0.34289736 0.37542516 0.23365477 0.14241178 0.30987003 -0.06044495 -0.09945265 0.16401942
0.2749976 -0.26195937 -0.40472877 -0.3003314 0.38003585 -0.36139178 0.10667101 -0.026507527
0.20868316 -0.28576368 -0.1760225 0.36810464 0.27017915 -0.28531635 0.18469739 0.32613972
0.01739992 0.19408625 0.12953644 -0.25394785 0.35351625 -0.35775843 0.13311464 -0.36212078
-0.10810416 -0.3980679 -0.025893487 -0.16309622 -0.42510256 0.32557982 0.1289304 -0.25430128
-0.42941174 -0.43616912 -0.222068 -0.102412015 0.2978267 -0.33975273 -0.24788067 0.39696482
0.19164869 0.42899048 -0.11060089 0.06114468 -0.16922806 0.24940865 0.4474765 -0.002498895
0.22556497 0.042328622 0.32264325 0.25292733 -0.39775828 0.38207182 0.4438314 -0.4466165
-0.08539911 -0.18308914 -0.096596636 0.38398919 0.10191804 -0.33162457 -0.37139505 0.03668561

fc1.bias f4 [128]
00000000: 5bc1 b7be c59c c73e ec1b ac3e fbe4 2fbc
00000010: 270b b7be 8dd3 fcbd 1aa0 81be fea4 aebd
00000020: 26d6 8e3e aac5 b1be 4952 aebe 0b81 80bd
00000030: e3b6 263e 9489 d7bd 630d 6d3e d06a c2bd
00000040: f0b5 0dba 0bf9 9f3e 5f9f a0be b5dd 503e
00000050: d626 8bbe 80e2 c53e 738c 523e fa0e 2cbe
00000060: 38c6 353e e469 46bd ef28 57be a773 c23d
00000070: 2479 7c3e 104c 903e 6fee cdbe 92a7 ba3e
00000080: 23fd d6be 6526 81be f94e c3bc 76e4 a0bd
00000090: 4c81 103e 7f1d 7b3e 866f a43e 7ddc 0dbe
000000a0: 3896 fabd 526a a33a 7d6d e33e 42fe 973e
000000b0: eeb8 143d 8ff8 8dbd 83ea a3bd b497 d0be
000000c0: 976b 2e3e 5a9b 6d3e 313e 0dbe 4496 4dbe
000000d0: ff8e b4be 8588 d2be c90b 653e 2be0 2c3c
000000e0: 62d9 ca3e c500 6a3d 6a56 b23e e6ab d1bd
000000f0: 2a37 60be 7a54 a2bd 8012 a4be 53f9 3abd
00000100: 8d5d 67bd b5ff 823e b7d8 0abe 30aa 26bb
00000110: aa31 27bb 4c38 e4bd 5641 d43e de10 d5be
00000120: 3cbd 0ebd 5430 8abe b872 b53c 389d e13e
00000130: c310 d03e 6633 513e 5371 e23d ac8b df3e
00000140: b77e 15be 4cc6 64be 0a49 27be e1ec 3d3e
00000150: f93a 12be a6d8 dd3e 54af b7be feb2 313e
00000160: 3457 61be 87dc dabe 72e9 703d 001a 613e
00000170: 7ef8 d83c 0cb3 cc3e 66d5 d6be 494e c33e
00000180: 35d6 053e 51ba 963e c41b 613e e3ef 673e
00000190: 33ce a23e 271d aebd aa34 0cbe 27f2 6f3e
000001a0: c2fe 953c f8d8 9dbe 51c9 543d 0e84 933e
000001b0: ae2f d13e 82c1 d0be 2d58 de3e 4676 4dbe
000001c0: f90f 9d3d 5364 43be 27cf 92be f900 a23e
000001d0: 7827 323e 936f 94be 6ee6 3e3e f2cd b1be
000001e0: 6531 1f3d 9091 cfbd 987b d7be c74a de3e
000001f0: dae3 c83d 3443 92be 0b1d dbbe db91 543e
-0.35889706 0.38986793 0.33615053 -0.010735746 -0.35750696 -0.123450376 -0.2531746 -0.085275635
0.27897757 -0.34721118 -0.34047154 -0.06274613 0.16280703 -0.10524288 0.23149638 -0.09493029
-0.0005405834 0.31244692 -0.3137159 0.20397075 -0.27178067 0.38649368 0.2056139 -0.16802588
0.17751396 -0.04844083 -0.21011709 0.09494715 0.24655586 0.2818303 -0.40220973 0.3645597
-0.41990003 -0.25224605 -0.023841368 -0.078560755 0.14111823 0.2452297 0.32116336 -0.13853641
-0.12235683 0.0012467599 0.4441947 0.2968617 0.036309175 -0.069321744 -0.08003714 -0.4074074
0.1703323 0.23203793 -0.13793255 -0.20076853 -0.35265347 -0.4111978 0.22367777 0.010551493
0.39618975 0.05712964 0.34831554 -0.10237865 -0.21896043 -0.07926269 -0.32045364 -0.04564793
-0.0564857 0.25585714 -0.13559233 -0.002543103 -0.002551178 -0.1114355 0.41456097 -0.4161443
-0.034848437 -0.26989996 0.022149429 0.4406526 0.40637788 0.20429763 0.11056771 0.4366125
-0.14599119 -0.22341269 -0.16336456 0.18547393 -0.14280309 0.43329352 -0.35875952 0.17353436
-0.22005922 -0.42746374 0.05881638 0.21982574 0.026485678 0.39980352 -0.41959685 0.38145664
0.13069995 0.29439023 0.21983248 0.22650103 0.31797943 -0.08501654 -0.13691965 0.23432218
0.018309955 -0.30829597 0.051949803 0.28811687 0.4085669 -0.40772635 0.43426648 -0.20064649
0.07669062 -0.1908124 -0.2867367 0.31641367 0.17397869 -0.28991374 0.1864259 -0.34727436
0.038865466 -0.10135186 -0.42086482 0.43416426 0.09809084 -0.28566897 -0.42795596 0.20758764

fc2.weight f4 [64, 128]
00000000: 000f 8cbd e76e 1d3d 37f8 49bc 9b41 6a3d
00000010: 64e1 6ebd 2478 29bd 1106 6dbd 90ae 41bd
00000020: 416f a3bd e4e6 da3c e062 b4bc b888 9fbb
00000030: b0be b13d aee1 afbd 5908 813c 56fc 693d
00000040: 9e93 773d 1a25 073c 9996 85bd 1604 223d
00000050: 0044 30bd c71d 70bd f567 bebc 30ff 88bd
00000060: 31d0 a8bd 292e aabc a66b 40bd a3ea 543d
00000070: 7c6a 9a3d 9222 223d 0826 93bc ec9a 833d
00000080: 907a 8c3b 25bf 90bc 4fb6 5f3d 1631 8e3d
00000090: 4a23 a1bd 3c78 883c eaca 113d 2eaf b7bd
000000a0: 6c85 e03c df51 89bc bb71 a7bd 79d9 1b3c
000000b0: 574e 883d 416d 86bd b4d1 983d 84de 823d
000000c0: e54d fc3c 6c5b b53d 7dd9 003d ba60 09bd
000000d0: 7b85 b43d cc00 a8bc 8e96 3fbd 5c5d 493d
000000e0: f31b 0a3d 8d96 a13d 4789 903d b0ea 543c
000000f0: 1465 9b3d 7a01 a23d fb7d 92bd 3cfa a53d
00000100: 7d44 28bd 96a0 203c d03a 85bd bc93 38bd
00000110: 5b9b 72bd c60d 73bd b574 213d 4b84 a63d
00000120: 888e 56bc f6ba 6d3b a26c 883d 1bb4 7f3d
00000130: afac a3bd e485 b33d a66b b33b c2e7 42bd
00000140: b245 58bd 1a2a adbd 6939 3e3c 9ad2 d8bc
00000150: 7906 b5bd af7d 8e3d 39c6 8d3d e641 ddbc
00000160: 4ee4 503d 05dc 88bd 2949 b03d f574 3f3d
00000170: ef36 c23c 0807 423d 4c29 acbd 27aa 1cbd
00000180: 4855 1dbc 3768 64bd 1da8 173c 191b 3bbd
00000190: 8771 493d ccdf ae3d 6e8f 84bb 45a7 89bd
000001a0: b39d 26bd 49e2 5f3d 1814 183d 4557 58bd
000001b0: 0b80 703d 301e a7bc 3add 553d c358 16bd
000001c0: fdbb 89bd 35e5 3b3d ed79 8c3d e5d1 af3d
000001d0: f376 9ebd 01ba dc3c 97ad 41bd b3ae a03d
000001e0: bd9e 123d 21b2 833d 3c86 313d 3207 8c3c
000001f0: e964 053d be42 663d 7470 90bc 1ad1 fcbc
00000200: b200 3d3d cdd9 a9bc 27f6 763d 16de 793a
00000210: 5ac3 763d 4eb6 333d 4de2 ebbc 0376 ed3c
00000220: 86b3 943d 4d54 843d 6039 1c3d 0307 403c
00000230: ee27 e53a c816 0cbc a118 8abd 7948 b23d
00000240: 0d6f 4cb7 e1ec 693d 43cf 823d 3480 ae3b
00000250: 7c73 66bd c64e 67bd 9afb 2e3d a8ee 29bd
00000260: 2674 1fbd da36 16bd ecf4 af3d ddb5 783d
00000270: 4412 f239 3a23 833d 4857 65bc d965 983d
00000280: b677 053d acb4 f23c e030 80bd 5e4e a53d
00000290: 5c81 3ebd c97a 27bd 4c83 553d c3b3 b0bc
000002a0: afac 883d 6eb2 6bbd c4d8 593d fec7 593d
000002b0: 96af c93c 4b68 53bd 4050 8a3c 0e0b 69bd
000002c0: fc3d f4bb 4621 093d fb4d 0e3c bf18 0b3d
000002d0: 421b d9bc 7047 23bc 19cc 0e3c 913b 12bd
000002e0: 16ee 50bd 7198 743d c4a9 9dbd 66f1 b3bd
000002f0: 6b32 543d 3e80 a0bc 16ac 9f3d 6e93 9cbd
00000300: 07d6 b83d 3a2d 39bd 1542 77bd 5704 8bbd
00000310: 835c b3bb c6f6 4c3d afdb b7bc 3f1a aabd
00000320: 408e 2d3d 83a5 9cbd 1957 4d3d 0350 20ba
00000330: 74aa 9e3d 04aa d33c a520 883c 709b 31bd
00000340: e471 883d 5c0a f43c b219 66bd 1c25 acbd
00000350: 9c95 a83d 77b2 193d 22f7 713d 53d7 653d
00000360: b343 523c 977e 8f3d a3e9 7abd 1827 57bb
00000370: c994 8dbd 1e5c c83c 9cf2 a03c 60aa 823d
00000380: f1b0 6e3c 4bd0 80bd b795 db3b e8ad ab3d
00000390: aa9f 883d 8257 503d 7c5c fdbc 1b14 22bd
000003a0: 1b3f f4b9 d60c e4bc 3a2e 543d e020 52bd
000003b0: 7a7d 573d 31ef 9f3d fae6 eebc 890d 98bd
000003c0: b40a 713c 66cd 123d b8cd 9ebd b24e 553c
000003d0: ac91 153c 032e 363d 16f8 323c b647 233d
000003e0: 2fbc b03c c014 94bd b8cc 80bd cf7b 3ebd
000003f0: 8d49 a33d 7297 e4bc d75c 9a3d f66b 3e3d
-0.068387985 0.038435843 -0.012327245 0.057191473 -0.058320418 -0.04137434 -0.057867114 -0.047285616
-0.079802044 0.026721425 -0.022019804 -0.004868593 0.08678949 -0.08587967 0.01575105 0.057125412
0.060443513 0.008248592 -0.06522865 0.039554678 -0.0430336 -0.058622148 -0.02324293 -0.06689298
-0.08242834 -0.020773964 -0.04697766 0.05198158 0.075398415 0.03958375 -0.01796247 0.064260334
0.0042870715 -0.01766927 0.054617222 0.06942956 -0.07868059 0.016658895 0.035593905 -0.0896896
0.02740737 -0.016762672 -0.08175989 0.009512299 0.06655567 -0.06563807 0.07461873 0.06390098
0.030798862 0.08855328 0.031457413 -0.03353951 0.08814522 -0.020508192 -0.04677444 0.0491613
0.03371806 0.078900434 0.070574336 0.012995407 0.075876385 0.07910438 -0.07152935 0.08104369
-0.04108094 0.009803912 -0.06505358 -0.045062765 -0.05923019 -0.059339307 0.03941794 0.08130702
-0.013095506 0.0036274767 0.06661345 0.06242762 -0.07991921 0.08765772 0.005475479 -0.047584303
-0.05280084 -0.08455296 0.011610367 -0.02646761 -0.08839125 0.06957566 0.069225736 -0.027008962
0.05099898 -0.066825904 0.08607704 0.0467424 0.023707835 0.047369987 -0.08406314 -0.038248207
-0.009602852 -0.05576345 0.00925639 -0.04568014 0.049180534 0.085387796 -0.0040454185 -0.06721357
-0.040677737 0.05465916 0.037128538 -0.0528176 0.05871586 -0.020400137 0.05221293 -0.036705744
-0.06725309 0.045872886 0.06859193 0.08584956 -0.077375315 0.026944162 -0.04728469 0.07845821
0.035795916 0.0643046 0.043340907 0.017093275 0.03256694 0.056215994 -0.017631747 -0.030861426
0.04614324 -0.020733738 0.060293343 0.00095316896 0.060244896 0.04387503 -0.028794432 0.028986936
0.07260804 0.064613916 0.038140655 0.011720422 0.0017483213 -0.008550353 -0.06742979 0.08705229
-1.2185204e-05 0.05711067 0.06387188 0.0053253416 -0.05626248 -0.05647161 0.042720415 -0.041487366
-0.038929127 -0.036673404 0.08591637 0.060720313 0.00046171446 0.06403203 -0.01399786 0.07441301
0.03258487 0.029627167 -0.06259322 0.08071588 -0.046510085 -0.04088858 0.052127168 -0.021570092
0.06673562 -0.05754321 0.05318524 0.053169243 0.024619859 -0.051613133 0.01688397 -0.05689531
-0.007453678 0.033478998 0.008685584 0.033959147 -0.026502255 -0.0099657625 0.008715653 -0.03570134
-0.051008306 0.059715692 -0.07698396 -0.087862775 0.051805895 -0.0195924 0.07796495 -0.076453075
0.090251975 -0.045209147 -0.060365755 -0.06787937 -0.0054736747 0.05004003 -0.02244362 -0.08305787
0.04237199 -0.07648756 0.05013189 -0.00061154383 0.07747355 0.025837906 0.016617129 -0.043361127
0.06662348 0.029790096 -0.05617685 -0.084055156 0.08231661 0.037523713 0.059073575 0.056113552
0.012833524 0.07006567 -0.06125797 -0.0032829698 -0.06913144 0.024457987 0.019646935 0.06380153
0.014568553 -0.06289729 0.006701197 0.08382779 0.066710785 0.050864704 -0.030927889 -0.039569955
-0.00046586324 -0.027838152 0.051801898 -0.051300883 0.0526099 0.07809294 -0.029162873 -0.074244566
0.0147120245 0.035840414 -0.077540815 0.013019251 0.009128969 0.044477474 0.010923406 0.03986331
0.021574108 -0.0723052 -0.06289047 -0.04650479 0.07973013 -0.027904246 0.07537239 0.04648968

fc2.bias f4 [64]
00000000: ec0d a23d 8ee2 56bc e1c3 efbc 3a88 9f3c
00000010: 9e0b 163d 0174 903d f6f6 84bc 4084 38bd
00000020: 08ec 2f3d 1410 963d a2a8 b6bd be62 82bd
00000030: f8d4 c13c 5118 e73c 8c36 113d 40d9 15bd
00000040: ff62 8bbd f9ae a33d 80f0 633c 200b 24bb
00000050: 805c 733b 98de 39bd 7f0b 553d e0be 973b
00000060: 844e 743d e251 053d a8d5 a1bc ef2f e8bc
00000070: 4a29 593d 49d7 49bd 4c48 cbbc fc41 6bbd
00000080: b0ab cc3c 5e9a 203d af86 c13b 000a 8cbc
00000090: 45b2 05bd 3fdb c4bb 7864 75bc 9dc3 bfba
000000a0: d955 a53d 8323 5a3d 54d1 27bd 7cbc 01bd
000000b0: fc90 a1bc 4a4f a6bd 0bb3 5b3d dd40 88bd
000000c0: 2590 503b 85af 8a3d 96c3 25bd 3e13 903c
000000d0: c7c3 ac3c 1776 13bd 4720 8ebd ae0e 483d
000000e0: 5419 9ebd 8371 713d 38a1 373d d96e a03d
000000f0: f8a8 2e3d 9a19 643d e96a 3abd 9a81 b93c
0.07912812 -0.013115538 -0.029268207 0.019474138 0.036632173 0.07053376 -0.016231041 -0.045048
0.042949706 0.073272854 -0.08918883 -0.0636649 0.023661122 0.028209837 0.03545241 -0.03658414
-0.068059914 0.07992358 0.01391232 -0.0025031045 0.0037133992 -0.045378298 0.052012917 0.0046309084
0.05964519 0.032548793 -0.0197552 -0.028343169 0.053017892 -0.049277578 -0.024814747 -0.057435974
0.02498421 0.039209716 0.005905948 -0.017094612 -0.032640714 -0.0060075815 -0.014977567 -0.0014630441
0.08073015 0.053256523 -0.040971115 -0.031673893 -0.019722454 -0.08120592 0.053637546 -0.06652997
0.0031824198 0.06771759 -0.04046973 0.0175873 0.021089448 -0.03600129 -0.0693975 0.048842125
-0.07719675 0.058946144 0.044831485 0.078336425 0.04264161 0.055688478 -0.045512114 0.022644807

fc3_action.weight f4 [41, 64]
00000000: b6ea 733d 2819 393d 208e b3ba 93a8 6f3c
00000010: b21f b03d ed36 fa3c 306a 04bd b65b 5abc
00000020: 08a5 f1bd 142c 213d 48df bdbd b8da a3bd
00000030: d4c1 e5bd 175d 56bb d51b 02b7 1605 a4bd
00000040: f5eb e0bd 4e17 5ebd 2883 013d 004e 563a
00000050: 5ca2 38bd 8610 b53d c3e1 dfbd c469 283d
00000060: 0c70 be3d 46dc 1d3d c8cd 073d 1ff0 54bd
00000070: 91a2 8f3c d846 bebc 2c43 4bbd e60b d1bd
00000080: e061 d73d 9dec bdbc ccf1 b53c e78e 2abd
00000090: 2979 a13c 0c6f abbd 8046 13bc 81ac 473d
000000a0: e8e8 cb3d 3774 a63d 65ed 09bc 7e50 80bd
000000b0: 9180 b9bd bac0 ca3d 8761 013d cef5 47bd
000000c0: 08cc 2ebc 70a8 d5bd 0e35 39bd 2fa0 21bc
000000d0: 8d3c 94bc a453 473d c23d df3d 02cd 823b
000000e0: 81b1 a63c 0e94 86bd 3fb4 823c 64c5 c8bd
000000f0: e0a1 2abd a468 cdbd e03b 3fbc 31ca 8d3c
00000100: ff21 833d 1df4 cc3d 6d21 f33d 897e 2d3d
00000110: 5783 00be d6cf 9cbb 2268 98bd f016 933d
00000120: e0a8 c93c 4961 c2bd 45ea e33d 48c0 c83c
00000130: 29a1 90bb f17a 63bd d34d 313d a086 f3bd
00000140: 7724 d23d e51e a63d 3afe f9bd 3857 f3bc
00000150: 103a fe3d 18b3 b93d 3990 9d3d bc05 2dbd
00000160: 5876 94bd b70f a5bc 50de 8c3c ae5f 4dbc
00000170: fc37 48bc 248c e03d 14d9 f1bd ce9d aa3d
00000180: f09c 0f3c 2bc3 99bd 9a51 b5bc d831 b73d
00000190: 1cb7 363d 5f13 aebc 6cf3 44bd 0312 a4bb
000001a0: 7e43 85ba a5fd c4bc f879 a63c ccef 02bd
000001b0: 3687 f3bd 2d5c 54bd b9e6 b7bc 66c3 ed3a
000001c0: 65c3 33bd 3c0a f6bd 8e29 8fbb 6dc2 833d
000001d0: 176d d63c 44ce 3dbd d81a 063d 94e8 353c
000001e0: c2da af3d 13eb f23d 26bd e53c 2698 a13d
000001f0: ee37 c9bd 60e8 bc3d e448 eabd c61c f3bd
00000200: 681d 883d 756f d83d 0f75 f73a 26a3 113d
00000210: ea5b febd d667 7bbd 4066 cfbc 3682 11bd
00000220: 0062 3abd 2f3a 48bd 4660 c6bd 88cc b7bc
00000230: f5d0 47bd 35a8 37bd 1e48 5b3d 28d4 c03c
00000240: 6417 3b3d dee5 24bc 4698 333d 0853 bd3c
00000250: e680 8e3d 6ea4 863d 3aa5 333d 6817 96bd
00000260: 30b5 0bbd c4fe 58bd c005 06bd f269 a8bd
00000270: 6a7b ebbd 2056 b93d c06a 98bb 6600 f7bd
00000280: 5e26 dfbd d814 f53d 49b7 b43d 8ba8 703d
00000290: 4fe3 af3d 27e9 bb3d 746b b23d d45e ab3c
000002a0: fce2 16bd b508 873d 9503 093b 4043 94bb
000002b0: 2a0b 35bd 19e7 2c3d d8be 34bd 1354 a23d
000002c0: 2998 393d fbb1 4fbd 85b1 a63c 82b5 953c
000002d0: 290f b53d 2081 eabb 963c 8f3d 85a7 66bd
000002e0: fd55 3a3d f348 90bd 6cd3 ae3d 3d95 413d
000002f0: 66e6 7bbb 1245 953d 9e34 f73d 9f1b b73c
00000300: bc72 fdbd 5885 3fbc dc35 20bd 2007 84bd
00000310: fd50 a3bd 9ebb a13c 8846 9e3b 11bf a7bd
00000320: 28e8 f23d e52e 9d3d 26ff 80bc e823 a7bc
00000330: 05ed 7a3d 526e cd3d c08a 9b3d d09f 0f3c
00000340: ef44 f5bd 5785 8cbd 6cdc 003d 0870 cb3c
00000350: 5ec3 ab3d d09a 0dbd cacc 343d 80c0 88bb
00000360: 1744 3dbc d9f1 03bd 14d9 97bd 0646 a8bd
00000370: 9ef8 8e3d e046 873d d812 5abd 4c80 61bd
00000380: 30da 893c d835 cfbd 06be e23c 6668 98bc
00000390: 36dd 56bd 175b d7bd 4227 9d3d 84f8 bebd
000003a0: 9f80 2cbd d3b2 43bd 1e40 81bd 94bd 8b3d
000003b0: 189f a33d a814 343b 7dab e7bd 3075 95bc
000003c0: 6c47 7ebd 99cd 963d 3020 013d 5b1e cfbd
000003d0: df67 983d da74 d03d f083 9b3d 2c3e d53c
000003e0: d3be e43d 9a01 89bd bba4 d33d 67fb d0bc
000003f0: 6411 61bd 9992 ca3c b0bb 73bd 2af8 4d3c
0.05955001 0.045190006 -0.0013698973 0.014627594 0.085997954 0.030543769 -0.03232783 -0.01332753
-0.11799055 0.039348677 -0.09271103 -0.08000702 -0.112186104 -0.0032709294 -7.755084e-06 -0.080087826
-0.10982505 -0.054221444 0.03161922 0.0008175075 -0.045076713 0.08841042 -0.109317325 0.04111649
0.09298715 0.038540147 0.033155233 -0.05198681 0.017533572 -0.02322714 -0.049624607 -0.102073476
0.10516715 -0.023184115 0.022210024 -0.04164019 0.019711094 -0.0837079 -0.0089889765 0.048748497
0.09956533 0.08127635 -0.008418416 -0.06265353 -0.09057725 0.09900041 0.03158715 -0.048818402
-0.010668762 -0.104325175 -0.045216613 -0.009864851 -0.01809528 0.04866375 0.10900451 0.003991724
0.020348312 -0.06571208 0.015955089 -0.09803274 -0.041658282 -0.10029724 -0.01167199 0.017308326
0.064029686 0.100074984 0.1187161 0.042357 -0.12550102 -0.004785518 -0.07441737 0.07182109
0.024616659 -0.09491212 0.11128668 0.02450575 -0.004413743 -0.055537168 0.04328711 -0.11890912
0.10260861 0.081113614 -0.12206693 -0.029704675 0.12413418 0.090673625 0.07693524 -0.042241797
-0.07249135 -0.020149095 0.01719585 -0.012535019 -0.012220379 0.1096423 -0.118089825 0.0833088
0.008765444 -0.075079285 -0.022133637 0.08945054 0.04460822 -0.021249471 -0.048083708 -0.00500703
-0.0010167209 -0.024046728 0.020321831 -0.03196697 -0.11891024 -0.05184572 -0.022448884 0.0018139898
-0.043887515 -0.12013671 -0.0043689674 0.06433568 0.026175065 -0.04633929 0.032740444 0.011102814
0.085866466 0.11861243 0.028044295 0.07890348 -0.09825121 0.092240095 -0.11439684 -0.118707225
0.06646234 0.10568134 0.0018879491 0.03555598 -0.12419875 -0.061378323 -0.025317311 -0.03552457
-0.045503616 -0.048883613 -0.096863315 -0.022436395 -0.04878326 -0.04483815 0.053535573 0.023538664
0.045676604 -0.01006457 0.04384639 0.023110881 0.06958179 0.06574331 0.043858744 -0.07328683
-0.03410834 -0.05297734 -0.032720327 -0.082233325 -0.11498149 0.0904963 -0.0046513975 -0.12060623
-0.1089599 0.11966866 0.08824021 0.058754485 0.085882775 0.0917533 0.08711901 0.020919241
-0.036837563 0.065934576 0.0020906676 -0.0045246184 -0.0442001 0.04221258 -0.044127315 0.07926192
0.045311127 -0.050706845 0.02034832 0.018275026 0.08840782 -0.007156506 0.06993978 -0.056312103
0.04549216 -0.07045164 0.08536419 0.047261465 -0.0038436889 0.07288565 0.12070583 0.022352038
-0.123753995 -0.0116895065 -0.039113864 -0.064466715 -0.07974432 0.019742783 0.0048301853 -0.0819074
0.118606865 0.0767496 -0.015746664 -0.020402864 0.061261196 0.100308076 0.07594824 0.00876613
-0.11976039 -0.0686137 0.03146021 0.024833694 0.08386873 -0.03457147 0.044140615 -0.0041733384
-0.011551878 -0.032213066 -0.07414451 -0.08216481 0.06981014 0.06605315 -0.053240627 -0.055053994
0.016827673 -0.10117692 0.0276785 -0.018604469 -0.052457057 -0.10515421 0.076735035 -0.09324744
-0.04211485 -0.047777962 -0.063110575 0.068232685 0.07989329 0.0027478132 -0.11312006 -0.018244356
-0.062079832 0.073634334 0.031524837 -0.10113212 0.07441687 0.10178538 0.075935245 0.026030622
0.11169209 -0.066897586 0.10334154 -0.025510503 -0.054948226 0.024728106 -0.059505165 0.012571374

fc3_action.bias f4 [41]
00000000: f29b 3bbc b469 563d cf82 c03d 3c3a debd
00000010: d3b3 9d3b 5906 46bd f8b7 a9bd 2ce4 2c3d
00000020: 2cf1 b93c b7b3 a8bd 9633 a43c 7745 a1bd
00000030: bb39 04bd 8b91 1d3d afe8 813d 4a7f 94bd
00000040: fa93 cbbd 076d f7bd 85a1 f8bd ed92 fbbd
00000050: 2937 4bbd 8c9d bfbc 8ab8 543c 9243 983d
00000060: 961c 94bc ff38 11bb b91f 43bd d135 7abd
00000070: 2418 61bd 350b 793d 7811 773d ffcb bc3d
00000080: 1136 d0bd 0cc6 63bd 1f33 a1bd 8c2a 3a3b
00000090: 53e6 ddbd 765a 693d 06f9 f03b 72ed cebd
000000a0: 5e35 f7bd
-0.0114507545 0.0523469 0.0939995 -0.10850951 0.0048126965 -0.048345897 -0.082870424 0.04220979
0.022698008 -0.08237403 0.02004413 -0.078745775 -0.03228162 0.03846888 0.06343209 -0.07250841
-0.09940334 -0.12081342 -0.121401824 -0.12283883 -0.04961315 -0.023390554 0.012983451 0.07434763
-0.018080037 -0.0022159216 -0.047637675 -0.06108648 -0.054954663 0.060801703 0.060319394 0.09218597
-0.10166562 -0.055608794 -0.07871079 0.0028406708 -0.108349465 0.056971036 0.0073539047 -0.10103883
-0.12070726
