improved_vrpb_policy_final.pth (torch, 42809 bytes, 6 tensors)

fc1.weight f4 [128, 6]
0	0x3e965a49	0.29365757
1	0x3e5d7c56	0.21629462
2	0xbde0d673	-0.10978403
3	0xbe31a6aa	-0.17348734
4	0xbcce35a3	-0.02517206
5	0x3d749780	0.059714794
6	0x3e3b3440	0.1828165
7	0xbdcf4d1f	-0.101221316
8	0x3dfde7cb	0.123977266
9	0x3dd29cf7	0.10283845
10	0x3e6d3a5c	0.23166794
11	0xbddb7aa0	-0.10716748
12	0xbe5f31c5	-0.2179633
13	0xbe109c10	-0.14122033
14	0x3deff83a	0.11717267
15	0x3e8530c9	0.26013783
16	0x3e2797fc	0.16366571
17	0x3eafc7be	0.3433208
18	0xbe3fd1ba	-0.18732348
19	0x3e9c1ba0	0.30489826
20	0x3d5e6e38	0.05430433
21	0x3e2e58f0	0.17026114
22	0xbe8db3ca	-0.2767623
23	0x3e66bcc4	0.22532946
24	0xbeacb3b0	-0.3373084
25	0xbc2868ba	-0.010278875
26	0xbea3d4fb	-0.3199843
27	0xbe8dd398	-0.27700496
28	0xbdc794d2	-0.09745182
29	0x3e581700	0.21102524
30	0xbebefc6b	-0.37301955
31	0x3e9943ff	0.2993469
32	0xbe2b1308	-0.16706479
33	0x3dbe9ed2	0.09307636
34	0xbe9a52f0	-0.301414
35	0xbea3aa43	-0.31965837
36	0x3e2d6eb8	0.16936767
37	0x3d85d2b3	0.06534328
38	0xbe35fe27	-0.17772733
39	0x3dcc6372	0.09979905
40	0x3e97d70c	0.29656255
41	0x3e2de528	0.16981947
42	0xbea85e6c	-0.32884538
43	0x3ebda6f8	0.3704145
44	0x3de42c30	0.111412406
45	0x3e020cfd	0.12700267
46	0x3d22dc85	0.039761085
47	0x3cc0abc0	0.023519397
48	0x3e385a31	0.18003155
49	0xbe9c28c8	-0.30499864
50	0x3e69f980	0.22849083
51	0x3dc29c0a	0.09502418
52	0xbd281474	-0.04103513
53	0xbda95734	-0.08268586
54	0xbec2bee8	-0.38036275
55	0xbeaa5833	-0.33270416
56	0xbe94cda1	-0.29063132
57	0x3e331fff	0.17492674
58	0x3dc9dc2b	0.09856447
59	0xbecf9eaa	-0.4055074
60	0xbe7144a6	-0.23561344
61	0x3e9f7400	0.31143188
62	0x3ea50bb3	0.32235488
63	0x3d29d4d7	0.041462746
64	0xbe4db795	-0.20089562
65	0xbe45747d	-0.19282718
66	0xbdbb342e	-0.09140812
67	0x3e494795	0.19656213
68	0x3e0b5653	0.13607149
69	0x3c821209	0.01587774
70	0x3e3105b6	0.17287335
71	0xbe1e309c	-0.1544823
72	0x3df667b7	0.12031501
73	0x3eb7c712	0.35894066
74	0x3c114c37	0.008868269
75	0x3ecabe03	0.39598092
76	0xbe8117c0	-0.25213432
77	0x3c9de1f0	0.019272774
78	0x3e8470c4	0.25867283
79	0xbc65c2ee	-0.014023526
80	0x3eb0ef8e	0.34557766
81	0x3d9d7c08	0.07689673
82	0xbe6c4b65	-0.23075636
83	0x3e683da0	0.22679758
84	0x3e4a0d37	0.19731604
85	0x3e97d53c	0.29654872
86	0x3d678375	0.05652185
87	0x3e89849f	0.26858994
88	0xbebd393d	-0.36957732
89	0xbea22937	-0.3167207
90	0xbeb80429	-0.35940674
91	0xbe5d11c0	-0.21588802
92	0x3a9a12eb	0.0011754906
93	0x3ec2702d	0.37976208
94	0x3e66ed89	0.2255155
95	0x3da01290	0.078160405
96	0x3d157a96	0.03649386
97	0x3e15ce1e	0.14629409
98	0x3e8b716c	0.27234972
99	0x3ea75143	0.32679185
100	0x3e36bc41	0.1784525
101	0xbd2c8a28	-0.042123944
102	0x3d215e45	0.039396543
103	0xbe4e916e	-0.20172665
104	0xbe6e711e	-0.23285338
105	0xbe99fdf1	-0.30076554
106	0x3e96b55e	0.29435247
107	0xbe93c10a	-0.28858215
108	0xbde3b24b	-0.11117991
109	0x3e8847fa	0.26617414
110	0xbe7c217a	-0.24622145
111	0x3e215d24	0.15758187
112	0x3e1265f7	0.14296709
113	0xbe170b4e	-0.14750406
114	0x3e6d3f25	0.23168619
115	0x3eb41f82	0.3518029
116	0xbdd408da	-0.10353251
117	0x3e2b4dae	0.16728851
118	0x3df32515	0.11872307
119	0xbe9444a2	-0.28958613
120	0xbecfe075	-0.40600935
121	0xbdc09c05	-0.09404758
122	0xbe3a33af	-0.18183778
123	0xbddb699c	-0.10713503
124	0xbe68d633	-0.2273796
125	0xbdc5f63c	-0.09666106
126	0x3dc0aa45	0.09407476
127	0x3e217c58	0.1577009
128	0x3da77a7f	0.08177661
129	0x3eae0cd6	0.33994168
130	0xbe1acbfb	-0.15116875
131	0x3ebd8ec4	0.37022984
132	0x3cdd0fdf	0.026985107
133	0xbd4ac051	-0.049499813
134	0x3ea00473	0.31253394
135	0x3e18564a	0.14876667
136	0x3eb4b134	0.35291445
137	0x3d8f2e58	0.06991261
138	0xbe996610	-0.2996068
139	0x3dc692fd	0.096960045
140	0x3c163d38	0.009169869
141	0x3ec47909	0.38373592
142	0xbe085a1e	-0.13315627
143	0x3ed0f974	0.40815318
144	0x3e97f5a8	0.29679608
145	0x3dbfa432	0.0935749
146	0xbe816879	-0.2527502
147	0x3e9e5733	0.30925903
148	0x3ea697e3	0.32537755
149	0xbd8788b8	-0.06617874
150	0x3eb7b2d9	0.35878637
151	0x3e2f2159	0.17102565
152	0xbe8d0a7f	-0.2754707
153	0xbe487a4e	-0.19577906
154	0xbdf9925f	-0.12186121
155	0x3e036b30	0.12833858
156	0x3da9c07b	0.08288666
157	0xbe877b6e	-0.26461357
158	0x39d6cd3f	0.0004097018
159	0x3dded61b	0.10880681
160	0x3ebaa202	0.36451727
161	0x3dea6ef8	0.11446947
162	0x3e255fea	0.1614987
163	0xbeaa1e8e	-0.33226436
164	0xbd9f7051	-0.077850945
165	0xbe267c6c	-0.162584
166	0x3e7bb50d	0.24580784
167	0xbddac274	-0.1068162
168	0xbce72f76	-0.028220873
169	0x3a393975	0.00070657517
170	0x3e7793ff	0.2417755
171	0x3e563b3d	0.20921035
172	0xbe3e2aa4	-0.18570954
173	0xbe117788	-0.14205754
174	0x3a19da9e	0.00058690633
175	0x3e59e181	0.21277429
176	0x3d2fe705	0.042944927
177	0xbe4d4ed3	-0.200496
178	0x3e1cf682	0.1532841
179	0xbc63e6c0	-0.013909996
180	0x3ebc1482	0.36734396
181	0xbe1af51f	-0.15132569
182	0xbe923674	-0.2855717
183	0xbea03117	-0.31287453
184	0xbe2974d4	-0.16548473
185	0xbd4b1740	-0.04958272
186	0x3df4cab0	0.11952722
187	0x3eb0ddd2	0.34544235
188	0xbda55f80	-0.08074856
189	0x3e02ae08	0.127617
190	0x3df54340	0.119757175
191	0xbe92bc65	-0.2865936
192	0xbec030e2	-0.37537295
193	0xbe3aa778	-0.18227947
194	0xbdf3153d	-0.11869285
195	0xbe9fed0a	-0.31235534
196	0x3cc6363d	0.024195785
197	0x3db00658	0.0859496
198	0xbea7339a	-0.32656556
199	0x3b61076a	0.0034336695
200	0xbdf9883d	-0.121841885
201	0xbe73dbd0	-0.2381432
202	0x3d94b89b	0.07261773
203	0xbe63e961	-0.22256996
204	0x3d918bd7	0.071067505
205	0x3d05dbb9	0.032680247
206	0xbdb81af4	-0.08989516
207	0x3e6756ee	0.22591755
208	0xbecfec5a	-0.4061001
209	0xbdf9c5f0	-0.12195957
210	0xbe9436c2	-0.28948027
211	0x3ead731b	0.3387688
212	0x3d0c0bc7	0.03419092
213	0x3e78332e	0.24238274
214	0x3ec57a91	0.38570073
215	0x3ecdd57e	0.40201944
216	0x3e8556f5	0.26042905
217	0xbe0fdde3	-0.14049487
218	0xbe82e03d	-0.25561705
219	0x3ecf0418	0.4043281
220	0xbe70e4ca	-0.23524776
221	0xbe43e8ae	-0.19131729
222	0x3da01491	0.07816423
223	0x3eb12c35	0.3460404
224	0xbe8078bc	-0.25092113
225	0xbd8482ad	-0.06470237
226	0x3e2e6570	0.17030883
227	0x3dd4d508	0.10392195
228	0x3ead09bb	0.33796486
229	0xbdb07039	-0.08615155
230	0xbe89e38f	-0.26931426
231	0xbe0b0f52	-0.13580063
232	0xbeb71de0	-0.3576498
233	0x3d24a678	0.04019782
234	0xbda25926	-0.0792716
235	0x3e52f8ed	0.2060277
236	0xbe81cd8e	-0.25352138
237	0x3e59e44f	0.21278499
238	0xbcfbe579	-0.03074907
239	0xbbcdc040	-0.0062790215
240	0xbe9a7c5e	-0.3017301
241	0x3e25fe88	0.16210377
242	0xbe69c566	-0.22829208
243	0x3ddceb38	0.10787052
244	0xbe4e3e00	-0.20140839
245	0x3d77f498	0.060535997
246	0xbd3035fa	-0.043020226
247	0x3e9fb411	0.31192067
248	0x3c0570c5	0.008144562
249	0xbe697290	-0.22797608
250	0x3e8026cf	0.2502961
251	0x3e545910	0.207371
252	0xbe31dd2d	-0.17369528
253	0x3e841c01	0.25802615
254	0x3e0cb7de	0.13742015
255	0xbde86e76	-0.11349194

fc1.bias f4 [128]
0	0xbe676306	-0.22596368
1	0xbd290c13	-0.04127128
2	0x3e6d9aab	0.23203532
3	0xbeaf4171	-0.34229615
4	0x3e7efbd8	0.24900758
5	0x3d6a72ce	0.057238393
6	0xbe4585dc	-0.19289345
7	0xbdf8590a	-0.12126358
8	0xbc2eed82	-0.010676743
9	0xbe00a668	-0.12563479
10	0xbe31a22f	-0.17347024
11	0x3eb50f48	0.3536322
12	0xbeca459f	-0.39506242
13	0xbe9d2c61	-0.3069792
14	0x3e09386f	0.13400434
15	0xbea9839a	-0.33108217
16	0xbd71cf6a	-0.059035696
17	0xbd4fec56	-0.050762497
18	0x3d2d86a3	0.042364728
19	0xbebacaab	-0.36482748
20	0x3ebe4be9	0.3716729
21	0x3ea76507	0.32694265
22	0x3ec2de0e	0.3806004
23	0x3e3e064e	0.18557093
24	0x3dc8ce1e	0.09804939
25	0x3ea05050	0.31311274
26	0xbecd6677	-0.40117237
27	0x3e7ca414	0.24671966
28	0xbe08c7f2	-0.13357523
29	0xbc236998	-0.009973906
30	0xbd284796	-0.041083895
31	0xbebf8e8e	-0.37413448
32	0x3ebaba95	0.36470476
33	0x3e0ecdfd	0.13945766
34	0xbdeea895	-0.11653248
35	0xbeb2e01e	-0.34936613
36	0x3e2ae1c0	0.1668768
37	0x3c963f18	0.018340632
38	0xbcd4c9c4	-0.025975116
39	0x3d38aa3c	0.045084223
40	0xbdfb60c4	-0.12274316
41	0xbde6eb8b	-0.11275395
42	0x3dcf53fa	0.10123439
43	0xbe16ab84	-0.14713866
44	0x3e6b9310	0.23005319
45	0xbe4a02eb	-0.19727676
46	0xbe84ed5a	-0.25962335
47	0x3eb4050f	0.3516011
48	0x3e9b3b23	0.30318555
49	0x3d44d2b8	0.04805252
50	0xbeb1a980	-0.3469963
51	0xbdb028d8	-0.0860154
52	0xbd86b064	-0.065766126
53	0xbe145ce9	-0.14488567
54	0x3e3ebfde	0.18627879
55	0xbe6c8c60	-0.23100424
56	0x3e6c4c82	0.2307606
57	0xbde8228a	-0.11334713
58	0x3e551236	0.20807728
59	0xbe6e7cb6	-0.23289761
60	0xbdd55d00	-0.10418129
61	0x3e7d4965	0.24735029
62	0xbc977eb0	-0.018493026
63	0x3e5d9117	0.21637379
64	0x3c697e8c	0.0142513625
65	0xbe56d9d4	-0.20981532
66	0x3eb3fbc7	0.35153028
67	0xbd0b5e58	-0.03402552
68	0xbe974e31	-0.29551843
69	0xbea4d584	-0.3219415
70	0xbd0283f8	-0.031864136
71	0xbe97b682	-0.2963143
72	0x3d2dbe18	0.042417616
73	0xbec5bff7	-0.3862302
74	0xbec5c15c	-0.38624084
75	0xbd03ef76	-0.03221079
76	0xbec47e61	-0.3837767
77	0xbe2133ad	-0.15742369
78	0xbea5191e	-0.32245725
79	0xbe61ed33	-0.2206314
80	0x3dfddf75	0.12396137
81	0xbde08efb	-0.10964771
82	0x3e12122a	0.14264742
83	0xbe193dc8	-0.14964974
84	0x3eb906d5	0.36138025
85	0x3dd9570e	0.106123075
86	0x3a189fa0	0.0005822126
87	0x3cd262d4	0.02568189
88	0xbe83af80	-0.25719833
89	0x3deb7e3a	0.11498685
90	0xbdc4f56d	-0.09617124
91	0x3e25cd34	0.1619156
92	0x3ecbe7d3	0.39825305
93	0xbe857488	-0.2606547
94	0x3e78a283	0.24280743
95	0xbe770ac6	-0.24125203
96	0x3c712da4	0.014720354
97	0x3d64d774	0.055869535
98	0x3d03a42d	0.032138992
99	0xbe203d3a	-0.15648356
100	0xbec8c22e	-0.39210647
101	0x3e9ecebb	0.31017098
102	0xbe9d2ccf	-0.3069825
103	0xbe1e3826	-0.15451106
104	0xbd77a756	-0.06046232
105	0xbe21d6d2	-0.15804604
106	0xbe1ab2f2	-0.15107325
107	0x3eb50409	0.3535464
108	0x3ea7b138	0.32752395
109	0xbeb92462	-0.3616057
110	0x3ea2db8e	0.31808132
111	0xbd2bd552	-0.041951485
112	0xbe6366be	-0.22207162
113	0xbdbe7d9c	-0.09301302
114	0xbe88dcab	-0.26730856
115	0xbd37b98a	-0.04485468
116	0x3e088e1b	0.13335459
117	0xbdc68829	-0.09693939
118	0xbc1db053	-0.0096245585
119	0xbe5bccc0	-0.21464825
120	0x3ecd2d40	0.40073586
121	0x3e0e4d5c	0.13896698
122	0x3ebda786	0.37041873
123	0x3e2bbc1c	0.16770977
124	0x3e6dad49	0.23210634
125	0xbe64f3f8	-0.22358692
126	0x3ead0ac2	0.3379727
127	0x3ebfd4ca	0.37467033

fc2.weight f4 [64, 128]
0	0x3d931b63	0.07182958
1	0xbda8bb28	-0.08238822
2	0xbc213060	-0.009838194
3	0x3d927eef	0.07153117
4	0x3b787da0	0.0037916675
5	0x3d21401e	0.039367788
6	0x3d06e056	0.032928787
7	0x3d874045	0.06604055
8	0xbdac74d3	-0.0842072
9	0xbd414002	-0.047180183
10	0x3d709d8a	0.05874399
11	0x3c1bb580	0.009503722
12	0x3d0e89bc	0.034799322
13	0xbd813702	-0.0630932
14	0xbd90bf3c	-0.07067725
15	0xbd8fea95	-0.07027165
16	0x3d9d9377	0.07694142
17	0x3abc7980	0.0014379472
18	0xbd3e9e00	-0.0465374
19	0xbd11d786	-0.03560593
20	0xbd8ae3bb	-0.067817174
21	0xbd9e6a56	-0.07735126
22	0x3ce84168	0.0283515
23	0xbda1861b	-0.07886907
24	0xbd9b56d3	-0.0758492
25	0x3b833b00	0.004004836
26	0x3cca71f0	0.024712533
27	0xbc6ca8b8	-0.014444523
28	0xbd6de4b0	-0.05807942
29	0xbca4f82c	-0.020137869
30	0x3db25fe1	0.08709694
31	0xbcb69958	-0.022289917
32	0xbd6c7ff0	-0.0577392
33	0x3c5573f0	0.01302813
34	0x3d9256f3	0.071454905
35	0x3daaaea9	0.08334095
36	0x3d243d5a	0.040097572
37	0xbc2f5d80	-0.0107034445
38	0x3d749e7e	0.059721462
39	0x3be8d1f0	0.0071051046
40	0xbc1f36e0	-0.009717673
41	0xbc429008	-0.01187516
42	0x3cdf65fc	0.02727031
43	0x3d3caf32	0.046065517
44	0xbd40697a	-0.04697559
45	0x3d828791	0.063735135
46	0x3d634e3e	0.05549454
47	0x3c6f9240	0.014622271
48	0xbd9a1dfc	-0.0752525
49	0x39acbe00	0.00032947958
50	0xbbefa5f0	-0.0073134825
51	0xbd87e252	-0.06634964
52	0x3c8f306c	0.017479144
53	0x3d00a878	0.031410664
54	0x3d56eae6	0.05247011
55	0xbd5d9853	-0.054100346
56	0xbd8fa997	-0.070147686
57	0xbc99b8c4	-0.01876486
58	0x3c95f46c	0.018305026
59	0x3bef2850	0.007298507
60	0x3d9e6e21	0.07735849
61	0x3d790da6	0.06080403
62	0x3dade387	0.08490663
63	0xbd56e132	-0.052460857
64	0x3d9b6fb7	0.07589667
65	0x3d02b648	0.03191212
66	0xbdafe179	-0.08587927
67	0xbd9ebec0	-0.077512264
68	0xbda44764	-0.08021429
69	0x3b8902a0	0.004181221
70	0xbcc914bc	-0.02454602
71	0x3d5b8022	0.053588994
72	0xbc462308	-0.012093313
73	0x3d3327aa	0.043739
74	0x3d612c72	0.054974027
75	0xbdad5627	-0.08463698
76	0xbd87acbb	-0.066247426
77	0xbd5d6e1c	-0.054060087
78	0x3d25617e	0.04037618
79	0x3d8c2de1	0.06844688
80	0xbcd0a920	-0.02547127
81	0xbc5dce38	-0.013537936
82	0xbd05b258	-0.032640785
83	0x3d168842	0.03675104
84	0xbc84a624	-0.016192503
85	0x3cf4f14c	0.029900216
86	0xbd2e921c	-0.04261981
87	0x3d075bee	0.033046655
88	0xbd9603e7	-0.07324963
89	0x3d93917d	0.07205484
90	0x3cbfe45c	0.02342432
91	0x3d6892c6	0.0567806
92	0x3d9389c3	0.0720401
93	0x3da95faf	0.08270203
94	0xbcf13902	-0.029446129
95	0x3d22dca2	0.039761193
96	0x3d3d1d02	0.046170242
97	0x3daa6467	0.083199315
98	0x3d1ef40a	0.038806953
99	0xbcc1063c	-0.023562543
100	0x3cbe2e78	0.023215517
101	0xbc66d068	-0.014087774
102	0xbcdcb6a6	-0.026942562
103	0x3d9aba0b	0.07555016
104	0xba389980	-0.0007041916
105	0x3db47c77	0.08812802
106	0xbc9ee4f4	-0.019396283
107	0xbd4ec527	-0.050480988
108	0x3d7efde2	0.06225384
109	0x3c9cc258	0.01913564
110	0x3d2bb73e	0.0419228
111	0xbcddb4b2	-0.027063701
112	0x3d863acb	0.065541826
113	0x3d5b698a	0.053567447
114	0x3bb8a670	0.0056350753
115	0x3d4f808e	0.05065971
116	0x3d4ad7e2	0.04952229
117	0x3d13d602	0.036092766
118	0x3bfc99b0	0.0077087507
119	0x3d65ed6a	0.05613462
120	0xbbf98ab0	-0.00761541
121	0x3a27cb80	0.00064008683
122	0xbd85beb2	-0.06530513
123	0xbd96b092	-0.07357897
124	0xbd671436	-0.05641576
125	0xbd4b3a71	-0.04961628
126	0x3c412f70	0.011791095
127	0xbd2df913	-0.042473864
128	0xbb631140	-0.0034647733
129	0xbdacc517	-0.084360294
130	0x3db0608f	0.08612167
131	0xbd14ee31	-0.03635997
132	0x3d946c83	0.072472595
133	0xbd3f28a0	-0.046669602
134	0x3d8a92ea	0.06766303
135	0x3d993d3d	0.074823834
136	0xbd199d06	-0.037503265
137	0xbcacfa8e	-0.021115568
138	0x3d95bfe1	0.073119886
139	0xbd539c01	-0.05166245
140	0x3d7d268a	0.06180433
141	0xbd77ca5f	-0.06049573
142	0x3da58dbe	0.08083676
143	0x3d2f9065	0.042862315
144	0xbc51c2ff	-0.012802838
145	0x3d918261	0.07104946
146	0x3d8a8978	0.06764501
147	0x3a109280	0.0005514994
148	0x3da97fac	0.082763046
149	0xbd904ba8	-0.0704568
150	0xbdac1377	-0.0840215
151	0xbda1fd45	-0.079096355
152	0x3c3f76ac	0.011686008
153	0x3cac4f76	0.021033984
154	0xbce1af1e	-0.027549323
155	0x3da2a1ec	0.079410404
156	0x3bcc09d0	0.0062267557
157	0x3c8a78a8	0.016903237
158	0x3d1b42a2	0.037905343
159	0xbcd7f530	-0.026362032
160	0xbd35dfb8	-0.044402808
161	0xbd80d14d	-0.06289921
162	0x3db3a33b	0.08771368
163	0xbd1d22da	-0.038363315
164	0xbd39af3a	-0.045333125
165	0xbd8bc0c5	-0.06823877
166	0x3db2a6d3	0.087232254
167	0x3c1c2a6d	0.0095315995
168	0x3d365af6	0.04452034
169	0xbd414d6e	-0.047192983
170	0x3d709402	0.0587349
171	0x3d86d7bb	0.06584116
172	0xbd5a5e5b	-0.05331264
173	0xbd65f318	-0.056140035
174	0x3d477aae	0.04870098
175	0x3caf0845	0.021366248
176	0x3da56686	0.080761954
177	0x3d87b15f	0.06625628
178	0xbcde2dd0	-0.027121454
179	0x3d672342	0.05643011
180	0x3cb0f932	0.0216032
181	0x3d8602d7	0.065435104
182	0x3d4b49cf	0.049630936
183	0xbd307149	-0.043076787
184	0xbda45ef6	-0.08025925
185	0xbcaca216	-0.021073382
186	0x3da504fe	0.08057593
187	0xbd4ebec9	-0.050474916
188	0x3d05ce06	0.032667182
189	0xbd0177c8	-0.031608373
190	0x3d0b8212	0.03405959
191	0x3c28b9aa	0.010298172
192	0x3d42e261	0.047579173
193	0xbcd8e4e6	-0.026476335
194	0xbc845692	-0.016154561
195	0x3d363066	0.04447975
196	0x3d44044a	0.047855653
197	0xbda3597d	-0.07976053
198	0x3d8a080b	0.06739815
199	0x3da85a2d	0.08220325
200	0x3ac0d740	0.0014712587
201	0x3c204070	0.009780988
202	0xbd679ba2	-0.056544907
203	0xbd1e60ac	-0.038666412
204	0xbce79a32	-0.028271768
205	0x3daf34e1	0.08555008
206	0x3d4e3f08	0.05035308
207	0x3d6dd2f6	0.058062516
208	0x3bc188f8	0.0059062205
209	0xbd8055fe	-0.06266402
210	0x3dab0400	0.08350372
211	0x3d4b394e	0.049615197
212	0xbda6bbe0	-0.08141303
213	0xbd57b2ab	-0.052660625
214	0x3daa238b	0.083075605
215	0x3cb749e8	0.022374108
216	0x3c724798	0.014787577
217	0xbc3f76c0	-0.011686027
218	0xbd4f52b7	-0.050615992
219	0xbdb0447e	-0.08606814
220	0x3d732933	0.059365463
221	0x3d4cc646	0.049993776
222	0xbd968b4e	-0.07350789
223	0x3da5f877	0.081040315
224	0x3ccc3818	0.024929091
225	0xbd3dc4b0	-0.046330154
226	0xbd10d31b	-0.035357576
227	0xbd250c12	-0.040294714
228	0x3ce75a74	0.028241374
229	0x3d75d1f4	0.06001468
230	0xbb89ad9c	-0.004201604
231	0xbc89f7e4	-0.016841836
232	0xbcc99358	-0.024606392
233	0xbb924fe0	-0.0044650882
234	0xbc3c78b0	-0.0115033835
235	0x3db42d4a	0.08797701
236	0x3da1a932	0.078935996
237	0xbd76e80b	-0.060279887
238	0xbd8bda6d	-0.06828771
239	0x3d88e2f0	0.0668391
240	0xbda8184c	-0.08207759
241	0xbd4343ec	-0.047672197
242	0xbaafa0c0	-0.0013399348
243	0xbd01a915	-0.03165539
244	0xbd91d630	-0.07120931
245	0x3d6305cf	0.05542546
246	0x3d8b39e3	0.067981504
247	0x3d5a762a	0.053335346
248	0x3d3b30e2	0.045700915
249	0xbce0ffe2	-0.027465764
250	0x3aab9246	0.0013089858
251	0x3c94e6c5	0.018176446
252	0xbd6a9ec1	-0.057280306
253	0x3b002180	0.0019551218
254	0x3cb3c81f	0.021946011
255	0xbd6452c4	-0.055742994

fc2.bias f4 [64]
0	0x3cf17428	0.029474333
1	0xbd75e7aa	-0.060035385
2	0x3c69c4a0	0.01426807
3	0x3dab4f3c	0.08364722
4	0x3cf4e186	0.029892694
5	0x3c5801b0	0.013183996
6	0x3d5de370	0.05417198
7	0xbdb32c7a	-0.087487176
8	0x3d934b36	0.0719208
9	0xbcdf9cfa	-0.027296532
10	0xbd8aaf99	-0.06771774
11	0xbda21597	-0.07914274
12	0xbd413ee4	-0.047179118
13	0x3d34720d	0.04405408
14	0xbcaf4671	-0.021395894
15	0xbd71248e	-0.058872752
16	0xbd0c0f7e	-0.034194462
17	0xbd436e38	-0.047712535
18	0xbc3c1184	-0.011478785
19	0xbd8b961f	-0.06815743
20	0x3cfd45a0	0.030916989
21	0xbdabfe76	-0.08398144
22	0xbd4e9f83	-0.05044509
23	0xbcf72ba4	-0.030172177
24	0x3c2ac158	0.010422073
25	0xbccd3b65	-0.025052736
26	0xbd46317b	-0.048387032
27	0xbceb1b18	-0.028699443
28	0xbc92141c	-0.017831855
29	0x3db6f25b	0.089329444
30	0xbd551928	-0.052025944
31	0xbd4dcf48	-0.050246507
32	0x3c8c10e4	0.017097898
33	0x3be47ad6	0.006972651
34	0xbd43466f	-0.047674593
35	0xbce359f4	-0.027752854
36	0x3d5ebcf2	0.05437941
37	0x3db29726	0.087202355
38	0xbd1b1345	-0.037860174
39	0x3b6666ae	0.0035156417
40	0xbd854749	-0.06507737
41	0xbc0b5b89	-0.00850571
42	0x3bd28db0	0.006425582
43	0xbd8b1514	-0.0679113
44	0xbd4485cb	-0.047979157
45	0xbc9d2715	-0.019183675
46	0x3d4e92b5	0.05043288
47	0x3d5b0b55	0.053477604
48	0xbda0b99f	-0.078479044
49	0xba4e3ff9	-0.0007867809
50	0xbc5467a5	-0.012964164
51	0x3cab11bf	0.020882485
52	0x3d0d0b45	0.034434576
53	0xbb579a43	-0.0032898344
54	0x3b53ad20	0.0032299235
55	0xbd878b5c	-0.066183776
56	0x3da31303	0.079626106
57	0x3da21f18	0.07916087
58	0xbd95d9dc	-0.07316944
59	0x3d582bc4	0.052776113
60	0xbd13a566	-0.036046408
61	0x3d9a6d61	0.075403936
62	0xbc885f46	-0.016646992
63	0x3a691e4c	0.0008892759

fc3_action.weight f4 [11, 64]
0	0x3d884586	0.066538855
1	0x3db284df	0.087167494
2	0xbdce0928	-0.1006034
3	0x3dcd83dd	0.100349165
4	0x3bfeff4a	0.0077818977
5	0x3db1b6d6	0.08677451
6	0x3d1d6ae5	0.03843202
7	0xbd4a8998	-0.049447626
8	0xbe00cd60	-0.12578344
9	0x3dfa47eb	0.122207485
10	0xbd967524	-0.073465616
11	0xba00e300	-0.0004916638
12	0x3dc2a788	0.0950461
13	0x3ce391ab	0.02777942
14	0x3d2581d1	0.040407006
15	0xbdc9c16e	-0.09851347
16	0xbde20d6a	-0.11037715
17	0x3da598c7	0.080857806
18	0x3c42069f	0.011842399
19	0xbd34c3dc	-0.0441321
20	0x3c938e20	0.018012106
21	0xbdc88494	-0.09790912
22	0xbcec55b2	-0.028849456
23	0x3c865485	0.016397724
24	0x3da41f1b	0.080137454
25	0xbd451edd	-0.048125137
26	0xbd8e875e	-0.06959413
27	0x3d1986e4	0.037482157
28	0xbcad9c59	-0.021192716
29	0xbd4a3a83	-0.049372207
30	0xbd0ed580	-0.03487158
31	0x3da4e364	0.08051184
32	0x3c38378f	0.011243715
33	0x3bb06623	0.0053832694
34	0xbdd41213	-0.1035501
35	0xbdba6ad2	-0.091024056
36	0xbd8f5ed6	-0.070005104
37	0x3df12236	0.11774103
38	0xbde8fdab	-0.11376508
39	0xbdb24cbf	-0.087060444
40	0xbd55f259	-0.052233074
41	0xbd80fe6f	-0.06298529
42	0xbd4b940c	-0.049701735
43	0x3d045dac	0.032315895
44	0xbbbd0d42	-0.0057694027
45	0xbdc4cd2f	-0.09609448
46	0x3a45cc5a	0.00075454044
47	0x3c444f22	0.011981757
48	0xbde16154	-0.11004892
49	0x3c916e1e	0.017752703
50	0xbdd76105	-0.10516552
51	0x3c11249d	0.008858827
52	0x3d9157fd	0.070968606
53	0x3d804f3e	0.06265114
54	0xbdbd89ec	-0.09254822
55	0xbcdbdff0	-0.02684018
56	0xbcd27520	-0.025690615
57	0xbdc50a70	-0.096211314
58	0xbdfc69dd	-0.12324879
59	0xbae164ae	-0.0017196143
60	0x3d91935e	0.07108186
61	0x3dcf77d4	0.10130277
62	0x3db8688e	0.09004317
63	0xbdd18e2e	-0.10232197
64	0xbd8119a2	-0.06303717
65	0xbca0a832	-0.019611452
66	0x3d98d858	0.07463139
67	0x3d3f821c	0.04675494
68	0xbd8d8724	-0.06910542
69	0xbd144714	-0.036200598
70	0x3ddad05e	0.10684274
71	0x3d54bed0	0.051939785
72	0x3da85a16	0.082203075
73	0x3c8f530e	0.017495658
74	0x3de17767	0.11009102
75	0x3c90a020	0.017654479
76	0xbdae8e04	-0.08523181
77	0xbd88428d	-0.066533186
78	0x3c545e9d	0.012962011
79	0xbd464164	-0.048402205
80	0x3dfbff1e	0.12304519
81	0xbde97939	-0.114000745
82	0xbd8637da	-0.065536216
83	0x3d34f128	0.044175297
84	0xbdb54e8c	-0.08852872
85	0x3d9981d0	0.07495463
86	0xbdee7d94	-0.11645046
87	0xbd463c58	-0.048397392
88	0x3c8366f6	0.016040307
89	0xbdc514f2	-0.096231356
90	0x3d5780cf	0.052613076
91	0x3df7c1c6	0.12097506
92	0x3c7da6d7	0.015481672
93	0x3b451180	0.0030070245
94	0x3d271ff4	0.040801957
95	0xbdf5f51c	-0.120096415
96	0xbd6730d6	-0.056443058
97	0x3d78e9d2	0.060769863
98	0xbd1f8a92	-0.03895051
99	0xbdf3e5e3	-0.11909082
100	0xbd40f7fc	-0.047111496
101	0xbc111150	-0.008854225
102	0x3c2a92f0	0.010411009
103	0x3d17035a	0.03686843
104	0x3ddaf436	0.10691111
105	0xbd91749c	-0.071023196
106	0x3d3b41d0	0.04571706
107	0x3d9b6b56	0.07588832
108	0x3caa12c3	0.0207609
109	0x3d743b9a	0.059627153
110	0x3cb164f1	0.021654578
111	0x3d55d650	0.052206337
112	0xbdca86b8	-0.09888977
113	0xbd49edcd	-0.04929905
114	0x3cff2530	0.031145662
115	0x3d9c198f	0.076220624
116	0x3d9d6111	0.076845296
117	0xbd84120c	-0.06448755
118	0xba197f00	-0.00058554113
119	0x3db449ca	0.08803137
120	0xbd99461a	-0.07484074
121	0xbd8e3286	-0.0694323
122	0x3beb3dcf	0.007178999
123	0x3e007628	0.12545073
124	0x3da4acbc	0.08040759
125	0xbd46fb99	-0.048579786
126	0xbd88d7ee	-0.0668181
127	0x3cbfdffb	0.023422232
128	0xbd9fb9a4	-0.0779908
129	0xbdc309df	-0.09523367
130	0xbc0e65c0	-0.008691251
131	0xbd225472	-0.039631315
132	0x3d1d093a	0.038338877
133	0x3c742a30	0.014902636
134	0xbd8ecf18	-0.06973094
135	0x3dec030a	0.11524017
136	0x3dde66da	0.10859461
137	0xbd3438a6	-0.043999337
138	0xbcd1131a	-0.025521804
139	0x3dce5cb2	0.10076274
140	0xbd3da05c	-0.04629551
141	0x3cf02b69	0.029317575
142	0xbda40dc2	-0.080104366
143	0x3dc9ba28	0.098499596
144	0x3dfb4cc0	0.12270498
145	0x3d84c413	0.06482711
146	0xbdf36133	-0.11883774
147	0xbd972912	-0.073808804
148	0x3cc1c610	0.023654014
149	0xbd83e6c4	-0.064404994
150	0xbdf411dc	-0.11917469
151	0xbd53b46f	-0.051685747
152	0xbd337885	-0.04381611
153	0x3dace266	0.084416196
154	0xbd11a88f	-0.03556114
155	0xbdd4aaa8	-0.103841126
156	0xbcbb502c	-0.022865377
157	0x3dbd01f1	0.09228886
158	0x3da9cd44	0.082911044
159	0x3d6f39bc	0.05840467
160	0xbd336e8b	-0.043806594
161	0xbd2b3540	-0.04179883
162	0xbdfa2987	-0.12214952
163	0x3ded1129	0.11575539
164	0xbda885af	-0.08228623
165	0xbd9e0a84	-0.077168494
166	0x3bcdd5e0	0.0062815994
167	0x3d6375b7	0.055532183
168	0xbbcd257d	-0.0062605725
169	0xbd618555	-0.055058796
170	0x3d0b0e54	0.03394921
171	0x3dc9302c	0.09823641
172	0xbd00c1f1	-0.031434957
173	0x3ccd6a1f	0.025075017
174	0x3d918e35	0.07107202
175	0x3d49472b	0.049140137
176	0xbc6959ce	-0.0142426025
177	0x3b9249b3	0.004464352
178	0x3b1291c0	0.0022364706
179	0xbb1966d9	-0.002340725
180	0xbc1581f9	-0.009125226
181	0xbc99e3fe	-0.018785473
182	0xbd45b978	-0.04827258
183	0xbce32c50	-0.02773109
184	0x3b39af00	0.0028333068
185	0xbd40a5ee	-0.047033243
186	0xbcbb9786	-0.0228994
187	0x3dabbd82	0.08385755
188	0x3b6313c0	0.0034649223
189	0xbcf6b04a	-0.030113358
190	0x3c750570	0.01495491
191	0x3d997b5c	0.07494232
192	0xbd890ae6	-0.06691532
193	0xbce12e10	-0.027487785
194	0x3d610f54	0.05494626
195	0xbc98a30b	-0.018632432
196	0xbda93a69	-0.08263094
197	0x3d4b2d50	0.04960376
198	0xbda519cb	-0.0806156
199	0xbd38b684	-0.045095935
200	0xbdbda90a	-0.09260757
201	0xbd814d94	-0.06313625
202	0xbdbbd1ae	-0.091708526
203	0xbc04fbd0	-0.008116677
204	0xbdfd50ee	-0.12368952
205	0xbd93f809	-0.07225043
206	0x3dcca5a7	0.09992533
207	0x3d9affec	0.075683445
208	0xbd3fde82	-0.04684306
209	0xbd90692d	-0.07051311
210	0x3ddc78d8	0.107652366
211	0xbdd610d0	-0.104524255
212	0xbd87efbe	-0.06637524
213	0x3c2e7980	0.010649085
214	0xba7c9f4a	-0.0009636773
215	0x3dea722b	0.11447557
216	0x3dafe82a	0.08589204
217	0xbdd405e7	-0.10352688
218	0xbde58722	-0.11207415
219	0x3c77e790	0.015130892
220	0xbd9a7fad	-0.075438835
221	0xbbecb211	-0.0072233756
222	0xbd625f80	-0.055266857
223	0x3cf3b738	0.029750451
224	0x3dde5e7b	0.108578645
225	0x3dee73c9	0.11643178
226	0x3deb7375	0.11496631
227	0xbccb4a01	-0.024815561
228	0x3d9ae2aa	0.07562764
229	0x3db630e3	0.08896043
230	0x3d557d6c	0.052121565
231	0xbd0cdf17	-0.034392443
232	0x3d8da1c0	0.06915617
233	0xbda281f5	-0.079349436
234	0xbdec7c1e	-0.11547111
235	0x3cb542c0	0.022126555
236	0xbdef39ae	-0.116809234
237	0xbdf452e1	-0.119298704
238	0xbcc2867b	-0.023745766
239	0x3d1f0ddf	0.038831588
240	0x3ca23b27	0.019803597
241	0xbdb90e75	-0.090359606
242	0xbd4d9844	-0.05019404
243	0xbded0375	-0.11572925
244	0xbdf97ee6	-0.12182407
245	0xbdba0b63	-0.09084203
246	0xbdb2571a	-0.087080196
247	0x3d08fb54	0.03344281
248	0x3d88af10	0.066740155
249	0x3d4b7b6d	0.049678255
250	0x3d7fee27	0.06248298
251	0x3d64dcc7	0.055874612
252	0x3de82b78	0.11336416
253	0x3df762a7	0.12079363
254	0x3d1687ae	0.036750488
255	0xbdd57ee0	-0.1042459

fc3_action.bias f4 [11]
0	0xbd2cf626	-0.042226933
1	0xbae77b0b	-0.0017660571
2	0xbdbf059b	-0.09327241
3	0x3c214ef6	0.009845486
4	0x3d81f9de	0.063464865
5	0x3d1b77c9	0.037956033
6	0xbd966ac8	-0.07344586
7	0x3cff4d11	0.031164678
8	0x3defebb7	0.11714881
9	0x3c6dc911	0.01451327
10	0x3c89d422	0.016824786
