improved_vrpb_policy_final.pth (torch, 42809 bytes, 6 tensors)

fc1.weight f4 [128, 6]
000000 1f ca 36 be b8 06 fc 3d c0 ee c6 bd 50 b8 96 3d
       -0.1785054 0.12305969 -0.09713507 0.073593736
000010 58 9f 91 bd 00 db b4 3b 84 3f 79 3e 47 92 4d 3e
       -0.071104705 0.005519271 0.24340636 0.20075332
000020 ed c6 6d be 37 7c c5 3d 71 e4 ba be d6 22 cb 3e
       -0.23220415 0.09642833 -0.36502412 0.39675015
000030 fb 0c 42 be 78 3e a3 be 4a 51 49 be 14 85 0d bc
       -0.18950264 -0.31883597 -0.19659916 -0.008637685
000040 fe 40 c8 3b 40 90 2a bd 19 78 59 3e c6 ae a7 3e
       0.0061112633 -0.041641474 0.2123722 0.3275053
000050 aa 77 ff bd 65 03 c0 be af 46 cd 3d 1e d1 a0 be
       -0.12473996 -0.3750259 0.100232475 -0.31409544
000060 92 a3 98 be d7 db b8 3e 22 e9 95 3e b3 1b 53 3e
       -0.29812294 0.36105224 0.2927943 0.20616035
000070 7d 45 b0 be 48 33 a7 3e 28 44 65 be d9 07 c7 be
       -0.34428015 0.32656312 -0.22389281 -0.38873175
000080 f6 81 be be a1 21 c8 3e 84 27 b0 be a8 99 15 3e
       -0.37208527 0.39088157 -0.34405148 0.14609396
000090 a8 f1 5c be 8d a3 5a bd 90 cb c2 3d 10 24 89 3d
       -0.2157656 -0.05337863 0.09511483 0.066963315
0000a0 17 41 20 bd 3e 20 2c be df f1 ae 3e 20 f3 9f 3e
       -0.039124575 -0.16809174 0.34168908 0.31240177
0000b0 99 23 3a 3e 75 2b 40 3d f0 4f bd be 84 10 38 3e
       0.18177642 0.046916444 -0.3697505 0.1797505
0000c0 c3 88 cf be 56 bd 59 be 2d 10 bc 3e f8 46 ae 3e
       -0.40534028 -0.21263632 0.3673109 0.3403852
0000d0 53 32 84 be ba 8e 02 be a4 3b c3 bd 29 70 4f 3e
       -0.25819644 -0.12749758 -0.0953286 0.2025763
0000e0 10 57 8b 3c 71 8c c0 3e f1 fe 07 be a0 a5 a3 be
       0.017009288 0.37607148 -0.13280846 -0.319623
0000f0 21 f9 b4 be e2 2c 41 3e ad c5 20 3e f4 70 93 3e
       -0.3534632 0.18864778 0.15700407 0.28797114
000100 18 57 c2 3e 22 a9 b4 3e 28 38 a7 be 20 69 9b be
       0.37957072 0.35285288 -0.3266003 -0.30353642
000110 d9 aa 2e be 2a a0 85 3e e5 81 e3 3d ec 89 1e 3e
       -0.1705736 0.26098758 0.1110876 0.154823
000120 f8 7d b3 3e cf c1 28 bd 76 8c 43 bd c4 2a 85 be
       0.35057044 -0.041200455 -0.047741376 -0.2600919
000130 b4 bb c5 3e f8 69 c9 3e 30 cb 27 bd 64 06 17 3e
       0.3861977 0.3933866 -0.04096526 0.14748532
000140 92 ee a4 3e 00 f9 8a bd a4 18 e4 bd 70 46 96 3d
       0.32213265 -0.06785774 -0.11137512 0.07337654
000150 70 98 83 3d b9 64 c5 3d f0 05 80 3d 62 d8 ae 3e
       0.064255595 0.09638352 0.062511325 0.34149462
000160 95 80 e5 bd b0 f8 48 3e 51 1b d0 3e fa fb 9a 3e
       -0.11206166 0.19626117 0.4064584 0.30270368
000170 8a da 3e 3e c3 79 83 3e 85 f8 b9 be ac fe 8f bd
       0.18638054 0.25678834 -0.36322418 -0.07030997
000180 0f e3 08 3e bd 8f 5d 3b cc e8 0b 3e e5 dc 22 3d
       0.13367866 0.0033807599 0.13663024 0.039761443
000190 c2 b4 25 3e 58 09 c4 3d 39 ab 0e be f5 8c 01 be
       0.16182235 0.09572095 -0.13932504 -0.12651427
0001a0 c0 61 e5 3d 7b 49 66 be b8 f1 94 3e 4c 4d 5d 3e
       0.11200285 -0.22488968 0.29090667 0.21611518
0001b0 60 d6 94 be 64 aa 83 bd 00 b8 87 ba a4 b5 d4 bd
       -0.29069805 -0.06428984 -0.0010354519 -0.10386208
0001c0 f0 9f 66 bd 83 e7 c8 be 6b ba e4 3d 55 c1 31 bd
       -0.056304872 -0.3923913 0.11168369 -0.043397266
0001d0 61 1c 09 3e 92 4b c0 3e 0f 7f 93 3d d8 75 66 bd
       0.13389732 0.37557656 0.07201969 -0.05626473
0001e0 44 01 8c be 3a c7 00 3e 7e 45 b1 3e ed bf 1d be
       -0.27344716 0.12575999 0.3462333 -0.15405245
0001f0 f6 a2 c2 3e 64 a4 68 3e d8 1d e2 3d c8 23 87 bd
       0.38014954 0.2271896 0.110408485 -0.065986216
000200 74 d3 88 be 5f 73 51 be 8e a1 3a be d0 e7 03 be
       -0.26723826 -0.20454167 -0.1822569 -0.12881398
000210 53 db 24 be ad e6 25 be 30 29 8c be 90 37 91 bd
       -0.1609929 -0.16201277 -0.27375174 -0.07090676
000220 b5 0c 98 be fc 53 3b 3e d4 db b2 bd 68 80 87 be
       -0.29697195 0.18293756 -0.08733335 -0.26465154
000230 f8 33 61 3e 69 e7 57 be b0 02 98 be 02 90 cb be
       0.21992481 -0.2108437 -0.2968955 -0.39758307
000240 a9 ae 5c be ab ff 19 be 6c 31 a6 be 10 63 c0 3e
       -0.21551003 -0.15038936 -0.3245958 0.3757558
000250 7e c2 3d be ac 0c 83 3e 25 6d 5f 3e f9 5c ff bd
       -0.18531224 0.25595605 0.21818979 -0.12468905
000260 3c 31 15 be 85 2c 2d bd 0f 09 a8 be 51 55 54 be
       -0.14569563 -0.042278785 -0.3281941 -0.2073567
000270 93 c9 46 bd 12 1c be be 9d 85 29 bd 7b 13 b9 3e
       -0.04853208 -0.3713079 -0.04138719 0.36147675
000280 91 8f b0 be e4 a5 6b 3e fc 45 93 3e 1f bf 5f 3e
       -0.34484532 0.23012501 0.2876433 0.2185025
000290 51 5a 3f bc 3b 33 c0 be 03 d3 95 3e 10 cd a4 3e
       -0.011679248 -0.37539086 0.29262552 0.321877
0002a0 15 78 46 be c4 74 c0 be 48 6f 98 be 30 3a 3d bd
       -0.19381745 -0.37589085 -0.297724 -0.04619807
0002b0 20 09 a8 bd e4 4b b1 3d 27 99 9a be c5 b5 77 be
       -0.082048655 0.08657053 -0.3019497 -0.24190433
0002c0 74 f8 85 be 03 2e 0b 3e 82 4f 41 3e a8 fb b0 3d
       -0.26166117 0.13591771 0.18877986 0.086417496
0002d0 19 d7 82 3d b0 1b fc 3d 33 c1 92 be d5 4d 52 3e
       0.06388683 0.123099685 -0.28663024 0.20537503
0002e0 01 15 93 3d 65 79 39 be 11 bf eb 3d 61 59 7e 3e
       0.071817406 -0.18112715 0.115110524 0.24838783
0002f0 96 ea 5f be eb 84 a4 3e 8f 26 a6 be 5a 7f a7 3e
       -0.21866831 0.32132658 -0.32451293 0.3271435
000300 5b be 45 be be 29 04 bd 12 04 be 3e 86 34 0c 3e
       -0.19310896 -0.03226637 0.3711248 0.13691911
000310 1a da 32 be a0 c0 a6 be 6d b1 26 be 72 8f b6 bd
       -0.17466012 -0.32568836 -0.1627862 -0.08914079
000320 26 72 bc be c3 99 f6 3d 6e 63 cc be 88 2c 78 bd
       -0.36805838 0.120410465 -0.3991961 -0.060589343
000330 ea 1a 20 3d fe ff 92 3e ed fd 34 bd 27 69 b0 3e
       0.039088167 0.28710932 -0.044187475 0.34455225
000340 0b a9 4b 3e ae 7e 9c 3e 67 38 aa 3e 4f 26 e9 3d
       0.19888704 0.305654 0.33246157 0.1138426
000350 63 85 af 3d a5 bf e5 3c ea c1 37 3e 5c e1 21 be
       0.085703634 0.028045485 0.17945066 -0.15808624
000360 ce cc 85 3e c4 45 ba 3d 82 6d ee bc 6b a0 37 be
       0.26132816 0.09095338 -0.029104952 -0.17932288
000370 8f 92 c4 bd 8e 3a 8d be 82 84 3a be 6b b5 9d 3e
       -0.09598266 -0.27583736 -0.1821461 0.30802473
000380 f1 ff 38 be f6 14 a6 be bb 92 15 3e c4 6f 43 3e
       -0.18066384 -0.32437867 0.14606754 0.19085604
000390 29 80 f1 bc 6c 1c 4e bd 06 fc b7 bd 81 67 c3 be
       -0.029480057 -0.050320074 -0.089836165 -0.38164905
0003a0 4f a7 6a 3e e0 8b 1c be 31 f9 c6 3e 14 69 ef bd
       0.22915386 -0.15287733 0.38861993 -0.11689964
0003b0 cb 7f bb be 93 bc 27 3e 73 97 fc 3d 6a 23 81 3e
       -0.36620936 0.16380529 0.12333574 0.2522233
0003c0 ee e4 8e be 8d a3 83 be 69 d9 90 be 56 1e 81 3e
       -0.27909034 -0.25710717 -0.2829087 0.25218457
0003d0 14 c3 1f be a0 49 1f 3d a0 d5 a0 3d 18 4d e7 3d
       -0.1560176 0.038888574 0.07853246 0.11294001
0003e0 2f d3 c2 be 60 76 70 3d 0d 62 9d be 18 9f e6 3d
       -0.38051745 0.05870664 -0.3073887 0.112608135
0003f0 8c db e8 3c 0c 7d 93 be 63 2f b0 be 09 ca 0a be
       0.028425 -0.2880634 -0.34411153 -0.13553633

fc1.bias f4 [128]
000000 77 84 5a be 5e 56 49 3e 59 44 f0 3d a3 f2 59 be
       -0.21339594 0.19661853 0.11731786 -0.21283965
000010 c9 87 bb 3e 96 cc 0b 3e 40 6a b3 3d 20 76 b7 3e
       0.36627033 0.13652262 0.087605 0.3583231
000020 ea d3 be 3e a0 9c 6d 3d e3 dc 7a b9 4e 93 28 bd
       0.37271053 0.058010697 -0.00023924145 -0.041156106
000030 25 59 b7 be 43 cc be be 90 87 8a 3e aa db 7f 3e
       -0.358102 -0.37265214 0.2705655 0.24986139
000040 a5 f4 8b 3e 4d d9 26 3e e0 01 51 3c 0b 93 c7 3e
       0.27335086 0.16293831 0.012756795 0.38979372
000050 30 46 46 3c a3 e3 72 be 26 8b 7b 3e a2 fd 13 be
       0.012101695 -0.23719649 0.245648 -0.14452222
000060 23 9a 1b be 05 86 27 bd b6 19 67 be d2 ff 8a be
       -0.15195517 -0.040899295 -0.22568402 -0.271483
000070 7d e9 cf be a1 f9 bf bd bd c0 9a be fa fb 81 3d
       -0.40607825 -0.09373785 -0.30225173 0.06346889
000080 b8 77 41 3e 7d 1f 34 bb 80 8e 26 3e 65 9f bb 3e
       0.18893325 -0.0027484589 0.16265297 0.36645046
000090 7f a9 24 be c5 80 1f be 47 ae 2b 3d 28 db 35 3e
       -0.16080283 -0.15576465 0.04191425 0.17759383
0000a0 bf 50 c6 be 72 b2 81 be 55 51 50 3e ea b8 d3 bc
       -0.3873348 -0.25331455 0.20343526 -0.02584501
0000b0 7b ad 53 3d 63 9f 63 be fa b5 bd be a4 ba 2b 3e
       0.051679116 -0.2222877 -0.370529 0.16770416
0000c0 bb 00 3d 3e 1a d0 ce be 38 09 ba 3e 07 2e 6b 3e
       0.1845731 -0.40393144 0.36335158 0.22966777
0000d0 82 df 6b be 43 55 d9 3d 28 65 96 3e c8 8c e3 bd
       -0.2303448 0.106119655 0.2937405 -0.11110836
0000e0 81 8a 13 3e 3a db ad 3e 3d 69 f0 bc ca 63 c9 be
       0.14408304 0.3395632 -0.029347057 -0.39333946
0000f0 e1 76 4b 3b 26 06 d1 be 96 a6 01 be da 00 cc 3e
       0.00310462 -0.40825003 -0.12661204 0.398444
000100 20 2a a0 be ab 70 89 3e 39 02 aa 3e d0 b9 78 bd
       -0.3128214 0.2684377 0.3320482 -0.06072408
000110 c2 fe ad 3e bb bd 88 3d fc 16 ab be 9e 0a 6e 3e
       0.33983427 0.06676813 -0.33415973 0.23246238
000120 bf f6 0e 3e 4f d4 bd be fc fe ac 3e 25 da b9 3e
       0.13961314 -0.3707604 0.33788288 0.36299244
000130 7b 1c 4e be 74 c1 40 3e cf 39 fd 3a 1d 05 07 be
       -0.20128052 0.18823797 0.0019319596 -0.13185544
000140 9b ec 9b 3e 78 fd 88 be 41 71 01 bd 04 5f b3 3e
       0.30453953 -0.2675588 -0.031602148 0.3503343
000150 37 4e 45 3e a9 10 ec 3d aa 0d 3b 3d 23 10 bc 3e
       0.19268118 0.11526615 0.045667328 0.3673106
000160 66 b1 fc 3d 11 1b c1 b9 af 1d b7 3e 3b 61 b9 3e
       0.123385236 -0.00036831995 0.35764834 0.36206993
000170 ea 77 41 be c3 c5 44 be a2 a1 ac 3e ef bb 85 be
       -0.188934 -0.19216065 0.33717066 -0.26119944
000180 83 08 08 3e f9 01 1c 3e 91 b8 60 3d 77 e5 af bc
       0.13284497 0.15235128 0.054863516 -0.021471722
000190 54 21 8d 3d 86 df 18 3e a8 11 79 3e aa 47 0e be
       0.068911225 0.14929017 0.24323142 -0.13894525
0001a0 13 57 1d bd c5 7a b5 3e f6 b7 ab 3e d3 e1 73 be
       -0.03841312 0.35445228 0.3353879 -0.23816614
0001b0 8c 6d b3 be b1 51 a5 3e c7 48 95 3e 00 13 aa bd
       -0.35044515 0.32288888 0.29157087 -0.08304405
0001c0 9b 8f 1f 3e c3 39 57 be c4 8d 86 be 97 89 36 be
       0.15582125 -0.21018128 -0.26280034 -0.17825924
0001d0 e6 52 3f 3e bc f1 c5 3b 8d 3b 0d 3e 9e 8d c3 be
       0.18683967 0.00604078 0.13792248 -0.38193983
0001e0 3e 51 6c 3e e0 23 73 3d a3 17 73 be c7 b3 f0 bd
       0.23077866 0.059360385 -0.23739485 -0.1175304
0001f0 99 c3 41 3e 34 85 97 be f9 92 a6 be 78 9b 4b 3d
       0.18922271 -0.29593813 -0.32534006 0.049708813

fc2.weight f4 [64, 128]
000000 a5 24 af 3d f1 00 84 bc 41 b7 aa 3d a9 90 3a bd
       0.08551911 -0.01611373 0.08335734 -0.045548115
000010 c6 5f 13 3d bb a3 17 3d 75 d5 be 3d 92 40 7e 3c
       0.03598001 0.03702138 0.093180574 0.015518324
000020 87 58 be 3d 3c c7 46 bd bb a7 26 3d 34 07 9b 3d
       0.09294229 -0.04852985 0.040687304 0.07569733
000030 6d 19 82 3d 08 98 b0 3c 37 ee f0 3c 61 c1 82 3d
       0.06352506 0.02155687 0.029410465 0.0638454
000040 2a b8 e6 bc a3 f0 0c bb 0f 7e 0c bd 79 9e f3 3b
       -0.028163988 -0.0021505735 -0.034299906 0.007434663
000050 af ff 47 3d 10 40 3a 3c a8 72 87 3c 1a f0 6d bd
       0.048827823 0.011367813 0.016534165 -0.058090307
000060 48 61 c3 3b 78 f8 8d 3d e8 f9 a4 3c 6b 4e 91 3c
       0.0059625246 0.06932157 0.020138696 0.017737588
000070 22 7f 41 3d 3e 35 ed bb 0f 14 06 3d 6b 49 f9 3c
       0.047240384 -0.007239013 0.032733973 0.030430516
000080 8b db 60 bd 44 ab 01 3b cb a3 6a 3d be 97 d6 3c
       -0.054896872 0.001978592 0.05728511 0.026195403
000090 c2 bc 87 bd 3e 29 43 bc 5a 7c 88 bd 9e 25 dc bc
       -0.066277996 -0.011911688 -0.06664343 -0.026873406
0000a0 e4 46 86 bc 56 f0 5b 3d de 52 59 bd ec c8 a0 3d
       -0.016391225 0.053696 -0.053057544 0.07850823
0000b0 ea b4 99 3d b3 86 a6 3d dc 38 34 bd 3b df 8f 3b
       0.0750521 0.081311606 -0.043999538 0.004390625
0000c0 a2 98 f9 3c 8b 6c a4 bd 00 13 1e bb 5e fd 86 3d
       0.030468289 -0.080285154 -0.0024120212 0.06591295
0000d0 7c 0f 98 3c 61 85 39 bd 73 06 df 3c a4 4b 04 bd
       0.018562071 -0.045293216 0.027224755 -0.0322987
0000e0 18 fb 2b bd 7c a8 ba 3d 34 af 24 3d d0 84 a5 bb
       -0.04198751 0.09114167 0.04020615 -0.005051233
0000f0 a5 9b 13 3c f7 fd 63 3d 14 f8 e4 bc c1 1f b9 3d
       0.0090092765 0.05566212 -0.027950324 0.0903926
000100 c3 c3 5a bd 50 6e ba 3d 02 1d 85 3d 9b 81 25 3d
       -0.05340935 0.09103072 0.064996734 0.040406805
000110 b3 c3 45 bd 27 c1 1e 3d e2 c8 7a 3d c1 95 a9 3d
       -0.048282336 0.038758423 0.061226733 0.082805164
000120 79 2d b5 3c 03 e6 19 bd b5 6b 6b 3d 8b 12 dc bc
       0.02211641 -0.037572872 0.057475764 -0.02686431
000130 cf ce 98 bd f8 66 81 3c 71 41 93 bd b4 ad 41 3d
       -0.074613206 0.01579617 -0.07190216 0.047284797
000140 c4 af 38 3d 33 ac 96 bd 8c cd 6a bd 8b 83 23 3d
       0.0450895 -0.07357063 -0.05732493 0.03992037
000150 aa c1 b8 3d aa 60 85 3c 03 f6 df bc 2d 60 04 3d
       0.090213135 0.016281445 -0.027338987 0.032318283
000160 9c f3 fc 3c be 42 37 3d 30 ca 9d 3c f8 51 2f bd
       0.03087788 0.044741385 0.01926145 -0.04280278
000170 98 82 67 3c 22 fa eb 3b c8 13 97 3d b1 2a 1d bd
       0.014130257 0.007201449 0.0737682 -0.03837079
000180 7f c1 d7 bc ec 4a 65 bd 6e 26 46 3d a0 98 20 3d
       -0.026337383 -0.055979654 0.048376493 0.039208055
000190 e3 72 34 bd 8f e5 d5 3c 1a 37 25 bd 49 32 78 3d
       -0.044054877 0.026110439 -0.040335752 0.06059483
0001a0 78 ce b4 bc 20 32 74 bd 2d 09 a4 3d 02 89 a5 bd
       -0.022071108 -0.059618115 0.08009563 -0.08082773
0001b0 67 bb b4 bc 8f f5 86 bd 8f d5 4b 3d 2d 3e 96 3d
       -0.022062017 -0.06589805 0.049764212 0.07336078
0001c0 8f a1 fe 3c c7 63 07 bd 74 85 a6 bc 5d 93 71 3a
       0.031082897 -0.03305414 -0.020327307 0.0009215379
0001d0 a4 71 d6 3c ee d4 87 bd 63 8e 87 3d 3e 9c 7e bd
       0.026177235 -0.0663241 0.06618955 -0.062160723
0001e0 52 ca 3f 3d df 8a 6f 3d 6a 91 5d 3d 50 09 38 3d
       0.046823807 0.058482047 0.054093756 0.044930756
0001f0 fa 9c 2b 3d 84 f1 d7 3c ea 00 62 bd 62 e1 20 3d
       0.04189775 0.02636028 -0.055176653 0.03927744
000200 c8 1c 14 3d 2a 33 ac bd 3a 08 22 3d bf 43 97 bd
       0.03616026 -0.08408196 0.039558627 -0.073859684
000210 00 73 82 39 36 94 ab bd b3 85 24 bd 66 85 6d 3d
       0.00024881214 -0.08377878 -0.040166568 0.057988547
000220 ba a3 54 3d 98 22 1d bc c6 96 46 3d 90 53 43 bd
       0.051913954 -0.009590767 0.048483633 -0.047687113
000230 68 9e 9c 3c 18 b5 10 3d 40 aa ee 3b 0a d1 85 bd
       0.019118503 0.035328954 0.007283479 -0.06534012
000240 22 60 91 bd 80 86 f4 bb 2e 7d 44 3d 62 87 fd bc
       -0.07098414 -0.0074623227 0.047970943 -0.030948345
000250 de 19 1d 3d 21 50 a8 3d 00 80 4b b7 b0 7c 29 3c
       0.038354747 0.082184084 -1.2129545e-05 0.010344669
000260 62 e0 ee bc 07 eb ae bd f0 ce db 3c 9f a4 a2 3d
       -0.029159728 -0.08540922 0.026832074 0.07941555
000270 70 20 65 bc 98 b0 5e bd ba d9 24 3d b3 07 85 3d
       -0.0139847845 -0.05436763 0.040246703 0.06495609
000280 85 ee aa bd 2f a5 68 bd bf 49 83 bd a4 a6 8b bd
       -0.08346275 -0.056798156 -0.0641055 -0.068188936
000290 f3 86 a8 3d aa 62 24 3d 00 a9 15 3b 6b 94 5c bd
       0.082288645 0.040133156 0.0022836328 -0.05385248
0002a0 e8 46 7b 3c 20 46 a6 3c a7 aa 98 3d e4 2e fc 3c
       0.01533673 0.02029711 0.07454424 0.030784078
0002b0 92 88 8f bd 7f b6 12 bd 20 1e 93 bb 6e 89 14 3d
       -0.070084706 -0.035818573 -0.004489675 0.036263876
0002c0 40 e8 22 bd 23 d9 9e 3d 16 68 65 3d f2 c2 56 bd
       -0.039772272 0.07756259 0.056007467 -0.052432008
0002d0 8b 3d 7c bd 10 97 fb bb 36 cc 92 bd e2 ee 33 3d
       -0.06158213 -0.00767792 -0.071678564 0.04392899
0002e0 25 f2 9b 3d 4a 99 7d 3d 5f 8b 34 bd 00 80 28 bb
       0.07614545 0.061913766 -0.044078227 -0.002571106
0002f0 9c 92 0c bd d4 dd aa bc c8 d6 20 3c 2c 5c f7 3c
       -0.034319505 -0.020857729 0.009816833 0.030195318
000300 73 ab 53 bd d2 b4 03 3d 2a d0 dd bc 6f 6b 55 bd
       -0.05167718 0.032154866 -0.0270768 -0.05210441
000310 80 b0 20 bd be 57 74 3d 0e d0 24 3d 95 c0 89 3d
       -0.039230824 0.05965399 0.04023748 0.06726185
000320 86 68 eb bc 4b ae a4 3d d8 00 48 bc 38 8d 76 bc
       -0.028736364 0.08041056 -0.012207232 -0.015048318
000330 10 2a 82 bd b9 61 96 3d 87 b4 a6 bd 60 b2 bc 3c
       -0.06355679 0.07342858 -0.081399016 0.023034275
000340 20 00 77 bb 92 54 45 3d 54 39 5b bd 58 c4 8e bd
       -0.0037689283 0.048176356 -0.05352147 -0.06971043
000350 e8 56 73 bc 1c ae 9f bc 69 30 a9 bd 88 bc c7 bc
       -0.014852263 -0.019492202 -0.08261187 -0.02438189
000360 da c7 78 3d 76 81 1a 3d 98 32 24 3c 3f 32 9a 3d
       0.06073747 0.03772112 0.010021828 0.07529115
000370 8e cd 53 3d 90 54 1b bc 18 e1 de 3c 01 b4 ad 3d
       0.051709704 -0.0094806105 0.027206942 0.08481599
000380 00 b8 e4 bc de c0 52 3d b8 f8 62 3c fc 45 b1 bd
       -0.02791977 0.051453464 0.0138532445 -0.086559266
000390 d5 9e 2d bd 96 92 38 3d 0e d0 b1 bd f4 aa 96 bc
       -0.042387802 0.04506167 -0.086822614 -0.018392064
0003a0 17 f4 0e bd 3c cc a5 3c 42 c9 94 bd 44 6c af bc
       -0.03490075 0.020238988 -0.072649494 -0.02141393
0003b0 6a b5 6f 3d 95 c7 a4 bd 88 6b 20 3c 92 f5 4b bd
       0.05852262 -0.0804588 0.009791262 -0.04979474
0003c0 0a f8 1b 3d e0 b5 14 3c 14 88 9a 3c 4a d6 08 bd
       0.038078345 0.0090765655 0.018863715 -0.033407487
0003d0 7b 80 af 3d d0 1f 8c bd 6a 50 47 bd 34 4c a8 bd
       0.085694276 -0.06842005 -0.048660673 -0.082176596
0003e0 12 b9 30 3d c3 eb 8f 3d 32 11 71 3d 3d 8c 99 3d
       0.043145247 0.0702739 0.05885429 0.074974515
0003f0 68 18 09 bc d3 16 a5 3d c6 dc 4f 3d 0a ba 5f 3d
       -0.008367635 0.08060994 0.050747655 0.05462078

fc2.bias f4 [64]
000000 22 77 a3 3d 30 2c b3 bb 19 81 a1 3d f5 a3 98 bc
       0.07981707 -0.005467914 0.078859515 -0.018632868
000010 b3 ba ab bd 18 45 52 3c 63 eb 5b 3d ed c7 9c 3d
       -0.083852194 0.012833856 0.05369128 0.0765532
000020 08 b9 60 3c 51 8d 86 3d e2 11 33 bd a6 50 88 3c
       0.01371599 0.06569923 -0.043718226 0.016640019
000030 95 b3 a5 bc 5a 98 ac 3c 50 87 7b 3c 41 d9 1f 3d
       -0.020227233 0.02106874 0.015352085 0.03902555
000040 d8 30 22 bd f8 73 9c bc 51 81 42 bd 6c cf 74 bd
       -0.039597362 -0.019098267 -0.047486607 -0.059768125
000050 ae 6c 32 3d 64 9c 31 bd 9b 89 4c bc da 7c 50 bd
       0.043560676 -0.043362036 -0.01248398 -0.050900318
000060 0e 1a 75 3d 80 e4 f8 3c b7 d3 12 3d 39 dd 63 3d
       0.0598393 0.030382395 0.03584644 0.055630896
000070 42 17 22 3d d7 01 96 3c 2f 78 50 3d 5c 78 e9 3c
       0.03957296 0.018311424 0.050895866 0.028499775
000080 5e 25 2e bd 53 4f 4f 3d 3c dc c3 bb 72 28 80 3d
       -0.042516105 0.05061276 -0.0059771817 0.06257714
000090 64 db 1c bb c1 6a 12 3d 21 b1 5f bd c8 c4 8c 3d
       -0.0023934478 0.03574634 -0.054612283 0.068734705
0000a0 54 c7 f1 3b e5 c1 2f 3c 3e 41 d8 3c d6 9a 96 bd
       0.007378498 0.01072738 0.026398297 -0.07353751
0000b0 ba 2f 8f 3d fc 52 ab bc 60 0d 92 bb 1f cc 85 bc
       0.06991525 -0.020913593 -0.004457161 -0.016332684
0000c0 f1 48 4b 3d 7a 1f ae bb 6d 0c 3f bc 88 9f 8a 3a
       0.04963011 -0.005313811 -0.011660677 0.0010576108
0000d0 31 93 b4 3d 74 cd 50 3d 5f e3 70 bb 7c b4 b4 bd
       0.08817137 0.050977185 -0.0036756617 -0.08823487
0000e0 52 48 53 bd 44 90 55 bd c2 5b 8a bd a0 be 90 bc
       -0.051582642 -0.052139536 -0.06755783 -0.017669022
0000f0 48 5d 03 3d b2 a2 80 3d 93 ee aa bd 66 eb 06 3d
       0.03207138 0.06281032 -0.08346286 0.032939337

fc3_action.weight f4 [11, 64]
000000 72 50 f1 bd 54 1b 9a 3d b0 c9 c7 bd 94 3d 49 bb
       -0.11782922 0.07524744 -0.09755266 -0.003070687
000010 9c 56 e7 3d e8 6c ef bd 84 18 15 bc 9a 2d 74 3d
       0.11295816 -0.11690694 -0.009100083 0.0596138
000020 32 5c 1f bd 88 b9 bf bc a9 96 93 bc f2 23 c8 bd
       -0.038906284 -0.023403898 -0.018016176 -0.09772481
000030 21 71 c5 3c 0f 82 7a bc a8 3d ab bc bf 50 e5 bd
       0.024101796 -0.015289797 -0.020903423 -0.11197042
000040 00 c0 ee 3d bf 23 0c 3d f6 32 ad bc 3a 3e fa bd
       0.11657715 0.034213778 -0.021142464 -0.122189
000050 a1 11 db 3c 9e 8b 37 bc 65 e7 b5 bd 83 34 5f bb
       0.026741805 -0.011202721 -0.08882026 -0.00340584
000060 80 27 93 bd 30 b8 4b 3c 5c 0f ae bd 7c b2 d0 bd
       -0.071852684 0.01243405 -0.08499023 -0.10190293
000070 94 e0 08 3d d3 a8 c6 bd 66 96 cd bd ad 86 e2 3d
       0.0334173 -0.097001694 -0.10038452 0.110608436
000080 6e 34 c9 bd f5 f3 5e 3d 5b 68 22 3b 90 ad 7f 3d
       -0.09824453 0.054431874 0.002478144 0.06242138
000090 34 d2 62 bc 2c 87 d8 bb 48 21 6e bd 8c 61 a3 3d
       -0.013844062 -0.0066079106 -0.05813721 0.0797759
0000a0 60 5a 9f 3d 83 55 55 3b 0f 81 79 bd 16 c5 88 3d
       0.077809095 0.003255219 -0.060914095 0.06678216
0000b0 21 de 85 3d 5f c6 b2 3d 3e 39 0a be 33 0e d3 3d
       0.06536508 0.087292425 -0.13498399 0.10305443
0000c0 61 cb 93 bd 64 aa a7 3c ab a8 9b 3d 08 3d 05 3d
       -0.07216526 0.02046699 0.0760053 0.032528907
0000d0 c8 e8 db bd 4f 7e 6f 3d 3b 6e 91 3c 40 1c a9 bc
       -0.10737759 0.058470067 0.017752757 -0.020643353
0000e0 37 0e 91 3d a7 bf 3d bd 67 f2 09 3d ee 9d b7 3d
       0.070827894 -0.046325352 0.03367844 0.089656696
0000f0 2f b0 b9 bd c4 cb bc bd 56 20 c3 bd c5 9c 4a 3d
       -0.090668075 -0.09218553 -0.09527652 0.049465913
000100 4c 77 e3 3d a8 75 ce 3d 06 16 b4 3c f2 21 ac bd
       0.111067384 0.10081035 0.021983158 -0.08404912
000110 f0 0a dc bd 17 b1 ca 3d 90 70 77 bc fc 0e e7 bd
       -0.10744274 0.098970585 -0.015102521 -0.11282155
000120 d2 fd 70 bc 4c 22 6b bd 7c 09 43 bb 3f 5f dc bd
       -0.014708953 -0.057405755 -0.0029760292 -0.10760354
000130 1d 83 80 3d 75 9b 0f 3b 30 49 e9 bd 42 fc 2e bb
       0.06275008 0.0021912728 -0.113909125 -0.002670065
000140 ee 5f f8 3d 3d b6 09 3d 98 a1 d7 bd 2d 47 08 bc
       0.12127672 0.03362106 -0.105288684 -0.008317751
000150 57 c3 e9 bd 5d 92 32 3d 52 e7 ab 3d 30 8c 66 3d
       -0.11414211 0.043596614 0.0839373 0.056286037
000160 20 cd d5 3d d8 86 4f bd 1c 96 fa bd f0 03 82 bd
       0.10439515 -0.050665706 -0.12235662 -0.06348407
000170 7e c0 b2 3b 61 59 d7 3d 5e ef 90 3d dc ee 53 3d
       0.0054550758 0.105150945 0.07076906 0.051741466
000180 b1 05 8a 3b 83 47 d5 3d ca 53 98 3d 8c b3 67 3c
       0.0042121042 0.104140304 0.074378565 0.014141928
000190 d9 c0 b9 bd ce 78 f1 bc c4 ca d6 3d d5 89 f7 3d
       -0.09069986 -0.02947655 0.10487893 0.12086836
0001a0 38 b8 d2 bd db f5 d3 bd 2e 46 bf 3d 14 20 6d bd
       -0.10289043 -0.103496276 0.093395576 -0.05789192
0001b0 26 1a 19 3d f6 ef 8e 3d 22 f9 02 3e 68 f6 9e bc
       0.037378453 0.06979363 0.12790349 -0.019404605
0001c0 8d e8 e3 bd 1f 54 2d 3d 53 22 40 bd 0a d2 a1 bc
       -0.1112834 0.042316552 -0.046907734 -0.019753475
0001d0 ef cc 71 bd 2a 3c a4 3c a6 e0 f0 bd 2a 6d c9 3d
       -0.05903333 0.02004822 -0.11761598 0.098352745
0001e0 f4 e6 c9 bd f0 3b 08 3e d5 34 08 bd 8a a0 c3 3d
       -0.09858504 0.13304114 -0.03325351 0.09552105
0001f0 9b cf 48 bd 98 69 ed bd f0 4f b5 bc 48 8a a2 bd
       -0.049026113 -0.11592406 -0.022132844 -0.07936531
000200 9c d7 27 3d e8 5a b4 bd 4c 0e 3d 3d fa 68 28 3a
       0.040977105 -0.088064015 0.046156213 0.0006424334
000210 fc 3b ba 3d 42 83 8b bd c1 6f 85 bd 9c 61 b5 bd
       0.09093472 -0.06812145 -0.06515456 -0.08856508
000220 26 d4 d3 ba 78 01 b4 bd dc cb 1b 3d 9e 86 32 3d
       -0.0016161248 -0.08789343 0.038036212 0.043585412
000230 b5 8a f1 bd 8c 06 1e bd e2 c2 b7 3d 35 54 87 3d
       -0.117940344 -0.038580462 0.08972718 0.06607858
000240 e3 f9 f0 3c 85 7e 02 b9 69 0c f7 3c ae 3c a9 3d
       0.02941603 -0.00012444898 0.030157285 0.08263527
000250 b9 0c d9 bc c5 64 8b bc 0d 0a fd 3d 63 ce ab bd
       -0.026495324 -0.017015824 0.12355433 -0.083889745
000260 08 9e f7 bc 40 40 47 bb 51 0b 0e 3d ca b8 d0 3c
       -0.030226722 -0.0030403286 0.03467876 0.02547874
000270 7a 5d dd bb ff 36 6a 3d 41 61 84 bd e8 0c 64 bd
       -0.006755528 0.057181355 -0.06463862 -0.05567637
000280 b7 70 78 3d cf 9a 85 bd e0 6a 4c 3d 6f 56 d5 bd
       0.06065437 -0.06523668 0.04990661 -0.104168765
000290 b1 81 f7 bc be 67 ff bc 68 84 5b bd 42 09 0a bc
       -0.030213209 -0.031177398 -0.05359307 -0.008425059
0002a0 94 de a5 3d 7e c8 e9 3b 40 ed 94 bd 75 90 f6 bc
       0.08099094 0.0071344962 -0.07271814 -0.03009818
0002b0 d3 61 98 3d e2 9f fa 3d c7 13 88 3d f8 54 d1 3d
       0.074405335 0.122375265 0.06644397 0.10221285
0002c0 48 32 a2 3d 87 1b bd bc 3d e6 69 bc 70 9d c7 bd
       0.07919747 -0.023084415 -0.0142760845 -0.09746826
0002d0 63 c5 10 3d f9 cb 81 bd d0 75 d3 bc de c4 a6 3d
       0.035344493 -0.06337733 -0.025813013 0.08143018
0002e0 b1 b9 f2 3c 21 bc 4d bd 02 da 59 ba 78 95 d8 3c
       0.02962956 -0.05022824 -0.0008310379 0.02643846
0002f0 d4 ec cc 3d 5d 73 ac bd b0 8e dd 3d a9 36 e0 bd
       0.10006109 -0.08420441 0.10818231 -0.109479256
000300 68 8e fd 3c 7c c8 88 bd c9 9e dd bd 67 46 da 3d
       0.030951694 -0.06678864 -0.108213015 0.106579594
000310 be 11 a8 3d 97 ae 90 bc 04 8b 7e bd 62 9d 3b 3d
       0.08206509 -0.017661376 -0.062144294 0.04580439
000320 9b cc 28 bd 20 9a 89 bb 9c 14 80 3d 1f e9 b0 bd
       -0.041210752 -0.0041992813 0.06253931 -0.08638214
000330 a4 5f e0 3d 72 cf e1 3d 50 ed cc bc 3f bc 81 3d
       0.10955742 0.11025895 -0.025015503 0.06334733
000340 c7 3c b4 bd e3 7f f1 bd 11 6c f0 3d 82 cc ad bc
       -0.08800655 -0.117919706 0.11739362 -0.021215681
000350 39 92 b9 3d 22 aa 96 bd 26 ea c9 3d 48 02 03 3d
       0.09061093 -0.07356669 0.098591134 0.031984597
000360 08 af be 3d b0 d7 e4 3c ca 71 4b bd 62 9e 86 bd
       0.09310728 0.027934879 -0.049669065 -0.06573178
000370 01 ca ef bd 9c 2f 2f bd dc 8d ff 3d 6c d2 f7 bb
       -0.11708451 -0.042770013 0.124782294 -0.007562926
000380 31 d7 ef 3d 69 9c a5 3d 3a 22 97 3d d4 ba d8 bc
       0.117109664 0.080864735 0.07379575 -0.026456274
000390 09 1c d9 bc 4e 0b 84 3d c2 f6 ac bd 92 bd 91 3d
       -0.026502626 0.06447469 -0.08445503 0.07116236
0003a0 6d a6 44 bd 1f c2 c6 bd d7 fa c8 3d 74 2e 42 bd
       -0.04801028 -0.097049944 0.09813469 -0.047407582
0003b0 2f 67 ef 3d 30 d4 02 3c 80 be 67 3c ca 4d ee 3d
       0.116896026 0.00798516 0.01414454 0.11635931
0003c0 ef e6 7f bd 3b cc ca 3d 34 51 c3 bc 7c 5f df bd
       -0.062476095 0.09902235 -0.023842432 -0.10906884
0003d0 ad 74 01 3e b7 17 13 3d 58 97 f6 3c 1c 45 21 3d
       0.12642165 0.035911288 0.030101463 0.03937255
0003e0 d4 c0 04 bd e7 e7 a2 3d 8e 3a d5 3d cd d6 10 3d
       -0.032410458 0.07954388 0.10411559 0.0353611
0003f0 c4 37 05 bd 55 15 b4 bd f6 38 a5 3d 61 2d ff 3d
       -0.032523885 -0.08793131 0.08067505 0.12459827

fc3_action.bias f4 [11]
000000 7d d9 56 3d 26 cc 81 bc d4 9d f0 bd 9c c5 cc 3c
       0.052453507 -0.015844416 -0.11748853 0.024996571
000010 f2 31 e4 bd ca 2d a0 bd 22 f9 15 3d c7 6a 7e bc
       -0.11142339 -0.078212336 0.036614545 -0.015528387
000020 77 5c d8 bd 40 43 f1 bc 91 6e d1 3d
       -0.10564511 -0.029451013 0.10226167
