improved_vrpb_final.pth (torch, 49957 bytes, 6 tensors)

fc1.weight f4 [128, 5]
00000000: f486 c7bd 517a aabe 2701 9cbe 8646 953e
00000010: a871 293e f4a6 c73e a0dd 263e 873d 8cbe
00000020: 6d8e d43b c051 723d 363c cc3e 4e47 f63d
00000030: 7fe1 f43d 40d3 933e 2d5e debe 19e2 d6bd
00000040: fa5a a3bd 2c2d d5be f956 303e 8ac6 e0be
00000050: 92e3 52be 7c92 303e 1039 de3c c60a aebe
00000060: e08b 553e 27b9 12be f8f4 a1be c6ff a23e
00000070: f39d 0e3e 24e5 b8bd 8b59 c8be 0b93 83be
00000080: b51f 6f3e db90 963e 7844 a6be 0992 d23e
00000090: 7728 c6be 9692 32be 67a6 edbd a49e aa3e
000000a0: 0c40 d0be da09 ce3e ea0d b93d 0190 30be
000000b0: 685e d93e 60d6 713e 4079 01bc 066f 97be
000000c0: 4024 e23c 68d9 e63d 7de8 803d 650f 803e
000000d0: 71fc 833d 84cf d2bc 6ef8 b23e 798d a23e
000000e0: 6faa 493d e2c3 98bd 22e6 e4be d0c1 da3d
000000f0: 8709 943e f5c3 b73e 8d4a 643d aa7a 89be
00000100: 0070 efbc 4d59 afbe c0c9 e13d fbf2 77be
00000110: cdb7 5bbe 1cc2 c1bd b322 eb3d 9866 9a3d
00000120: ec34 823c d25a 89be 27ee bebe e0da e2bd
00000130: 70d3 003e 2e1c 99be d8a6 dbbd 07d8 53be
00000140: b225 92bb 4b02 31be c754 343d 78d1 ee3d
00000150: a017 ae3d 6b96 c63e 90e4 8dbe fba0 02bd
00000160: 7baa d73e 14ab dcbe ac24 d03e 64a2 5b39
00000170: 4638 423d b0c8 9cbe 88ab 923e d05a bb3d
00000180: 8724 72be b8cd 4cbe dc76 4b3e f6b3 e2be
00000190: 1e85 933e 7e0c e6bd 6a7e ba3e f2f6 33bd
000001a0: e8f7 763e 9398 77bd 2108 9ebe 1afe 19be
000001b0: 9f73 db3e b437 0e3e c3de debe e328 a7be
000001c0: 47fb e43e 01ef ccbe 44c0 013e 3edb 18be
000001d0: 7697 8cbe 50b5 0dbe 1ce1 b0be d0b4 f23c
000001e0: fd30 38be ff2e e3be d7b6 d7bc ac31 9e3d
000001f0: a682 dcbe ed31 3b3e 0e31 d93d 905d 533e
00000200: b8fa 363e cc49 bd3e a57c 2b3e a4dd 523e
00000210: 010d c53e ca47 a6be d87c d73e e143 2bbe
00000220: f7b7 a63d f342 4fbe 63aa 35bd d24f 813e
00000230: 86ed 853e 5372 0c3e 88d4 a73e 133c 8cbe
00000240: fc53 90be 47bd 8cbe 4e6e f13d 0648 d3be
00000250: 98ac 9a3e ec51 4c3e 04e7 363e 08a6 58be
00000260: 3e2f 67be 7cd9 d9be 90f9 8c3c 5e94 8ebe
00000270: 8e4b 2ebe 4cc6 433d f726 9dbe 4793 ddbe
00000280: bca7 99bd 08d9 f93d 7b8f b9be 3964 ddbe
00000290: 2563 d7be 66b9 843d c82f c8ba b8e7 4cbe
000002a0: 2dec b33e 2c34 023e b4c2 45be 19c4 d93d
000002b0: cc1f 053e 9220 95be c85e 0e3d dc2a ce3e
000002c0: e4c0 3cbe 72a7 66be da56 f63d 2813 68bd
000002d0: dea3 353e 0683 92bd ccd4 42bd 7e22 dd3e
000002e0: 3e90 af3e 599b bf3e 48ad 6e3e 8f47 123e
000002f0: 6ed7 9e3e 2095 77bd 893a cdbd 3eb7 293e
00000300: b21b 8d3e 1fd8 85be 9c38 cfbe 6fd1 9abe
00000310: 12f9 c13e f914 b9be 4ec5 da3d 5026 d9bc
00000320: 9916 573e 9bd8 91be 67b1 33be 1ece bc3e
00000330: ec54 8a3e b1a8 91be 234a 3f3e 8726 a83e
00000340: c157 9e3c 8cbe 463e 9629 053e 4061 81be
00000350: fc5c b53e f5ef b6be 344f 083e 4d4f babe
00000360: 2c47 e0bd 474f ccbe e766 ddbc b202 27be
00000370: ce9a d9be acc8 a63e 13e2 033e 1a31 82be
00000380: dbdb dbbe 95b1 dfbe 4a09 65be abbf d2bd
00000390: 8744 983e 12f4 adbe a60c 7dbe 76bc cb3e
000003a0: 0d82 453e 2f57 dc3e b882 e2bd 3f05 773d
000003b0: 8c55 2dbe eefe 7e3e 78ec e43e 80c4 23bb
000003c0: 6a5a 673e f0ed 313d 0c81 a53e 72df 813e
000003d0: f9a6 cbbe 703d c43e 7992 e33e 5e35 e4be
000003e0: 1a06 adbd b87b 3bbe e06b c2bd 46d6 c53e
000003f0: a6ec d43d 67d9 a8be 7e27 bebe d7a5 143d
-0.09742537 -0.33296445 -0.3046963 0.29155368 0.16547263 0.38994563 0.1629548 -0.27390692
0.006486705 0.059159994 0.39889687 0.12025319 0.119570725 0.28872108 -0.43431225 -0.104923435
-0.07976337 -0.41636026 0.17220677 -0.43901473 -0.20594624 0.1724338 0.027126819 -0.33992594
0.2085414 -0.14328443 -0.3163221 0.31835765 0.1392744 -0.0902808 -0.39130816 -0.25698122
0.23351939 0.2940739 -0.32474113 0.4112704 -0.38702747 -0.1743873 -0.11604004 0.33324158
-0.40673864 0.4024189 0.09035857 -0.17242433 0.4245484 0.23616934 -0.007902443 -0.29576892
0.027605176 0.11271936 0.062943436 0.25011745 0.06444634 -0.025733717 0.34955162 0.3174856
0.049234804 -0.07459237 -0.44706827 0.10681498 0.2891352 0.3589169 0.05573516 -0.26851398
-0.02922821 -0.3424782 0.11024809 -0.24213783 -0.21456833 -0.094608516 0.11481228 0.075390995
0.015894376 -0.26827103 -0.3729107 -0.11076903 0.12580657 -0.29904312 -0.10725182 -0.20687877
-0.00446006 -0.17286031 0.044026162 0.11661047 0.085006 0.38786635 -0.27713442 -0.031891804
0.42122254 -0.43099272 0.40652978 0.00020945963 0.047416948 -0.30621862 0.28646493 0.091481805
-0.23646747 -0.2000035 0.1986956 -0.44277924 0.28812498 -0.112328514 0.3642457 -0.043936677
0.24118006 -0.06044824 -0.30865577 -0.15038338 0.4286165 0.13888437 -0.4352933 -0.32648382
0.4472296 -0.40026096 0.12671 -0.14927384 -0.27459306 -0.13838696 -0.34546745 0.029627234
-0.17987438 -0.44371793 -0.026332302 0.07724318 -0.43068427 0.18280764 0.106050596 0.2064116
0.17869079 0.36970365 0.16746767 0.20592362 0.38486484 -0.32476646 0.42087436 -0.16725112
0.08140557 -0.20240383 -0.044351947 0.2525621 0.26157779 0.13715486 0.32779336 -0.27389583
-0.28189075 -0.27488157 0.11788617 -0.41265887 0.30209804 0.19953126 0.17861563 -0.21157086
-0.22576615 -0.4254874 0.017208844 -0.2784757 -0.1702101 0.047796533 -0.3069379 -0.43276426
-0.07502696 0.121995986 -0.3624228 -0.43240526 -0.4206783 0.064806744 -0.0015273029 -0.20010269
0.35141125 0.12715214 -0.19312555 0.10633106 0.13000411 -0.29126412 0.03475836 0.40267074
-0.18432957 -0.22524813 0.12028284 -0.056658894 0.17738292 -0.07153897 -0.04756622 0.43190378
0.34289736 0.37423208 0.23308289 0.1428511 0.31023735 -0.06044495 -0.1002093 0.16573808
0.27560192 -0.2614145 -0.40472877 -0.3023791 0.37885338 -0.36148813 0.10682164 -0.026507527
0.21004714 -0.2848557 -0.17548142 0.36876005 0.27017915 -0.28449014 0.18680625 0.32841894
0.019328954 0.19408625 0.13004145 -0.25269508 0.35422504 -0.35729948 0.13311464 -0.36388627
-0.10951075 -0.39904234 -0.027026607 -0.16309622 -0.4250092 0.32574975 0.12879209 -0.25428087
-0.42941174 -0.43690172 -0.22366825 -0.10290464 0.29739782 -0.33975273 -0.24711856 0.39792222
0.19287892 0.43035266 -0.11060089 0.060307737 -0.16927165 0.24901935 0.4471166 -0.002498895
0.22593084 0.043439806 0.32325017 0.25365788 -0.39775828 0.38328123 0.44447687 -0.44571966
-0.084484294 -0.18308914 -0.09493232 0.3864004 0.103966996 -0.32978365 -0.37139505 0.03629097

fc1.bias f4 [128]
00000000: 5bc1 b7be 6b55 c83e 8f84 ac3e af02 2fbc
00000010: 270b b7be efa6 febd 9a2f 82be fbdc abbd
00000020: 9b41 8e3e aac5 b1be f2b8 adbe 33b4 7dbd
00000030: 5e43 243e 9489 d7bd 8651 6d3e d06a c2bd
00000040: 6dfa 80ba ec25 a03e 92c2 9fbe ca4f 4f3e
00000050: 93d9 8bbe 0b2a c53e 0cba 503e fa0e 2cbe
00000060: a0d1 333e 371c 3cbd 0385 56be b2bc c33d
00000070: 6826 7b3e 0b95 8f3e 6fee cdbe 15f5 b93e
00000080: 23fd d6be 6526 81be 33d3 d8bc 1e41 a1bd
00000090: 33c9 113e 820b 7a3e a388 a43e 67e2 0ebe
000000a0: 7bc3 f8bd 4930 e93a a73b e33e af2d 973e
000000b0: 1dcd 163d aceb 8ebd c18c a2bd 3deb d0be
000000c0: 759f 2f3e 1ec6 6e3e 25c9 0abe 9504 4cbe
000000d0: 58f9 b3be 8588 d2be 8bee 633e ceda 363c
000000e0: d65f cb3e a04a 733d b26d b23e abe3 cdbd
000000f0: 7f9a 62be 221d a2bd c4af a4be f278 3cbd
00000100: 5176 69bd e707 833e c258 0abe 853f 80ba
00000110: 146d 80bb 4c38 e4bd 694f d43e de10 d5be
00000120: aa71 0fbd 27fe 88be b369 b93c 12f5 e13e
00000130: 5e29 cf3e 4992 503e 480e e33d 4d8f e03e
00000140: c963 13be 4cc6 64be 4fc4 26be a0b5 3e3e
00000150: dbba 11be 5e18 de3e 54af b7be 8159 313e
00000160: c5b1 61be 87dc dabe b82d 723d 6603 613e
00000170: cfa5 e23c 7ce3 cc3e 66d5 d6be 144d c33e
00000180: 9371 033e 3577 973e a49b 633e 3fe7 663e
00000190: ea03 a33e 88cb afbd ffce 0cbe 0405 703e
000001a0: f8a1 9b3c b7a6 9ebe 8723 573d eafd 923e
000001b0: c843 d03e 82c1 d0be 2204 de3e 51ff 4ebe
000001c0: a1cd 9c3d 92ba 42be 9e8d 93be 1bb7 a13e
000001d0: dd54 333e 9898 94be 5501 3f3e f2cd b1be
000001e0: 8a02 1a3d 9091 cfbd 3b0d d7be 2b4b de3e
000001f0: 47b7 cb3d 3443 92be 0b1d dbbe e1e0 543e
-0.35889706 0.3912767 0.33694884 -0.010681792 -0.35750696 -0.12434184 -0.25426942 -0.08391758
0.27784428 -0.34721118 -0.33930165 -0.06193943 0.16041324 -0.10524288 0.2317563 -0.09493029
-0.0009840258 0.31278932 -0.31203133 0.20245281 -0.27314433 0.3850864 0.20383471 -0.16802588
0.17560434 -0.045925345 -0.20949177 0.09557475 0.2452637 0.28043398 -0.40220973 0.36319795
-0.41990003 -0.25224605 -0.026467895 -0.07873748 0.14236908 0.24418452 0.32135496 -0.13953553
-0.1214666 0.0017790879 0.4438145 0.2952704 0.036816705 -0.069785446 -0.07937003 -0.40804473
0.17150672 0.23317763 -0.13553293 -0.19923623 -0.35151172 -0.4111978 0.22258966 0.011160566
0.39721555 0.05939734 0.34849316 -0.1005319 -0.22129248 -0.07915713 -0.3216535 -0.04601378
-0.0569976 0.25591967 -0.13510421 -0.0009784555 -0.003919253 -0.1114355 0.41466835 -0.4161443
-0.035020508 -0.26756403 0.02263341 0.44132286 0.40461248 0.20368303 0.11086708 0.4385933
-0.14393534 -0.22341269 -0.16285823 0.18623972 -0.14231436 0.43377966 -0.35875952 0.173193
-0.2204047 -0.42746374 0.059125632 0.21973953 0.027666954 0.40017307 -0.41959685 0.38144743
0.12836294 0.29583135 0.22227341 0.22549151 0.31838924 -0.085837424 -0.13750838 0.23439413
0.018998131 -0.30986568 0.052524116 0.28709346 0.40676713 -0.40772635 0.43362528 -0.20214583
0.07656408 -0.19016483 -0.28818983 0.3158501 0.17512842 -0.2902267 0.18652852 -0.34727436
0.037600078 -0.10135186 -0.42002282 0.43416724 0.09947067 -0.28566897 -0.42795596 0.2078891

fc2.weight f4 [64, 128]
00000000: 000f 8cbd 0357 193d 5dc4 47bc 4d47 683d
00000010: 64e1 6ebd 61ce 21bd f01a 66bd ab80 47bd
00000020: ca1c a4bd e4e6 da3c 096c b4bc 29a7 b2bb
00000030: ee91 af3d aee1 afbd de4e 6d3c 56fc 693d
00000040: 022c 7e3d cc61 0b3c 6442 85bd dc45 203d
00000050: c1c4 2abd ac07 6fbd 638e b0bc 30ff 88bd
00000060: a8e7 a5bd 4d8d a5bc 1460 3cbd b081 523d
00000070: fe3d 9a3d 6ea1 1c3d 0826 93bc 2d94 823d
00000080: 907a 8c3b 25bf 90bc 612e 5b3d 4d2a 8d3d
00000090: 3558 a0bd aed9 893c 6f24 113d ade7 b5bd
000000a0: c5b1 e83c 5098 84bc 9669 a8bd 199c 183c
000000b0: 9b47 873d 491e 84bd 06ee 993d ef2c 863d
000000c0: 77b3 ff3c 3b68 b23d 6aa5 003d 0cc7 02bd
000000d0: d47b b53d cc00 a8bc 6569 44bd 91ae 433d
000000e0: 7af5 053d 291e a23d 1028 8e3d 05bc 683c
000000f0: bbfa 993d 3082 a43d b8de 8ebd ab3f a83d
00000100: 929d 2cbd 3536 223c 12ae 83bd 306f 3dbd
00000110: 276b 6dbd c60d 73bd c993 1b3d 4b84 a63d
00000120: 63cf 5fbc c261 853b 3cb0 873d 3d34 803d
00000130: 1659 a6bd c381 b43d 0534 ee3b 63aa 43bd
00000140: e03a 60bd 1a2a adbd b829 423c db11 d2bc
00000150: 5abe b4bd 937f 8b3d 39c6 8d3d bd1b dfbc
00000160: c297 513d 05dc 88bd 95e0 b03d 8458 403d
00000170: c99d b83c b9a0 403d 4c29 acbd a255 19bd
00000180: e434 26bc 363c 63bd eff2 fb3b c8c6 39bd
00000190: 869e 4c3d b473 af3d 269c 84bb f423 8abd
000001a0: 1419 2bbd 564a 633d b4c9 183d b3e9 56bd
000001b0: 301f 6c3d 301e a7bc 2294 533d 931b 12bd
000001c0: d24a 89bd 39d7 403d 5ade 8d3d d352 af3d
000001d0: e8d4 9dbd 89ed dd3c e721 3ebd b3ae a03d
000001e0: 0dac 153d 21b2 833d b06f 353d 22f7 903c
000001f0: 2972 053d be42 663d 7470 90bc 69c5 00bd
00000200: b200 3d3d 6d12 b4bc 1f1a 753d f69f baba
00000210: 5ac3 763d ed89 3c3d 7cad e0bc f98c e53c
00000220: 00ab 933d 4d54 843d fe7b 1d3d 146b 3d3c
00000230: e3b4 773a c816 0cbc 5d82 8dbd 7948 b23d
00000240: 67fe 9439 c8ec 663d 2956 823d b143 4a3b
00000250: 5af7 67bd 1906 6cbd 4e15 273d a8ee 29bd
00000260: 1734 28bd 921e 14bd f287 b13d 0891 6c3d
00000270: 1e91 47b9 f92c 803d 4857 65bc 21b9 923d
00000280: b677 053d acb4 f23c 3be9 83bd 2b1c a43d
00000290: 2697 3fbd 679e 28bd ce6e 523d 30a7 b2bc
000002a0: 5efc 823d e1c7 66bd b420 543d 6168 4e3d
000002b0: 3d93 d33c edb7 5bbd f269 923c b983 63bd
000002c0: a9e9 f5bb 579b 033d f85e 113c f23c 103d
000002d0: 758b d6bc 7047 23bc 49a9 cc3b 8d59 15bd
000002e0: ea60 55bd 89ff 763d 72db a1bd bff9 b0bd
000002f0: c656 513d 16ca b5bc bb07 a23d 3736 9cbd
00000300: 18f0 b73d d3a2 3abd fcf7 77bd b991 8cbd
00000310: b5bd 90bb c6f6 4c3d 33c1 c6bc 3f1a aabd
00000320: 0fea 293d 3b8f 9fbd 30b0 503d b54f a9ba
00000330: e59d 993d 8c1a d23c 5b6f 803c ff32 34bd
00000340: 5a60 873d 5c0a f43c b219 66bd 69a8 abbd
00000350: d766 ac3d 224b 133d 22f7 713d 514e 633d
00000360: 12ab 6b3c 977e 8f3d 49cc 7bbd acb0 62bb
00000370: a64b 8fbd f4d1 c23c 9cf2 a03c cd9d 7a3d
00000380: f123 663c af5d 81bd 70f7 b43b 35d7 ab3d
00000390: 683f 843d be57 523d c7a2 f1bc 41d3 2bbd
000003a0: 5467 adba e42b dcbc 53c3 553d 7955 52bd
000003b0: 720d 503d 31ef 9f3d fec7 febc b92d 96bd
000003c0: b817 6f3c 7cfb 193d deb8 9abd 978b 483c
000003d0: 30f6 123c 7cb0 373d 262c 373c b647 233d
000003e0: 62e4 b43c c014 94bd e112 7fbd 10f1 41bd
000003f0: de9b a23d 7297 e4bc d75c 9a3d 9b8e 393d
-0.068387985 0.037436496 -0.012192813 0.056708623 -0.058320418 -0.03950346 -0.056178033 -0.04870669
-0.080133036 0.026721425 -0.022024171 -0.005452056 0.08572756 -0.08587967 0.014484135 0.057125412
0.062053688 0.008507203 -0.06506804 0.039129123 -0.041691545 -0.058356926 -0.02155227 -0.06689298
-0.081008255 -0.020208979 -0.045990065 0.05139321 0.07531355 0.03823989 -0.01796247 0.063759185
0.0042870715 -0.01766927 0.053511027 0.06892834 -0.07829324 0.01682743 0.035435136 -0.08882079
0.02840508 -0.01618591 -0.08223264 0.00931456 0.066054545 -0.06451089 0.075161025 0.06551539
0.031213505 0.08711287 0.03140775 -0.031928107 0.08861509 -0.020508192 -0.047952075 0.0477739
0.032704808 0.07915909 0.06941235 0.014204984 0.07518526 0.08032644 -0.06976074 0.08215269
-0.04214246 0.009900619 -0.06429686 -0.046248615 -0.057963517 -0.059339307 0.037982736 0.08130702
-0.013660285 0.0040704915 0.06625411 0.06259964 -0.081224605 0.088138126 0.007269385 -0.047769915
-0.054743648 -0.08455296 0.011850767 -0.02564328 -0.08825369 0.06811442 0.069225736 -0.027234906
0.05117012 -0.066825904 0.086365856 0.046959415 0.022536175 0.047028277 -0.08406314 -0.03743518
-0.010144446 -0.055477343 0.007688872 -0.04535559 0.049955867 0.085669905 -0.0040469347 -0.06745139
-0.041771963 0.055490814 0.037301734 -0.052468967 0.05764693 -0.020400137 0.051654942 -0.035670828
-0.06703724 0.047080252 0.06927176 0.08560719 -0.07706624 0.027090805 -0.04641905 0.07845821
0.036541034 0.0643046 0.044295967 0.017695967 0.032579575 0.056215994 -0.017631747 -0.031438265
0.04614324 -0.021981442 0.059839364 -0.0014238346 0.060244896 0.046029974 -0.027426474 0.028021323
0.0721035 0.064613916 0.038448326 0.011561174 0.00094492565 -0.008550353 -0.069096304 0.08705229
0.00028418304 0.056378156 0.0636409 0.00308631 -0.056632377 -0.057623003 0.040791802 -0.041487366
-0.0410653 -0.036161967 0.08668508 0.0577555 -0.00019032179 0.06258578 -0.01399786 0.07164217
0.03258487 0.029627167 -0.064409696 0.08013185 -0.046775006 -0.04116669 0.051375203 -0.021808237
0.063957915 -0.056342963 0.051789 0.050392512 0.025827045 -0.053642202 0.017872784 -0.055545542
-0.007504661 0.032130565 0.00887274 0.035214372 -0.026189545 -0.0099657625 0.0062457663 -0.036462355
-0.052094378 0.06030229 -0.07903184 -0.08641385 0.051108144 -0.022191089 0.07911631 -0.07627528
0.08981341 -0.045565438 -0.06053923 -0.06863732 -0.004417146 0.05004003 -0.024262046 -0.08305787
0.04148298 -0.07790991 0.050949275 -0.0012917431 0.07500819 0.025647424 0.015678098 -0.043993946
0.066101745 0.029790096 -0.05617685 -0.08381731 0.08418053 0.035960324 0.059073575 0.05549461
0.014384048 0.07006567 -0.06147412 -0.0034590168 -0.06996851 0.023781754 0.019646935 0.061185647
0.014046655 -0.06316697 0.005522661 0.08390657 0.06457406 0.05135321 -0.029496564 -0.041949514
-0.0013229647 -0.026876397 0.05218823 -0.051351044 0.050794072 0.07809294 -0.031101223 -0.0733294
0.014593057 0.03759335 -0.07554792 0.012240312 0.0089698285 0.044846043 0.011179959 0.03986331
0.022081558 -0.0723052 -0.062273864 -0.047349036 0.079398856 -0.027904246 0.07537239 0.045302015

fc2.bias f4 [64]
00000000: 26c1 a03d 704d 69bc f1a1 e4bc 4472 a53c
00000010: ed00 153d 57dc 8e3d f831 83bc 0f89 39bd
00000020: df78 373d 8bc3 943d de99 b6bd be62 82bd
00000030: b15e b93c c9b4 da3c b036 163d 40d9 15bd
00000040: 8122 88bd bebd a23d 27fc 7a3c 200b 24bb
00000050: 805c 733b 98de 39bd b179 593d e0be 973b
00000060: 844e 743d 155a 003d a8d5 a1bc f877 f1bc
00000070: b670 573d 49d7 49bd 4c48 cbbc fc41 6bbd
00000080: b0ab cc3c de9e 2b3d c6ea a13b 0a57 98bc
00000090: 35c3 02bd 667f 9dbb 7864 75bc 69f7 a139
000000a0: d9cc a43d b1dd 583d 570d 25bd 7cbc 01bd
000000b0: 63e2 98bc 128d a4bd 2faf 573d d65f 87bd
000000c0: f4a0 263b d2b3 8a3d b67d 2abd 9c49 983c
000000d0: 40f3 963c 1776 13bd 4720 8ebd 152f 4d3d
000000e0: cb12 9ebd f3a8 713d dcad 353d 540f a13d
000000f0: f302 303d 3aa3 6c3d e96a 3abd b14e bd3c
0.0784934 -0.014239654 -0.02790925 0.020196088 0.036377836 0.0697562 -0.016015038 -0.045296725
0.044793006 0.07263859 -0.089160666 -0.0636649 0.02262816 0.026697533 0.036673248 -0.03658414
-0.06647206 0.07946347 0.015318907 -0.0025031045 0.0037133992 -0.045378298 0.05309457 0.0046309084
0.05964519 0.03133591 -0.0197552 -0.02947615 0.052597724 -0.049277578 -0.024814747 -0.057435974
0.02498421 0.041899554 0.0049413173 -0.018596191 -0.031924445 -0.004806447 -0.014977567 0.00030892648
0.08046884 0.052945796 -0.040295925 -0.031673893 -0.018662637 -0.080347195 0.052657302 -0.06610076
0.0025425525 0.06772579 -0.041623794 0.018589787 0.018426538 -0.03600129 -0.0693975 0.05009373
-0.07718428 0.058999013 0.04435526 0.07864252 0.042971563 0.057772852 -0.045512114 0.023108812

fc3_action.weight f4 [41, 64]
00000000: d0a5 723d 4bba 3c3d 52c9 10bb 05b1 683c
00000010: ccc6 ab3d 3265 f73c 912c 07bd 9262 5fbc
00000020: 6722 f5bd 2b81 223d c440 c1bd b8da a3bd
00000030: 8219 e6bd 8678 6bbb ecc3 b9b9 1605 a4bd
00000040: 64a4 e1bd 0e5d 5ebd c20e 023d 004e 563a
00000050: 5ca2 38bd 8610 b53d f27f e0bd c469 283d
00000060: 0c70 be3d 999b 1c3d c8cd 073d 0c2d 57bd
00000070: 968d 903c d846 bebc 2c43 4bbd e60b d1bd
00000080: e061 d73d 6298 c1bc d36f b33c 6056 2bbd
00000090: 2e39 9f3c 6014 acbd 8046 13bc 8594 4b3d
000000a0: b165 cb3d b20b a63d f7bd fdbb 7e50 80bd
000000b0: 90c3 b9bd 8aab cc3d 177f 013d b84c 48bd
000000c0: ddc7 47bc c7bf d5bd df36 39bd 7741 27bc
000000d0: d770 93bc a453 473d c23d df3d 2a76 6e3b
000000e0: 2631 ab3c f67e 88bd 6569 823c 2c43 c9bd
000000f0: f1e6 31bd 7930 cebd e03b 3fbc b988 8d3c
00000100: 5bad 7d3d c13e c83d 5c9a f43d 1a3b 2a3d
00000110: f4e6 ffbd 9067 e0bb e81a 9abd 14cc 8f3d
00000120: e0a8 c93c d46d c4bd 540b e13d 48c0 c83c
00000130: 3d4e aabb 2c57 6abd 8fa9 293d a086 f3bd
00000140: e285 ce3d b7d3 a23d 99a3 fdbd 3857 f3bc
00000150: 103a fe3d 18b3 b93d 0f8b 993d bc05 2dbd
00000160: 5876 94bd 3009 abbc 50de 8c3c 4ca3 64bc
00000170: b79a 55bc 248c e03d 14d9 f1bd ce9d aa3d
00000180: f09c 0f3c f540 9ebd 9fb5 c6bc 69b8 b23d
00000190: afb7 323d 12c1 bcbc 6cf3 44bd ad42 a6bb
000001a0: f705 26bb 0890 d1bc f879 a63c ccef 02bd
000001b0: 486f f7bd df66 52bd e290 b7bc b8ba 863a
000001c0: 4537 30bd 9c64 fabd 2300 bbbb 0f0e 823d
000001d0: 2f50 db3c 44ce 3dbd d81a 063d c669 453c
000001e0: 6fce aa3d 7d02 f13d 5ccc d63c f18a 9d3d
000001f0: 740b c7bd ae79 b93d e448 eabd dc62 f6bd
00000200: 4454 903d 2f6f df3d ba87 1a3b e6ac 1b3d
00000210: e75e febd 9dbe 68bd 8d21 cbbc 0cab 0abd
00000220: 0062 3abd 525d 37bd 4b58 c9bd 88cc b7bc
00000230: b8f0 39bd 708e 26bd 5dde 6b3d 28d4 c03c
00000240: c337 4b3d d7ea c1bb 5c7e 433d 0853 bd3c
00000250: e680 8e3d 6ea4 863d 1215 443d 6817 96bd
00000260: 30b5 0bbd 3f4d 55bd c005 06bd ea08 a1bd
00000270: a560 e2bd 2056 b93d c06a 98bb 6600 f7bd
00000280: 5e26 dfbd cfc6 fb3d 146c bb3d a29d 803d
00000290: 7aa4 b83d f837 c43d 746b b23d 6563 ae3c
000002a0: 72bf 05bd ec8c 8f3d 9503 093b 4043 94bb
000002b0: b2dc 23bd 53cb 2f3d 7a4b 2bbd 2971 a93d
000002c0: 3bdb 393d 707c 40bd 8e5b c43c c215 b63c
000002d0: 96d9 b63d 2081 eabb 963c 8f3d 86af 62bd
000002e0: d3d0 4a3d 9222 8bbd 3e8a b73d bc06 4f3d
000002f0: dc2e 48bb 2746 9d3d 9e34 f73d 8be3 d93c
00000300: 454c ffbd 9064 4bbc 3c38 23bd dd34 85bd
00000310: 4135 a5bd 0aa7 973c 8d62 a63b e99c a5bd
00000320: fd41 f13d 18da 983d 7bcf 89bc e823 a7bc
00000330: c849 783d ec69 ca3d 7788 993d d09f 0f3c
00000340: 0093 f8bd 142c 8fbd 3292 f23c 0870 cb3c
00000350: 5ec3 ab3d d09a 0dbd 5720 313d 80c0 88bb
00000360: 1744 3dbc ff71 06bd 14d9 97bd c54a aabd
00000370: b675 8d3d e046 873d d812 5abd 4c80 61bd
00000380: 30da 893c 0b25 cfbd 0c4d e43c bf52 a1bc
00000390: 3a13 5ebd 36eb d9bd 4227 9d3d 7f7d c0bd
000003a0: 42bd 32bd 56fb 49bd 1e40 81bd 94bd 8b3d
000003b0: 75ef a03d 25b6 313b b260 eabd 69d5 a0bc
000003c0: 9489 80bd 23ca 943d 9d45 f63c a04b d0bd
000003d0: bf41 973d da74 d03d f083 9b3d 42b6 cd3c
000003e0: aa46 e13d e7b9 8abd b37f d03d c8fb e6bc
000003f0: 52d8 62bd e77c c03c b0bb 73bd fa57 323c
0.059240162 0.0460761 -0.0022092653 0.014202361 0.08387527 0.03019962 -0.033001486 -0.013634341
-0.11969452 0.039673965 -0.09436181 -0.08000702 -0.11235334 -0.0035929992 -0.00035431923 -0.080087826
-0.11017683 -0.054287963 0.031752355 0.0008175075 -0.045076713 0.08841042 -0.10961904 0.04111649
0.09298715 0.038234327 0.033155233 -0.052533194 0.017645638 -0.02322714 -0.049624607 -0.102073476
0.10516715 -0.023632232 0.021903908 -0.04183042 0.019436445 -0.08402324 -0.0089889765 0.049702186
0.099315055 0.081076995 -0.007743593 -0.06265353 -0.09070504 0.09993656 0.031615343 -0.04890129
-0.012193647 -0.10436969 -0.045218345 -0.010208479 -0.017998142 0.04866375 0.10900451 0.003638635
0.02089746 -0.06664841 0.015919397 -0.09827265 -0.043433134 -0.10067839 -0.01167199 0.017277109
0.061932903 0.09777594 0.11943504 0.04156027 -0.12495223 -0.006848283 -0.07524663 0.07021347
0.024616659 -0.095912606 0.10988489 0.02450575 -0.005197315 -0.05721204 0.04142147 -0.11890912
0.1008413 0.07950538 -0.123847194 -0.029704675 0.12413418 0.090673625 0.074972264 -0.042241797
-0.07249135 -0.020878404 0.01719585 -0.013954949 -0.013037375 0.1096423 -0.118089825 0.0833088
0.008765444 -0.07727233 -0.024256526 0.0872658 0.043632206 -0.023041282 -0.048083708 -0.0050738663
-0.0025333145 -0.025581375 0.020321831 -0.03196697 -0.12081772 -0.051367637 -0.022407953 0.0010279035
-0.04302146 -0.12226221 -0.0057068034 0.06350338 0.026771633 -0.04633929 0.032740444 0.012049144
0.08340155 0.11768053 0.026220493 0.076925166 -0.097189814 0.09056412 -0.11439684 -0.12030575
0.070473224 0.109098785 0.0023579434 0.038006686 -0.12420445 -0.056822408 -0.024796272 -0.03385453
-0.045503616 -0.04476673 -0.09831294 -0.022436395 -0.045395583 -0.040663183 0.05758511 0.023538664
0.049613725 -0.0059178877 0.047727928 0.023110881 0.06958179 0.06574331 0.047871657 -0.07328683
-0.03410834 -0.05207562 -0.032720327 -0.07863028 -0.1105359 0.0904963 -0.0046513975 -0.12060623
-0.1089599 0.12293779 0.09151474 0.06280066 0.090157464 0.09580988 0.08711901 0.02128763
-0.03265328 0.070093006 0.0020906676 -0.0045246184 -0.040005393 0.042918514 -0.041820027 0.08273537
0.04537509 -0.046993673 0.023969438 0.022227172 0.0892822 -0.007156506 0.06993978 -0.055343173
0.049515557 -0.06793703 0.089619145 0.05054353 -0.0030545508 0.07679396 0.12070583 0.026597759
-0.12465719 -0.012414113 -0.03984855 -0.065042235 -0.08066798 0.018512268 0.005077666 -0.08086569
0.117801644 0.07463473 -0.016822567 -0.020402864 0.06061724 0.09883484 0.07496732 0.00876613
-0.12137413 -0.06990829 0.029610727 0.024833694 0.08386873 -0.03457147 0.043243732 -0.0041733384
-0.011551878 -0.03282356 -0.07414451 -0.083150424 0.06907217 0.06605315 -0.053240627 -0.055053994
0.016827673 -0.10114487 0.02786877 -0.019692777 -0.054217555 -0.10640566 0.076735035 -0.093989365
-0.04363752 -0.04931196 -0.063110575 0.068232685 0.07858173 0.0027116623 -0.114442244 -0.019633012
-0.06276241 0.07265117 0.030062491 -0.10170674 0.07385587 0.10178538 0.075935245 0.025111321
0.10999806 -0.06773739 0.10180607 -0.02819623 -0.05538208 0.023497058 -0.059505165 0.010885233

fc3_action.bias f4 [41]
00000000: 4e89 3fbc c6a9 4f3d c626 c93d 999b e0bd
00000010: 75ef 883b 5df5 46bd 1661 a8bd 258e 303d
00000020: bdbe b53c 644c a6bd 98cd a33c 8d78 9fbd
00000030: 418d 07bd 4e02 1b3d b1d1 803d 7b76 91bd
00000040: cce0 cabd 30bf f8bd 777e fbbd 5d74 febd
00000050: b387 4ebd 626d d9bc e3ba 5f3c 5d15 963d
00000060: c26c 94bc 60d6 c1ba 1096 47bd 3396 77bd
00000070: d4e7 64bd 91e8 773d 731f 783d 2c3b bf3d
00000080: 5ad6 cebd f135 6abd 845b 9fbd aac8 8f3b
00000090: 3505 e1bd 584a 6b3d f1c4 063c 040d d1bd
000000a0: e0f5 f6bd
-0.011690451 0.050699018 0.098218486 -0.10967178 0.004178936 -0.04857384 -0.08221643 0.04310431
0.022185678 -0.08120039 0.019995496 -0.07786665 -0.033093695 0.037843995 0.062899955 -0.071026765
-0.09906158 -0.12145841 -0.12279981 -0.12424538 -0.05042238 -0.026541416 0.013655397 0.073282935
-0.018118266 -0.001478862 -0.048727095 -0.060445976 -0.05588515 0.060524527 0.060576867 0.09337458
-0.10099478 -0.05718035 -0.07781127 0.0043879347 -0.10987321 0.057443947 0.008225665 -0.10207561
-0.12058616
