improved_vrpb_policy_best.pth (torch, 42797 bytes, 6 tensors)

fc1.weight f4 [128, 6]
00000000: 14ed 8c3e 43d1 893e c3a2 adbe 7518 aa3e
00000010: 1380 6cbe 000a b43c 4e03 24be c001 52bc
00000020: 4083 c63c f47f 403e 007f babd c03e ee3c
00000030: 2031 cbbe 14ab b3be 727c 52be 928d 163e
00000040: 955e 3d3e 7c04 773e 0411 103e 4896 0bbd
00000050: c8b2 cd3d e9c3 c3be 11a1 82be cb35 94be
00000060: f4f9 333e b064 233e 01fe 963e df92 3a3e
00000070: d54b 153d e0db 853e 0d9c abbd 727b 343d
00000080: 0297 f3bc 125e ff3d d9c2 743e cc28 b7bd
00000090: 66ab 6abd 984e 88bd be21 a23e 1f00 4bbe
000000a0: 0448 813e 7434 bebe e2d9 c83c 47e6 c03e
000000b0: bc39 8abe 50c6 603e addb a8be 944c 853e
000000c0: d7a9 aa3e 7e75 19be 3061 94be c70f 5b38
000000d0: c3f1 eabd 5630 26be f1fa aabe e824 6e3d
000000e0: f010 973e f29c b73e 2d14 c7be d054 203d
000000f0: 2265 ca3e 6b0a 2abe 822e af3e e028 45bd
00000100: 2710 4ebd 5634 89be 4f4a 88be f747 2bbe
00000110: 4750 913e cb1e 5cbe 1c48 6ebe e095 64bc
00000120: 5771 cfbe fc3d 243e ec9a b7bd 7b9f 8fbe
00000130: 4cdb 1ebe d4f2 093e 9e10 6f3e 1c8f 83be
00000140: 38c2 76be 7596 74be 3b12 a13e c046 e03d
00000150: f0e2 c8bc 5802 31bd a260 8e3e 1ac3 9cbe
00000160: 4a3d c63e c206 963e f668 d73d 6e7a c03e
00000170: 8a7a c8be d531 b33d b79a 26be 6863 13be
00000180: a143 963e 6904 77be 08c2 983e d9f1 863e
00000190: 69d8 7c3d 9814 d9bd 432a c83e 1c35 503c
000001a0: 8dbf 453e f4bc 9e3d a6c0 013e 4ef2 8d3e
000001b0: 7d6b 8f3d 1552 60be 1fee 0d3e 9bf7 43be
000001c0: aad9 ccbe 0418 14be b0ea 60bc 6dae bdbe
000001d0: cbdb c73e 00cf 2bbd c698 e5bd 5ce1 79be
000001e0: 94d3 9fbe 89d0 3bbe 3547 8a3e c427 00be
000001f0: 3667 bfbe 8cc7 7f3e 07af 773e dd26 6ebd
00000200: 5807 96bc efaf 9abe 22e9 54be 54b5 89be
00000210: 02a4 ad3e d9bc a7be 9371 29be ee46 65be
00000220: 1cf9 043e 7406 243e d025 463e 13dd 9abe
00000230: ca16 023e 937f 9fbc 28e2 cfbe 3215 aabe
00000240: f9ce 1fbd 9f8f 073e c3ca a13e 7ce9 e83d
00000250: d7fe 963e 0089 1f3b 08f9 343e ef55 a7be
00000260: b01d d83d 98e4 2cbd 908d 75be a638 90be
00000270: d005 54bc 9f73 cdbe 1b19 af3e 644f 52bd
00000280: a117 94be 76d7 01be 276a b13e 1629 bbbe
00000290: 384c cfbe 2cb3 5f3e 068c 143e 16e2 d0be
000002a0: 3420 693e 9277 1cbe 6090 933e 636d 48be
000002b0: e33a 4f3d a2da 9dbe 336d 6e3d a289 eebd
000002c0: 2757 a1be a9c7 f53c 6630 8fbe 9400 89be
000002d0: 8502 e1bd 20a8 b83d 2bb4 c6be 85ac 9a3e
000002e0: d6e1 29be 886b 4b3d 7c81 c93e 20c1 933e
000002f0: decd 313e 680f 263e 4dfd a13e eb13 8abe
00000300: f0f3 813e de73 c0be ea2f 373e 0cd0 0e3e
00000310: a779 a6be a9d5 94be 5a0f 27be f602 913e
00000320: 981a b33d c98f 7dbe ac2d 173e cea3 bc3e
00000330: e4e0 c6be 5bd3 2e3d fb7c 723e 5634 da3d
00000340: 9cd5 7a3d ec6a a73e 7889 363d 4c65 3d3e
00000350: 064b e7bd 9d18 d0be bf1a 52be a899 7a3d
00000360: d89a 223d d036 5d3e b2a9 cebe 243d a53d
00000370: 8080 0d3c b635 983e 0ca7 b7bd 95b7 a3be
00000380: 4cb8 7cbe a879 9bbd 757a c6be c0e6 b83c
00000390: 4236 3b3e e978 90be 126d b4bd 5a6e 483e
000003a0: 9f77 9d3d de90 9b3e 3c04 4d3e 4876 e0bd
000003b0: 71d4 b7be 0905 8abe 90b8 113e a8bd a6bd
000003c0: e960 1a3d aea3 99be 3fce 5abe 1da3 cc3e
000003d0: 4f20 82be e6ea 20be 4d70 873e f23d c13e
000003e0: 1399 b53e 7c09 8a3e 437c eebb 9899 a1bd
000003f0: 443c 36bd 74f2 6a3e d1c4 4f3e fde7 45b9
0.27524626 0.26917467 -0.3391324 0.33221784 -0.23095731 0.021977425 -0.16016886 -0.0128178
0.024232507 0.1879881 -0.091062546 0.029082656 -0.39685917 -0.3509146 -0.20555285 0.14702442
0.18493111 0.24122804 0.14068991 -0.034078866 0.100438654 -0.38235405 -0.2551351 -0.2894729
0.17575818 0.15956378 0.29490665 0.1822009 0.036449272 0.26144314 -0.08379374 0.04406304
-0.029735092 0.12469114 0.23902453 -0.08943328 -0.057292365 -0.066556156 0.31666368 -0.19824265
0.25250256 -0.37149394 0.024517957 0.37675688 -0.26997173 0.2195065 -0.329801 0.26034987
0.33332703 -0.14986226 -0.28980398 5.2228363e-05 -0.11471894 -0.16229376 -0.33394578 0.058140665
0.2950511 0.35861927 -0.3888258 0.039143384 0.39530283 -0.16605537 0.3421517 -0.048134685
-0.050308373 -0.26797742 -0.26619193 -0.16726671 0.2838156 -0.21496122 -0.23269695 -0.013951749
-0.4051616 0.1603927 -0.08965096 -0.2805136 -0.15513343 0.13471538 0.23346183 -0.2569512
-0.24097526 -0.2388552 0.3145922 0.109509945 -0.024522275 -0.043215126 0.278081 -0.306176
0.38718635 0.2930203 0.105180666 0.37593406 -0.3915599 0.08749739 -0.16269957 -0.14393389
0.29348472 -0.24122776 0.29835534 0.2635639 0.061729822 -0.10599631 0.39094743 0.012707975
0.19311352 0.07750884 0.12671146 0.27723926 0.07002924 -0.21906312 0.13860367 -0.19137423
-0.40009815 -0.14462286 -0.013727829 -0.3704714 0.39034876 -0.041945457 -0.1121078 -0.24402374
-0.3121611 -0.18341269 0.27007452 -0.1251517 -0.3738343 0.24978465 0.24187861 -0.05814253
-0.018314049 -0.30212352 -0.20792058 -0.26896155 0.3391419 -0.32761267 -0.16547231 -0.22390339
0.12985653 0.16018087 0.19350362 -0.3024679 0.12704006 -0.019470012 -0.4060223 -0.33219296
-0.039015744 0.13238381 0.31600007 0.113726586 0.29491302 0.0024343133 0.17673123 -0.3268275
0.105525374 -0.04221019 -0.23979783 -0.2816822 -0.012940839 -0.40127274 0.3419884 -0.051345244
-0.28924277 -0.12679848 0.346513 -0.36554784 -0.40487838 0.21845692 0.1450654 -0.4079749
0.22766191 -0.15279987 0.28821087 -0.19572978 0.050593268 -0.30830866 0.05820961 -0.11647345
-0.31511804 0.030002432 -0.27966613 -0.26758254 -0.10986809 0.09016442 -0.38809332 0.30209747
-0.16590056 0.049663097 0.393566 0.2885828 0.17363688 0.16216815 0.31638566 -0.2696832
0.25381422 -0.375884 0.17889372 0.13946551 -0.32514688 -0.2906926 -0.1631445 0.28322572
0.08745307 -0.24761881 0.14763516 0.36843723 -0.38843453 0.042682033 0.23680489 0.106545135
0.06123887 0.32698762 0.044564694 0.18495673 -0.112936065 -0.40643778 -0.20518015 0.061181694
0.03969845 0.2160294 -0.40363842 0.08068302 0.008636594 0.29728478 -0.089674085 -0.31976
-0.24679679 -0.075915635 -0.38765302 0.022570968 0.18282416 -0.28217247 -0.08809866 0.19573346
0.076888315 0.30383962 0.20021147 -0.1096006 -0.35904267 -0.26956967 0.14230561 -0.08141643
0.037690077 -0.3000769 -0.21367739 0.39968196 -0.25415275 -0.15714607 0.26452866 0.37742573
0.3546835 0.2696036 -0.0072779967 -0.07890624 -0.044491068 0.22944051 0.20289923 -0.00018873806

fc1.bias f4 [128]
00000000: 8e91 68be 7e15 6fbe 2ef6 8e3e d2c1 3ebe
00000010: 2141 3fbe 6644 d83d ba8a 47be decf 7a3e
00000020: bb6e ec3d 55ee ccbe 97fd a53e f25e 5e3d
00000030: 0072 82bd 9577 11be 859b 96be 2a6c 4f3e
00000040: 5b67 a8be 8b9c d5bd f883 363a d130 003e
00000050: 2324 593d 0768 a03e cd90 173e b033 bd3e
00000060: d063 c43e 4a1d 84be c86a 963d cbae 9c3e
00000070: feba 8fbe 02d7 dc3d ddb1 183e 4d78 31be
00000080: 3764 b13e 9046 a0be 68ea 8e3d 8b38 873e
00000090: f68f 04be e8d4 8cbe 33aa 93be f22e c3be
000000a0: fcdc cc3e 2e79 3d3e 0db4 b83e 80cd 87bd
000000b0: 2bf7 623e c943 d0be 0ac2 e83a ca74 acbe
000000c0: a8f0 263d 7640 c8be 43b3 b3be c582 9dbe
000000d0: 5590 63be d614 83be 6414 003e b8ca 97be
000000e0: 641e a53e 67a2 39be 09f7 f539 c407 38be
000000f0: 3dc0 8abe ff47 913e 6493 473d 5b03 90bd
00000100: 108a 9a3e 2b04 c43e 8212 c23e 90f6 dfbb
00000110: b2bf aabd 1708 e43d 6d8d ebbc e263 ae3e
00000120: 7e98 d03e 59e8 c33e bc3e c33e 0902 42be
00000130: 2f52 cb3d f4f8 f5bd f522 a9be 2e98 a73e
00000140: 4b05 31bd cec0 a73e 69e8 51be cc28 37be
00000150: e567 99bd 6a23 043d efd0 b53e 80d0 a7bd
00000160: 6834 723c 200a a6be 18ce c43e cd87 3cbe
00000170: 62e2 4d3e 8452 c53e 52aa 5abe 5c1a 3fbe
00000180: dd95 a3be 3bdd 4d3e 7f1d 7fbe 9565 87be
00000190: 8ff9 8b3e 3a78 80bd fd94 143c 0a02 633d
000001a0: 1dc8 be3c c136 9dbc 1900 d4bc ba71 af3e
000001b0: 14a1 6cbe 1403 8b3e c746 093e bf06 ae3e
000001c0: fed5 c43e f978 9dbd 98b8 c2bd 2b43 933e
000001d0: e241 443e c962 90bb 84c5 40be 6e2c 893e
000001e0: c049 c1bc 65a8 7a3d 7755 443e d3f6 cd3e
000001f0: c0e4 703e 955b cc3e da3a b73d 0865 f03d
-0.22711775 -0.23348042 0.27922195 -0.18628624 -0.18677188 0.10559921 -0.19486514 0.24493358
0.11544558 -0.40025583 0.32420036 0.054289766 -0.063694 -0.14205773 -0.29415527 0.20256105
-0.32891354 -0.10430249 0.0006962414 0.12518622 0.05301298 0.31329367 0.14801331 0.36953497
0.383574 -0.25803596 0.07344586 0.30602106 -0.2807235 0.10783197 0.149116 -0.17331047
0.3464677 -0.31303835 0.06978303 0.26410326 -0.12945542 -0.27506185 -0.2884079 -0.38121754
0.40012348 0.18503258 0.36074868 -0.06630993 0.221646 -0.40676716 0.0017758023 -0.33682853
0.04075685 -0.3911168 -0.35097703 -0.30763832 -0.22223027 -0.25601834 0.12507778 -0.2964685
0.3224975 -0.18128358 0.00046914097 -0.17971712 -0.2709979 0.2837524 0.048724547 -0.0703189
0.30183458 0.3828443 0.37904745 -0.0068348125 -0.08337344 0.111343555 -0.02875396 0.3406058
0.40741342 0.38263205 0.381338 -0.18946089 0.09927785 -0.12010375 -0.33034483 0.3273329
-0.04321794 0.32764286 -0.20498814 -0.17886657 -0.074905194 0.032260336 0.35510966 -0.08194065
0.014783002 -0.324296 0.38438487 -0.18411179 0.2010589 0.38539517 -0.21354035 -0.18662399
-0.31950274 0.20103924 -0.24913596 -0.26444688 0.27338836 -0.062729314 0.009068725 0.055421866
0.02328878 -0.019191148 -0.025878953 0.34266454 -0.23108321 0.27150786 0.13405906 0.33989522
0.38444513 -0.07689089 -0.09507865 0.28762183 0.19165757 -0.0044063074 -0.18825346 0.2679171
-0.023594737 0.06119575 0.19173227 0.40227374 0.23524761 0.39913622 0.08946772 0.1173802

fc2.weight f4 [64, 128]
00000000: b2b9 863d 10b8 e83b ae21 c83c 647e 2bbd
00000010: a06f 2f3d 6f4a 853d 9aca 02bd c35e cd3c
00000020: 7974 7b3c 8a32 203d fb2a 88bc 4274 7a3d
00000030: a816 023c 178d 92bd 145c d7bc b18e cdbc
00000040: e1aa 2abc cd99 3d3d 5177 c4ba 0fe3 0abd
00000050: 335f a5bd 8a58 9a3d 314d 42bd cef5 8ebd
00000060: 94bb 933d a099 50bb c8d0 ae3d 7407 493d
00000070: 69e6 92bc d9be 9c3d ec39 82bd 89a8 a53c
00000080: 8e69 c2bc f027 183c e53d 913d ec55 7f3d
00000090: 0000 9b3b 1699 6d3d d8b6 f83c 676c 21bd
000000a0: 0f38 723d b0a0 1d3b 3b54 973c 54f2 a53d
000000b0: 10e4 67bc a7a6 79bd 52fe 8d3d 5bc0 583c
000000c0: 2cea 6a3a d07b f13b 4d96 8f3d 77ae 41bc
000000d0: 3c65 abbd 35af 8c3d c3c5 39bd 6df3 a33b
000000e0: 7f8a 933d 7002 a5bd 661a 433d 1037 403c
000000f0: eedf aebd e3e1 743d 4f83 02bc 4b9a 5d38
00000100: 8bf7 58bb 588c dc3b ca58 473d 68a2 a5bc
00000110: 5def acbd 2965 b53b 2819 253d dcb0 ad3d
00000120: 2656 433b 4555 33ba ce05 ef3b b087 ce3c
00000130: 50ec 9d3c 94a5 923c 6c47 b4bc 9a72 80bd
00000140: a9b6 26bc c950 81bc eccd 08bd f67a 39bd
00000150: 239b 7a3c 55ee 75bd 137c 6c3d 667b e6bc
00000160: bd06 f83c 7d71 a6bd 3d8e 1fbc 484a 0e3d
00000170: 3651 18bd b483 70bd f82d adbd 9022 9bbb
00000180: 0412 8b3c e0ce 743d a884 8ebd 9a38 593d
00000190: 316d ac3d 61a6 9fbd 564a 28bd 95a4 4f3d
000001a0: 14ff b1bd 80d9 9e3d 3a91 aa3d f7fc dc3c
000001b0: 8c3d 583d 3c80 8bbd c5bc a2bd 15de 00bc
000001c0: 13c1 843c c36b 87b9 b22d 5cbd 30eb 48bc
000001d0: a165 4cbc 94e2 45bd 301f b3bc 5b64 a2bd
000001e0: 7484 933c baec 88bd a549 46bd bd62 24bc
000001f0: 3b18 ff3c 01df 8e3d f117 fabb 4e08 26bd
00000200: 64b3 983d 66fa 493d f0b6 e33c 510e acbd
00000210: 52c3 163d 8a60 8a3c ec5d cebc 413a 613d
00000220: 9563 2fbd 3b5c 95bd 67da 46bd 5119 d93b
00000230: f9f7 a6bd 0df5 96bd 9023 02bc 8ace 913c
00000240: 9ddf a2bd c52f 3fbd 23be bcbc 8d0e 513d
00000250: aeaa a73c 155b fc3a f1eb 9dbd 4ff4 b1bd
00000260: 0214 603d 1e69 573d 628c 783d cd1b 013d
00000270: 62a9 65bd 91b9 1d3b 0a5a d43c b751 6fbc
00000280: 6f28 ff3c 6925 63bd 51f5 5dbc 6475 a2bc
00000290: 4291 6e3d d8f4 5bbd 4ba4 1a3d 8008 693b
000002a0: fbce 093d f1dc 45bd 3286 413d f77e 0dbd
000002b0: f4da 323d 2847 d6bc 2d7a 353a ba61 0ebd
000002c0: adf6 9e3d 6921 8b3d bea6 d7bc cf49 ae3c
000002d0: 1823 a83c be2b 13bd 4d26 6b3d 32eb 5bbc
000002e0: 5e2c 22bb e6c7 5e3d 7bee b03d e5ff 9ebd
000002f0: cee5 2a3d 8fd7 99bd f3e0 fb3c f54a edbc
00000300: b69b a83d 0864 83bd faed 02bd 173b 47bb
00000310: a136 7a3d 82df 8b3d f12d 96bc 0b35 e1bc
00000320: 8324 4f3d cc8e 843d 5470 aa3d 3fc6 353c
00000330: f726 8dbd 0038 17ba 88c5 1bbd 7ef5 e23c
00000340: bd1b b23c 7531 5cbd 79e1 243c 6a6d 603d
00000350: c794 be3c 9c75 acbd 43ce 903d f85e 73bd
00000360: cdd9 3f3c 4dfd ebbb 10b7 e03c e87d c23c
00000370: f4cc 2cbd cb90 8c3c c2ac 1f3d dee9 50bd
00000380: f004 b9bb 14aa e73c 8cbb 16bd 3cc6 8ebd
00000390: 5ac6 a8bd 4df9 abbd 8c12 99bd 986b 8abc
000003a0: 2903 353d 7968 c139 1218 363b cd9d 72bd
000003b0: 5429 88bc 1707 413b 33f4 8abd 6d2a a23d
000003c0: 1c92 843d 3ecc 253d 3aa2 84bb 01f6 c0bc
000003d0: cb1e 34bc b4f6 41bd c8da bd3c e5d2 a6bd
000003e0: 5075 8e3c e0c4 97bc fe40 d7bc fe92 073c
000003f0: cf67 a53d 4bcb 593d 9567 8fbd b556 003d
0.06578387 0.00710202 0.024430122 -0.041868582 0.042831063 0.06508338 -0.031931497 0.0250696
0.015347593 0.039110698 -0.016622057 0.06114603 0.007939972 -0.07155817 -0.026289023 -0.025092455
-0.010416717 0.046289254 -0.0014989172 -0.033907946 -0.080747984 0.07536419 -0.047436897 -0.06980477
0.07213512 -0.003182985 0.085359156 0.049079373 -0.017932134 0.07653589 -0.06358704 0.020221965
-0.023731973 0.009286866 0.070918836 0.0623378 0.0047302246 0.058007322 0.030360624 -0.03941002
0.059135493 0.0024052076 0.018472781 0.08102861 -0.014153495 -0.060949948 0.069332734 0.013229455
0.0008961286 0.007369496 0.070110895 -0.011821381 -0.08368918 0.068693556 -0.045354616 0.005003384
0.072041504 -0.080571055 0.047632597 0.011731878 -0.08538805 0.059785735 -0.007965877 5.2834203e-05
-0.0033106531 0.0067305975 0.04866866 -0.020219043 -0.084440924 0.005535741 0.040307194 0.08480999
0.0029805987 -0.0006841014 0.007294393 0.025211185 0.019277722 0.01790122 -0.022006713 -0.062718585
-0.0101753855 -0.015785592 -0.033399507 -0.04528328 0.015295777 -0.060041744 0.057735514 -0.028135013
0.03027665 -0.08127115 -0.009738502 0.03473881 -0.037186824 -0.058719352 -0.084560335 -0.004734345
0.016976364 0.059767604 -0.06958896 0.053032495 0.08419264 -0.07795406 -0.041086517 0.050694067
-0.086912304 0.077563286 0.08328481 0.026976092 0.05279307 -0.06811568 -0.07946161 -0.0078654485
0.016205346 -0.00025829495 -0.053754516 -0.012263104 -0.012475402 -0.048311785 -0.021865457 -0.079292975
0.018007495 -0.06685777 -0.048410077 -0.010033307 0.031139484 0.06976128 -0.0076322486 -0.040535264
0.07456091 0.049311064 0.027797192 -0.08401168 0.036807366 0.016891737 -0.02519127 0.054987196
-0.04281958 -0.07292982 -0.04854813 0.0066253324 -0.08152766 -0.073709585 -0.007943049 0.01779868
-0.07952807 -0.046676416 -0.023039883 0.051039267 0.020467129 0.0019253219 -0.07711018 -0.08689176
0.05470658 0.052590482 0.060680754 0.031520654 -0.05606974 0.0024066905 0.02592184 -0.014606885
0.03114721 -0.0554556 -0.0135472575 -0.019831367 0.058243997 -0.053700298 0.03775434 0.0035558045
0.033644658 -0.04830641 0.04724712 -0.03454491 0.04366584 -0.026156977 0.00069228077 -0.034761168
0.077618934 0.06793482 -0.026324626 0.021275429 0.020524547 -0.035930388 0.057409573 -0.013422774
-0.0024745683 0.054389857 0.086392365 -0.07763652 0.041723065 -0.07511818 0.030746913 -0.028966406
0.082328245 -0.06415564 -0.031965233 -0.003040021 0.061087254 0.0682974 -0.018332453 -0.027491113
0.05057193 0.06472549 0.08322206 0.011094629 -0.068921976 -0.00057685375 -0.038030177 0.02770495
0.021741742 -0.053758103 0.0100635225 0.054791845 0.023264302 -0.0842087 0.07070591 -0.05941674
0.011709643 -0.0072018267 0.027431041 0.023741677 -0.042187646 0.017158886 0.038983114 -0.051004283
-0.0056463405 0.028279342 -0.036799952 -0.06971404 -0.082409576 -0.0839716 -0.07474241 -0.016897008
0.044192467 0.00036889667 0.0027785343 -0.05923252 -0.01662127 0.0029453689 -0.067848586 0.07918248
0.06473181 0.040477984 -0.004047659 -0.023554804 -0.01099367 -0.047354415 0.023175612 -0.08145694
0.017389923 -0.018526495 -0.026276108 0.008274792 0.080764405 0.05317239 -0.070021786 0.03133269

fc2.bias f4 [64]
00000000: 8008 643c 8e55 313d d14b 2ebd 4512 d93c
00000010: 2163 223d f0db ffbc 20ea 713c 905c 94bc
00000020: 0d62 74bd 5446 983d ac6a aabc 992d 8c3c
00000030: 3dc8 603d 971c 4dbd d2a5 7ebc bbc2 a3bd
00000040: 38d5 aa3d 5c91 92bc 0aec 90bd fbde 30bd
00000050: 0e77 f43c 9a6f 1cbc 785c cf3c f5b7 a3bb
00000060: 19c8 993d f6b0 9a3d 16d0 82bd 2c9e 5f3c
00000070: b6e1 86bc 3830 49bd 4ea9 2abd 08db 97bc
00000080: dafa 66bd 6136 a33c a648 6cbd 7d48 ad3d
00000090: 92ea b6bc 2d22 6fbd 1a0e 613d 50db 59bd
000000a0: f9ef 013d 2a17 503d f572 803d 43e2 24bd
000000b0: d269 913d 5eeb 203d aec7 763d 7bb1 b23d
000000c0: 08e9 a6bc 4c3e 823d afb3 00bd a4e4 d33c
000000d0: fc05 2c3d 5ef3 ffbc b890 443c b04e 4dbb
000000e0: a2b1 80bd f231 75bd ec2c f5bb 3174 4f3d
000000f0: de51 f93c 04e8 853b 924b 813c 826d 79bd
0.013918042 0.043294482 -0.042552773 0.02649797 0.039645318 -0.031232804 0.014765292 -0.018110543
-0.05966382 0.07435289 -0.020802818 0.017111586 0.054878462 -0.050076094 -0.015542464 -0.07996126
0.083414495 -0.017891578 -0.07076271 -0.0431814 0.029841926 -0.009548092 0.025312647 -0.0049962946
0.07508869 0.07553284 -0.063873455 0.013648551 -0.01646505 -0.04911825 -0.041665368 -0.01853706
-0.056391574 0.01992339 -0.05768647 0.08461092 -0.022328649 -0.058382202 0.05494509 -0.05318767
0.031722996 0.05080334 0.06271926 -0.040254842 0.07100262 0.039286964 0.060249023 0.08725258
-0.02037479 0.063595384 -0.03142136 0.02586586 0.041997895 -0.031243976 0.011997394 -0.003132742
-0.06283881 -0.059862085 -0.0074821617 0.050647918 0.030434545 0.0040864963 0.015783105 -0.06089545

fc3_action.weight f4 [11, 64]
00000000: 9fc8 f43d 3e2a 513d f0fc f0bd cf84 a0bb
00000010: 2bcd 00be 8803 d3bd 10d1 e63c 30f3 a6bc
00000020: 60b0 8ebd 88d6 963c d6ac b23d d01d 8abc
00000030: 5fac 96bc 38c5 8abc 89e0 ad3d 10bc adbc
00000040: 5c3d 18bd 4ec1 3bbd b26c dc3b e5d4 b0bd
00000050: 91e6 4bbd 5c41 f4bd 301b ebbd 439c 9abc
00000060: db36 413d ca43 b43b 1065 3b3d 93b7 cbbd
00000070: dec0 073d 9012 24bd e627 abbd 90de 70bc
00000080: 687c 05bd cdf2 babd 9cf1 ea3d 4975 e0bd
00000090: c79c 1d3d abe4 cabd 0059 40bd 3cfc 453d
000000a0: d9de 223c 22b6 efbd 5954 34bd 5021 cd3d
000000b0: 65b6 9fbd 244e f33d 5b5e 70bd 851f 3a3d
000000c0: ece6 5a3c 06e9 8c3c 3caa 71bd 3a7b 093d
000000d0: 2a61 f43d c3a7 173c 0005 d039 d061 4dbc
000000e0: 41a9 523d 6e8b be3d b6c0 3abd ed1d e5bd
000000f0: 8c58 ca3d c0b9 453d 2841 0d3d 9049 4ebc
00000100: 785d 9dbc 5652 86ba a642 e53d 99c7 763d
00000110: d5ed 3b3d 4f34 793d 0464 93bd 84b2 ae3d
00000120: a553 863d 2727 61bd 208a 9abd b509 e03d
00000130: 3fa0 99bd f076 153d 1f52 ae3c 6c18 92bd
00000140: 4eb8 a7bd 1f88 edbd bd2c fb3d 0218 9c3c
00000150: 0917 1fbd 71ca bf3d 513f f3bd c390 e93d
00000160: 5260 ed3d 2378 813d a0a9 33bd 4f05 873d
00000170: 4b2b 183d 4917 9b3d 524f 313d 7cf2 793d
00000180: 80a3 fbbb b0e5 113d b6d3 c6bd 1f6a a23c
00000190: 5490 be3a d8c7 f5bd 58f2 2ebd 16d2 f53d
000001a0: 938c 4d3d f59b 4a3d 79f5 de3d aca7 3d3d
000001b0: 1f0b 00be e004 80bb 80a3 2e3c 623b fdbd
000001c0: 2dc6 fc3d 8487 e93c f013 273d 9617 c73d
000001d0: 6ec2 dbbd e9c5 78bb 1a86 86bc 5549 193d
000001e0: 4f3a dabd 80ac fa3a 045c 493c 61a4 92bd
000001f0: d9c9 4ebd 4e38 87bd d11f 5ebd 903b a7bd
00000200: aa76 f93d 7469 b43c 70de b0bd f1c2 57bd
00000210: 6150 bcbd 7565 a23d a01b 803b e8e8 e63d
00000220: 12df 423c ab48 693d 703c 18bd a405 c4bc
00000230: 8bf1 ec3c e4aa e23d 6a29 89bd 5e57 cfbd
00000240: c80f 8a3d c159 353d 5bbf d0bd eac7 dbbd
00000250: 85e3 bd3d aea8 7d3a eeaa a33c 39a4 f53d
00000260: f1a7 bebc 53ab 81bd f6c8 8cbd 69fc df3c
00000270: 0243 ae3a caff 08bd a861 8cbd f0ad f93d
00000280: c45d a2bd 9397 6abc 5939 ebbd 12d0 a83d
00000290: 2635 f2bd a8f0 783c 1012 33bd 1e93 cb3d
000002a0: a5ca c83c fa09 eabd f8d1 ac3d a024 563d
000002b0: 367f 66bd 902c 103c 0bb5 f9bd 7f54 d93d
000002c0: 1a3a e73d 9756 c63d 9054 343c a99e b3bc
000002d0: 418a c1bd d1cc f53d 8943 07bd 36c4 f13d
000002e0: 15bc 95bd 2453 5f3d f056 723c c587 ae3b
000002f0: 5fff ebbd 8463 c0bc 2aab 663d a813 8a3c
00000300: 2e4b a63d 7de8 1f3d 384a 86bc e223 333d
00000310: 4ea1 88bd 9f1f 90bd f8f7 e93d e070 cdbc
00000320: 8c6c 5c3d 3509 5a3d 903a 84bc 4da6 f5bd
00000330: 7060 cf3d 4c45 98bd 4fae 0a3d 78de c33c
00000340: 50cf d13d 5e32 b2bd 0c9d a03d 6655 ad3d
00000350: 183b 66bd 1dd9 5e3d d50d e4bc 575b 8dbd
00000360: fcfc 7d3b 87d1 cb3c d89c c8bd bb63 db3d
00000370: ecdf 9d39 8ce7 323d 0bcb f83d a492 e73d
00000380: ba6e 873d b155 28bd 4fc4 6cbd 1569 663d
00000390: 33c4 be3d 1fa9 20bd f84d a9bd 20e6 533c
000003a0: f566 eebd ee65 a93d fdad bb3c 860e b5bd
000003b0: a13d 34bc 2eb9 dbbd 2838 66bd 8aed 0ebd
000003c0: 765a 9a3d 7575 bdbc 509c 42bd d084 ab3c
000003d0: 8237 f23d 4119 a83a 3786 f0bc 088d 3c3d
000003e0: 95c2 6ebc 448b f73d cd26 6d3c 0845 d1bd
000003f0: b5f0 edbd 5513 54bc de52 28bd a4c3 973d
0.11952328 0.051065676 -0.11766994 -0.0048986445 -0.12578265 -0.10303408 0.02817586 -0.020379633
-0.069672346 0.018412843 0.08724372 -0.016859919 -0.01839274 -0.016939744 0.08490092 -0.02120784
-0.03716789 -0.045838647 0.0067268247 -0.086343564 -0.049780432 -0.11926529 -0.11479795 -0.01887334
0.047171455 0.005501245 0.045750678 -0.099471234 0.033142917 -0.040056765 -0.083572194 -0.014701501
-0.032589346 -0.09128342 0.114718646 -0.1095987 0.038479593 -0.09906896 -0.046959877 0.048336253
0.009940826 -0.11704661 -0.044025753 0.100161195 -0.07798461 0.118801385 -0.058683734 0.045440216
0.01336072 0.017200958 -0.05900024 0.033564784 0.11932595 0.009256306 0.00039676577 -0.012535527
0.051430944 0.09303938 -0.04559394 -0.111873485 0.0988017 0.048272848 0.034485966 -0.012590781
-0.019209608 -0.0010247927 0.11194353 0.060248945 0.04588111 0.0608409 -0.07196811 0.08530143
0.06558923 -0.05496898 -0.075458765 0.109393515 -0.07501268 0.03649038 0.021279393 -0.07133564
-0.0818945 -0.11598229 0.122643925 0.019054417 -0.038840327 0.093647845 -0.11877311 0.11404564
0.11590637 0.063217424 -0.04386294 0.065928094 0.037150662 0.07572801 0.043288536 0.061022267
-0.007679403 0.035619438 -0.097083494 0.019825993 0.0014538863 -0.12001008 -0.042711586 0.12002961
0.05018289 0.04946514 0.10886664 0.046302482 -0.12504242 -0.003906831 0.010659099 -0.12364842
0.123424865 0.028507002 0.0407905 0.097212955 -0.10730444 -0.003795976 -0.016421366 0.03742345
-0.10655653 0.0019124895 0.012290005 -0.07160259 -0.050485466 -0.06602536 -0.05422956 -0.081656575
0.121808365 0.02202294 -0.086361766 -0.052676145 -0.091950186 0.07929508 0.003909543 0.11274892
0.011894004 0.056954067 -0.037167013 -0.02392847 0.02892377 0.11067751 -0.06697352 -0.10124086
0.06741291 0.04427505 -0.10192748 -0.1073149 0.092719115 0.00096763193 0.019978967 0.119942136
-0.02327344 -0.063315056 -0.06874268 0.027342038 0.0013295116 -0.033447064 -0.06854564 0.12191379
-0.079280406 -0.014318365 -0.114855476 0.08242811 -0.118265435 0.015194096 -0.043718398 0.0994017
0.024510691 -0.11427684 0.08438486 0.052281022 -0.05627366 0.008799687 -0.12192734 0.106118195
0.11290379 0.096844845 0.011006489 -0.021926241 -0.09450198 0.12001956 -0.03302339 0.118050024
-0.073112644 0.05452265 0.014791235 0.0053262436 -0.115233175 -0.023484953 0.05631558 0.016855076
0.08119808 0.039040077 -0.016392812 0.043735392 -0.066713914 -0.07037281 0.114242494 -0.025078237
0.053814456 0.053231437 -0.016141206 -0.1199461 0.10125816 -0.07435092 0.03385764 0.023909792
0.1024462 -0.08701013 0.07842454 0.08463554 -0.0562087 0.054406274 -0.027838627 -0.06902187
0.0038755527 0.024880184 -0.097955406 0.107123815 0.00030112208 0.04367785 0.121481024 0.11307266
0.06612916 -0.041097347 -0.057804402 0.056252558 0.09314766 -0.039223786 -0.082668245 0.012933284
-0.11640731 0.08271395 0.022910113 -0.08840661 -0.011001022 -0.107286796 -0.0562059 -0.034894504
0.07536785 -0.023127297 -0.047512352 0.020937353 0.118269935 0.0012824909 -0.029360874 0.046032935
-0.014572759 0.1208711 0.014474583 -0.10218245 -0.11618177 -0.012944062 -0.041094653 0.07410362

fc3_action.bias f4 [11]
00000000: 8b04 c1bd a2d7 4a3d f311 063d 7817 b83d
00000010: 8ba5 5f3d be21 b2bd 6bda fd3d 489b 8e3b
00000020: 6886 ab3d 0661 dc3d 66a0 803d
-0.09424695 0.04952205 0.03273196 0.08988851 0.054601233 -0.08697842 0.123951755 0.004352007
0.08375245 0.10760693 0.062805936
