improved_vrpb_policy_best.pth (torch, 14893 bytes, 6 tensors)

fc1.weight f4 [64, 6]
00000000: 2e5b b7bd 17b5 383e 46cd ce3e 60ee fabc
00000010: 5769 6c3e f153 c3be 5106 88be 7f13 043e
00000020: 92b9 053e cb37 abbe 2d0d d63c 3450 a63e
00000030: 3948 6fbe a2f6 943e 080b 8ebe baad 9b3e
00000040: 8224 a03d f886 c9bd 162a aebe ae58 44be
00000050: 9bda 5fbe 34ec 123e 400c db3b 287b 3e3d
00000060: d79f 6fbe 7640 50be 93a0 113d 1046 333d
00000070: 86e6 903d 946d 3f3e 1ed4 16be 3598 6dbe
00000080: 7421 9fbe 5536 4bbe ea60 89be a025 6b3c
00000090: 7c52 8b3d 241e a1bd b896 0f3e fa97 adbe
000000a0: 18c0 c63d c8cc 833e 7a88 b6bd 900f 86be
000000b0: 0640 6f3e 71b3 3cbe de3f 0cbe b86b 9fbd
000000c0: a03b c4bd d248 85be d620 0bbe 507c bfbd
000000d0: 6276 90be 8276 80be da7c db3d e22e 63be
000000e0: f56a 76be 3abf 763c 3574 bc3e 45a9 c7be
000000f0: 689f 993e fe24 4e3d afb9 a23d 25b5 053e
00000100: ce7b 9bbe 30f9 923e de11 b4be 6f2e 92bd
00000110: eb0e 733e 6b1f 3cbe e7c0 2ebe 90d1 c53c
00000120: b646 b43d 9a5c b33e 4ffb b4bd 2a4b 7a3e
00000130: 60fe b83d c0fe 3c3c ca31 b9be 0977 033e
00000140: c459 efbd 1fff b2be 427f ccbe c847 0d3e
00000150: fd1e aa3e 00a3 86bc 728a 16be a5d5 80be
00000160: 2ddd 803d a077 743e eb9f 873e c829 c03d
00000170: c021 143e c9d2 e5bc 2ffe 3f3e 9210 a7be
00000180: 8058 983e 2e22 8ebe 1b7b ad3e 792b a4bd
00000190: ca43 463e 3e9c 9ebe 31da c53e b4da c03d
000001a0: 3aca fb3d f2b1 603e 357d bbbe 6de3 54be
000001b0: 41cd 0d3e 8bf1 c8be 5323 c7be 6cc4 b3bb
000001c0: ae93 63bd 00f0 0e3e 452d 92be 74dd 993e
000001d0: fd12 60be 590b 8fbe d32b 173e 6cb5 8c3e
000001e0: 6690 dcbc 6929 193e 400f c43d cc24 93be
000001f0: 4fdc 5c3c 0828 93be 20e9 873e 6048 a9bc
00000200: a01e 323d ee59 b2be 8ba2 8fbe 9cb4 ca3e
00000210: bd45 8e3e 10da a63e f6e1 3bbc eae1 b3bd
00000220: b961 4cbc 4795 ccbe 4456 1c3e 98b4 423e
00000230: 2521 3cbd 5f24 88bd 7db4 d1be 34ad e1bd
00000240: 6735 193e ba85 16bd 1077 a03e 9bcf a5bd
00000250: 60a0 ba3e 30f7 7e3d 3ebf a13e b318 133d
00000260: d0aa 1f3e f76f 703e b0dd 9c3e 50f4 123e
00000270: b07f f9bc d8bd e9bd 703c 9c3d a837 203e
00000280: ec92 85be dc79 603e b338 71be 1bf6 b33d
00000290: 88fe 5c3d debe d9bd 8a91 63be 22be 59be
000002a0: 9567 af3e cc25 533e 75d8 b7be ba5f b0be
000002b0: f3a7 89bd 989a 3a3e a2f3 aa3e a262 e03d
000002c0: 6f4b 3abe 55be 8a3e 78c1 07bc acc0 a5be
000002d0: 45f6 96be 2e34 0abe 0c30 b1be 1d0d 85be
000002e0: 9a5c 9d3e a62d 8c3e b6ea 87bd b725 11bd
000002f0: 34e2 923e 6927 d0be 6b84 79bd f41e ad3e
00000300: 61d0 6f3e e9ac c33e 3279 d5bc 9479 7a3e
00000310: 0f8f 8c3d 14e7 4abe d811 2cbe 3f62 84be
00000320: c27f bfbe 0242 bc3e e7ea ba3e 403f ec3c
00000330: 2a95 74be 93ec 32be 689e ca3e ea5a 40be
00000340: a4eb 08be 65e0 a9be 1d27 bfbe b06c 1c3e
00000350: d3d0 283d b68d bf3e 50e2 373b 3b6f 26be
00000360: 9c22 963e f6a2 ac3e 1eba 8bbe 38ba 883d
00000370: 9c2a 89be 6b5e 5cbe b604 93be 4612 86be
00000380: 947c 9e3d 2dd3 c03c 70cc a03e c0af bfbd
00000390: b333 2b3e 011b 573e 464b fbbb 8d8f 4e3d
000003a0: 342a 39bd 700c 5f3e 0c84 34be 8b59 07bd
000003b0: 1c9d 05be 0b51 a7be c3d0 aa3e 7ade 863e
000003c0: ab42 463e 68ff cabe 6741 73be 87e1 6bbe
000003d0: 6f99 6ebe 78f2 2abe 78b8 9e3e fb0d 98be
000003e0: 0cb5 b5be b428 76be bb94 b7bc 0838 17be
000003f0: fa8c 1d3e ddaf c03e 935f b43e e60d b23e
-0.08952938 0.1803783 0.40390986 -0.030631244 0.23087059 -0.3814998 -0.2656732 0.12898062
0.1305907 -0.33441004 0.02612933 0.32483065 -0.23367395 0.29094416 -0.2774279 0.3040598
0.07819463 -0.09840196 -0.34016484 -0.19174454 -0.21860735 0.14347917 0.00668481 0.04650417
-0.23400818 -0.2033709 0.035553526 0.04376799 0.07075219 0.18694144 -0.14729354 -0.23202594
-0.3108021 -0.19844945 -0.26831752 0.014352232 0.06802842 -0.07867077 0.14022338 -0.3390501
0.09704608 0.25742173 -0.089127496 -0.26183748 0.23364267 -0.18427826 -0.13696238 -0.077842176
-0.09581685 -0.2603212 -0.13586745 -0.093498826 -0.2821532 -0.25090414 0.10717173 -0.22185853
-0.24064238 0.01506024 0.3680741 -0.3899633 0.3000443 0.050328247 0.079455726 0.13057382
-0.30367893 0.2870574 -0.35169882 -0.07137763 0.2373616 -0.1837136 -0.17065774 0.024147779
0.088025495 0.35031587 -0.08836996 0.24442735 0.09032893 0.0115353465 -0.361708 0.12838377
-0.11687043 -0.34960267 -0.3994084 0.13796914 0.33226767 -0.016435146 -0.1470125 -0.25162998
0.06292186 0.23873758 0.26489195 0.09382969 0.14466 -0.028054612 0.18749307 -0.3262983
0.2975502 -0.27760452 0.33882985 -0.08016104 0.19361797 -0.30978578 0.3864303 0.09416714
0.12294431 0.21942881 -0.36618963 -0.20789881 0.1384783 -0.39246783 -0.38894138 -0.005486062
-0.05556076 0.1395874 -0.28550163 0.30051768 -0.21882243 -0.27938345 0.14762811 0.27482164
-0.026924323 0.14957203 0.09573221 -0.2873901 0.01348026 -0.2874148 0.26545048 -0.020664394
0.043486238 -0.34834236 -0.28053698 0.3959092 0.2778758 0.32588243 -0.0114674475 -0.08783324
-0.012474471 -0.3995764 0.15267283 0.19014204 -0.045930047 -0.06647562 -0.40958014 -0.11019364
0.14961778 -0.036748625 0.31340837 -0.08096238 0.3645048 0.062247455 0.3159122 0.035912227
0.15592504 0.23480211 0.30637884 0.1435101 -0.030456394 -0.11413163 0.07628715 0.15646231
-0.26088655 0.21921486 -0.23556785 0.08787175 0.053953677 -0.10632108 -0.22223487 -0.21263936
0.34258714 0.20619887 -0.3590733 -0.34448034 -0.06721487 0.18223035 0.33389002 0.10956313
-0.18192838 0.27098337 -0.008285873 -0.3237356 -0.29484764 -0.13496467 -0.3460697 -0.25986567
0.30734712 0.27378577 -0.066365644 -0.03543636 0.28688204 -0.40655068 -0.0609173 0.33812678
0.23419334 0.38217857 -0.026058767 0.24460441 0.06863224 -0.19814712 -0.16803682 -0.25856206
-0.3740216 0.3676911 0.3650734 0.028838754 -0.23885027 -0.17473058 0.3957398 -0.18784681
-0.1337114 -0.33179012 -0.3733453 0.15275836 0.041214775 0.37412804 0.0028058477 -0.16253369
0.2932328 0.3371808 -0.27290434 0.066761434 -0.2679032 -0.21520393 -0.28714532 -0.26185817
0.07738605 0.023538196 0.31405973 -0.093596935 0.1671894 0.21006395 -0.0076688854 0.05042987
-0.045206264 0.21782088 -0.17628497 -0.03304438 -0.13048214 -0.32679018 0.33362398 0.2634161
0.1936137 -0.39647985 -0.23755418 -0.2303525 -0.23300718 -0.16694057 0.31000113 -0.29698166
-0.3548969 -0.24038965 -0.022409787 -0.14767468 0.1538581 0.37634173 0.35229167 0.3477623

fc1.bias f4 [64]
00000000: e805 ccbe 0b56 893e e474 ba3e d901 b0be
00000010: b396 473e 6333 c03e 48e2 38be ee88 193e
00000020: 40cf 48be 340e 843e 6f0e d53b 2d36 b93e
00000030: fbfd c0be 9cc5 c93e 0475 18be 1c95 aa3e
00000040: 4091 bb3e 20da b03e 4284 eb3d 87c3 b63e
00000050: 3205 d43d 50cc 90be c289 bd3d d42b 1abd
00000060: f751 1fbd aff8 923e 58ac 9cbe cc94 9a3d
00000070: 821e 2dbe 5b9a 56be c794 33be 5871 b63d
00000080: c6ef a0be 6c87 6ebe a200 ec3d 3730 8b3d
00000090: f79b adbe c763 aabe 6895 8bbd e738 5abe
000000a0: 0283 973d 385e 3a3c b499 af3d ac57 c93d
000000b0: dfef 3e3e 2797 983e 277e 9cbe 8404 9dbd
000000c0: 2e1e 01be e3ec 51be c7f8 85be ab6e 483e
000000d0: fbfe ca3e 2996 083d 0957 9fbe e338 463e
000000e0: b762 9b3e df07 463e ea64 74be d53a 773c
000000f0: c9d6 f2bd fd7e 9cbe 800c 27be 8c25 a93e
-0.39848256 0.26823458 0.36417305 -0.3437641 0.19491081 0.37539205 -0.1805507 0.14993641
-0.1961031 0.25792086 0.0065019648 0.36174145 -0.37693772 0.39408576 -0.14888388 0.33316886
0.36634254 0.34541416 0.114998356 0.3569605 0.103525534 -0.28280878 0.09254791 -0.037639454
-0.038896527 0.28705356 -0.30600238 0.07547912 -0.16906169 -0.2095732 -0.17537223 0.08908337
-0.31432933 -0.23293847 0.11523558 0.067963056 -0.33908054 -0.3327925 -0.06815606 -0.21310769
0.07398035 0.011375003 0.085742384 0.09831175 0.18646191 0.2980282 -0.30564997 -0.07666877
-0.12609169 -0.20500521 -0.26166365 0.19573466 0.3964766 0.03334633 -0.3112109 0.19357638
0.3034875 0.1933894 -0.2386662 0.01508971 -0.11857373 -0.30565634 -0.16313362 0.33036458

fc2.weight f4 [32, 64]
00000000: c81b d43c 62b5 cfbd 7fcc 11bd dc02 eb3d
00000010: a9cd 9dbd ea87 5abd cc0e bb3d 6a2e aa3b
00000020: 201f 4c3d d788 a13c d23c ac3d 8b43 91bd
00000030: ed6b 19bc cd44 ddbc 9a15 8ebc bc01 9abb
00000040: 47ba a13d 4517 aebd 6b3c e0bd a3d1 15bd
00000050: 1e6d 64bd 0499 4f3d f4bc f1bd 1014 ccbd
00000060: 7494 bbbd 173c e33d 005b c43d 38c3 26bd
00000070: 49c5 043d 43db 663d 0493 33bd 1409 d73d
00000080: f218 8dbd 346c 603d 50fd 88bd a2db fb3c
00000090: 5640 fe3d 25ee c73d 97df 983c a5dd 1e3d
000000a0: 619a 56bd 50aa fa3b 3c4e 283d 95da 90bd
000000b0: 15b1 ecbd 4240 dabd c8c1 7a3d 0667 90bd
000000c0: a81a 9b3d 64d1 cd3d 754d 15bd 761a 743d
000000d0: d26f 5abd 8abb a1bc a7ac aebd 913e b43d
000000e0: b6f5 fd3d b5fa 3f3d 28aa f63c 6119 483a
000000f0: 3261 87bd a42e a9bd 3eae 493c f9c7 f3bd
00000100: 36c5 ecbd 75ed 963d 82dc f53d 3e8f b13d
00000110: 77f1 a4bd ea8a 3cbd 1eb7 adbd 3a41 f5bc
00000120: 2260 cd3d abcf 94bc 6983 433d 2485 2bbd
00000130: 355b ab3d fc0d 993d e9a8 9f3b d27c afbc
00000140: 8b87 6abd 4c83 bbbc 9bc0 983d ce46 dcbd
00000150: 6f7c f73d 7ca8 b6bd c52a 80bd 2c7c 8cbd
00000160: 5c53 2b3c 13b5 fc3d 229b 843d 133d aa3c
00000170: 0ffe d63d af56 ae3c 7c93 c63d 6f06 d93d
00000180: 8fd1 aa3d 8e96 5f3d 777f 373d 0735 9ebd
00000190: 94cf 0ebd a8cc ad3d db8e c23d 7303 d7bc
000001a0: 78f8 17bc f577 653d d3df ab3d b2e8 d7bd
000001b0: 1dc7 bc3d 66c6 49bd 644b 063d 9885 e43c
000001c0: 52ed ae3d f4f2 05bd 34b2 e23c 3511 1a3d
000001d0: 9014 adbd 7d54 803d fb84 31bd c390 ddbd
000001e0: e7cb b3bd ea63 f23c b02e bfbd e26e 383d
000001f0: 1da5 81bd 6a29 9cbd b3d0 903d 5a50 0abd
00000200: 40b0 b9bd 801e cdbd 1fd9 bf3c e86b ae3c
00000210: bf05 68bd 3e9e df3d f418 6cbd 57e5 9d3d
00000220: c263 f4bd 0dfa 88bc bc07 2ebd 649c 583d
00000230: dcb4 7cbd f0ee dd3d 7001 d93d 5f4a 313d
00000240: a92c 623d 206b ef3c 1411 a1bd b46a 3dbd
00000250: 6c1f 06bd 0093 cb3d 4885 ab3c cab7 d63d
00000260: c89f c7bd 8ace cfbd c804 b83d c4db 5e3d
00000270: 0da1 d3bc d003 7fbd d26f ce3d d5ea f03d
00000280: 888f 7ebc 9b68 1bbd c86c 1cbc d07e 3c3d
00000290: 0a7a 9b3d 9e24 da3d 6ff4 afbd 8a49 f13c
000002a0: 7053 f8bd 45f5 35bd 322d 91bc 13c5 e6bd
000002b0: efb5 8dbc 22d9 2abd aa09 d0bd 224b b9bd
000002c0: 1420 35bd 3021 6fbc e4ae 5d3d 507a 443c
000002d0: 3098 913d 1fe4 a7bd 7a55 a0bd 8636 703d
000002e0: 83c5 be3c 5713 a73d 1c6a babb e4f2 fb3d
000002f0: 2a06 8abd bc7e 8d3d 9b7f ec3d 9960 17bd
00000300: c0c1 33bd 2101 233d 3ace 983d c069 cdbd
00000310: b21f d3bc 0c7d b7bd f817 2abd 6794 85bd
00000320: eaf4 c0bd 4561 963d 867c 97bd 8f55 08bc
00000330: f843 b1bd 879e ebbd 8ba0 593c 21e6 cdbd
00000340: 495b ff3c f214 cabd 385f bb3d 9d78 863d
00000350: f5e3 a2bd 0073 1abb 9d90 963d 0433 26bd
00000360: e448 73bd 9f28 af3d 40b0 8dbc 86c2 863c
00000370: 20aa 6c3c ce7c b53d b4d0 f23d 45ef eabd
00000380: d7d1 2f3d 0d94 db3c e637 0ebd c7ef e53d
00000390: 3857 9c3d fd44 20bd 7afd 39bd 12a0 e5bd
000003a0: 6465 d4bc c37d 39bd 6493 d93c 6422 683c
000003b0: 7450 5c3d 1d7b 953d 202a 65bc 0059 bdbc
000003c0: 04f9 5bbd acd5 06bd b7af 7f3d a731 27bd
000003d0: 18b6 b23d d972 653c af63 3e3d 62a1 9fbd
000003e0: e30e c5bd 2487 cbbd 366e 153d 6101 a9bd
000003f0: 99bd 1cbd e046 01bd a206 a33d e03a 31bd
0.025892153 -0.10142018 -0.035595413 0.11475155 -0.07705242 -0.053352274 0.09133682 0.0051935213
0.04983437 0.01971857 0.08410038 -0.07092961 -0.00936411 -0.027010346 -0.017344285 -0.004699914
0.07896858 -0.08500532 -0.10949024 -0.03657688 -0.055768125 0.050683036 -0.11803618 -0.09964764
-0.091591746 0.110954456 0.095876694 -0.04071352 0.03241471 0.056361448 -0.043841377 0.104997784
-0.068895236 0.05479069 -0.066889405 0.030744378 0.12414615 0.09762219 0.018661303 0.038785595
-0.05239332 0.0076496974 0.041090235 -0.07072941 -0.11557213 -0.106567875 0.06121996 -0.070509
0.07573444 0.10049704 -0.036450822 0.059595548 -0.053329296 -0.019742746 -0.085290246 0.08800996
0.12400381 0.046869952 0.030110434 0.0007633176 -0.066103354 -0.08260849 0.012309609 -0.11903376
-0.115610525 0.0736951 0.12004949 0.086698994 -0.08053868 -0.046030916 -0.084821925 -0.029938329
0.100281015 -0.01816543 0.047732744 -0.04187502 0.08367006 0.074733704 0.0048724306 -0.021421824
-0.05725817 -0.022889756 0.074586116 -0.107556924 0.12084281 -0.089188546 -0.06258158 -0.068596214
0.010456886 0.12339225 0.06474902 0.020781076 0.104976766 0.021281568 0.09696099 0.1059693
0.083407514 0.05458694 0.044799294 -0.07724958 -0.03486593 0.08486301 0.09499904 -0.026246762
-0.009275548 0.056022603 0.083923005 -0.1054243 0.09217665 -0.049261473 0.03278674 0.027895734
0.08541359 -0.0327024 0.027672864 0.037614066 -0.084511876 0.06266115 -0.04333971 -0.10818627
-0.08779126 0.029588658 -0.09335077 0.04502762 -0.06330321 -0.076250866 0.07071056 -0.033768035
-0.0906682 -0.10015583 0.023418961 0.021291688 -0.056646105 0.10918854 -0.057640985 0.07709759
-0.1193309 -0.016720796 -0.042487845 0.05288352 -0.06169592 0.10836589 0.10595977 0.043283816
0.055218372 0.029225886 -0.078645855 -0.04624434 -0.03274481 0.099401474 0.020937577 0.10484274
-0.09747273 -0.10146816 0.08985287 0.054408804 -0.025833631 -0.062259495 0.10079922 0.11763541
-0.01553715 -0.037941556 -0.00954742 0.046019375 0.075916365 0.106515154 -0.08591544 0.029454011
-0.121252894 -0.04442336 -0.017721746 -0.11268058 -0.017298667 -0.04171098 -0.10158093 -0.090475336
-0.044220045 -0.014595315 0.054121867 0.011992052 0.071091056 -0.081978075 -0.07828803 0.058645748
0.02328754 0.08157986 -0.0056889188 0.12302187 -0.06739457 0.06908938 0.11547776 -0.036957357
-0.043885946 0.039796 0.074612096 -0.10029936 -0.02577195 -0.08959398 -0.041526765 -0.06522446
-0.09421714 0.073427714 -0.07396798 -0.00832118 -0.08655542 -0.11504846 0.013282905 -0.10053659
0.031171458 -0.09867276 0.09149021 0.06565974 -0.079536356 -0.002356708 0.073518015 -0.040575996
-0.059395686 0.0855267 -0.017295957 0.016450178 0.014444858 0.08861695 0.11856213 -0.11471418
0.04292473 0.026803995 -0.034721278 0.112273745 0.07633823 -0.039128292 -0.04540775 -0.112121716
-0.025927253 -0.04528595 0.02655954 0.014168356 0.053787664 0.072988726 -0.013987094 -0.023113728
-0.053704277 -0.032918617 0.062423434 -0.040818837 0.08726138 0.014004433 0.046481784 -0.07794453
-0.0962198 -0.099378854 0.03648206 -0.08252216 -0.038266752 -0.031561732 0.079602495 -0.04326904

fc2.bias f4 [32]
00000000: 9d12 573d 8c8d 883d dc6c bf3d f5c8 8e3d
00000010: b598 903c c3a0 723d 6467 e03d c86e 27bd
00000020: 78ba 93bc 6708 663d 0508 e83d e04a fcbd
00000030: 17cd d83d 5c6f b43d 6e85 7fbc 0bab 2ebc
00000040: 40bf 9abd 77ff bd3d 36b3 0e3d 843f c93d
00000050: 354f 31b8 e314 9a3d 4640 3c3d 8a02 f73d
00000060: a6b6 423d f8bf ecbc e980 323b dbd7 523d
00000070: 7ebc 9f3d 5a9f bcbd e92f e7bd ced0 d8bd
0.052507985 0.06667623 0.09346935 0.06971923 0.017650941 0.059235346 0.1095722 -0.040877134
-0.018033251 0.056160357 0.113296546 -0.12318969 0.10585993 0.088103026 -0.015595777 -0.010660897
-0.07556009 0.09277242 0.034838878 0.09826568 -4.2273856e-05 0.07523515 0.045959733 0.12061031
0.04753747 -0.028900132 0.002723748 0.051475387 0.07799624 -0.092100814 -0.11288435 -0.10586701

fc3_action.weight f4 [11, 32]
00000000: 1123 2f3e 86b8 30be b8c8 f5bd 5ce7 6cbd
00000010: f10c 173e d840 e43c 4076 00be 4cd4 a1bd
00000020: 1000 aabc 164b 18be 1ba0 26be 8171 d6bd
00000030: 4b94 94bd afc9 893d 549d 013e b80f 5abd
00000040: 7e75 c43d 82f0 0dbe bb43 df3d 9043 4a3d
00000050: 940e a63d 5b96 64bd e142 f43b 7881 513d
00000060: 7e6c bebd 1afa aa3d 1bd6 993d 29d1 c73a
00000070: 5439 c43d bbf8 a9bd 0176 96bd f8a3 0c3d
00000080: db62 233e 45d0 ad3d f2fa f1bd 924e 113e
00000090: 16e4 42bd 5203 123e b9f6 3ebc d118 b2bc
000000a0: affb 2ebe 93f2 9d3d 4880 2dbe e218 a73d
000000b0: da1b d8bd fb6f f0bd b01c 433d 3b22 31be
000000c0: fc86 53bd a28a 83bd 7aa6 e73d 0a1c 01be
000000d0: fa28 c43d c065 ee3d 23a2 1ebe 6807 4d3c
000000e0: a6d6 ca3d e1f3 9bbd e91c b63d a06c 75bc
000000f0: e660 f4bc 4876 c0bc 127a 1a3e c0dc 02bd
00000100: a166 20be 86b1 103e 20d9 2f3d 1538 84bb
00000110: 600a a03d 4f80 22bd 78fe 09be 94fc 893d
00000120: 98b0 10be e98b ab3d 744d 603c 728c aa3d
00000130: 9fea 15be 9db2 02be e03c 8e3c 0e39 02be
00000140: d582 073e df0f 9b3d 0514 d9bc a29a 0fbd
00000150: 9ab7 e5bd f609 363e 869e 513d 6ac7 773d
00000160: 0ac8 863d 8dc1 c1bd be31 f4bd 00a1 32be
00000170: be81 21be a863 24bd e86f e7bd 75b3 d1bd
00000180: 2e84 1fbe fc69 313e abd3 5ebd 5415 a53d
00000190: 29f8 623d 73a7 28be fced d23b 6848 3bbd
000001a0: 7fda e5bd 97f3 043c fec1 10be dc34 2dbd
000001b0: 2ea8 ff3b befe 98bd c504 31bd 5bd9 05be
000001c0: f7d9 343e 1d29 8fbd 0cc4 01bd 6f80 d2bb
000001d0: b818 d83c 1b73 b23d 660f e03d 7595 2dbe
000001e0: 201d 30bd d79f 203e 539e 43bd e478 bd3d
000001f0: f6e8 823d e0d2 5e3d 40df bd3d 8ce3 2ebd
00000200: dcdc 183d c5cf 5fbd ebc7 663c 3e60 b3bd
00000210: e09a bcbd 06c0 b7bd bff4 2a3e 4fda e63a
00000220: 5e03 a33d 609f 1bbd dc84 503d 2ea3 8c3d
00000230: 3864 4c3a fe70 843d a321 f7bc fbac e0bc
00000240: db21 043e 97b0 1a3e 8ff2 10bd f621 0fbd
00000250: 348b 24be 3af2 d73c fce4 ce3d 0435 243c
00000260: 1355 84bd 98ca 8b3c fc9a 44bd a9a5 33be
00000270: 9333 29bd 367a f23d 4514 013e 8d34 97bd
00000280: 242d 9cbd 213f 193e f640 0ebe 4d16 e13d
00000290: 0cdb 103e 36a3 23be 0634 9c3d 025a 233d
000002a0: 58b2 ddbd 25d3 173d bbf1 c2bd b00e 113d
000002b0: a1f3 1bbe eb6b 31be 2171 30bc 259d 323e
000002c0: 59ab 1e3e 4379 033e c73a b4bc ba88 0a3d
000002d0: a758 ec3d 84db d83d 0b8d 80bc cf1b f73d
000002e0: 6a6b 15be e614 9c3d 2ec5 2cbe ad8f 00be
000002f0: 6997 8dbb 6aa0 54bd 7426 973c c9cf 27be
00000300: b3f1 c93d ad4a 96bd b2d7 29be 8d5b 273e
00000310: acd0 973d 52eb d63d 5c10 033e 61de d0bd
00000320: 8ddd fbbd 19d0 a23d 42f9 1dbe 305c 693d
00000330: 8f0a 0e3e 6e1d 7abd 5fa2 2c3e 413b 12be
00000340: 6e0e ad3d 9252 26be 2581 16be e55c b6bd
00000350: 061e db3d 9c38 fc3d 18c5 ca3d c591 6f3c
00000360: 666d e83d 33f8 293e fc25 10be 87b3 c83d
00000370: 5120 143e 94c3 1dbe 40d8 063e f85f dfbd
00000380: 0cee a13d 4528 783d 6fa8 2c3e e4f1 3b3c
00000390: 011a 913d 0ee6 ccbd a2d1 633d 662a aabd
000003a0: a828 f3bd 7d68 4a3c e2cc 983d 0074 473d
000003b0: a079 1e3e 9750 acbd 2679 973d 7fd6 0dbe
000003c0: 1481 7b3d b798 0fbd 1619 f3bd d470 e03b
000003d0: eac2 cc3d 1569 bb3d 481c a8bc ec58 833c
000003e0: 28d0 5ebc 30d8 91bd 87da 3ebd a903 113e
000003f0: a8a9 3ebd 8efa 75bd 1297 de3d c862 e43c
0.1710322 -0.1725789 -0.12001175 -0.05783783 0.1475103 0.027862951 -0.12545109 -0.079018205
-0.020751983 -0.14872393 -0.16272013 -0.10470868 -0.07254847 0.06727921 0.12657672 -0.053237647
0.09592722 -0.13861278 0.109015904 0.04938084 0.08108249 -0.055807453 0.0074542616 0.05114886
-0.09298037 0.08348484 0.075115405 0.001524483 0.09581247 -0.08299395 -0.07346726 0.03433606
0.15955679 0.0848699 -0.11815442 0.14190128 -0.0475808 0.14259079 -0.011655503 -0.021740349
-0.17088197 0.07712283 -0.16943467 0.08159043 -0.10552187 -0.117401086 0.04763478 -0.17298214
-0.051642403 -0.064229265 0.1131105 -0.12608352 0.09578128 0.11640501 -0.15491538 0.012513973
0.09904222 -0.076148756 0.08892233 -0.0149795115 -0.029831361 -0.0234939 0.15085629 -0.031948805
-0.1566415 0.1413022 0.042931676 -0.004035006 0.07814479 -0.039673146 -0.13475978 0.067376286
-0.14129865 0.08376295 0.013690341 0.08327569 -0.14640282 -0.12763448 0.017363012 -0.12717077
0.13233502 0.075713865 -0.026498804 -0.03505958 -0.1121666 0.17777237 0.05117657 0.06049291
0.06581123 -0.09460745 -0.1192355 -0.17444229 -0.15772149 -0.040134102 -0.11300641 -0.10239307
-0.15577766 0.17325586 -0.05440108 0.08060709 0.055412445 -0.16470127 0.0064370614 -0.04572335
-0.112233154 0.008114717 -0.14136502 -0.04228674 0.007802031 -0.07470463 -0.04321744 -0.13071196
0.17661272 -0.069902636 -0.031681105 -0.006424002 0.026378974 0.08713361 0.10940437 -0.16951545
-0.042996526 0.15685974 -0.04775841 0.09251574 0.0639209 0.054400325 0.09271097 -0.042697474
0.037320003 -0.054641504 0.01408575 -0.08758591 -0.092092276 -0.089721724 0.16694926 0.0017612668
0.079596266 -0.03799379 0.050907955 0.068670616 0.0007796916 0.06466864 -0.030167406 -0.027426234
0.1290354 0.15106426 -0.035387572 -0.034944497 -0.16068727 0.02636062 0.10102269 0.010022406
-0.06461539 0.017064378 -0.047999367 -0.17543663 -0.04130895 0.11839716 0.12605388 -0.0738307
-0.076257974 0.14965488 -0.13891968 0.10990582 0.1414606 -0.15980229 0.0762711 0.03988076
-0.10825032 0.037066597 -0.09518763 0.035414398 -0.15229656 -0.17326324 -0.0107691595 0.17442758
0.15495051 0.12839226 -0.022000683 0.0338218 0.115403466 0.10588744 -0.015692255 0.12065851
-0.14591756 0.076211736 -0.16872093 -0.12554808 -0.004321028 -0.051910795 0.018450953 -0.16387857
0.098605536 -0.07338462 -0.16586187 0.16343518 0.07412848 0.104941025 0.1279921 -0.101986654
-0.12298117 0.07949848 -0.15427116 0.056972682 0.13871215 -0.061063223 0.16858815 -0.14280416
0.08450018 -0.16242436 -0.14697702 -0.08904437 0.10699086 0.12315485 0.09900874 0.0146221565
0.11348991 0.16598587 -0.1407699 0.09799867 0.14465453 -0.15406638 0.1316843 -0.109069765
0.07906732 0.06058528 0.16861127 0.011471245 0.07085038 -0.10004817 0.055619843 -0.08308868
-0.11872989 0.0123540135 0.07460953 0.04869461 0.15476084 -0.08413809 0.07396154 -0.13851355
0.061402395 -0.03505775 -0.11870019 0.0068493877 0.099981144 0.09150902 -0.020521298 0.016033612
-0.013599433 -0.071213126 -0.046595123 0.14161552 -0.046548516 -0.0600534 0.10868658 0.027879134

fc3_action.bias f4 [11]
00000000: dd80 81bd d2c4 f33d 3aa6 023e f628 3ebc
00000010: 4ec9 b4bd a0d2 10be bffe f23d 4392 853d
00000020: 9edb 95bd 636e f6bd 9100 603d
-0.06323407 0.11902775 0.12758723 -0.011606446 -0.08827458 -0.14142847 0.11864995 0.06522038
-0.07317279 -0.12032773 0.05468804
