improved_vrpb_policy_final.pth (torch, 42809 bytes, 6 tensors)

fc1.weight f4 [128, 6]
0.27597013 0.26912862 -0.33841473 0.33304197 -0.23007002 0.021977425 -0.16016886 -0.0128178
0.024232507 0.1879881 -0.091062546 0.029082656 -0.3976923 -0.35107708 -0.20665953 0.14609168
0.18447843 0.24122804 0.14068991 -0.034078866 0.100438654 -0.38235405 -0.2551351 -0.2894729
0.17597173 0.1601058 0.2963302 0.18243587 0.036501855 0.26144314 -0.08348086 0.044254545
-0.030345354 0.12658687 0.24083753 -0.08943328 -0.056186996 -0.06539777 0.31777743 -0.19824265
0.25371534 -0.37149394 0.026525125 0.37715426 -0.26880574 0.22058816 -0.32862788 0.26034987
0.336011 -0.14881691 -0.28779897 0.0018344938 -0.1128259 -0.16229376 -0.33394578 0.058140665
0.2950511 0.35861927 -0.3888258 0.039143384 0.3936529 -0.16679254 0.34129724 -0.049794592
-0.051947784 -0.26797742 -0.26592162 -0.16701153 0.28424925 -0.21466315 -0.23178095 -0.013951749
-0.4051616 0.1603927 -0.08965096 -0.2805136 -0.15513343 0.13471538 0.2361103 -0.255244
-0.23851082 -0.23693945 0.31681708 0.109509945 -0.023417696 -0.042093083 0.27921256 -0.306176
0.3883086 0.2930203 0.10554474 0.37463477 -0.39136648 0.08647111 -0.16417071 -0.14393389
0.29444432 -0.24044563 0.2995311 0.2639363 0.06226313 -0.10599631 0.3921496 0.013310617
0.19366828 0.078607515 0.1279334 0.27723926 0.06932616 -0.21906312 0.13830069 -0.19137423
-0.4007074 -0.14462286 -0.015527783 -0.37092158 0.3890828 -0.043442022 -0.113500476 -0.24402374
-0.31342325 -0.18452527 0.26890668 -0.12625885 -0.37489402 0.24978465 0.24017303 -0.058996998
-0.019656813 -0.3036198 -0.20943435 -0.26896155 0.34111252 -0.32744998 -0.16429184 -0.22248212
0.1307041 0.16018087 0.19451094 -0.3017982 0.1279396 -0.018966272 -0.40572762 -0.33219296
-0.039516285 0.13311239 0.3152349 0.11315144 0.29496133 0.0024343133 0.17673123 -0.3268275
0.105525374 -0.04221019 -0.23979783 -0.2816822 -0.014405973 -0.40160933 0.34089035 -0.051987283
-0.29040477 -0.12679848 0.3456583 -0.3661478 -0.40562776 0.21682227 0.14336836 -0.4079749
0.2264213 -0.15360276 0.28697065 -0.19572978 0.049346723 -0.30830866 0.05735147 -0.11658368
-0.31579423 0.030602027 -0.28040373 -0.26758254 -0.10938783 0.09099548 -0.3875271 0.3029124
-0.16499077 0.049663097 0.3919235 0.28854457 0.17194708 0.16260067 0.31743255 -0.2696832
0.25112852 -0.37676784 0.17727448 0.13746898 -0.32705578 -0.2906926 -0.1631445 0.28322572
0.08745307 -0.24761881 0.14763516 0.36843723 -0.38857841 0.042882375 0.23632006 0.107826225
0.062911995 0.32698762 0.045394734 0.18531133 -0.11237191 -0.4061959 -0.20415054 0.061181694
0.03969845 0.2160294 -0.40363842 0.08068302 0.008636594 0.29728478 -0.089674085 -0.31976
-0.24679679 -0.075915635 -0.38765302 0.022570968 0.18238994 -0.2824936 -0.08842732 0.1954564
0.0765632 0.30383962 0.20021147 -0.1096006 -0.35904267 -0.26956967 0.14230561 -0.08141643
0.039739974 -0.29886967 -0.21322517 0.4012491 -0.2522885 -0.15714607 0.26609942 0.37742272
0.35580453 0.27037996 -0.0069698105 -0.07890624 -0.046522092 0.22895907 0.20153707 -0.0024641254
00000000: f54b 8d3e 3acb 893e b244 adbe 7a84 aa3e
00000010: 7a97 6bbe 000a b43c 4e03 24be c001 52bc
00000020: 4083 c63c f47f 403e 007f babd c03e ee3c
00000030: 539e cbbe 60c0 b3be 8e9e 53be 0f99 153e
00000040: eae7 3c3e 7c04 773e 0411 103e 4896 0bbd
00000050: c8b2 cd3d e9c3 c3be 11a1 82be cb35 94be
00000060: ef31 343e c6f2 233e 98b8 973e 78d0 3a3e
00000070: f882 153d e0db 853e 03f8 aabd 4144 353d
00000080: d296 f8bc fd9f 013e 1d9e 763e cc28 b7bd
00000090: 5624 66bd 44ef 85bd b9b3 a23e 1f00 4bbe
000000a0: fae6 813e 7434 bebe 384b d93c 5d1a c13e
000000b0: e8a0 89be dde1 613e ea41 a8be 944c 853e
000000c0: a209 ac3e 7663 18be 635a 93be 6673 f03a
000000d0: 4411 e7bd 5630 26be f1fa aabe e824 6e3d
000000e0: f010 973e f29c b73e 2d14 c7be d054 203d
000000f0: df8c c93e aacb 2abe 83be ae3e 6af5 4bbd
00000100: 33c7 54bd 5634 89be e126 88be 1205 2bbe
00000110: 1e89 913e a8d0 5bbe fc57 6dbe e095 64bc
00000120: 5771 cfbe fc3d 243e ec9a b7bd 7b9f 8fbe
00000130: 4cdb 1ebe d4f2 093e e6c6 713e 57af 82be
00000140: 2e3c 74be 41a0 72be d935 a23e c046 e03d
00000150: 78d6 bfbc cc69 2cbd f3f4 8e3e 1ac3 9cbe
00000160: 63d0 c63e c206 963e d727 d83d 21d0 bf3e
00000170: 3061 c8be c417 b13d 5e1c 28be 6863 13be
00000180: 68c1 963e 6137 76be 245c 993e a922 873e
00000190: a007 7f3d 9814 d9bd d5c7 c83e c614 5a3c
000001a0: fa50 463e fafc a03d f900 033e 4ef2 8d3e
000001b0: e0fa 8d3d 1552 60be b29e 0d3e 9bf7 43be
000001c0: 8529 cdbe 0418 14be 3e68 7ebc 6fe9 bdbe
000001d0: dc35 c73e 43f0 31bd f072 e8bd 5ce1 79be
000001e0: 0379 a0be 31f4 3cbe 23ae 893e 004a 01be
000001f0: 1cf2 bfbe 8cc7 7f3e ebef 753e d6a6 71bd
00000200: 5307 a1bc 0e74 9bbe f575 56be 54b5 89be
00000210: 4da6 ae3e 86a7 a7be 1f3c 28be 5ad2 63be
00000220: 4cd7 053e 7406 243e e02d 473e 4b85 9abe
00000230: 9902 033e 285f 9bbc 88bb cfbe 3215 aabe
00000240: d4db 21bd 9d4e 083e 7866 a13e f1bb e73d
00000250: 2c05 973e 0089 1f3b 08f9 343e ef55 a7be
00000260: b01d d83d 98e4 2cbd 908d 75be a638 90be
00000270: 0807 6cbc bd9f cdbe 2e89 ae3e 9ef0 54bd
00000280: efaf 94be 76d7 01be 20fa b03e b977 bbbe
00000290: 71ae cfbe a806 5e3e 28cf 123e 16e2 d0be
000002a0: fcda 673e 0b4a 1dbe d1ed 923e 636d 48be
000002b0: ca1f 4a3d a2da 9dbe 60e9 6a3d 6dc3 eebd
000002c0: c8af a1be 1ab1 fa3c 1491 8fbe 9400 89be
000002d0: ba06 e0bd d75b ba3d f469 c6be 5617 9b3e
000002e0: 57f3 28be 886b 4b3d 32aa c83e 1dbc 933e
000002f0: e512 303e ca80 263e 8586 a23e eb13 8abe
00000300: eb93 803e b7e7 c0be 7187 353e abc4 0c3e
00000310: db73 a7be a9d5 94be 5a0f 27be f602 913e
00000320: 981a b33d c98f 7dbe ac2d 173e cea3 bc3e
00000330: c0f3 c6be 6ea5 2f3d e3fd 713e ffd3 dc3d
00000340: 01d8 803d ec6a a73e d4ef 393d 41c2 3d3e
00000350: 3e23 e6bd e9f8 cfbe d70c 51be a899 7a3d
00000360: d89a 223d d036 5d3e b2a9 cebe 243d a53d
00000370: 8080 0d3c b635 983e 0ca7 b7bd 95b7 a3be
00000380: 4cb8 7cbe a879 9bbd 757a c6be c0e6 b83c
00000390: 6ec4 3a3e 00a3 90be 6219 b5bd b925 483e
000003a0: 2bcd 9c3d de90 9b3e 3c04 4d3e 4876 e0bd
000003b0: 71d4 b7be 0905 8abe 90b8 113e a8bd a6bd
000003c0: 62c6 223d 7205 99be b357 5abe 8670 cd3e
000003d0: f52b 81be e6ea 20be 2f3e 883e 8d3d c13e
000003e0: 032c b63e 3e6f 8a3e 0263 e4bb 9899 a1bd
000003f0: f38d 3ebd 3f74 6a3e bc5f 4e3e 2a7d 21bb

fc1.bias f4 [128]
-0.22632347 -0.23348042 0.27857187 -0.18628624 -0.18639523 0.10719788 -0.19370674 0.24608292
0.117971934 -0.40025583 0.322914 0.05475705 -0.063694 -0.13942589 -0.2930329 0.2017681
-0.32808417 -0.10306432 8.6951535e-05 0.12348208 0.051815227 0.31173405 0.14925846 0.3701689
0.3833707 -0.25803596 0.072242856 0.30439535 -0.2819701 0.10719375 0.14994106 -0.17344595
0.34420258 -0.31303835 0.07083114 0.2648885 -0.12945542 -0.27506185 -0.28863186 -0.38121754
0.4017871 0.18592578 0.35873333 -0.066434644 0.22303875 -0.40676716 0.0024034013 -0.33657706
0.040787976 -0.3911168 -0.35097703 -0.30861875 -0.22223027 -0.25601834 0.12395029 -0.29668152
0.3207965 -0.18144256 0.001977871 -0.17971712 -0.2719797 0.28479305 0.047546342 -0.0687419
0.3022409 0.3814255 0.37860402 -0.0073626954 -0.08162466 0.11168757 -0.029782515 0.34229502
0.40866148 0.3818577 0.3828811 -0.18917996 0.09985524 -0.1204078 -0.33034483 0.32598636
-0.042816836 0.3283866 -0.20610383 -0.17886657 -0.07536059 0.033164587 0.35729462 -0.08194065
0.01636744 -0.32336107 0.3859454 -0.18379532 0.2010068 0.3857713 -0.21354035 -0.18662399
-0.31950274 0.20054407 -0.24913596 -0.26444688 0.27269775 -0.061838213 0.0099895215 0.055358563
0.022572095 -0.020443823 -0.026257921 0.3419689 -0.2320557 0.27282754 0.13516596 0.3401668
0.38322738 -0.076187015 -0.09452955 0.28820136 0.19045998 -0.0038152973 -0.18745208 0.26903737
-0.023594737 0.06005939 0.1904143 0.4018993 0.23403224 0.3985629 0.08800806 0.117739625
00000000: 57c1 67be 7e15 6fbe f9a0 8e3e d2c1 3ebe
00000010: 64de 3ebe 908a db3d 0f5b 46be 29fd 7b3e
00000020: 459b f13d 55ee ccbe fc54 a53e ee48 603d
00000030: 0072 82bd a9c5 0ebe 6908 96be 4c9c 4e3e
00000040: a6fa a7be 6313 d3bd c059 b638 2ce4 fc3d
00000050: 343c 543d 9b9b 9f3e 36d7 183e c786 bd3e
00000060: 2a49 c43e 4a1d 84be 10f4 933d b5d9 9b3e
00000070: 635e 90be 6688 db3d 268a 193e d19b 31be
00000080: 523b b03e 9046 a0be eb0f 913d 779f 873e
00000090: f68f 04be e8d4 8cbe 8ec7 93be f22e c3be
000000a0: 0ab7 cd3e 5463 3e3e e5ab b73e e30e 88bd
000000b0: 4564 643e c943 d0be 6282 1d3b d453 acbe
000000c0: 4b11 273d 7640 c8be 43b3 b3be 4703 9ebe
000000d0: 5590 63be d614 83be a6d9 fd3d a4e6 97be
000000e0: 703f a43e 14cc 39be 2b9f 013b c407 38be
000000f0: ec40 8bbe 65d0 913e f4bf 423d 8ec8 8cbd
00000100: 52bf 9a3e 344a c33e 63d8 c13e c442 f1bb
00000110: d42a a7bd 74bc e43d 76fa f3bc 4b41 af3e
00000120: 143c d13e da82 c33e fe08 c43e 64b8 41be
00000130: e780 cc3d 5d98 f6bd f522 a9be afe7 a63e
00000140: b560 2fbd 4a22 a83e e20c 53be cc28 37be
00000150: a756 9abd 97d7 073d 52ef b63e 80d0 a7bd
00000160: 0215 863c 958f a5be a39a c53e d734 3cbe
00000170: bad4 4d3e d183 c53e 52aa 5abe 5c1a 3fbe
00000180: dd95 a3be 6d5b 4d3e 7f1d 7fbe 9565 87be
00000190: 0a9f 8b3e 114a 7dbd 17ab 233c a9bf 623d
000001a0: 1de9 b83c ce79 a7bc da1a d7bc 8c16 af3e
000001b0: 02a0 6dbe 0db0 8b3e f268 0a3e 582a ae3e
000001c0: 6136 c43e f007 9cbd b598 c1bd 218f 933e
000001d0: f107 433e 110a 7abb 70f3 3fbe 44bf 893e
000001e0: c049 c1bc d600 763d f7fb 423e bfc5 cd3e
000001f0: 26a6 6f3e 7010 cc3e 923d b43d 7921 f13d

fc2.weight f4 [64, 128]
0.066064335 0.00710202 0.02461199 -0.041868582 0.042670872 0.06517714 -0.032335177 0.024672573
0.014663699 0.039110698 -0.017123928 0.061667647 0.007939972 -0.07252479 -0.026974846 -0.025359958
-0.010416656 0.045863584 -0.0031192987 -0.034909073 -0.080798514 0.07469585 -0.047927707 -0.07068369
0.07205236 -0.003182985 0.08452434 0.048890136 -0.019052152 0.075621426 -0.06359 0.020060578
-0.024378944 0.009286866 0.070997275 0.062221374 0.0047302246 0.058007322 0.030713927 -0.03941002
0.058893245 0.0021213137 0.01799745 0.07958348 -0.014301384 -0.060949948 0.06869215 0.013633491
-0.00019449419 0.007369496 0.070110895 -0.011447933 -0.08368918 0.068693556 -0.04552138 0.005255611
0.07170115 -0.080645494 0.047832243 0.011731878 -0.08535911 0.059399303 -0.007937327 -6.735128e-05
-0.003287246 0.0065339915 0.04811151 -0.021950698 -0.085724674 0.0056225904 0.039336186 0.08464415
0.0025092284 -0.0005837736 0.0070763645 0.024434779 0.018818865 0.017597215 -0.022006713 -0.06302457
-0.010068849 -0.016302327 -0.033972953 -0.04528328 0.014757784 -0.059923213 0.057102498 -0.028135013
0.030141966 -0.08092996 -0.0099795805 0.03444099 -0.037297253 -0.058733273 -0.084560335 -0.004734345
0.016976364 0.05955564 -0.06958896 0.053032495 0.08456872 -0.07897333 -0.041249916 0.050911564
-0.086626604 0.07631808 0.08371703 0.026365543 0.052250996 -0.06877168 -0.079447664 -0.008061154
0.01578519 -0.0018451405 -0.053872537 -0.011961933 -0.012793734 -0.04908187 -0.021064054 -0.07934631
0.018007495 -0.06657308 -0.04827386 -0.010807893 0.030773683 0.06926828 -0.008575893 -0.0407007
0.07451293 0.049311064 0.026079124 -0.08401168 0.036460802 0.015415657 -0.025686799 0.0538452
-0.042629194 -0.07292982 -0.049130592 0.0071095177 -0.08152766 -0.0729917 -0.007985899 0.016804216
-0.07904582 -0.0470764 -0.023405533 0.05123287 0.019552015 0.0018721086 -0.07729893 -0.08686479
0.05341088 0.052590482 0.060988337 0.030353013 -0.05625456 0.0018902124 0.024255177 -0.015503848
0.030584715 -0.0554556 -0.015341697 -0.019948201 0.058243997 -0.053700298 0.037934154 0.0035558045
0.032307006 -0.049296375 0.04641643 -0.03478388 0.042600397 -0.026156977 0.00049909303 -0.036542185
0.07828869 0.06793482 -0.026324626 0.01937071 0.020524547 -0.035930388 0.05602362 -0.013250013
-0.0035059436 0.053963292 0.0848458 -0.07763652 0.04159373 -0.07557314 0.029110692 -0.029738149
0.08148763 -0.06524046 -0.032085285 -0.0029340824 0.06126777 0.06752758 -0.017804071 -0.02870718
0.049683563 0.06321203 0.0821603 0.010458482 -0.070091605 -0.0008806813 -0.038030177 0.027532015
0.020612527 -0.054528944 0.010343404 0.054791845 0.023271365 -0.08591686 0.07052834 -0.05941674
0.010535293 -0.0089496635 0.026457004 0.023844896 -0.04241725 0.01577716 0.038983114 -0.051004283
-0.0056463405 0.027034717 -0.036799952 -0.06971404 -0.08398441 -0.08466077 -0.07544212 -0.017947158
0.044374373 0.00040387278 0.0020097578 -0.059481815 -0.017249452 0.0027633414 -0.0694557 0.07809556
0.06380688 0.04087814 -0.004286714 -0.025281876 -0.012472196 -0.046924848 0.023976568 -0.082577154
0.017389923 -0.018820403 -0.02773765 0.008177783 0.0797617 0.052776217 -0.06968217 0.030468417
00000000: bd4c 873d 10b8 e83b 169f c93c 647e 2bbd
00000010: a7c7 2e3d 987b 853d e471 04bd 231e ca3c
00000020: 0340 703c 8a32 203d 7b47 8cbc 3797 7c3d
00000030: a816 023c e187 94bd 5afa dcbc b0bf cfbc
00000040: 9faa 2abc 74db 3b3d 266d 4cbb d1fc 0ebd
00000050: b179 a5bd 23fa 983d d84f 44bd 9cc2 90bd
00000060: 3090 933d a099 50bb 191b ad3d 0641 483d
00000070: 4213 9cbc 68df 9a3d 793b 82bd 1556 a43c
00000080: 5ab6 c7bc f027 183c 0567 913d d7db 7e3d
00000090: 0000 9b3b 1699 6d3d c69b fb3c 676c 21bd
000000a0: 0b3a 713d bd05 0b3b 636f 933c aafc a23d
000000b0: 5a50 6abc a7a6 79bd 78ae 8c3d 015f 5f3c
000000c0: 23f1 4bb9 d07b f13b 4d96 8f3d 1c90 3bbc
000000d0: 3c65 abbd 35af 8c3d a074 3abd 4337 ac3b
000000e0: 0dd8 923d 7729 a5bd beeb 433d 1037 403c
000000f0: c2d0 aebd af4c 733d 900b 02bc f13e 8db8
00000100: d66e 57bb 181b d63b 9310 453d f3d1 b3bc
00000110: 6b90 afbd b53d b83b fb1e 213d ea59 ad3d
00000120: de71 243b 6208 19ba d9e0 e73b 722b c83c
00000130: 052a 9a3c 0928 903c 6c47 b4bc 0713 81bd
00000140: d0f7 24bc 758c 85bc 3927 0bbd f67a 39bd
00000150: a2ca 713c 0b72 75bd 4fe4 693d 667b e6bc
00000160: 49ec f63c 9bbe a5bd 6581 23bc ff11 0d3d
00000170: 01c5 18bd 4d92 70bd f82d adbd 9022 9bbb
00000180: 0412 8b3c 9df0 733d a884 8ebd 9a38 593d
00000190: 5d32 ad3d c5bc a1bd acf5 28bd a588 503d
000001a0: 4a69 b1bd a74c 9c3d d673 ab3d 8dfc d73c
000001b0: 2405 563d 2bd8 8cbd 75b5 a2bd ee12 04bc
000001c0: f14f 813c a4d8 f1ba 73a9 5cbd fcfb 43bc
000001d0: cf9c 51bc 120a 49bd 868e acbc 5180 a2bd
000001e0: 7484 933c 7857 88bd d0ba 45bd 9713 31bc
000001f0: 1719 fc3c 87dc 8d3d e781 0cbc c7b5 26bd
00000200: 3c9a 983d 66fa 493d e3a3 d53c 510e acbd
00000210: ec57 153d f491 7c3c 1f6d d2bc c98c 5c3d
00000220: f39b 2ebd 3b5c 95bd 293d 49bd f5f6 e83b
00000230: f9f7 a6bd ac7c 95bd 4ad7 02bc ffa8 893c
00000240: c6e2 a1bd 2fd3 40bd f6bc bfbc 8fd9 513d
00000250: 8c2b a03c 8a61 f53a e74e 9ebd 2be6 b1bd
00000260: 5ec5 5a3d 1e69 573d e8ce 793d e2a6 f83c
00000270: 2e6b 66bd 01c1 f73a cbb2 c63c da03 7ebc
00000280: cc8c fa3c 6925 63bd be5b 7bbc 696a a3bc
00000290: 4291 6e3d d8f4 5bbd d860 1b3d 8008 693b
000002a0: 5a54 043d ffea 49bd 281f 3e3d 8b79 0ebd
000002b0: c17d 2e3d 2847 d6bc 91d5 023a 42ad 15bd
000002c0: d255 a03d 6921 8b3d bea6 d7bc 53af 9e3c
000002d0: 1823 a83c be2b 13bd 0679 653d 9516 59bc
000002e0: f9c3 65bb 9d08 5d3d a3c3 ad3d e5ff 9ebd
000002f0: 305e 2a3d 17c6 9abd 8c79 ee3c 6b9d f3bc
00000300: fde2 a63d ca9c 85bd dc6b 03bd bc49 40bb
00000310: eaf3 7a3d e64b 8a3d d8d9 91bc 522b ebbc
00000320: fe80 4b3d 4f75 813d a943 a83d 0e5a 2b3c
00000330: 308c 8fbd 86dd 66ba 88c5 1bbd d28a e13c
00000340: 9adb a83c be59 5fbd 6177 293c 6a6d 603d
00000350: 97a3 be3c 2ef5 afbd 2a71 903d f85e 73bd
00000360: 399c 2c3c 9ca1 12bc 5cbc d83c 5f56 c33c
00000370: b6bd 2dbd 1a3f 813c c2ac 1f3d dee9 50bd
00000380: f004 b9bb e977 dd3c 8cbb 16bd 3cc6 8ebd
00000390: 0500 acbd a062 adbd 6681 9abd eb05 93bc
000003a0: e7c1 353d e3be d339 24b6 033b 34a3 73bd
000003b0: b94e 8dbc 2d19 353b ca3e 8ebd 91f0 9f3d
000003c0: 2ead 823d d66f 273d 9077 8cbb f01b cfbc
000003d0: 2e58 4cbc 4534 40bd 826a c43c 361e a9bd
000003e0: 5075 8e3c 3f2d 9abc 113a e3bc 1cfc 053c
000003f0: 1a5a a33d e02b 583d 87b5 8ebd e798 f93c

fc2.bias f4 [64]
0.013718966 0.042078223 -0.042552773 0.024760192 0.040195294 -0.030115984 0.014765292 -0.018110543
-0.05984434 0.073662944 -0.020802818 0.017870061 0.05453336 -0.050076094 -0.017031064 -0.07996126
0.08487576 -0.016631702 -0.07149142 -0.04360159 0.031001734 -0.00970961 0.02714866 -0.00504766
0.074007444 0.07583363 -0.063873455 0.014373108 -0.01698356 -0.047483593 -0.04212597 -0.01853706
-0.056391574 0.019779192 -0.05832242 0.08579765 -0.022690296 -0.058683783 0.05437502 -0.05318767
0.03186239 0.051998787 0.06369548 -0.040254842 0.07193585 0.039286964 0.05857169 0.088436455
-0.021085251 0.06519216 -0.03142136 0.025605971 0.041936375 -0.030458743 0.013587251 -0.003401902
-0.06384349 -0.059862085 -0.006045341 0.05287098 0.028064493 0.004108528 0.014632387 -0.060235463
00000000: 84c5 603c 375a 2c3d d14b 2ebd e3d5 ca3c
00000010: d2a3 243d ccb5 f6bc 20ea 713c 905c 94bc
00000020: 571f 75bd 99dc 963d ac6a aabc 3c64 923c
00000030: 5f5e 5f3d 971c 4dbd bb84 8bbc bbc2 a3bd
00000040: 58d3 ad3d 353f 88bc 186a 92bd 9597 32bd
00000050: 59f7 fd3c 0e15 1fbc de66 de3c d766 a5bb
00000060: 3791 973d aa4e 9b3d 16d0 82bd 2f7d 6b3c
00000070: 1b21 8bbc 287e 42bd 488c 2cbd 08db 97bc
00000080: dafa 66bd f907 a23c 7de3 6ebd aeb6 af3d
00000090: 00e1 b9bc 685e 70bd 57b8 5e3d 50db 59bd
000000a0: 2382 023d aefc 543d c772 823d 43e2 24bd
000000b0: 1a53 933d 5eeb 203d dee8 6f3d 2c1e b53d
000000c0: faba acbc 7883 853d afb3 00bd 9dc3 d13c
000000d0: 7ac5 2b3d 9d84 f9bc 109d 5e3c 72f2 5ebb
000000e0: 60c0 82bd f231 75bd ff17 c6bb 3e8f 583d
000000f0: 82e7 e53c d5a0 863b aebc 6f3c 76b9 76bd

fc3_action.weight f4 [11, 64]
0.116885126 0.04856169 -0.11766994 -0.0070667723 -0.1284063 -0.1056564 0.02817586 -0.020379633
-0.071075365 0.018412843 0.08724372 -0.016859919 -0.019940205 -0.016939744 0.083007336 -0.02120784
-0.03730675 -0.047650967 0.0042038066 -0.086951144 -0.052556966 -0.11926529 -0.11737727 -0.020797446
0.04448934 0.0049144863 0.045750678 -0.10214983 0.03296883 -0.041450165 -0.083780654 -0.014701501
-0.032589346 -0.09273621 0.11202139 -0.11200925 0.038724102 -0.09876738 -0.046390124 0.048336253
0.0071533252 -0.1198646 -0.046055943 0.100161195 -0.07994012 0.118801385 -0.06122779 0.042784177
0.012065391 0.01508909 -0.05900024 0.03258351 0.11963764 0.008990962 0.00043407836 -0.015235085
0.04870388 0.09303938 -0.048118137 -0.11409767 0.09620404 0.046660896 0.033929143 -0.0119308345
-0.019841915 -0.0016363782 0.11194353 0.05982068 0.045467254 0.059985243 -0.07196811 0.08530143
0.06517041 -0.05427119 -0.075458765 0.110091306 -0.07510306 0.03649038 0.021024099 -0.07133564
-0.0804768 -0.11636457 0.12207394 0.01911017 -0.039714355 0.09438194 -0.11933454 0.113526754
0.11511197 0.064729035 -0.04386294 0.0653535 0.0378484 0.07531599 0.043080486 0.061022267
-0.007679403 0.036375877 -0.097828746 0.01925657 0.002556321 -0.12001008 -0.042711586 0.12002961
0.049403816 0.048838336 0.108859874 0.046302482 -0.12580492 -0.003906831 0.010202976 -0.12415003
0.12249108 0.028073143 0.0407905 0.0967781 -0.10633963 -0.004467195 -0.016886238 0.036822468
-0.10705599 0.0019124895 0.011697795 -0.071990594 -0.0510756 -0.066628486 -0.05534169 -0.081656575
0.12319696 0.023213847 -0.086361766 -0.051065844 -0.09048893 0.080761455 0.003909543 0.11274892
0.012740424 0.057255644 -0.037167013 -0.023626897 0.030030008 0.11067751 -0.06571159 -0.10124086
0.068091474 0.045519218 -0.10048934 -0.10592801 0.09407885 0.0012900007 0.021350766 0.121061884
-0.022161856 -0.061962295 -0.06874268 0.0290821 0.0016310824 -0.032985084 -0.068207964 0.12191379
-0.079280406 -0.013937947 -0.1133788 0.08369382 -0.11816316 0.014892519 -0.043718398 0.0994017
0.02601749 -0.112841345 0.08655185 0.052281022 -0.054908466 0.008799687 -0.120758854 0.10740987
0.11346638 0.097816095 0.011006489 -0.021101665 -0.09335783 0.12021898 -0.03260184 0.119552925
-0.0719324 0.05452265 0.016381953 0.006363362 -0.11412019 -0.022800101 0.057897933 0.016855076
0.08095179 0.038618967 -0.016392812 0.043771304 -0.06716131 -0.070687816 0.114242494 -0.025078237
0.053360477 0.05247551 -0.016141206 -0.12070616 0.101287164 -0.07435092 0.03335067 0.023909792
0.10338577 -0.087428786 0.07835212 0.084904425 -0.056504212 0.053952415 -0.028178297 -0.06946491
0.0036576677 0.02555331 -0.097955406 0.106952436 -0.00031957775 0.04501003 0.12070549 0.11307266
0.06612916 -0.0406263 -0.05807576 0.05591241 0.092398316 -0.03952536 -0.082668245 0.012933284
-0.11643997 0.08232984 0.023376334 -0.08840661 -0.011638063 -0.107286796 -0.056571405 -0.03527315
0.07466719 -0.023541547 -0.047512352 0.02034994 0.11831585 0.0006374054 -0.029967068 0.045683257
-0.0150676705 0.1208711 0.014428109 -0.102521494 -0.116516925 -0.013399928 -0.04201041 0.07410362
00000000: 7861 ef3d 9fe8 463d f0fc f0bd 6290 e7bb
00000010: f17c 03be 6262 d8bd 10d1 e63c 30f3 a6bc
00000020: f68f 91bd 88d6 963c d6ac b23d d01d 8abc
00000030: a459 a3bc 38c5 8abc c0ff a93d 10bc adbc
00000040: f6ce 18bd a92d 43bd 16c0 893b 7113 b2bd
00000050: f945 57bd 5c41 f4bd 7e63 f0bd 685f aabc
00000060: 743a 363d b309 a13b 1065 3b3d ee33 d1bd
00000070: 530a 073d a6c7 29bd 3195 abbd 90de 70bc
00000080: 687c 05bd 7bec bdbd 786b e53d 1b65 e5bd
00000090: 2a9d 1e3d 8d46 cabd 9203 3ebd 3cfc 453d
000000a0: 7166 ea3b 927b f5bd 28a5 3cbd 5021 cd3d
000000b0: a5b7 a3bd 244e f33d fec9 7abd 763e 2f3d
000000c0: ebad 453c 3b38 773c 3caa 71bd 4976 053d
000000d0: 9404 f53d d44e 133c 0395 e339 949c 79bc
000000e0: b87d 473d 6e8b be3d 8617 45bd 0aac e9bd
000000f0: a006 c53d 7f1f 3f3d 49f9 0a3d 8c79 43bc
00000100: 838b a2bc be7b d6ba a642 e53d 8806 753d
00000110: df3b 3a3d 16b3 753d 0464 93bd 84b2 ae3d
00000120: 1078 853d 784b 5ebd 208a 9abd 8d77 e13d
00000130: a2cf 99bd f076 153d bb3a ac3c 6c18 92bd
00000140: 05d1 a4bd 8c50 eebd e701 fa3d ee8c 9c3c
00000150: 85ab 22bd 524b c13d ab65 f4bd b780 e83d
00000160: d3bf eb3d a890 843d a0a9 33bd 0ed8 853d
00000170: ed06 1b3d 453f 9a3d 2a75 303d 7cf2 793d
00000180: 80a3 fbbb dffe 143d 705a c8bd f4bf 9d3c
00000190: f387 273b d8c7 f5bd 58f2 2ebd 16d2 f53d
000001a0: a85b 4a3d b50a 483d edf1 de3d aca7 3d3d
000001b0: 01d3 00be e004 80bb 622a 273c 5f42 febd
000001c0: 9adc fa3d a6f9 e53c f013 273d 9933 c63d
000001d0: 98c8 d9bd 8c61 92bb 0255 8abc 28d3 163d
000001e0: 2c40 dbbd 80ac fa3a 1ca8 3f3c ce6f 93bd
000001f0: a634 51bd 8474 88bd f8ad 62bd 903b a7bd
00000200: b04e fc3d f72a be3c 70de b0bd 6b2a 51bd
00000210: 4352 b9bd 4366 a53d a01b 803b e8e8 e63d
00000220: 36bd 503c e584 6a3d 703c 18bd 328d c1bc
00000230: 7e01 f63c e4aa e23d cc93 86bd 5e57 cfbd
00000240: 8b73 8b3d 5c72 3a3d 5bcd cdbd c9f0 d8bd
00000250: 69ac c03d 3e15 a93a cde7 ae3c 4bef f73d
00000260: c88c b5bc 2dcc 7dbd f6c8 8cbd 963d ee3c
00000270: 0bca d53a 5e1b 07bd 9eb0 8bbd f0ad f93d
00000280: c45d a2bd fd5b 64bc 2533 e8bd aa67 ab3d
00000290: 87ff f1bd c1ff 733c 1012 33bd 1e93 cb3d
000002a0: a222 d53c 5d19 e7bd 1942 b13d a024 563d
000002b0: b3e7 60bd 902c 103c 6b50 f7bd b5f9 db3d
000002c0: 1061 e83d ce53 c83d 9054 343c 66dd acbc
000002d0: 6432 bfbd 5e35 f63d 8289 05bd 2ad8 f43d
000002e0: 4b51 93bd 2453 5f3d 7233 863c c083 d03b
000002f0: d9b7 e9bd 47c7 babc 6226 6d3d a813 8a3c
00000300: 0dca a53d ec2e 1e3d 384a 86bc 8a49 333d
00000310: de8b 89bd c6c4 90bd f8f7 e93d e070 cdbc
00000320: 8490 5a3d 8ff0 563d 903a 84bc cb34 f7bd
00000330: a56f cf3d 4c45 98bd b69a 083d 78de c33c
00000340: ebbb d33d dd0d b3bd 1477 a03d 5fe2 ad3d
00000350: f670 67bd 35fd 5c3d 2cd6 e6bc 9e43 8ebd
00000360: 7bb5 6f3b 2d55 d13c d89c c8bd e109 db3d
00000370: 008d a7b9 705c 383d 7134 f73d a492 e73d
00000380: ba6e 873d c367 26bd d9e0 6dbd 6904 653d
00000390: 543b bd3d 58e5 21bd f84d a9bd 20e6 533c
000003a0: 1478 eebd 8c9c a83d ba7f bf3c 860e b5bd
000003b0: 93ad 3ebc 2eb9 dbbd 6bb7 67bd 947a 10bd
000003c0: 1deb 983d 34da c0bc 509c 42bd ebb4 a63c
000003d0: 954f f23d 8d17 273a 7f7d f5bc 5e1e 3b3d
000003e0: 64de 76bc 448b f73d e063 6c3c caf6 d1bd
000003f0: 6da0 eebd 5f8b 5bbc 1c13 2cbd a4c3 973d

fc3_action.bias f4 [11]
-0.096623994 0.04906835 0.03400609 0.089566484 0.05603283 -0.08677258 0.124502674 0.002945835
0.08474488 0.10725594 0.06392636
00000000: cde2 c5bd e5fb 483d f849 0b3d a26e b73d
00000010: ae82 653d d3b5 b1bd 42fb fe3d e90e 413b
00000020: b98e ad3d 01a9 db3d d3eb 823d
