improved_vrpb_strict_eval_policy_v2_final.pth (torch, 43053 bytes, 6 tensors)

fc1.weight f4 [128, 6]
000000 3a 81 d0 be 09 6b 9e be 9c 2e e8 3d f4 23 b0 3e
       -0.40723592 -0.30941036 0.11337015 0.3440243
000010 76 7d a4 3e 80 f9 4f bb a6 71 d3 bc f8 97 33 3d
       0.3212697 -0.0031734407 -0.025811028 0.0438461
000020 90 10 be be a0 70 70 3e 5d f9 a3 be 92 48 b8 be
       -0.3712201 0.23480463 -0.32026187 -0.35992867
000030 c5 f6 b6 be dc 47 05 3e d8 e6 e3 3d 0c 72 44 3d
       -0.35735145 0.13015693 0.11128014 0.047960326
000040 48 77 89 3e 20 ea ee 3c e0 4c 62 bc 49 5c 61 be
       0.26848817 0.029164374 -0.013812274 -0.2200786
000050 28 cb 0e bd 9c 61 e2 bd e0 69 25 3d 48 5e ce 3e
       -0.034861714 -0.11053774 0.040384173 0.40306306
000060 88 2f cc 3e 19 5a 75 bd ff 7f c0 3e 81 30 da bd
       0.39880013 -0.059900377 0.37597653 -0.10653783
000070 11 ff c9 3e 9c 0f ac 3e 99 2a d6 3e fc c7 7b be
       0.39452413 0.3360566 0.41829374 -0.24588007
000080 30 15 81 be 27 88 ac be de cb 20 3e 00 90 e6 39
       -0.25211477 -0.33697626 0.15702769 0.00043976307
000090 e4 ec 07 3e 0a 08 90 3e 1a 68 01 be 38 47 dc 3d
       0.1327396 0.28131133 -0.12637368 0.107557714
0000a0 5f da a8 be 5c 8d 1f 3e 2f 17 5b 3e 81 6a b4 3e
       -0.32979104 0.15581268 0.21395563 0.35237506
0000b0 ca 87 d2 be d8 93 9e 3e c9 83 cb be 80 b0 4d 3b
       -0.41119224 0.3097217 -0.39748982 0.003138572
0000c0 e6 85 83 be 7a 43 e1 3e e9 2b d8 3e fb 3e 88 3e
       -0.25688094 0.43996793 0.42221 0.2661055
0000d0 52 9d 5f 3e 02 21 98 3e 7f c7 1f be c6 19 5f be
       0.21837357 0.29712683 -0.15603445 -0.21787176
0000e0 f5 84 ef 3e 2a 65 90 be f5 4f ad 3e e6 f3 38 be
       0.46781126 -0.28202182 0.33850065 -0.1806179
0000f0 a8 f0 9f be 68 ab 3f 3e 20 93 8f be 18 44 47 be
       -0.31238294 0.1871773 -0.28041935 -0.1945957
000100 00 b1 49 3c a2 98 01 be 23 42 c2 be ca e0 18 3e
       0.0123102665 -0.12655881 -0.37941083 0.149295
000110 fa 5e 80 be 52 94 c2 be 96 77 4b be ac ca ab 3e
       -0.2507246 -0.38003784 -0.19869837 0.33553064
000120 73 de cd 3e 8a 65 d9 3e 12 bc d2 3d a1 c0 3b be
       0.40208778 0.4246028 0.10289778 -0.18335201
000130 49 f9 32 be ec 37 44 3e 60 e1 d8 3e 75 25 8d 3e
       -0.17477907 0.19161958 0.42359447 0.2756764
000140 9f d0 8b bd e6 1e dc 3e a6 0c 3c 3e 60 f1 1b 3e
       -0.06826901 0.42992324 0.183642 0.15228796
000150 fd 4f 81 be 98 ad 7b 3e 97 fe a6 be e8 28 e5 bd
       -0.2525634 0.2457794 -0.32616112 -0.11189443
000160 71 df 8c 3e ce 6b b2 3e 66 41 85 bb 2d 75 c2 be
       0.27514222 0.34847873 -0.004066634 -0.37980023
000170 0f 44 a9 bd 27 e2 ba be ef 6c bf 3e ef e8 bd be
       -0.08264934 -0.36500666 0.37387797 -0.37091777
000180 ca c3 a5 3d a4 a4 4f 3e 69 32 38 3d a9 47 9e be
       0.080939844 0.20277649 0.04496995 -0.30914047
000190 73 ac 83 3e 9e fa 81 3e 88 a0 6b 3d e8 87 84 be
       0.25717506 0.25386518 0.05752614 -0.25884938
0001a0 1d f4 a7 be 40 d9 f2 bb 98 46 6b bd 30 38 9a be
       -0.3280343 -0.007411152 -0.05744037 -0.30120993
0001b0 02 c3 f7 3e 8c 60 87 3d f0 64 f2 3e 4f 2c 9f be
       0.48390967 0.06610212 0.47342634 -0.31088492
0001c0 14 81 1f bd 80 c9 40 3e 74 2b 67 3e 42 93 80 3e
       -0.038941458 0.18826866 0.2257517 0.2511235
0001d0 07 98 98 3e e1 87 56 3c a6 27 be be 08 45 1a bd
       0.29803488 0.0130939195 -0.37139624 -0.03766349
0001e0 5e 3d 1d 3e fc 40 88 bd 4c 77 2a be 9c ed 1a 3e
       0.15355441 -0.0665302 -0.1664707 0.15129703
0001f0 77 fd 81 3d e0 2c 3d 3e b6 36 a9 3c c2 6d 38 be
       0.06347173 0.1847415 0.020655971 -0.1801062
000200 33 da 6b bd 79 cd e7 bd 55 47 a1 be 9d f2 8e be
       -0.057581138 -0.11318488 -0.31499735 -0.27919474
000210 d1 70 59 be 0a 9d 25 be 66 47 2b bc e3 42 54 3e
       -0.21234442 -0.16173187 -0.010454034 0.2072864
000220 33 e3 37 be 70 fd 35 3e 51 d4 59 3e 04 32 02 be
       -0.17957763 0.1777246 0.21272399 -0.12714392
000230 e1 99 5d 3e 1b 48 dc 3e 62 86 80 3e 40 ec d0 bb
       0.21640731 0.43023762 0.25102526 -0.0063758194
000240 b7 57 6a 3d 6e 3a 8f be f2 eb cb 3e 17 e2 87 be
       0.057212558 -0.27974266 0.3982845 -0.2653968
000250 10 78 fe bd 04 39 9d 3e 3d 3b 01 bd 49 06 6e 3e
       -0.12425244 0.30707562 -0.031550635 0.23244585
000260 1d 53 18 3d 51 d6 66 be ca 93 7d be 0e 75 c2 3e
       0.037188638 -0.22542693 -0.24763408 0.3797993
000270 5e d0 8a 3e 90 ba c7 3e ab a5 aa 3e 03 1c e6 bc
       0.27112097 0.39009523 0.3332952 -0.028089529
000280 58 70 85 3e 20 57 bd 3e 1c d6 1d 3e 03 f9 dd 3e
       0.26062274 0.36980534 0.15413707 0.43354043
000290 0f 2b 96 bd 55 41 51 be 1b f6 7a 3e c7 43 4b be
       -0.073324315 -0.20435078 0.24507944 -0.19850074
0002a0 c5 bd 81 be 86 1f 6c be 0e 08 80 be 95 77 d2 3e
       -0.25340095 -0.230589 -0.25006145 0.4110686
0002b0 12 08 cc 3e 00 46 41 3e c9 5a 0e be 72 7d 39 be
       0.39849907 0.18874359 -0.1390182 -0.1811426
0002c0 0c 63 b3 be ab b8 d3 3e 91 70 a7 3e 3c bb ae bd
       -0.35036504 0.41351828 0.3270307 -0.08531806
0002d0 d6 1b 6b 3e 5a f2 8c bc 6a c3 f2 3e 55 19 a9 3e
       0.22959837 -0.017205406 0.47414714 0.3302714
0002e0 93 c7 4f be ec 3b 75 3e 75 71 7f be b6 7c 43 be
       -0.20290975 0.2394864 -0.24945624 -0.19090542
0002f0 92 f7 8c 3e a6 5c 6c 3e a2 4a 70 be 7e 5a 8a be
       0.2753263 0.23082218 -0.2346597 -0.27022165
000300 ef 2a 35 be b8 56 93 bd 00 fb b2 3a ad 79 b2 be
       -0.17692159 -0.07194275 0.0013655126 -0.34858456
000310 44 05 ae 3e f0 53 b8 be 3f e3 f9 bd 92 25 2e be
       0.33988392 -0.3600154 -0.12201547 -0.1700652
000320 e9 cb ac be 34 07 c8 bc 23 59 a6 be 62 f0 92 3e
       -0.3374932 -0.024417497 -0.3248988 0.28699023
000330 f9 2d 38 3e bb 90 20 3e 65 51 43 3e ef ab 7b be
       0.17986287 0.1568021 0.19074018 -0.24577306
000340 00 35 7d 3e 96 4a 07 be 85 04 38 bc b2 37 82 3e
       0.24727249 -0.13212046 -0.011231546 0.25433117
000350 d5 9c 7b 3d b1 c7 8c 3d db c0 aa be 1c 25 26 3e
       0.061428864 0.068740256 -0.33350262 0.16225094
000360 54 7d 8d 3d 88 be 62 3d 07 e3 b3 be 08 4b df bd
       0.0690867 0.055357486 -0.35134146 -0.10902983
000370 0d 1e 99 be ec a7 87 bd 19 9e de 3e 3e e9 b4 3e
       -0.2990574 -0.066238254 0.43479994 0.353342
000380 73 10 20 3e b4 b8 34 bc 0c 35 18 be a1 98 a6 be
       0.15631275 -0.011030365 -0.14863986 -0.32538322
000390 8c 3d c7 be 7b da c4 be 24 16 87 be a2 e7 d0 bd
       -0.38914144 -0.38447937 -0.2638408 -0.102004305
0003a0 5e 3d 91 3e 30 de ce 3d cd 7c 74 3e 44 30 99 3e
       0.28367132 0.10100973 0.23875733 0.29919636
0003b0 ef 4d 02 be 0f 6e ab be 0d 72 1e 3e 00 08 89 be
       -0.12725042 -0.33482406 0.15473194 -0.26763916
0003c0 ab 95 86 3e 5a ab e1 3e af 43 f2 3e e5 bf 74 bd
       0.26286063 0.44076043 0.47317263 -0.059753317
0003d0 26 81 12 be f4 19 2d 3e a5 f3 af 3e 68 75 f3 bd
       -0.14307079 0.16904432 0.34365574 -0.11887628
0003e0 fd 0a 40 3d bc 21 e1 3c 42 91 10 3e 98 61 70 3e
       0.04688548 0.027481906 0.14117911 0.23474729
0003f0 fb d1 d2 3d 03 d4 3b bc 34 93 71 3e eb 4b 98 3d
       0.10293957 -0.011464122 0.2359131 0.07436355

fc1.bias f4 [128]
000000 2c 67 a9 be 10 59 fd 3c d2 ca 99 3b 82 e1 bc be
       -0.33086526 0.030926257 0.0046933675 -0.368908
000010 04 51 cf 3e 17 09 94 3e 25 ea 71 be a9 05 a1 3e
       0.40491498 0.28913185 -0.23624475 0.3144963
000020 1f db a8 3e 9e 3a 71 3e 2e eb b5 be 36 10 00 3e
       0.32979676 0.23557517 -0.3553099 0.12506184
000030 bd 84 ca 3e 25 e0 97 3e da b8 83 3d 68 11 0e be
       0.39554396 0.29663196 0.06431742 -0.13873827
000040 dc 57 bb 3e 78 cf 7a bd 71 07 d3 3e 22 d3 b5 be
       0.3659047 -0.061233014 0.41216615 -0.35512644
000050 4d 12 c1 3d 3e d3 a5 3d ee 0a 97 3e 95 c0 45 be
       0.09427319 0.08096932 0.29500526 -0.19311745
000060 48 6a 1f bd 55 85 29 bb ab 83 b2 3e fd 03 e4 3d
       -0.038919717 -0.0025866826 0.3486608 0.11133573
000070 ad 56 69 3e 95 06 7d be 4d a3 6e 3e 9b 5d 98 3e
       0.2278697 -0.24709542 0.23304482 0.29758915
000080 96 00 b2 be 55 da c8 3d 36 88 b0 be e4 d1 ec 3e
       -0.34766072 0.098072685 -0.3447892 0.46253884
000090 8f d5 9b be cb f8 0d be 76 fe 7b 3e 58 e9 da 3e
       -0.3043637 -0.13864438 0.24608788 0.42756152
0000a0 a9 88 ae 3e 84 b8 b4 bc a3 78 28 3e 41 da 08 bd
       0.34088638 -0.02206064 0.1645227 -0.03341127
0000b0 b0 ec bd 3e 9f 5c 10 be 1c 38 bf be a0 5c 71 be
       0.3709464 -0.14097832 -0.37347496 -0.2357049
0000c0 84 98 20 be e2 95 55 be f7 07 0e 3c 25 0f 83 3e
       -0.1568318 -0.20857957 0.008668891 0.25597492
0000d0 9a 9e 95 3c da 18 36 be ab fe 8d 3e 46 ae 2b bd
       0.018264104 -0.17782918 0.2773336 -0.041914247
0000e0 a1 63 e1 3e 41 94 a0 3e a7 9b fc 3d b9 37 0c 3d
       0.44021323 0.3136311 0.12334376 0.03423283
0000f0 13 54 8c 3e 07 fb e2 bc 19 a5 e2 3e 9e 0e bd be
       0.27407894 -0.02770759 0.44266585 -0.36925215
000100 2a 12 2d be a2 3e d2 3e 8a 5d 84 3d 51 49 ec bd
       -0.1690146 0.4106341 0.06463154 -0.115374215
000110 c3 9e 66 be 88 ea 8d be c8 60 b4 be e1 3e c6 be
       -0.225215 -0.27717996 -0.35230088 -0.38719848
000120 dc 38 bd bd c9 11 37 3d 4d 27 e4 3e aa 59 a4 3e
       -0.09239361 0.044694696 0.44561234 0.32099658
000130 11 ca 66 be f0 43 91 3d 48 19 8a 3e 3f 2b d0 3d
       -0.2253802 0.07093036 0.26972413 0.101644985
000140 be e7 91 3e bd 3b bc be f9 be 13 3d cb a3 9f be
       0.28497118 -0.36764327 0.036070798 -0.31179652
000150 99 a9 b5 3e 66 95 ce 3e 31 6e 23 be 01 02 dc 3d
       0.35480955 0.40348357 -0.15960003 0.1074257
000160 41 83 85 3e 60 1d af 3e f7 db a4 3e cb 6e 85 3e
       0.260767 0.342021 0.3219907 0.2606109
000170 eb 24 ec 3e c4 31 83 be f7 5f a7 be 53 3f e8 3c
       0.46121916 -0.25623906 -0.32690403 0.028350508
000180 35 66 42 be 90 44 d0 bc b2 59 0b be 94 5c 48 3e
       -0.18984301 -0.025423318 -0.13608435 0.19566566
000190 46 ea 56 3e 0a da 99 be 0f 62 c5 3e a8 ce 9c be
       0.20987806 -0.30049163 0.38551375 -0.30626416
0001a0 54 06 e7 3d 18 f2 c3 3e 9c af 9c be cc 10 cb 3e
       0.11280504 0.3827064 -0.3060273 0.39661252
0001b0 76 0f 66 be fe 3a b2 bd 60 2f 6d be dd 3b 52 be
       -0.22466835 -0.08702658 -0.23162603 -0.20530649
0001c0 5e eb 4f be 50 4c 0a be 9d d5 cc 3e cc 81 92 bd
       -0.20304629 -0.13505673 0.40006724 -0.07153663
0001d0 64 12 d0 3e cf 4e a0 bd 07 b6 68 bd 46 22 29 3d
       0.4063903 -0.078275315 -0.05681422 0.04129245
0001e0 c6 9d 83 3e 58 90 bd bd bd e8 4b be e5 11 c3 3d
       0.2570631 -0.09256047 -0.19913001 0.095248975
0001f0 f5 fd 8d bd 26 06 9b 3c cd 7f 2d 3e 14 30 b5 3e
       -0.06933204 0.01892383 0.16943283 0.35388243

fc2.weight f4 [64, 128]
000000 5a 1c 1b 3d 42 a2 35 3d 55 1e 2f bd cc 4b db 3c
       0.037868835 0.044344194 -0.042753536 0.026769541
000010 bb 07 33 bc 1f 2e cd 3a a4 ae de 3c f1 dc 6f 3d
       -0.010927136 0.0015654004 0.027182885 0.058560316
000020 d8 3b 2a 3d c9 86 fe bc ee b2 fa bc 8e 34 55 3d
       0.041560978 -0.03107013 -0.030602898 0.052052073
000030 06 70 cf bc 2d d2 85 bc 13 a3 14 3d df 53 4a 3d
       -0.025321972 -0.016335571 0.036288332 0.049396392
000040 58 0d 03 3d 7a 21 3a 3d 1e 32 e0 3d 6c 62 8f 3c
       0.031995147 0.045442082 0.10947059 0.017502986
000050 30 c4 14 bd 82 63 65 3d 4c 00 ec 3c 39 b6 d1 bc
       -0.03631991 0.0560031 0.028808735 -0.025599586
000060 86 e6 9e 3d 2b 55 4b bd 76 ee a7 3d 98 f5 2b bc
       0.077588126 -0.04964177 0.0819978 -0.010495566
000070 a4 f9 41 3d 7f 1b 52 bd bf 6e 77 3d 55 7c 41 bd
       0.047357216 -0.051295754 0.06040835 -0.047237713
000080 5c 9e 9e 3c 85 53 7e 3d ff 49 01 bd 01 0c f0 bc
       0.019362621 0.06209137 -0.03156471 -0.029302599
000090 70 8f b7 3c 65 e7 dd 3d 7d 4e d8 3b a4 65 a2 3c
       0.022407264 0.10835151 0.0066011534 0.019823857
0000a0 d7 21 ae 3d 38 54 a4 3d 9a dc ac 3c 5b b4 a8 3d
       0.08502548 0.08023876 0.021101285 0.08237525
0000b0 9a 39 b4 3d 0d fc 1f bd 2e 45 78 3d 28 05 df bc
       0.08800049 -0.039058734 0.06061285 -0.027224138
0000c0 a5 1b 76 bd c0 c8 36 3c 61 9a 92 bd 65 19 38 bd
       -0.060084958 0.011156261 -0.07158352 -0.044946093
0000d0 80 e2 74 bd 30 55 ea 3b ac 00 b7 bb c1 a2 8c bc
       -0.05978632 0.0071512684 -0.005584797 -0.01716745
0000e0 92 f9 cc 3d 4b 8a 95 3d fb c6 cd 3d 5b a4 86 3d
       0.10008539 0.07301768 0.10047718 0.06574317
0000f0 3f 71 a6 3d 29 62 0c bd 06 6e 4b bd af 82 90 bd
       0.08127069 -0.0342733 -0.049665473 -0.07056176
000100 3e f1 75 bc e1 25 28 bd 86 50 ac 3d 8c 20 09 bd
       -0.01501113 -0.04105175 0.08413796 -0.033478305
000110 ff 23 bc 3d 00 ca 4d 3b 50 31 94 bd 5a 5c 3f 3d
       0.09186553 0.003140092 -0.07235968 0.046718933
000120 69 a7 3c bd f3 7d 6a 3d c1 da 90 3d 75 9c a3 3c
       -0.046058092 0.05724902 0.07072974 0.019972065
000130 26 5f 9b bd 3c 1d 12 bc 66 a3 74 3d 43 30 d8 bc
       -0.075865075 -0.008918103 0.05972614 -0.0263902
000140 07 30 79 bd f1 f9 5c bd 86 ad d6 bc 9a ad 4f bd
       -0.060836818 -0.0539493 -0.02620579 -0.05070267
000150 49 c2 2e 3c f6 6a d4 3d d9 10 05 bd a2 c4 9a bb
       0.010666438 0.10371964 -0.03248677 -0.0047231475
000160 bc 77 ae 3d 56 00 39 bd c7 e4 ff bc 2d 4d 89 3d
       0.08518931 -0.045166336 -0.03123702 0.06704173
000170 1e 63 df bb 15 1f 29 3d 7c 0c 25 bd 7a 99 35 3d
       -0.0068172356 0.041289408 -0.04029511 0.04433582
000180 01 fe ae 3d 33 c1 c3 3d 7a 3d 8b bc 54 65 8a bb
       0.08544541 0.09558334 -0.016997088 -0.004223505
000190 d9 b8 66 3d b5 c3 09 bd a4 32 c6 3d 84 7e 87 bd
       0.05632863 -0.033633906 0.09677628 -0.06615928
0001a0 65 e9 d9 bb 44 e0 6d bc d6 23 a6 bd c2 0c 5b bd
       -0.0066501372 -0.014518801 -0.08112304 -0.053478964
0001b0 77 33 93 3c cf 3a be 3d 05 b5 6f bd 93 49 42 3d
       0.017968876 0.092885606 -0.058522243 0.047433447
0001c0 13 be de bc 7f f9 c5 bb 92 c1 7f bc d9 12 5f bd
       -0.027190244 -0.006041705 -0.015610116 -0.054461334
0001d0 0c b3 1f bd 0b 7d 3f 3d 02 9a 9d bd f6 d9 2e 3c
       -0.03898911 0.04675011 -0.0769539 0.010672083
0001e0 37 e8 49 3d c5 f9 86 3d 0c 2d 83 bd d0 b6 74 bd
       0.049293723 0.065906085 -0.064050764 -0.059744656
0001f0 1a 7f e4 bc 1f 0f 1b 3c ce fa b9 bc 99 d3 2b bd
       -0.027892638 0.009464054 -0.0227026 -0.041949842
000200 c6 e2 35 3d ac c5 ae 3c 99 30 36 3c 29 47 9b bd
       0.04440572 0.021334492 0.011119985 -0.07581932
000210 d9 73 7d bd cc 81 a0 3d 40 2a 9e bb 1f 9d bc bb
       -0.06187806 0.07837257 -0.004826814 -0.005756035
000220 29 ac a4 bd eb 9f 3e bd 80 7d ef bb c6 5a 7b 3c
       -0.080406494 -0.04653923 -0.007308662 0.015341466
000230 28 85 18 3d b4 9b 9f bd 4e f2 5f 3d 8a 62 9f bd
       0.037236363 -0.0779337 0.05467444 -0.07782467
000240 42 62 9e 3d 40 e2 c7 bc 4b c7 84 bc 96 1f 5f bd
       0.07733585 -0.024399877 -0.016208312 -0.054473482
000250 4e 2e 3f 3d 07 1b 95 3d dd 92 77 ba 54 92 a9 3c
       0.04667502 0.07280546 -0.00094441866 0.020699657
000260 d7 d4 48 bd e4 90 8b bd ff fd ef 3c b0 20 a3 3d
       -0.049031105 -0.06814745 0.02929592 0.07965219
000270 38 ac 8a 3d 34 b0 bb bb 60 34 a4 bd 70 d0 43 bd
       0.06771129 -0.005727792 -0.08017802 -0.047806203
000280 00 98 0f 38 5e d9 a7 bd 7f 72 83 bd 24 e1 21 bd
       3.4235418e-05 -0.081957564 -0.06418323 -0.03952135
000290 a3 31 87 3d a8 97 2e bc a4 ef 06 bd e2 c9 78 3d
       0.06601264 -0.010656275 -0.032943383 0.060739405
0002a0 33 4c b6 3c e0 f3 75 bd 60 c2 79 3c 04 21 e2 3c
       0.022253131 -0.06004703 0.0152440965 0.027603634
0002b0 4e 78 de bc 8c 81 9a bc ba ef 57 3d e0 ce e1 bb
       -0.027156975 -0.0188606 0.052718855 -0.0068911165
0002c0 69 65 4f bd 46 3c 55 3d e9 e6 29 3d 1d 3d b5 3b
       -0.05063382 0.052059434 0.04147998 0.005530967
0002d0 40 4d fe 3a c0 91 4f 3c b1 17 d4 3c 18 07 a9 bc
       0.0019401684 0.012669027 0.025890203 -0.020633265
0002e0 d4 0e 41 3d 0f 75 a7 3d d1 41 8b 3c 0d 9c 89 3d
       0.04713328 0.08176624 0.016999157 0.067192174
0002f0 f5 97 84 3d 8a 17 91 bd 71 4a 3c bd f4 cb 8a 3d
       0.06474296 -0.07084568 -0.04596943 0.06777182
000300 48 e7 7f 3c c0 f2 eb bb e7 2e 2a bd 43 d6 53 bd
       0.015619107 -0.007200569 -0.041548636 -0.051718008
000310 aa ec 70 bd 3b e8 b5 bd 9b 2c 3e bd 99 23 9e 3d
       -0.05881945 -0.08882185 -0.046429258 0.077216335
000320 97 49 21 3d ae 15 88 3d 98 7b 9d bd 68 5b 02 3d
       0.03937682 0.0664476 -0.07689589 0.031825453
000330 4c 07 49 bd f0 b8 d2 3c 17 41 82 bd d4 d7 82 bd
       -0.049079224 0.02572295 -0.06360071 -0.06388822
000340 09 c9 93 bd 6c 68 28 3d bd 44 99 bd b0 6a 11 3c
       -0.07216079 0.04111521 -0.07483814 0.008875534
000350 fe 1b 91 3d 44 01 c5 3c 15 cc 97 3d 36 2b 66 bd
       0.07085417 0.024048455 0.074119724 -0.056193553
000360 bb 76 91 3b b9 7a 5a 3d f8 32 da bb 64 a2 11 bd
       0.0044392026 0.053339694 -0.006658908 -0.03555526
000370 dd e3 2c bc d4 a2 a8 3c b6 72 63 bc 85 51 a1 3d
       -0.010552374 0.020585455 -0.01388233 0.07876877
000380 72 a6 a4 bd e8 b7 9f bd 3e f7 aa bc 2f 28 04 3d
       -0.080395594 -0.07798749 -0.020869847 0.032264885
000390 a7 90 a0 bd 90 b1 a8 bd 5d aa 90 3d 27 ac a3 bd
       -0.0784009 -0.08236992 0.07063744 -0.0799182
0003a0 f3 c5 54 bd e6 4f c6 bc 20 c0 03 3b fd 83 71 3d
       -0.05194659 -0.02420802 0.002010353 0.058963764
0003b0 e5 1e 58 bd 68 f8 87 bc e2 8a 28 3d de 26 ab bd
       -0.05276384 -0.016597942 0.041148074 -0.08357023
0003c0 c0 68 d5 bc ad f6 35 3c 90 9c b3 bd cf 32 ab bd
       -0.026050925 0.011106175 -0.08770096 -0.083593
0003d0 58 76 ae bd 12 87 99 bd fd f9 1b 3d 3a 50 9e 3c
       -0.08518666 -0.07496466 0.038080204 0.019325364
0003e0 93 86 9e 3d 53 ca a0 bc 48 47 98 bd d6 99 a0 bd
       0.07740512 -0.019627726 -0.07435471 -0.07841842
0003f0 30 14 84 bd 9b 32 17 3d 76 9a 65 3d a4 d3 12 3d
       -0.06449163 0.036913496 0.05605551 0.035846367

fc2.bias f4 [64]
000000 18 4b 5d 3d 45 27 8b bd 2a c0 57 bd 1d 44 2e 3d
       0.054026693 -0.067945994 -0.052673496 0.042545427
000010 a3 65 7a bd 09 f4 95 3d 9c 9b c0 bc a2 0a b3 bd
       -0.061132085 0.07321937 -0.0235117 -0.087422624
000020 c5 fb 71 bc 42 dd ac bd 7b 36 f9 3d a1 58 2f 3d
       -0.014769499 -0.08440639 0.121685944 0.042809132
000030 a8 cc 10 3d de 16 38 bd a2 50 a6 3d e5 cb b2 3d
       0.035351425 -0.044943683 0.08120848 0.08730296
000040 80 ac e4 bb 41 b0 76 3c a0 b1 d1 3b 70 66 ab 3d
       -0.0069785714 0.015056671 0.0063993484 0.08369148
000050 b4 90 c9 3c 3a c9 48 3c dc 62 9e bc 97 2e d6 bc
       0.024605133 0.012255007 -0.01933425 -0.026145263
000060 e4 68 8f bd 52 61 c0 3d db 2f 13 3d ef 19 c8 3c
       -0.07002428 0.093935624 0.03593431 0.024426429
000070 ef 06 12 3d 5a a1 b1 bd 6f a9 8e bc ad bd ad 3c
       0.035651144 -0.086733535 -0.017414777 0.021208609
000080 d3 cd a5 3c 53 0c 92 3d 70 63 20 3d 4f 84 86 bd
       0.020239746 0.07131257 0.03915733 -0.065682046
000090 c2 08 40 bc e8 27 08 3c ab 51 68 bd 47 23 49 bc
       -0.011720838 0.008310296 -0.05671851 -0.012276477
0000a0 82 13 47 bd 75 87 c8 bc 59 ee 27 3c 8f d0 28 bd
       -0.04860259 -0.024478653 0.010249698 -0.041214522
0000b0 2f ee eb bc 93 e4 84 3c 79 10 c7 3d 0d 49 b2 bd
       -0.028800098 0.016222274 0.09719939 -0.087053396
0000c0 ea 93 35 3d 60 ea e6 3b f8 18 88 bd 1b 9d 94 bd
       0.044330515 0.0070469826 -0.066453874 -0.07256528
0000d0 c0 9c 8c 3b 88 e7 6b 3d d9 75 91 3d 96 d1 79 bd
       0.004291147 0.057593852 0.07102556 -0.060990892
0000e0 79 9d 83 3d ee a2 4b bd e4 cd be bc 59 2d 23 3d
       0.0642652 -0.04971593 -0.023291536 0.03983817
0000f0 f0 95 5e 3c 0d 1d bf 3d ed 33 e6 3d 2c 46 a6 3d
       0.013585553 0.09331713 0.11240373 0.08118853

fc3_action.weight f4 [11, 64]
000000 8d 51 18 be 64 c7 2b 3d 60 1e 93 bc 05 b5 a4 3d
       -0.14874859 0.0419382 -0.01795882 0.08042339
000010 86 3b 25 3d f4 c5 f4 bc 46 91 f8 bd 62 63 93 3d
       0.04033997 -0.029879548 -0.12137084 0.0719669
000020 93 63 df bd 88 98 f4 bd 5b bc 31 be e1 6d 49 bd
       -0.10907664 -0.119431555 -0.17357008 -0.049177054
000030 3f b4 02 be e1 91 17 3d be bd d8 bd 3e bf 14 be
       -0.12764071 0.037004355 -0.105830655 -0.14526078
000040 25 a6 52 bc 7f 02 e3 3c 74 d7 db 3d 91 af 54 be
       -0.012856995 0.027711151 0.10734454 -0.20770098
000050 82 4d a8 3d a0 7e 09 be 88 35 eb 3d 78 63 8c bd
       0.082179084 -0.1342721 0.1148482 -0.0685491
000060 40 a1 c4 bb a2 ad 04 be aa 4d f0 3d 4f 22 1f be
       -0.006000668 -0.1295686 0.11733563 -0.15540431
000070 2b 0d 86 3d bc 9f 7e bd d0 c4 7c 3d 85 77 25 be
       0.0654548 -0.062164053 0.061711133 -0.16158874
000080 15 01 d7 3d 2a 00 81 bd f8 52 ce bd f8 ab be 3d
       0.10498253 -0.062988594 -0.10074419 0.09310144
000090 da 39 8e 3d 08 a7 fc 3d f4 f9 30 bd a9 c2 37 be
       0.06944628 0.12336546 -0.043207124 -0.1794535
0000a0 07 49 e2 3d 7e d9 fe 3d fc c9 ad 3a 3a e4 1d 3d
       0.11049085 0.12443827 0.0013259049 0.038547732
0000b0 c0 de 5f 3d e2 24 3a be c2 ff 05 be 74 35 60 3d
       0.05465579 -0.18178132 -0.13085845 0.054738477
0000c0 97 cd 48 be 4a 00 cd 3d e8 f6 3c bd cc 80 07 bd
       -0.19609676 0.10009821 -0.046133906 -0.033081815
0000d0 20 9b 32 bd 78 c6 01 be 79 d9 f6 3d 50 c0 88 3c
       -0.04360497 -0.12673366 0.12053198 0.016693264
0000e0 69 ca ee bd 0e ed ad 3d e6 3c 3f be 16 40 ee bd
       -0.116597004 0.0849248 -0.18675575 -0.11633317
0000f0 10 5e 8c bd 62 db 52 be d0 db 44 be 5c 05 fb bd
       -0.068538785 -0.205915 -0.19224477 -0.122568816
000100 7b 37 5e bd 88 91 69 bc c0 ce a2 bb d1 a3 bf 3d
       -0.05425213 -0.014255889 -0.004968494 0.093574174
000110 e5 04 c2 bd 91 83 35 3d 8e 02 e2 3d bc 6a e4 bd
       -0.0947359 0.044314925 0.110356435 -0.111531705
000120 61 25 b8 bc ce c1 d3 bd 32 3b be 3d 9f ea 97 3d
       -0.022478761 -0.103397 0.09288634 0.07417797
000130 1e d2 e5 3d 46 19 95 3c bf bf ba 3d 12 08 f4 3d
       0.11221717 0.018200528 0.09118604 0.11915602
000140 4c b3 29 3d ed 41 19 bd 44 27 e0 bd c5 f2 2b 3d
       0.041430756 -0.037416387 -0.10944989 0.04197957
000150 9c d6 30 3d d2 4c f3 3d 05 32 96 3c 1b c0 2c 3d
       0.043173417 0.11879887 0.018334398 0.042175394
000160 0e c8 62 bd 44 a6 2c 3e 93 d6 e2 3d 97 c5 67 3c
       -0.05536657 0.168603 0.11076083 0.01414623
000170 73 b6 1e 3d 6e b0 f9 3d 17 79 ed 3d db e0 9f 3d
       0.038748216 0.121918544 0.11595362 0.0780656
000180 f5 05 ea 3c fc d6 38 3d 0a 6e e5 3c 00 24 10 3d
       0.028567294 0.0451269 0.028006572 0.035190582
000190 d5 d5 e8 3d 60 c9 6b 3d 12 5c 85 bd c6 51 d3 3d
       0.1136891 0.057565093 -0.06511702 0.103183314
0001a0 a4 f0 16 3b 26 e3 88 bd d0 bc b7 bd be e6 2d 3e
       0.0023031617 -0.0668395 -0.0897156 0.16982552
0001b0 07 9f dd bd 55 1b 07 3e fa 16 22 3d a4 87 70 bd
       -0.10821348 0.1319402 0.039572693 -0.058723107
0001c0 d9 b1 c4 3c ca 0a f8 bd 7a 9a 9a bd 18 e1 7b 3d
       0.024010586 -0.12111433 -0.07548995 0.061493963
0001d0 60 11 98 bd 54 b7 ab 3d 7e fa c1 bd 4c ea ea bd
       -0.07425189 0.083845764 -0.09471606 -0.1147047
0001e0 e0 48 b6 3d ba e0 6b 3d 4d 8e d2 3d d4 63 7a 3d
       0.089006186 0.057587363 0.10281048 0.06113036
0001f0 10 e6 23 bc 62 61 00 3e 18 c6 c5 3d 36 4f 49 bc
       -0.010003582 0.12537149 0.09656924 -0.012286952
000200 85 a2 8f 3d ec b9 b8 3d 04 2f a2 3d 63 89 74 bd
       0.0701342 0.09019837 0.07919124 -0.059701335
000210 40 91 34 bd a2 8e 98 bd 1a 6f 9e bd 70 c0 03 3c
       -0.044083834 -0.0744908 -0.07736035 0.008041486
000220 8d 0c 81 bd 32 2c e5 bd 39 fa e1 3d 76 72 98 3d
       -0.06301222 -0.1119007 0.11034054 0.07443707
000230 4e e1 8f bc 51 f8 2e bd fb 34 13 bd 38 73 1a 3d
       -0.017563488 -0.04271728 -0.035939198 0.037707537
000240 67 d6 f5 3d 42 c0 13 bd b4 68 a7 3d d0 d0 c3 bc
       0.120037846 -0.036072023 0.081742674 -0.02390328
000250 70 cc 78 3c eb 59 6e bc dd bb 65 bd b1 d9 a6 bd
       0.01518546 -0.014547805 -0.056087364 -0.0814699
000260 3d 6b 16 3d d1 f6 f7 3c a2 ea 87 3d 02 ab 86 bd
       0.036723364 0.030269058 0.066365495 -0.06575586
000270 13 06 d1 3d 44 ff 8e 3d 7c 05 63 3d a5 74 16 bc
       0.10206237 0.06982282 0.055425152 -0.009183084
000280 dc 91 bf bd 0a bf 8a bd 9b a2 97 bc d8 15 ad 3c
       -0.09353992 -0.06774719 -0.018510154 0.02112858
000290 38 17 e6 3d fa 8d c2 bd 00 4c f8 3d 09 29 f2 bd
       0.112348974 -0.09499736 0.12123871 -0.11824233
0002a0 e3 a9 a3 bc 45 bb 93 3c e2 c4 00 3e 11 1a c9 bb
       -0.01997847 0.018033633 0.12575105 -0.0061371406
0002b0 b5 40 3b 3b 98 36 07 3d 0f 51 82 3d c6 3b e5 bd
       0.0028572504 0.03301105 0.06363117 -0.111930415
0002c0 76 4e 84 3d 88 cb 1a bd 14 44 01 3d ae bb dd 3d
       0.06460278 -0.03779176 0.031559065 0.10826813
0002d0 b0 cd cd 3d 06 c2 00 be ae 34 66 3d 00 ff 10 3d
       0.100489974 -0.12574014 0.056202583 0.035399437
0002e0 db 37 99 3c 05 66 da 3c fa 0e 4d bd e1 e6 26 bd
       0.018703392 0.026659975 -0.05006311 -0.040747527
0002f0 6c fa 1a 3d 9b 55 05 be 30 37 82 3d b7 78 ac 3c
       0.037836477 -0.13020937 0.063581824 0.021053655
000300 be 40 9f 3d 8c 5e 27 bd ec 06 f7 3d 70 09 1a 3c
       0.077760205 -0.04086165 0.12061867 0.009401664
000310 15 74 90 bc 13 b0 fa 3d 00 f8 ce 3a 48 20 9c 3d
       -0.017633477 0.12240615 0.0015790462 0.07623345
000320 33 87 15 3d 78 9a 75 bd 43 7a 2b bd b0 e2 86 bd
       0.03650589 -0.059961766 -0.041864645 -0.06586206
000330 28 66 f4 3c 51 e3 cd bc f9 2f 13 be 11 f2 eb bd
       0.029833868 -0.025132807 -0.14373769 -0.1152078
000340 9b 84 8b 3d e4 ba bd 3d e8 5d 11 bd d8 a0 9a 3d
       0.06812402 0.09264162 -0.035489947 0.0755021
000350 bc d7 8c 3d d2 36 2c bc 51 65 ef 3d d0 03 f9 bb
       0.068770856 -0.010511117 0.116892464 -0.0075993314
000360 71 d7 f7 3d e3 68 ce 3d aa bd 17 bd f2 44 6e bc
       0.12101639 0.10078599 -0.037046112 -0.014542805
000370 7c ee b4 3d 5a 7b b0 bd db 11 9e 3d cd 28 d9 3d
       0.0883455 -0.086172774 0.077182494 0.10603485
000380 00 de b1 bd 80 bf 32 3b 23 ce 09 be d8 72 db bd
       -0.08684921 0.0027274787 -0.13457541 -0.10715264
000390 cc 80 f3 bc aa 6f b8 3d e8 75 00 bd 23 b8 e2 3d
       -0.029724501 0.09005673 -0.031362444 0.110702775
0003a0 e0 71 cc bd c2 11 a4 3d 3a 4b e2 bd d0 2e af bd
       -0.099826574 0.080111995 -0.110495046 -0.08553851
0003b0 50 24 a5 bd 46 0e 9c bd d1 a2 57 bb 88 2c d7 3d
       -0.08063567 -0.0761991 -0.0032903443 0.105065405
0003c0 21 7f e8 3d 60 a3 55 bc 1b 1d b0 3c c8 e4 c9 3d
       0.11352373 -0.01303944 0.021498254 0.0985809
0003d0 d0 62 9c bc 18 71 7c 3b ba 1e 97 3b 88 f5 91 bc
       -0.019090086 0.0038519558 0.004611817 -0.017817274
0003e0 13 0e f6 3c 58 ec 26 3d 2b 2c 19 3a 9a d8 a7 bd
       0.030036008 0.04075274 0.00058430684 -0.0819561
0003f0 b8 34 a2 bc 05 7b 63 3d 7c 81 91 3d 34 42 4e 3d
       -0.019800529 0.055537242 0.07104775 0.050356105

fc3_action.bias f4 [11]
000000 ce 71 3e bd cb a5 58 3d 9c 7c 35 3d 43 76 08 3b
       -0.04649525 0.052892487 0.04430829 0.0020822443
000010 ff dc 7a 3c d3 59 27 3d 7b 11 19 bd 64 09 a0 3d
       0.015311479 0.040857147 -0.037370186 0.07814291
000020 31 e3 94 3b ef 57 64 bd 4d 58 68 3d
       0.004543685 -0.055747923 0.056724835
