improved_vrpb_policy_best.pth (torch, 42797 bytes, 6 tensors)

fc1.weight f4 [128, 6]
000000 b2 34 96 3e a8 9a 5d 3e e4 75 e1 bd a8 e5 30 be
       0.29337078 0.21641028 -0.11008814 -0.17275107
000010 30 55 cf bc 80 97 74 3d 1a 05 3d 3e 49 17 d0 bd
       -0.025309175 0.059714794 0.18458977 -0.10160691
000020 8e c7 00 3e bc b1 d3 3d 1a 77 6d 3e a0 7a db bd
       0.12576124 0.103366345 0.23189965 -0.10716748
000030 02 b6 5c be ac 0a 0f be 8c de f2 3d df 0b 86 3e
       -0.21553805 -0.13968915 0.11858854 0.26180932
000040 5e 60 29 3e be c7 af 3e ba d1 3f be a0 1b 9c 3e
       0.16540667 0.3433208 -0.18732348 0.30489826
000050 38 6e 5e 3d f0 58 2e 3e ca b3 8d be c4 bc 66 3e
       0.05430433 0.17026114 -0.2767623 0.22532946
000060 50 97 ac be e0 0a 3f bc e6 dd a4 be 00 c7 8e be
       -0.33709192 -0.011660308 -0.32200545 -0.278862
000070 3c 2e ca bd 00 17 58 3e f2 b8 bf be 74 c1 98 3e
       -0.098721 0.21102524 -0.3744579 0.29835093
000080 88 1c 2b be 30 d4 be 3d 31 50 9a be 43 aa a3 be
       -0.16710103 0.09317815 -0.30139306 -0.31965837
000090 ce 8c 2e 3e 47 4f 83 3d c7 c9 35 be 0c ee cb 3d
       0.170459 0.06411605 -0.17752753 0.09957513
0000a0 47 ae 97 3e 28 e5 2d 3e 67 52 a7 be c3 54 be 3e
       0.2962515 0.16981947 -0.32680055 0.37174043
0000b0 7b 30 e7 3d 56 8a 02 3e 01 7a 25 3d c0 ab c0 3c
       0.11288544 0.12748083 0.040399555 0.023519397
0000c0 d2 61 38 3e 79 ef 9b be 6a 44 6a 3e 04 19 c1 3d
       0.18006065 -0.3045614 0.2287766 0.094285995
0000d0 e7 b6 2a bd 34 57 a9 bd 25 56 c2 be 70 ef a9 be
       -0.041678336 -0.08268586 -0.37956348 -0.3319049
0000e0 a1 cd 94 be 3a 5a 33 3e 3c 6e ca 3d aa 9e cf be
       -0.29063132 0.17514887 0.09884307 -0.4055074
0000f0 7d 3f 72 be 3b 03 9f 3e 7f b3 a4 3e 58 2b 27 3d
       -0.23657031 0.31057152 0.32168195 0.04081282
000100 85 68 4e be 7d 74 45 be 50 98 bd bd 32 54 4a 3e
       -0.20157059 -0.19282718 -0.09257567 0.1975868
000110 fa 6b 0c 3e c2 c6 82 3c 32 43 31 3e 9c 30 1e be
       0.13713065 0.015963916 0.17310789 -0.1544823
000120 98 f8 f3 3d 12 c7 b7 3e 20 32 05 3c 4a 33 ca 3e
       0.1191265 0.35894066 0.0081296265 0.39492255
000130 82 c5 81 be f0 e1 9d 3c 4b 9c 84 3e 56 5a 76 bc
       -0.25346 0.019272774 0.25900492 -0.015036186
000140 60 ce b0 3e e6 43 9e 3d c9 ba 6b be a0 3d 68 3e
       0.34532452 0.07727794 -0.23020472 0.22679758
000150 ce 05 4c 3e 73 c6 97 3e 71 ab 6e 3d 9b 98 89 3e
       0.1992409 0.29643592 0.058268968 0.2687424
000160 66 2f bd be 37 29 a2 be d1 c5 b8 be 65 2d 5f be
       -0.36950225 -0.3167207 -0.36088422 -0.2179466
000170 00 fc 83 39 e9 55 c2 3e a6 bf 66 3e 90 12 a0 3d
       0.00025174022 0.3795617 0.22534046 0.078160405
000180 1f 9d 0a 3d 26 28 17 3e ab 6a 8b 3e f3 39 a6 3e
       0.03384125 0.14761409 0.2722982 0.32466087
000190 7e bc 34 3e 28 8a 2c bd f8 37 28 3d 81 26 4d be
       0.17650029 -0.042123944 0.041069 -0.2003422
0001a0 b6 20 6d be 99 07 99 be f6 b6 97 3e 0a c1 93 be
       -0.2315701 -0.2988861 0.29631776 -0.28858215
0001b0 b4 00 dd bd e3 3d 89 3e af bd 79 be 6e 04 23 3e
       -0.1079115 0.26805028 -0.24388765 0.15919659
0001c0 e6 4a 14 3e 4e 0b 17 be c6 78 6c 3e 25 28 b5 3e
       0.14481696 -0.14750406 0.23092946 0.3538219
0001d0 c5 c2 d4 bd 26 28 2a 3e 9c 5e f1 3d a2 44 94 be
       -0.10388712 0.16616878 0.117856234 -0.28958613
0001e0 f1 30 d0 be 4f 9a bd bd bd 0c 3b be 84 7a da bd
       -0.4066234 -0.09257948 -0.18266578 -0.10667899
0001f0 91 13 68 be 3c f6 c5 bd 14 2d be 3d 59 ee 22 3e
       -0.22663714 -0.09666106 0.09285942 0.15911235
000200 00 7e a6 3d c5 16 ae 3e 16 5e 1a be c4 8e bd 3e
       0.08129501 0.34001747 -0.15074953 0.37022984
000210 92 bb ea 3c 27 84 4f bd 47 db 9f 3e 46 87 19 3e
       0.028653894 -0.05066314 0.31221983 0.14993009
000220 ff 41 b5 3e 58 2e 8f 3d 9f 04 99 be 8c da c9 3d
       0.35401914 0.06991261 -0.29886338 0.09856138
000230 e4 2b 2a 3c a1 87 c4 3e a0 55 08 be 74 f9 d0 3e
       0.010386441 0.38384727 -0.13313913 0.40815318
000240 97 22 97 3e dc 80 bd 3d cc 70 81 be 21 df 9d 3e
       0.29518577 0.092530936 -0.2528137 0.30834296
000250 4d ea a5 3e b8 88 87 bd 57 2e b7 3e 52 d4 2d 3e
       0.3240532 -0.06617874 0.35777542 0.16975525
000260 63 ad 8d be 01 af 49 be af 6e fc bd 30 6b 03 3e
       -0.27671346 -0.19695665 -0.12325799 0.12833858
000270 88 5b ad 3d 50 dd 87 be 98 ca 36 3b 95 0f e1 3d
       0.08464724 -0.26536036 0.0027891751 0.109893
000280 67 fc ba 3e f8 6e ea 3d 36 48 25 3e 89 ee a9 be
       0.36520693 0.11446947 0.16140828 -0.331898
000290 b0 5a 9f bd 43 bd 26 be ee 94 7b 3e 74 c2 da bd
       -0.07780969 -0.16283135 0.24568531 -0.1068162
0002a0 39 54 ec bc ad f9 4e 3a 28 34 77 3e 05 32 56 3e
       -0.028848754 0.0007895481 0.2414099 0.20917518
0002b0 03 d7 3e be 88 77 11 be 1e 42 b6 3a 86 21 59 3e
       -0.18636708 -0.14205754 0.0013905203 0.21204194
0002c0 a1 bc 2b 3d 94 0b 4d be 4a 8b 1d 3e c0 e6 63 bc
       0.041927937 -0.20023948 0.15385166 -0.013909996
0002d0 06 f4 ba 3e 10 ed 1c be 6f 4b 93 be d8 55 a0 be
       0.365143 -0.15324807 -0.2876849 -0.31315494
0002e0 51 99 2b be 40 17 4b bd b0 ca f4 3d d2 dd b0 3e
       -0.16757704 -0.04958272 0.11952722 0.34544235
0002f0 80 5f a5 bd 08 ae 02 3e 40 43 f5 3d 65 bc 92 be
       -0.08074856 0.127617 0.119757175 -0.2865936
000300 52 2b c0 be 06 1f 3a be 90 aa f3 bd 03 e1 9f be
       -0.3753305 -0.18175897 -0.118977666 -0.31226358
000310 fe 6b c7 3c 58 06 b0 3d fd f4 a6 be 11 76 5e 3b
       0.024343487 0.0859496 -0.32608786 0.0033944885
000320 a3 73 fa bd 63 cf 74 be 5d 07 92 3d 61 e9 63 be
       -0.12229087 -0.23907237 0.07130311 -0.22256996
000330 f8 ea 93 3d 60 0b 06 3d f8 07 b5 bd ec b2 68 3e
       0.07222551 0.03272569 -0.088394105 0.22724503
000340 c0 64 cf be f0 c5 f9 bd 8b 26 95 be 33 f1 ac 3e
       -0.40506554 -0.12195957 -0.29130968 0.3377777
000350 aa aa 07 3d 06 9e 78 3e e1 9d c5 3e 7e d5 cd 3e
       0.033121742 0.24279031 0.38597015 0.40201944
000360 cd 08 84 3e 15 45 10 be 7e 8a 83 be 19 a1 cd 3e
       0.25787964 -0.14088853 -0.256916 0.4016197
000370 32 6d 73 be ae e8 43 be 18 ea a3 3d 1f 85 b1 3e
       -0.23772123 -0.19131729 0.08003634 0.34671876
000380 3d a9 7f be 70 eb 82 bd 35 f4 2e 3e 08 d5 d4 3d
       -0.24966903 -0.063925624 0.17085345 0.10392195
000390 74 e8 ad 3e cc ac ab bd c6 0e 89 be 56 52 0b be
       0.3396641 -0.08382568 -0.26769084 -0.13605627
0003a0 64 10 b6 be 78 a6 24 3d 43 cf a0 bd 4d 4c 52 3e
       -0.3555938 0.04019782 -0.07852032 0.20536919
0003b0 59 58 81 be 0a d5 5a 3e 7e 6d f4 bc 40 c0 cd bb
       -0.25262716 0.2137033 -0.029837366 -0.0062790215
0003c0 5e 7c 9a be 88 fe 25 3e 66 c5 69 be 38 eb dc 3d
       -0.3017301 0.16210377 -0.22829208 0.10787052
0003d0 00 3e 4e be 98 f4 77 3d 09 56 2a bd 4f 21 a0 3e
       -0.20140839 0.060535997 -0.041585956 0.31275412
0003e0 f7 aa fe 3b e2 e1 68 be 15 be 80 3e 10 59 54 3e
       0.0077718454 -0.22742417 0.2514502 0.207371
0003f0 f4 87 31 be 61 7f 84 3e a6 7c 0d 3e 48 78 e9 bd
       -0.17337018 0.25878432 0.13817081 -0.11399895

fc1.bias f4 [128]
000000 c4 c7 67 be 19 2b 28 bd fe 0d 70 3e 71 41 af be
       -0.22634798 -0.041056726 0.23442838 -0.34229615
000010 cc 7c 7d 3e b8 ed 66 3d 26 01 46 be e0 93 f6 bd
       0.24754637 0.05637905 -0.19336376 -0.12039924
000020 bc d2 37 bc a2 7c 00 be 1f 72 32 be 85 28 b5 3e
       -0.011219677 -0.12547544 -0.17426346 0.35382476
000030 58 d0 ca be 6f 1f 9d be b6 79 09 3e 1b b2 a9 be
       -0.3961208 -0.30688044 0.13425335 -0.33143696
000040 07 35 79 bd 88 39 47 bd 09 20 35 3d 9c 28 bb be
       -0.060841586 -0.04863885 0.044220004 -0.3655442
000050 cf 07 bf 3e ff 9e a7 3e 13 4d c3 3e 46 58 3e 3e
       0.37310645 0.32738492 0.3814474 0.18588361
000060 fc 0b c6 3d 4b 9e 9f 3e 17 e9 cc be ca 9a 7c 3e
       0.096702546 0.31175455 -0.40021583 0.24668422
000070 6b ff 08 be bc 7a 21 bc 90 5e 31 bd 8e 8e bf be
       -0.13378684 -0.009855922 -0.043303072 -0.37413448
000080 c1 d9 ba 3e 22 62 0e 3e e4 05 ec bd 05 c9 b2 be
       0.36494258 0.13904622 -0.11524561 -0.3491899
000090 52 a6 28 3e de 93 9d 3c b0 54 c8 bc b1 4e 3a 3d
       0.16469696 0.019235548 -0.024454445 0.045485202
0000a0 c4 60 fb bd f0 38 e4 bd 74 fd cf 3d 84 ab 16 be
       -0.12274316 -0.111436725 0.10155764 -0.14713866
0000b0 2a 4a 6c 3e 66 ca 48 be 5a ed 84 be af b3 b3 3e
       0.23075166 -0.19608459 -0.25962335 0.35098025
0000c0 f1 ff 9a 3e 58 6e 49 3d 80 a9 b1 be d8 28 b0 bd
       0.30273393 0.049177498 -0.3469963 -0.0860154
0000d0 94 1f 88 bd d6 6b 13 be 36 98 3e 3e 60 8c 6c be
       -0.06646648 -0.14396605 0.18612751 -0.23100424
0000e0 de 71 6b 3e d8 cb e8 bd d6 2b 54 3e dc 2b 6e be
       0.22992656 -0.11367005 0.20719847 -0.23258919
0000f0 00 5d d5 bd 4e 82 7d 3e a0 8c 9f bc 6a 04 5d 3e
       -0.10418129 0.24756739 -0.019476235 0.21583715
000100 a4 58 7c 3c d4 d9 56 be 9b d9 b4 3e 89 de 08 bd
       0.015401993 -0.20981532 0.3532227 -0.03341535
000110 31 4e 97 be 84 d5 a4 be f8 83 02 bd a6 eb 97 be
       -0.29551843 -0.3219415 -0.031864136 -0.29671973
000120 c2 e6 2a 3d f7 bf c5 be 5c c1 c5 be 60 69 07 bd
       0.041723974 -0.3862302 -0.38624084 -0.033059478
000130 61 7e c4 be 36 93 21 be 27 42 a5 be ed 91 61 be
       -0.3837767 -0.15778813 -0.32277033 -0.22028323
000140 6c a3 ff 3d 8c 79 df bd 96 a1 11 3e c8 3d 19 be
       0.12482342 -0.10911855 0.14221796 -0.14964974
000150 39 65 b8 3e 84 0f db 3d 16 47 6b 39 b2 8c ce 3c
       0.36014727 0.10696319 0.00022437828 0.025213573
000160 80 af 83 be 34 bd ee 3d d0 e3 c2 bd fe bd 26 3e
       -0.25719833 0.116571814 -0.09516108 0.16283414
000170 c1 c0 cc 3e 88 74 85 be 6e 3b 7a 3e 02 6c 76 be
       0.3999081 -0.2606547 0.24436733 -0.24064639
000180 40 26 6c 3c 57 30 64 3d 51 e2 0a 3d 3a 3d 20 be
       0.014413416 0.055710163 0.03390724 -0.15648356
000190 2e c2 c8 be f9 59 9f 3e b0 c0 9c be 8a 1c 1d be
       -0.39210647 0.3112333 -0.3061576 -0.15342918
0001a0 27 7e 7b bd d2 d6 21 be f2 b2 1a be 73 92 b5 3e
       -0.061399605 -0.15804604 -0.15107325 0.35463294
0001b0 b7 b1 a7 3e 62 24 b9 be ed f9 a1 3e ef 8d 2f bd
       0.32752773 -0.3616057 0.3163599 -0.042859968
0001c0 be 66 63 be d8 63 c2 bd 80 52 89 be b8 bb 33 bd
       -0.22207162 -0.094917 -0.26820755 -0.043880194
0001d0 96 82 0a 3e 88 71 c2 bd 00 55 16 bc c0 cc 5b be
       0.13526377 -0.094943106 -0.009175539 -0.21464825
0001e0 7d 61 cc 3e d2 8d 0b 3e 5b 47 be 3e 26 73 2c 3e
       0.39918128 0.13628319 0.37163815 0.168408
0001f0 76 7d 6c 3e f8 f3 64 be cd c5 ac 3e 9f 6f c0 3e
       0.23094735 -0.22358692 0.3374466 0.3758516

fc2.weight f4 [64, 128]
000000 63 1b 93 3d 28 bb a8 bd 60 30 21 bc ef 7e 92 3d
       0.07182958 -0.08238822 -0.009838194 0.07153117
000010 a0 7d 78 3b 1e 40 21 3d 56 e0 06 3d 45 40 87 3d
       0.0037916675 0.039367788 0.032928787 0.06604055
000020 d3 74 ac bd 02 40 41 bd 8a 9d 70 3d 80 b5 1b 3c
       -0.0842072 -0.047180183 0.05874399 0.009503722
000030 bc 89 0e 3d 02 37 81 bd 3c bf 90 bd 95 ea 8f bd
       0.034799322 -0.0630932 -0.07067725 -0.07027165
000040 77 93 9d 3d 80 79 bc 3a 00 9e 3e bd 86 d7 11 bd
       0.07694142 0.0014379472 -0.0465374 -0.03560593
000050 bb e3 8a bd 56 6a 9e bd 68 41 e8 3c 1b 86 a1 bd
       -0.067817174 -0.07735126 0.0283515 -0.07886907
000060 d3 56 9b bd 00 3b 83 3b f0 71 ca 3c b8 a8 6c bc
       -0.0758492 0.004004836 0.024712533 -0.014444523
000070 b0 e4 6d bd 2c f8 a4 bc e1 5f b2 3d 58 99 b6 bc
       -0.05807942 -0.020137869 0.08709694 -0.022289917
000080 f0 7f 6c bd f0 73 55 3c f3 56 92 3d a9 ae aa 3d
       -0.0577392 0.01302813 0.071454905 0.08334095
000090 5a 3d 24 3d 80 5d 2f bc 7e 9e 74 3d f0 d1 e8 3b
       0.040097572 -0.0107034445 0.059721462 0.0071051046
0000a0 e0 36 1f bc 08 90 42 bc fc 65 df 3c 32 af 3c 3d
       -0.009717673 -0.01187516 0.02727031 0.046065517
0000b0 7a 69 40 bd 91 87 82 3d 3e 4e 63 3d 40 92 6f 3c
       -0.04697559 0.063735135 0.05549454 0.014622271
0000c0 fc 1d 9a bd 00 be ac 39 f0 a5 ef bb 52 e2 87 bd
       -0.0752525 0.00032947958 -0.0073134825 -0.06634964
0000d0 6c 30 8f 3c 78 a8 00 3d e6 ea 56 3d 53 98 5d bd
       0.017479144 0.031410664 0.05247011 -0.054100346
0000e0 97 a9 8f bd c4 b8 99 bc 6c f4 95 3c 50 28 ef 3b
       -0.070147686 -0.01876486 0.018305026 0.007298507
0000f0 21 6e 9e 3d a6 0d 79 3d 87 e3 ad 3d 32 e1 56 bd
       0.07735849 0.06080403 0.08490663 -0.052460857
000100 b7 6f 9b 3d 48 b6 02 3d 79 e1 af bd c0 be 9e bd
       0.07589667 0.03191212 -0.08587927 -0.077512264
000110 64 47 a4 bd a0 02 89 3b bc 14 c9 bc 22 80 5b 3d
       -0.08021429 0.004181221 -0.02454602 0.053588994
000120 08 23 46 bc aa 27 33 3d 72 2c 61 3d 27 56 ad bd
       -0.012093313 0.043739 0.054974027 -0.08463698
000130 bb ac 87 bd 1c 6e 5d bd 7e 61 25 3d e1 2d 8c 3d
       -0.066247426 -0.054060087 0.04037618 0.06844688
000140 20 a9 d0 bc 38 ce 5d bc 58 b2 05 bd 42 88 16 3d
       -0.02547127 -0.013537936 -0.032640785 0.03675104
000150 24 a6 84 bc 4c f1 f4 3c 1c 92 2e bd ee 5b 07 3d
       -0.016192503 0.029900216 -0.04261981 0.033046655
000160 e7 03 96 bd 7d 91 93 3d 5c e4 bf 3c c6 92 68 3d
       -0.07324963 0.07205484 0.02342432 0.0567806
000170 c3 89 93 3d af 5f a9 3d 02 39 f1 bc a2 dc 22 3d
       0.0720401 0.08270203 -0.029446129 0.039761193
000180 02 1d 3d 3d 67 64 aa 3d 0a f4 1e 3d 3c 06 c1 bc
       0.046170242 0.083199315 0.038806953 -0.023562543
000190 78 2e be 3c 68 d0 66 bc a6 b6 dc bc 0b ba 9a 3d
       0.023215517 -0.014087774 -0.026942562 0.07555016
0001a0 80 99 38 ba 77 7c b4 3d f4 e4 9e bc 27 c5 4e bd
       -0.0007041916 0.08812802 -0.019396283 -0.050480988
0001b0 e2 fd 7e 3d 58 c2 9c 3c 3e b7 2b 3d b2 b4 dd bc
       0.06225384 0.01913564 0.0419228 -0.027063701
0001c0 cb 3a 86 3d 8a 69 5b 3d 70 a6 b8 3b 8e 80 4f 3d
       0.065541826 0.053567447 0.0056350753 0.05065971
0001d0 e2 d7 4a 3d 02 d6 13 3d b0 99 fc 3b 6a ed 65 3d
       0.04952229 0.036092766 0.0077087507 0.05613462
0001e0 b0 8a f9 bb 80 cb 27 3a b2 be 85 bd 92 b0 96 bd
       -0.00761541 0.00064008683 -0.06530513 -0.07357897
0001f0 36 14 67 bd 71 3a 4b bd 70 2f 41 3c 13 f9 2d bd
       -0.05641576 -0.04961628 0.011791095 -0.042473864
000200 40 11 63 bb ff ac ab bd 77 4a b1 3d 31 ee 14 bd
       -0.0034647733 -0.08382606 0.08656781 -0.03635997
000210 83 6c 94 3d 38 22 43 bd 13 c1 8b 3d 4c d5 99 3d
       0.072472595 -0.047640055 0.06823935 0.07511386
000220 cf 48 17 bd 52 9c aa bc e1 bf 95 3d d3 ba 51 bd
       -0.03693467 -0.020826492 0.073119886 -0.05120356
000230 8a 26 7d 3d 5f ca 77 bd b0 1a a6 3d 4d 36 31 3d
       0.06180433 -0.06049573 0.08110559 0.043264676
000240 2c da 49 bc 61 82 91 3d 4d 74 8b 3d 80 92 10 3a
       -0.012320083 0.07104946 0.06809292 0.0005514994
000250 7c 01 a9 3d 52 62 8f bd 0a 19 ab bd 34 30 a1 bd
       0.08252236 -0.07001175 -0.08354385 -0.07870522
000260 c4 95 47 3c fc 98 b0 3c 32 3a dc bc d1 b1 a3 3d
       0.012181703 0.021557324 -0.026883218 0.079929
000270 d0 09 cc 3b a8 78 8a 3c a2 42 1b 3d 30 f5 d7 bc
       0.0062267557 0.016903237 0.037905343 -0.026362032
000280 16 c7 34 bd 4d d1 80 bd 3b a3 b3 3d 29 48 1b bd
       -0.044135176 -0.06289921 0.08771368 -0.037910614
000290 dc da 37 bd 34 9f 8a bd d3 a6 b2 3d 14 e6 22 3c
       -0.044886455 -0.06768647 0.087232254 0.00994255
0002a0 f6 5a 36 3d 6e 4d 41 bd 02 94 70 3d bb d7 86 3d
       0.04452034 -0.047192983 0.0587349 0.06584116
0002b0 da 45 58 bd 4f 9e 64 bd ae 7a 47 3d fa 49 b2 3c
       -0.05280099 -0.055815037 0.04870098 0.02176379
0002c0 03 6a a6 3d 5f b1 87 3d d0 2d de bc 42 23 67 3d
       0.08125689 0.06625628 -0.027121454 0.05643011
0002d0 be e8 b4 3c d7 02 86 3d fd db 4c 3d 49 71 30 bd
       0.022083636 0.065435104 0.050014485 -0.043076787
0002e0 53 63 a3 bd 9a 7d a8 bc ef dd a5 3d c9 be 4e bd
       -0.07977929 -0.020567704 0.08098971 -0.050474916
0002f0 06 ce 05 3d 3c 60 ff bc 5a 89 07 3d e4 af 30 3c
       0.032667182 -0.031173818 0.033089973 0.010784123
000300 be e8 3e 3d e6 e4 d8 bc 4e 2c 81 bc 6d 80 37 3d
       0.04660868 -0.026476335 -0.015768196 0.04480021
000310 4a 04 44 3d 7d 59 a3 bd 0b 08 8a 3d 2d 5a a8 3d
       0.047855653 -0.07976053 0.06739815 0.08220325
000320 40 d7 c0 3a 70 40 20 3c a2 9b 67 bd ac 60 1e bd
       0.0014712587 0.009780988 -0.056544907 -0.038666412
000330 32 9a e7 bc e1 34 af 3d 4d 36 51 3d f6 d2 6d 3d
       -0.028271768 0.08555008 0.051077176 0.058062516
000340 b9 ee d1 3b 4d fb 82 bd 57 90 ab 3d 4e 39 4b 3d
       0.006406632 -0.06395588 0.0837714 0.049615197
000350 e5 f7 a5 bd 5b bb 55 bd 3c 74 ab 3d e8 49 b7 3c
       -0.08103923 -0.05218063 0.08371779 0.022374108
000360 98 47 72 3c c0 76 3f bc b7 52 4f bd c3 44 af bd
       0.014787577 -0.011686027 -0.050615992 -0.08558037
000370 7d 53 75 3d 46 c6 4c 3d 4c fb 95 bd 77 f8 a5 3d
       0.059894074 0.049993776 -0.07323322 0.081040315
000380 18 38 cc 3c b0 c4 3d bd 26 cf 0d bd 12 0c 25 bd
       0.024929091 -0.046330154 -0.03462138 -0.040294714
000390 74 5a e7 3c 35 e1 77 3d 2f b4 72 bb e4 f7 89 bc
       0.028241374 0.06051751 -0.0037033667 -0.016841836
0003a0 f6 b9 c5 bc e0 4f 92 bb b0 78 3c bc 6f 1a b5 3d
       -0.024136525 -0.0044650882 -0.0115033835 0.088429324
0003b0 df 6e a2 3d 0b e8 76 bd 07 b3 8a bd 35 ae 89 3d
       0.07931303 -0.060279887 -0.06772428 0.067226805
0003c0 4c 18 a8 bd 46 18 41 bd c0 a0 af ba 15 a9 01 bd
       -0.08207759 -0.04714229 -0.0013399348 -0.03165539
0003d0 30 d6 91 bd 61 2d 65 3d e3 39 8b 3d 2a 76 5a 3d
       -0.07120931 0.05595148 0.067981504 0.053335346
0003e0 85 29 3d 3d 18 4b dc bc a3 a9 eb 3a 5e 92 98 3c
       0.046182174 -0.026891276 0.0017979633 0.01862448
0003f0 09 d3 68 bd 80 21 00 3b ae 4f b7 3c 44 ad 62 bd
       -0.056841884 0.0019551218 0.022376861 -0.05534102

fc2.bias f4 [64]
000000 28 74 f1 3c d6 0e 74 bd a0 c4 69 3c 73 9d af 3d
       0.029474333 -0.05958446 0.01426807 0.08574953
000010 22 7d fa 3c b0 01 58 3c a1 cf 55 3d 7a 2c b3 bd
       0.030577246 0.013183996 0.052199963 -0.087487176
000020 f9 26 90 3d 0a d8 e7 bc bf bb 8e bd 97 15 a2 bd
       0.070386834 -0.028301258 -0.069694035 -0.07914274
000030 e4 3e 41 bd b9 60 37 3d 1a 34 a0 bc 8e 24 71 bd
       -0.047179118 0.044769976 -0.019556094 -0.058872752
000040 bd 56 0c bd 4c f4 3f bd 8c ca 2f bc 1f 96 8b bd
       -0.034262408 -0.04686384 -0.010729443 -0.06815743
000050 a0 45 fd 3c 76 fe ab bd 2f a2 4c bd 12 90 ef bc
       0.030916989 -0.08398144 -0.049959358 -0.029243503
000060 a4 56 3a 3c da 8c c9 bc 95 4e 44 bd 18 1b eb bc
       0.011373196 -0.024603296 -0.047926504 -0.028699443
000070 6e b6 a1 bc c8 c1 b2 3d 28 19 55 bd 4f d4 48 bd
       -0.01974031 0.08728367 -0.052025944 -0.0490306
000080 32 78 9a 3c f7 0f e2 3b cf b1 3f bd 96 e5 e0 bc
       0.018856142 0.006898876 -0.04680043 -0.027453225
000090 87 03 59 3d f1 66 b2 3d 26 e4 1a bd f1 68 1a 3b
       0.05298188 0.08711041 -0.037815236 0.0023561085
0000a0 26 dc 85 bd ec 3b 1b bc b0 8d d2 3b 14 15 8b bd
       -0.065361306 -0.009474736 0.006425582 -0.0679113
0000b0 f2 ae 47 bd e2 6c a3 bc e3 d4 4c 3d fd 82 5c 3d
       -0.048750825 -0.01994938 0.050007712 0.053835858
0000c0 1c 51 a1 bd 52 31 34 b7 2c 8a 41 bc 0e ca 9e 3c
       -0.078767985 -1.0740319e-05 -0.011812728 0.019383457
0000d0 15 6e 08 3d 67 30 82 bb 20 ad 53 3b 66 09 89 bd
       0.033308107 -0.003973055 0.0032299235 -0.06691246
0000e0 03 13 a3 3d 13 87 9e 3d 5c 72 97 bd ab ef 58 3d
       0.079626106 0.07740607 -0.07394859 0.05296294
0000f0 66 a5 13 bd 8b 10 9c 3d ce 23 83 bc 8b 54 f2 39
       -0.036046408 0.07620343 -0.016008284 0.00046220826

fc3_action.weight f4 [11, 64]
000000 86 45 88 3d d6 f8 ae 3d 28 09 ce bd cd ee ce 3d
       0.066538855 0.085435554 -0.1006034 0.101041414
000010 1c 57 13 3c d6 b6 b1 3d e3 db 21 3d 98 89 4a bd
       0.008992936 0.08677451 0.03951634 -0.049447626
000020 ae 95 fe bd 26 ae f9 3d 55 b5 93 bd 00 e3 00 ba
       -0.12430893 0.12191419 -0.07212321 -0.0004916638
000030 88 a7 c2 3d f6 9d ec 3c 0b 42 27 3d 6e c1 c9 bd
       0.0950461 0.028883915 0.040834468 -0.09851347
000040 81 55 df bd b8 55 a7 3d 7c 15 30 3c dc c3 34 bd
       -0.109049805 0.081706464 0.01074731 -0.0441321
000050 20 8e 93 3c 94 84 c8 bd 42 00 e2 bc 16 57 91 3c
       0.018012106 -0.09790912 -0.027588014 0.017741721
000060 28 86 a6 3d 0d 80 3f bd f4 1c 91 bd e4 86 19 3d
       0.08131057 -0.046752978 -0.070856005 0.037482157
000070 fa ef a4 bc 9d af 48 bd 80 d5 0e bd 82 c4 a5 3d
       -0.020133961 -0.048995603 -0.03487158 0.080941215
000080 4c 32 4c 3c f9 4c d6 3b d8 fc d4 bd 98 48 b8 bd
       0.012463164 0.0065399376 -0.103997886 -0.08998221
000090 7d 8c 8d bd 9a 9b ef 3d 78 12 ea bd 2e 9b af bd
       -0.06911562 0.116996005 -0.11429304 -0.0857452
0000a0 9c 1e 58 bd 31 20 7e bd 0c 94 4b bd ac 5d 04 3d
       -0.052763566 -0.06204242 -0.049701735 0.032315895
0000b0 48 12 97 bb 26 ab c2 bd f1 69 07 3b 8c f7 59 3c
       -0.0046103336 -0.095053 0.0020662511 0.013303649
0000c0 4b 29 df bd 9e e8 98 3c e7 59 da bd 7c 0a 21 3c
       -0.10896548 0.018665608 -0.10661679 0.00982916
0000d0 6a 34 8d 3d e8 cb 82 3d ec 89 bd bd d0 e7 d5 bc
       0.06894763 0.06386548 -0.09254822 -0.026111513
0000e0 20 75 d2 bc c0 89 c2 bd 70 b2 fa bd 80 45 bc ba
       -0.025690615 -0.0949893 -0.122410655 -0.0014363974
0000f0 5e 93 91 3d 9e c5 d1 3d 5c 12 b9 3d e6 d7 ce bd
       0.07108186 0.102427706 0.09036705 -0.10099773
000100 a2 19 81 bd 2f 39 b0 bc 58 d8 98 3d 90 f8 38 3d
       -0.06303717 -0.021511642 0.07463139 0.045158923
000110 4e 27 92 bd 14 47 14 bd 50 42 d8 3d d0 be 54 3d
       -0.07136403 -0.036200598 0.10559523 0.051939785
000120 fe 64 a4 3d 90 74 8b 3c 59 fa dd 3d 20 a0 90 3c
       0.08027075 0.017023355 0.10838766 0.017654479
000130 04 8e ae bd 19 c2 89 bd fc 99 57 3c 64 41 46 bd
       -0.08523181 -0.06726474 0.013159271 -0.048402205
000140 2e b3 f8 3d 2c 36 eb bd da 37 86 bd 28 f1 34 3d
       0.12143551 -0.11484942 -0.065536216 0.044175297
000150 8c 4e b5 bd d0 81 99 3d ca f6 f2 bd 45 9b 50 bd
       -0.08852872 0.07495463 -0.118634775 -0.050929327
000160 9c b0 63 3c 84 a1 c9 bd b0 35 51 3d c6 c1 f7 3d
       0.013897087 -0.0984526 0.05107659 0.12097506
000170 5c 59 59 3c e1 e3 f6 3a f4 1f 27 3d 1c f5 f5 bd
       0.013265934 0.0018836224 0.040801957 -0.120096415
000180 81 5b 70 bd c3 0d 71 3d a1 20 1f bd 98 c1 f7 bd
       -0.058681015 0.058851015 -0.038849477 -0.12097472
000190 e1 72 43 bd 40 4f 36 bc f0 92 2a 3c 67 47 0f 3d
       -0.04771698 -0.011127293 0.010411009 0.034980204
0001a0 68 c7 d5 3d a4 36 93 bd d0 41 3b 3d 56 6b 9b 3d
       0.10438424 -0.07188156 0.04571706 0.07588832
0001b0 6e a9 9e 3c 43 63 6b 3d 8e b5 9d 3c 7f aa 4d 3d
       0.0193679 0.05746771 0.019251611 0.050211426
0001c0 4d c5 cc bd 11 1a 54 bd 30 25 ff 3c 7e d2 97 3d
       -0.0999857 -0.05178267 0.031145662 0.07413195
0001d0 10 bb 99 3d fc 28 86 bd 00 7f 19 ba ca 49 b4 3d
       0.075063825 -0.06550786 -0.00058554113 0.08803137
0001e0 1a 46 99 bd a4 fe 92 bd c0 43 cf 3b c8 ac fe 3d
       -0.07484074 -0.07177475 0.006325215 0.12435299
0001f0 bc ac a4 3d 05 7f 4f bd fa bb 8d bd c6 38 ae 3c
       0.08040759 -0.050658245 -0.06920619 0.021267306
000200 a4 b9 9f bd 66 b8 c3 bd c0 65 0e bc c8 91 27 bd
       -0.0779908 -0.095566556 -0.008691251 -0.040910512
000210 5b 37 1b 3d 30 2a 74 3c d8 55 8f bd 0a 03 ec 3d
       0.037894588 0.014902636 -0.06998795 0.11524017
000220 6e 73 dd 3d f8 20 2e bd e2 ac d3 bc b2 5c ce 3d
       0.10813032 -0.04251191 -0.025839273 0.10076274
000230 5c a0 3d bd 36 96 eb 3c d0 d1 a7 bd 28 ba c9 3d
       -0.04629551 0.02875815 -0.081943154 0.098499596
000240 c8 c0 f9 3d 04 81 86 3d 66 73 f2 bd 12 29 97 bd
       0.12194973 0.065675765 -0.11838417 -0.073808804
000250 10 c6 c1 3c c4 e6 83 bd 80 3f f5 bd a9 80 56 bd
       0.023654014 -0.064404994 -0.11975002 -0.052368794
000260 c9 ee 34 bd 6a d9 ab 3d c5 42 15 bd a8 aa d4 bd
       -0.044173036 0.08391078 -0.03644063 -0.103841126
000270 7a 8f bd bc 96 e9 bc 3d 44 cd a9 3d bc 39 6f 3d
       -0.023139704 0.092242405 0.082911044 0.05840467
000280 69 07 35 bd 9d fb 2b bd 5f 8a f9 bd ac ed ec 3d
       -0.04419652 -0.041988004 -0.12184595 0.1156877
000290 83 4d a9 bd 6a 1b 9c bd e0 d5 cd 3b 77 c3 62 3d
       -0.08266737 -0.07622416 0.0062815994 0.05536219
0002a0 28 95 f6 bb 6d 07 60 bd 54 0e 0b 3d 2c 30 c9 3d
       -0.007525105 -0.05469458 0.03394921 0.09823641
0002b0 b9 a0 05 bd ee 48 ca 3c 62 4f 90 3d d3 73 48 3d
       -0.03262398 0.024692979 0.07046391 0.048938584
0002c0 bb cd 75 bc f1 2e 75 3b c0 91 12 3b 4f 02 2b bb
       -0.015002663 0.0037412012 0.0022364706 -0.0026093905
0002d0 c7 6e 12 bc aa b5 9e bc 78 b9 45 bd 50 2c e3 bc
       -0.008937544 -0.019373734 -0.04827258 -0.02773109
0002e0 00 af 39 3b f1 6b 42 bd 38 ba b4 bc c2 9b aa 3d
       0.0028333068 -0.047466222 -0.022061452 0.0833049
0002f0 c0 13 63 3b 5a 49 f8 bc 8c b1 6b 3c a8 6b 99 3d
       0.0034649223 -0.030308414 0.014385592 0.07491237
000300 e6 0a 89 bd d7 0a e5 bc 54 0f 61 3d 00 7d 97 bc
       -0.06691532 -0.02795927 0.05494626 -0.018492222
000310 a4 45 a7 bd 50 2d 4b 3d 60 ff a1 bd 84 b6 38 bd
       -0.0816758 0.04960376 -0.07910037 -0.045095935
000320 96 11 bb bd b0 b9 7b bd 7d 51 bc bd d0 fb 04 bc
       -0.091342136 -0.061456382 -0.0919523 -0.008116677
000330 ee 50 fd bd 92 dc 90 bd 4c f7 cf 3d ec ff 9a 3d
       -0.12368952 -0.070733204 0.1015459 0.075683445
000340 bf 7d 3d bd 3c ac 8e bd d8 78 dc 3d d0 10 d6 bd
       -0.0462625 -0.06966445 0.107652366 -0.104524255
000350 be ef 87 bd 80 79 2e 3c 2a 46 81 b8 da ca eb 3d
       -0.06637524 0.010649085 -6.1642684e-05 0.115133
000360 3c e5 b1 3d a0 0f d3 bd 72 3c e6 bd 90 e7 77 3c
       0.08686301 -0.103057146 -0.11241998 0.015130892
000370 ac 74 98 bd 59 6d b6 bb 80 5f 62 bd 38 b7 f3 3c
       -0.074441284 -0.0055672345 -0.055266857 0.029750451
000380 2a 33 e0 3d d2 aa f0 3d 78 93 f0 3d 16 5f c1 bc
       0.10947259 0.117513314 0.117468774 -0.02360491
000390 be 6c 9d 3d a0 b5 b4 3d 6c 7d 55 3d 2f d6 07 bd
       0.076867566 0.08823705 0.052121565 -0.033163246
0003a0 34 da 8c 3d 6c f0 9e bd 1e 7c ec bd c0 42 b5 3c
       0.068775564 -0.077607006 -0.11547111 0.022126555
0003b0 98 b3 ed bd fa 5c f2 bd 7e 8a ba bc 6d 9b 23 3d
       -0.116065204 -0.1183414 -0.022771116 0.039943147
0003c0 88 af a0 3c b4 d8 b8 bd 44 98 4d bd 38 74 ea bd
       0.01961495 -0.09025708 -0.05019404 -0.11447948
0003d0 7e 2f fe bd c4 5e b7 bd 1a 57 b2 bd 54 fb 08 3d
       -0.12411402 -0.08953622 -0.087080196 0.03344281
0003e0 10 af 88 3d 49 76 4f 3d d6 e2 81 3d c7 c9 62 3d
       0.066740155 0.050649915 0.06342094 0.05536821
0003f0 78 2b e8 3d bc b8 f9 3d a9 71 17 3d 34 ef d2 bd
       0.11336416 0.121934384 0.03697363 -0.102995306

fc3_action.bias f4 [11]
000000 d9 92 28 bd e7 fa 81 bb 1c c0 bf bd 24 b7 33 3c
       -0.04115567 -0.0039666775 -0.09362814 0.010968957
000010 d8 0c 82 3d dd 17 16 3d 3c 16 97 bd a6 dc f6 3c
       0.06350106 0.03664385 -0.07377288 0.03013451
000020 34 b0 f2 3d 26 a6 80 3c 64 e5 7f 3c
       0.11850014 0.015704226 0.015618656
