improved_vrpb_best.pth (torch, 49945 bytes, 6 tensors)

fc1.weight f4 [128, 5]
0	0xbdc786f4	-0.09742537
1	0xbeaa7a51	-0.33296445
2	0xbe9c0127	-0.3046963
3	0x3e954686	0.29155368
4	0x3e2971a8	0.16547263
5	0x3ec8437c	0.39113986
6	0x3e27781f	0.16354416
7	0xbe8bdba6	-0.27316016
8	0x3be99735	0.007128621
9	0x3d7251c0	0.059159994
10	0x3ecc70b5	0.3992974
11	0x3df5a5dd	0.119945265
12	0x3df62d3e	0.12020348
13	0x3e942546	0.28934687
14	0xbede5e2d	-0.43431225
15	0xbdd74c9a	-0.105126575
16	0xbda3c5be	-0.07996701
17	0xbed55ed9	-0.41673926
18	0x3e300d57	0.17192589
19	0xbee0c68a	-0.43901473
20	0xbe52e392	-0.20594624
21	0x3e30927c	0.1724338
22	0x3cde3910	0.027126819
23	0xbeae0ac6	-0.33992594
24	0x3e558be0	0.2085414
25	0xbe122e59	-0.14275493
26	0xbea211f4	-0.31654322
27	0x3ea31359	0.318507
28	0x3e0ecfd6	0.1394647
29	0xbdb8e524	-0.0902808
30	0xbec8464e	-0.39116138
31	0xbe840095	-0.25781694
32	0x3e6eb40e	0.23310873
33	0x3e9658a9	0.29364517
34	0xbea64478	-0.32474113
35	0x3ed256fa	0.41081983
36	0xbec66462	-0.3874846
37	0xbe333b15	-0.17503007
38	0xbded4eb5	-0.11587278
39	0x3eaa9ea4	0.33324158
40	0xbed08c0e	-0.40731853
41	0x3ece27c0	0.40264702
42	0x3db9987f	0.090622894
43	0xbe302be2	-0.1720424
44	0x3ed95e68	0.4245484
45	0x3e71d660	0.23616934
46	0xbc017940	-0.007902443
47	0xbe976f06	-0.29576892
48	0x3ce22440	0.027605176
49	0x3de6d968	0.11271936
50	0x3d7cf0c2	0.061753042
51	0x3e7eef29	0.2489592
52	0x3d818822	0.063247934
53	0xbcdcbec7	-0.026946438
54	0x3eb2f86e	0.34955162
55	0x3ea29cf1	0.31760362
56	0x3d4aabe1	0.049480323
57	0xbd98bbd6	-0.07457702
58	0xbee50604	-0.44731152
59	0x3ddac1d0	0.10681498
60	0x3e9422c3	0.2893277
61	0x3eb81b00	0.359581
62	0x3d674113	0.056458544
63	0xbe891b1a	-0.2677849
64	0xbcef7000	-0.02922821
65	0xbeaf594d	-0.3424782
66	0x3de1c9c0	0.11024809
67	0xbe77f2fb	-0.24213783
68	0xbe5bb7cd	-0.21456833
69	0xbdc1c21c	-0.094608516
70	0x3de9db7b	0.11418816
71	0x3d99ec0c	0.075157255
72	0x3c7d67c6	0.015466636
73	0xbe89883a	-0.26861745
74	0xbebeee27	-0.3729107
75	0xbde2dae0	-0.11076903
76	0x3e00d370	0.12580657
77	0xbe991c2e	-0.29904312
78	0xbddba6d8	-0.10725182
79	0xbe53d807	-0.20687877
80	0xbb6fe1e4	-0.0036603147
81	0xbe307c28	-0.17234862
82	0x3d376ac4	0.044779554
83	0x3df05ff0	0.117370486
84	0x3dae17a0	0.085006
85	0x3ec6876d	0.38775197
86	0xbe8e0962	-0.27741534
87	0xbd021b1f	-0.031764146
88	0x3ed7c5c3	0.42143068
89	0xbedcab14	-0.43099272
90	0x3ed02dd3	0.4065996
91	0x39da4c47	0.0004163703
92	0x3d422634	0.047399715
93	0xbe9cdee0	-0.3063879
94	0x3e92ab88	0.28646493
95	0x3dbb3802	0.09141542
96	0xbe71ada9	-0.23601402
97	0xbe4d0af8	-0.20023715
98	0x3e4b3b16	0.19846758
99	0xbee2b3f6	-0.44277924
100	0x3e93c25a	0.28859216
101	0xbde554d7	-0.111978225
102	0x3ebac345	0.36477104
103	0xbd31dbfe	-0.04342269
104	0x3e76f7e8	0.24118006
105	0xbd7ab27b	-0.06120537
106	0xbe9e61dd	-0.3093404
107	0xbe1a9c61	-0.15098716
108	0x3edb2742	0.4280339
109	0x3e0e37b4	0.13888437
110	0xbedee1ba	-0.4353159
111	0xbea71d8b	-0.32639727
112	0x3ee4a6df	0.44658563
113	0xbecd46a8	-0.4009297
114	0x3e01c044	0.12671
115	0xbe18db3e	-0.14927384
116	0xbe8c9776	-0.27459306
117	0xbe0db550	-0.13838696
118	0xbeb0e11c	-0.34546745
119	0x3cf2b4d0	0.029627234
120	0xbe384f0b	-0.17998902
121	0xbee2b88b	-0.4428142
122	0xbccef1ce	-0.025261786
123	0x3da047f2	0.078262225
124	0xbedc82a6	-0.43068427
125	0x3e3ba9ec	0.18326539
126	0x3dd84e87	0.10561853
127	0x3e535706	0.20638666
128	0x3e36da3a	0.17856684
129	0x3ebd49cc	0.36970365
130	0x3e2a8eb1	0.16655995
131	0x3e525c26	0.20542964
132	0x3ec50aa6	0.38484687
133	0xbea6419d	-0.32471934
134	0x3ed77cd8	0.42087436
135	0xbe2b599f	-0.16733406
136	0x3da6bd5a	0.08141585
137	0xbe4e9c95	-0.20176919
138	0xbd347893	-0.0440603
139	0x3e814fd2	0.2525621
140	0x3e866c66	0.26254576
141	0x3e0cac63	0.13737635
142	0x3ea89e1e	0.32933134
143	0xbe8b6631	-0.27226403
144	0xbe9053fc	-0.28189075
145	0xbe8c2633	-0.27372894
146	0x3df3d89d	0.1190655
147	0xbed3329e	-0.41249555
148	0x3e9abcb5	0.30222097
149	0x3e4c51ec	0.19953126
150	0x3e36e704	0.17861563
151	0xbe58a608	-0.21157086
152	0xbe672f3e	-0.22576615
153	0xbed9d97c	-0.4254874
154	0x3c8cf990	0.017208844
155	0xbe8e507b	-0.27795777
156	0xbe2dfdd4	-0.16991359
157	0x3d42d558	0.04756674
158	0xbe9d3d47	-0.30710813
159	0xbedd9347	-0.43276426
160	0xbd99a7bc	-0.07502696
161	0x3df9d908	0.121995986
162	0xbeb98f7b	-0.3624228
163	0xbedd6439	-0.43240526
164	0xbed76325	-0.4206783
165	0x3d84b966	0.064806744
166	0xbac82fc8	-0.0015273029
167	0xbe4ce7b8	-0.20010269
168	0x3eb3ec2d	0.35141125
169	0x3e02342c	0.12715214
170	0xbe45e8cf	-0.1932709
171	0x3dda432b	0.106573425
172	0x3e046a40	0.12931156
173	0xbe9539db	-0.29145703
174	0x3d0e5ec8	0.03475836
175	0x3ece10a7	0.4024708
176	0xbe3c96cc	-0.184169
177	0xbe670ebf	-0.22564219
178	0x3df58805	0.11988834
179	0xbd681328	-0.056658894
180	0x3e368115	0.17822678
181	0xbd91724a	-0.07101877
182	0xbd3f5c90	-0.046719134
183	0x3edd9e8c	0.43285024
184	0x3eaf903e	0.34289736
185	0x3ebfd4b5	0.3746697
186	0x3e6f2d7e	0.23357198
187	0x3e1287b6	0.14309582
188	0x3e9ef4ac	0.31046045
189	0xbd779520	-0.06044495
190	0xbdcc7f7f	-0.099852555
191	0x3e29838d	0.16554089
192	0x3e8d745d	0.2762784
193	0xbe85786c	-0.26068437
194	0xbecf389c	-0.40472877
195	0xbe9a6121	-0.30152228
196	0x3ec21b07	0.37911245
197	0xbeb920af	-0.36157748
198	0x3dd95549	0.1061197
199	0xbcd92650	-0.026507527
200	0x3e56cfdc	0.2097773
201	0xbe91e26f	-0.28493068
202	0xbe33c3a0	-0.17555094
203	0x3ebcc8a1	0.36871818
204	0x3e8a54ec	0.27017915
205	0xbe923fe6	-0.28564376
206	0x3e3eca8d	0.18631954
207	0x3ea78acc	0.3272308
208	0x3c955083	0.018226868
209	0x3e46be8c	0.19408625
210	0x3e047834	0.12936479
211	0xbe818f35	-0.2530457
212	0x3eb58aab	0.35457358
213	0xbeb6b5ba	-0.3568552
214	0x3e084f34	0.13311464
215	0xbeba0e66	-0.3633911
216	0xbddfdffd	-0.10931394
217	0xbecbd783	-0.3981286
218	0xbcd5d79e	-0.02610379
219	0xbe2702b2	-0.16309622
220	0xbed96485	-0.42459503
221	0x3ea6b1b2	0.32557446
222	0x3e0374a9	0.12837471
223	0xbe82718d	-0.25477257
224	0xbedbdbdb	-0.42941174
225	0xbedf73c0	-0.43642998
226	0xbe63f084	-0.22259718
227	0xbdd1d9c0	-0.10246611
228	0x3e98794b	0.2978004
229	0xbeadf412	-0.33975273
230	0xbe7c61b2	-0.24646643
231	0x3ecc0718	0.39849162
232	0x3e458189	0.19287695
233	0x3edc4d62	0.43027788
234	0xbde282b8	-0.11060089
235	0x3d792580	0.06082678
236	0xbe2cf2f9	-0.16889562
237	0x3e7f3726	0.24923381
238	0x3ee50015	0.44726625
239	0xbb23c480	-0.002498895
240	0x3e66d2db	0.22541372
241	0x3d2eb5a6	0.042653702
242	0x3ea56442	0.32303053
243	0x3e81b46e	0.2533297
244	0xbecba6f9	-0.39775828
245	0x3ec4bf60	0.38427258
246	0x3ee42c29	0.44564942
247	0xbee35a50	-0.4440484
248	0xbda97bda	-0.08275576
249	0xbe3b7bb8	-0.18308914
250	0xbdc26c9d	-0.094933726
251	0x3ec5685a	0.38556176
252	0x3dd305e6	0.103038594
253	0xbea95649	-0.33073643
254	0xbebe277e	-0.37139505
255	0x3d194066	0.03741493

fc1.bias f4 [128]
0	0xbeb7c15b	-0.35889706
1	0x3ec8b811	0.39202932
2	0x3eacabf2	0.33724934
3	0xbc32d3cb	-0.010914753
4	0xbeb70b27	-0.35750696
5	0xbdfe6f99	-0.12423629
6	0xbe82660a	-0.25468475
7	0xbdac8f4a	-0.08425768
8	0x3e8e4f7b	0.27795014
9	0xbeb1c5aa	-0.34721118
10	0xbeae5249	-0.34047154
11	0xbd7e1177	-0.062028375
12	0x3e24eee6	0.16106758
13	0xbdd78994	-0.10524288
14	0x3e6d2bab	0.2316119
15	0xbdc26ad0	-0.09493029
16	0xb9d97666	-0.0004147768
17	0x3ea01099	0.31262663
18	0xbe9fb3b2	-0.31191784
19	0x3e4f965c	0.20272201
20	0xbe8badf9	-0.27281168
21	0x3ec51a27	0.38496515
22	0x3e507278	0.20356166
23	0xbe2c0efa	-0.16802588
24	0x3e349bde	0.17637584
25	0xbd3d0ed1	-0.04615671
26	0xbe5719c7	-0.21005927
27	0x3dc49a3e	0.09599732
28	0x3e7c9a80	0.24668312
29	0x3e8ffb56	0.28121442
30	0xbecdee6f	-0.40220973
31	0x3eba0fec	0.36340272
32	0xbed6fd23	-0.41990003
33	0xbe812665	-0.25224605
34	0xbcd60169	-0.02612372
35	0xbda15d79	-0.078791566
36	0x3e1291f7	0.14313494
37	0x3e7ab954	0.2448476
38	0x3ea49e3b	0.3215197
39	0xbe0ee5f5	-0.13954909
40	0xbdf93b39	-0.12169499
41	0x3aa504f5	0.0012589978
42	0x3ee349f5	0.44392362
43	0x3e9756d7	0.2955844
44	0x3d16976b	0.036765497
45	0xbd8e534d	-0.06949482
46	0xbda197ac	-0.07890257
47	0xbed0cf4c	-0.40783155
48	0x3e2f1505	0.17097862
49	0x3e6fe2a8	0.23426306
50	0xbe0bbc70	-0.13646102
51	0xbe4af7c7	-0.19821082
52	0xbeb44a7e	-0.35213083
53	0xbed28885	-0.4111978
54	0x3e630003	0.22167973
55	0x3c35c28d	0.011093748
56	0x3ecaf230	0.396379
57	0x3d70e1b5	0.058809
58	0x3eb25c22	0.34835917
59	0xbdcf8b20	-0.10133958
60	0xbe61f800	-0.2206726
61	0xbda3d0ed	-0.07998834
62	0xbea48c24	-0.3213817
63	0xbd3d45aa	-0.046209015
64	0xbd6703f4	-0.056400254
65	0x3e831941	0.25605205
66	0xbe09fe18	-0.13475835
67	0xbaef8398	-0.0018273471
68	0xbb683192	-0.0035429937
69	0xbde4384c	-0.1114355
70	0x3ed47c70	0.41501188
71	0xbed510de	-0.4161443
72	0xbd105088	-0.03523305
73	0xbe895a41	-0.2682667
74	0x3caf262e	0.02138051
75	0x3ee20d24	0.4415065
76	0x3ecf768a	0.40520126
77	0x3e5006d7	0.20315109
78	0x3de29e28	0.11065322
79	0x3ee088e2	0.43854433
80	0xbe145a37	-0.14487539
81	0xbe64c64c	-0.22341269
82	0xbe26ac8d	-0.1627676
83	0x3e3db3a1	0.18525554
84	0xbe11fdcd	-0.14256974
85	0x3ede8ed7	0.43468353
86	0xbeb7af54	-0.35875952
87	0x3e3156cd	0.17318268
88	0xbe619651	-0.22029997
89	0xbedadc87	-0.42746374
90	0x3d7305d0	0.059331715
91	0x3e619317	0.22028767
92	0x3cdb8a35	0.0267993
93	0x3ecca10b	0.39966616
94	0xbed6d566	-0.41959685
95	0x3ec34b53	0.38143405
96	0x3e032c15	0.12809785
97	0x3e97a74c	0.29619825
98	0x3e629bfe	0.22129819
99	0x3e681d0d	0.22667332
100	0x3ea2d649	0.31804112
101	0xbdaed19b	-0.08536073
102	0xbe0c4454	-0.1369794
103	0x3e716024	0.23571831
104	0x3c98f23f	0.0186702
105	0xbe9ee17b	-0.31031403
106	0x3d571b34	0.052516177
107	0x3e93642f	0.28787372
108	0x3ed08ba5	0.4073154
109	0xbed0c182	-0.40772635
110	0x3ede4989	0.43415478
111	0xbe4e36c4	-0.20138079
112	0x3d9c53a3	0.0763314
113	0xbe426fb0	-0.18987918
114	0xbe937312	-0.2879873
115	0x3ea1a493	0.31570873
116	0x3e339b1c	0.17539638
117	0xbe9457f8	-0.28973365
118	0x3e3f7b1a	0.18699303
119	0xbeb1cdf2	-0.34727436
120	0x3d192d42	0.037396677
121	0xbdcf9190	-0.10135186
122	0xbed72f98	-0.420285
123	0x3ede5703	0.4342576
124	0x3dcb91df	0.09939932
125	0xbe924334	-0.28566897
126	0xbedb1d0b	-0.42795596
127	0x3e55161e	0.20809218

fc2.weight f4 [64, 128]
0	0xbd8c0f00	-0.068387985
1	0x3d16e512	0.036839552
2	0xbc54ac08	-0.012980469
3	0x3d6c9209	0.057756457
4	0xbd6ee164	-0.058320418
5	0xbd27fa52	-0.04101021
6	0xbd6c6400	-0.057712555
7	0xbd45335f	-0.048144694
8	0xbda50725	-0.08058003
9	0x3cdae6e4	0.026721425
10	0xbcb462e0	-0.022019804
11	0xbbc49795	-0.0059995153
12	0x3daed70e	0.08537112
13	0xbdafe1ae	-0.08587967
14	0x3c671bfb	0.014105792
15	0x3d69fc56	0.057125412
16	0x3d777cdd	0.060421813
17	0x3bf79585	0.007555666
18	0xbd86a3a1	-0.065741785
19	0x3d1b8dc0	0.03797698
20	0xbd2e64bd	-0.04257654
21	0xbd737de3	-0.059446227
22	0xbcba8e43	-0.022772914
23	0xbd88ff30	-0.06689298
24	0xbda85b4e	-0.0822054
25	0xbcab966c	-0.02094575
26	0xbd3cf5f5	-0.046133
27	0x3d5166a5	0.05112328
28	0x3d98d641	0.07462741
29	0x3d19b8a0	0.037529588
30	0xbc932608	-0.01796247
31	0x3d81730c	0.063207716
32	0x3b8c7a90	0.0042870715
33	0xbc90bf25	-0.01766927
34	0x3d5b9d5f	0.053616878
35	0x3d8c0da2	0.06838538
36	0xbda22eb2	-0.07919063
37	0x3c83bd2d	0.016081417
38	0x3d0e48f7	0.034737553
39	0xbdb52ee7	-0.088468365
40	0x3cdbd792	0.02683619
41	0xbc89b238	-0.016808614
42	0xbdaa5408	-0.08316809
43	0x3c1115f6	0.008855334
44	0x3d873f5a	0.0660388
45	0xbd869a50	-0.065724015
46	0x3d98b203	0.07455828
47	0x3d83250f	0.06403553
48	0x3cf8f389	0.030389564
49	0x3db1ea80	0.086873055
50	0x3cfadd09	0.030622976
51	0xbd098ead	-0.03358333
52	0x3db4ab53	0.0882174
53	0xbca800cc	-0.020508192
54	0xbd454c68	-0.04816857
55	0x3d456306	0.04819014
56	0x3d03d8db	0.03218923
57	0x3da11888	0.07866007
58	0x3d8d94cd	0.06913147
59	0x3c564d88	0.013080008
60	0x3d9aa874	0.07551661
61	0x3da1c66b	0.07899173
62	0xbd9234fc	-0.07139012
63	0x3da66d38	0.081263006
64	0xbd2dcad6	-0.042429768
65	0x3c1645b8	0.009171896
66	0xbd84e096	-0.06488149
67	0xbd40e1b0	-0.047090232
68	0xbd72d553	-0.059285473
69	0xbd730dc6	-0.059339307
70	0x3d1ab5c0	0.037770987
71	0x3da6844b	0.08130702
72	0xbc6f2ffa	-0.014598841
73	0x3b60cce8	0.003430182
74	0x3d85eb5b	0.06539031
75	0x3d7ccd7c	0.061719403
76	0xbda734dc	-0.08164379
77	0x3db2a7a4	0.08723381
78	0x3bbd4819	0.005776417
79	0xbd4664a7	-0.048435833
80	0xbd5da6b5	-0.054114062
81	0xbdad2a1a	-0.08455296
82	0x3c4168e2	0.011804791
83	0xbcdb0bbf	-0.026739
84	0xbdb4ee94	-0.08834568
85	0x3d8ae420	0.06781793
86	0x3d8dc639	0.069225736
87	0xbce45f2f	-0.027877418
88	0x3d51fc9d	0.0512663
89	0xbd88dc05	-0.066825904
90	0x3daf33ed	0.08554826
91	0x3d3d666e	0.046240263
92	0x3cb7af87	0.022422565
93	0x3d3e22d6	0.04641994
94	0xbdac294c	-0.08406314
95	0xbd1d037a	-0.038333394
96	0xbc29c4a7	-0.010361827
97	0xbd669139	-0.05629084
98	0x3bf46e49	0.007459436
99	0xbd3cc167	-0.04608288
100	0x3d49c773	0.049262475
101	0x3dae5e69	0.08514101
102	0xbb8f7f3d	-0.0043791817
103	0xbd8cc36f	-0.068732135
104	0xbd2c4513	-0.04205806
105	0x3d609862	0.054832824
106	0x3d167f1e	0.036742322
107	0xbd5a2226	-0.053255223
108	0x3d69b34d	0.05705576
109	0xbca71e30	-0.020400137
110	0x3d4f0cb7	0.050549235
111	0xbd155091	-0.036453787
112	0xbd8ac378	-0.06775564
113	0x3d3d469e	0.046209924
114	0x3d8c9bb8	0.068656385
115	0x3dade5d3	0.08491101
116	0xbd9f6f80	-0.07784939
117	0x3cdd78bc	0.02703511
118	0xbd42c68b	-0.047552627
119	0x3da0aeb3	0.07845821
120	0x3d1209ef	0.035654005
121	0x3d83b221	0.0643046
122	0x3d330778	0.043708295
123	0x3c879d35	0.016554454
124	0x3d02b148	0.03190735
125	0x3d6642be	0.056215994
126	0xbc907074	-0.017631747
127	0xbd020341	-0.031741384
128	0x3d3d00b2	0.04614324
129	0xbcb7ad2b	-0.02242144
130	0x3d733a83	0.059381973
131	0xba33e1bc	-0.0006861945
132	0x3d76c35a	0.060244896
133	0x3d3e63c0	0.046481848
134	0xbcdaa28a	-0.026688833
135	0x3ce418fe	0.027843948
136	0x3d935125	0.071932115
137	0x3d84544d	0.064613916
138	0x3d1c3960	0.038140655
139	0x3c343c5f	0.011000722
140	0x39bd32b0	0.00036086654
141	0xbc0c16c8	-0.008550353
142	0xbd8e54a3	-0.06949737
143	0x3db24879	0.08705229
144	0x3a929124	0.0011182171
145	0x3d655aa3	0.05599464
146	0x3d829d27	0.06377631
147	0x3b559806	0.0032591834
148	0xbd699c2d	-0.057033706
149	0xbd6bfc69	-0.057613764
150	0x3d28b7cd	0.04119091
151	0xbd29eea8	-0.041487366
152	0xbd25d319	-0.04048452
153	0xbd165f38	-0.0367119
154	0x3dafb538	0.085794866
155	0x3d6eb0ff	0.058274265
156	0xba3a47d4	-0.000710604
157	0x3d80700c	0.06271371
158	0xbc655748	-0.01399786
159	0x3d938c94	0.072045475
160	0x3d0577b6	0.03258487
161	0x3cf2b4ac	0.029627167
162	0xbd83db93	-0.06438365
163	0x3da35b01	0.07976342
164	0xbd411b60	-0.047145247
165	0xbd2a94b9	-0.04164574
166	0x3d5113d4	0.0510443
167	0xbcad7f2f	-0.02117881
168	0x3d84989d	0.06474421
169	0xbd676941	-0.056496862
170	0x3d52e7bd	0.051490534
171	0x3d506e31	0.050886337
172	0x3cd45ee4	0.025924154
173	0xbd53ea70	-0.05173725
174	0x3c9019f7	0.017590506
175	0xbd62e354	-0.05539258
176	0xbc022cc5	-0.007945244
177	0x3d0180a0	0.031616807
178	0x3c0f1337	0.0087326085
179	0x3d11b222	0.03557027
180	0xbcdaf9ea	-0.026730496
181	0xbc234770	-0.0099657625
182	0x3bd39f71	0.006458216
183	0xbd165aed	-0.036707807
184	0xbd576224	-0.05258383
185	0x3d75c2b3	0.060000133
186	0xbda2264f	-0.07917463
187	0xbdb10cd4	-0.08645025
188	0x3d514ee9	0.051100645
189	0xbca2d5c4	-0.019877322
190	0x3da0f319	0.07858867
191	0xbd9ce889	-0.0766154
192	0x3db69d0a	0.089166716
193	0xbd3c908c	-0.04603629
194	0xbd7aa068	-0.06118813
195	0xbd8d4170	-0.06897247
196	0xbb8d0cec	-0.004304519
197	0x3d4cf6c6	0.05004003
198	0xbcca2f47	-0.024680747
199	0xbdaa1a3f	-0.08305787
200	0x3d2a3eca	0.041563787
201	0xbd9ed650	-0.077557206
202	0x3d4e9e35	0.050443847
203	0xbacffffd	-0.0015869137
204	0x3d99a0bc	0.07501361
205	0x3cce9849	0.0252191
206	0x3c831c50	0.016004711
207	0xbd35c105	-0.04437353
208	0x3d875a7b	0.06609055
209	0x3cf40a5c	0.029790096
210	0xbd6619b2	-0.05617685
211	0xbdab4acc	-0.08363876
212	0x3dac33d1	0.08408321
213	0x3d12334e	0.03569346
214	0x3d71f722	0.059073575
215	0x3d6160b9	0.055023883
216	0x3c7245cb	0.014787148
217	0x3d8f7e97	0.07006567
218	0xbd7ddf0d	-0.061980296
219	0xbb7f7166	-0.0038977503
220	0xbd90ad16	-0.070642635
221	0x3cc0dcde	0.023542818
222	0x3ca0f29c	0.019646935
223	0x3d7cb66b	0.061697405
224	0x3c606183	0.013695124
225	0xbd8218a5	-0.06352357
226	0x3ba91fc7	0.005161259
227	0x3dab1bdb	0.083549224
228	0x3d84b875	0.06480495
229	0x3d50097e	0.050790302
230	0xbcea2766	-0.02858324
231	0xbd2997a8	-0.041404396
232	0xbafa820f	-0.0019112247
233	0xbce04c08	-0.027380005
234	0x3d551f49	0.05203179
235	0xbd52ea2a	-0.051492848
236	0x3d50438d	0.05084567
237	0x3d9fef31	0.07809294
238	0xbcfe4f4e	-0.031043675
239	0xbd971e5b	-0.07378837
240	0x3c66c2ff	0.014084577
241	0x3d196dcf	0.037458237
242	0xbd9a588b	-0.075364195
243	0x3c41dcf2	0.011832463
244	0x3c0af6d7	0.008481703
245	0x3d35819e	0.044313066
246	0x3c3b804d	0.0114441635
247	0x3d2347b6	0.03986331
248	0x3cb246ad	0.021762216
249	0xbd9414c0	-0.0723052
250	0xbd807be3	-0.062736295
251	0xbd415760	-0.047202468
252	0x3da182f9	0.07886309
253	0xbce49772	-0.027904246
254	0x3d9a5cd7	0.07537239
255	0x3d3a64ef	0.045506414

fc2.bias f4 [64]
0	0x3d9f0e5c	0.07766411
1	0xbc6daafc	-0.014506098
2	0xbce62eea	-0.028098542
3	0x3ca36d1e	0.019949492
4	0x3d12a10e	0.035798125
5	0x3d8f1e16	0.0698816
6	0xbc75aa5e	-0.014994232
7	0xbd34f71e	-0.04418098
8	0x3d366e87	0.044539
9	0x3d946935	0.07246629
10	0xbdb636c6	-0.08897166
11	0xbd8262be	-0.0636649
12	0x3cc05565	0.02347822
13	0x3cdf10f6	0.027229767
14	0x3d17a9a9	0.037027035
15	0xbd15d940	-0.03658414
16	0xbd87dda2	-0.0663407
17	0x3da3682a	0.07978852
18	0x3c7f5622	0.0155845005
19	0xbb240b20	-0.0025031045
20	0x3b735c80	0.0037133992
21	0xbd39de98	-0.045378298
22	0x3d5bf199	0.053697202
23	0x3b97bee0	0.0046309084
24	0x3d744e84	0.05964519
25	0x3d0271df	0.031846877
26	0xbca1d5a8	-0.0197552
27	0xbce86366	-0.02836771
28	0x3d5aa2b9	0.05337784
29	0xbd49d749	-0.049277578
30	0xbccb484c	-0.024814747
31	0xbd6b41fc	-0.057435974
32	0x3cccabb0	0.02498421
33	0x3d2c1de7	0.042020705
34	0x3ba49c4f	0.0050235162
35	0xbc919a6e	-0.017773833
36	0xbd04f64a	-0.032461442
37	0xbb9682b4	-0.0045932177
38	0xbc756478	-0.014977567
39	0xbad9b1f6	-0.0016608823
40	0x3da34872	0.07972802
41	0x3d57c433	0.052677345
42	0xbd24f7f7	-0.04027554
43	0xbd01bc7c	-0.031673893
44	0xbc94cae2	-0.018163148
45	0xbda585a5	-0.08082131
46	0x3d588d79	0.052869294
47	0xbd863229	-0.06552536
48	0x3b3d8336	0.002891732
49	0x3d8b2854	0.06794801
50	0xbd28d48a	-0.041218318
51	0x3c98246c	0.018572055
52	0x3c99f73d	0.01879465
53	0xbd137617	-0.03600129
54	0xbd8e2047	-0.0693975
55	0x3d4b5249	0.04963902
56	0xbd9ef951	-0.07762397
57	0x3d703870	0.058647573
58	0x3d37162e	0.044698887
59	0x3da13420	0.0787127
60	0x3d32f5bd	0.043691386
61	0x3d6d9296	0.058001123
62	0xbd3a6ae9	-0.045512114
63	0x3cbf43d3	0.02334777

fc3_action.weight f4 [41, 64]
0	0x3d6fba0c	0.058527038
1	0x3d390eac	0.045180008
2	0xbb208e7a	-0.0024498985
3	0x3c602494	0.013680596
4	0x3dad0347	0.08447891
5	0x3cf23ead	0.029570902
6	0xbd08afac	-0.03337066
7	0xbc67db3f	-0.014151393
8	0xbdf473ce	-0.119361505
9	0x3d1ead6a	0.0387396
10	0xbdc1b1ee	-0.094577655
11	0xbda3dab8	-0.08000702
12	0xbde6c046	-0.11267142
13	0xbb8bd0eb	-0.0042668483
14	0xba80771e	-0.0009801125
15	0xbda40516	-0.080087826
16	0xbde3ce26	-0.11123304
17	0xbd612c6f	-0.054974016
18	0x3cfa6ce1	0.030569496
19	0x3a564e00	0.0008175075
20	0xbd38a25c	-0.045076713
21	0x3db51086	0.08841042
22	0xbde1e938	-0.11030811
23	0x3d2869c4	0.04111649
24	0x3dbe700c	0.09298715
25	0x3d1b6532	0.037938304
26	0x3d07cdc8	0.033155233
27	0xbd59d0bc	-0.05317758
28	0x3c8e2dc8	0.017355815
29	0xbcbe46d8	-0.02322714
30	0xbd4b432c	-0.049624607
31	0xbdd10be6	-0.102073476
32	0x3dd761e0	0.10516715
33	0xbcc6128b	-0.024178764
34	0x3cae2d27	0.021261765
35	0xbd2fcbe4	-0.042919055
36	0x3c9b9b95	0.018995086
37	0xbdad9c3f	-0.08477067
38	0xbc134680	-0.0089889765
39	0x3d489ee6	0.048979662
40	0x3dc9b54f	0.09849035
41	0x3da47b91	0.08031381
42	0xbbfd1304	-0.007723214
43	0xbd80507e	-0.06265353
44	0xbdbb72b4	-0.09152737
45	0x3dcae74c	0.09907398
46	0x3cfd1b5d	0.030896837
47	0xbd4b926e	-0.049700193
48	0xbc55fdda	-0.013061011
49	0xbdd70b56	-0.10500209
50	0xbd3d3fe0	-0.046203494
51	0xbc30ecb5	-0.010798623
52	0xbc940351	-0.018067988
53	0x3d4753a4	0.04866375
54	0x3ddf3dc2	0.10900451
55	0x3b588eef	0.003304418
56	0x3ca141f0	0.019684762
57	0xbd88f1b4	-0.06686726
58	0x3c769832	0.015050935
59	0xbdca8bc4	-0.098899394
60	0xbd31463a	-0.043279864
61	0xbdcfd849	-0.10148675
62	0xbc3f3be0	-0.01167199
63	0x3c871ca5	0.016493151
64	0x3d80f873	0.06297388
65	0x3dc8d745	0.098066844
66	0x3df2ab55	0.11849085
67	0x3d2b490a	0.041817702
68	0xbe00f5b3	-0.12593727
69	0xbbc26db3	-0.0059334873
70	0xbd9ad1ef	-0.07559573
71	0x3d9069c1	0.07051421
72	0x3cc9a8e0	0.024616659
73	0xbdc292a7	-0.09500628
74	0x3de144bc	0.10999438
75	0x3cc8c048	0.02450575
76	0xbbb61571	-0.0055567552
77	0xbd66805c	-0.056274757
78	0x3d2d5d0e	0.042325072
79	0xbdf386a0	-0.11890912
80	0x3dd14f23	0.10220172
81	0x3da481ef	0.08032595
82	0xbdfad8e0	-0.12248397
83	0xbcf35738	-0.029704675
84	0x3dfe3a10	0.12413418
85	0x3db9b318	0.090673625
86	0x3d9ba12c	0.075991005
87	0xbd2d05bc	-0.042241797
88	0xbd947658	-0.07249135
89	0xbcb9a578	-0.02266191
90	0x3c8cde50	0.01719585
91	0xbc55bd6c	-0.01304565
92	0xbc510eb9	-0.012759858
93	0x3de08c24	0.1096423
94	0xbdf1d914	-0.118089825
95	0x3daa9dce	0.0833088
96	0x3c0f9cf0	0.008765444
97	0xbd9c97d2	-0.07646145
98	0xbcc01139	-0.023445712
99	0x3db55a41	0.08855105
100	0x3d36021d	0.04443561
101	0xbcb45482	-0.022012953
102	0xbd44f36c	-0.048083708
103	0xbbbb64ee	-0.005718819
104	0xbab0f94d	-0.0013502032
105	0xbcc95786	-0.024577867
106	0x3ca679f8	0.020321831
107	0xbd02efcc	-0.03196697
108	0xbdf52c4e	-0.11971341
109	0xbd545c00	-0.05184555
110	0xbcb2e9aa	-0.021839935
111	0x3ada2f91	0.0016646256
112	0xbd30ad5f	-0.04313409
113	0xbdf928a6	-0.12165956
114	0xbb951ea1	-0.0045507704
115	0x3d83018f	0.06396782
116	0x3cd0f740	0.025508523
117	0xbd3dce44	-0.04633929
118	0x3d061ad8	0.032740444
119	0x3c385b63	0.011252257
120	0x3dad605f	0.08465647
121	0x3defbd5d	0.1170604
122	0x3cdf828d	0.027283931
123	0x3d9e5e06	0.07732777
124	0xbdc7c621	-0.09754587
125	0x3dbbc93e	0.09169243
126	0xbdea48e4	-0.11439684
127	0xbdf47771	-0.11936844
128	0x3d8da1f0	0.06915653
129	0x3ddbafde	0.107269034
130	0x3b129b6b	0.0022370468
131	0x3d17c059	0.03704867
132	0xbdfe5caf	-0.12420022
133	0xbd6f694d	-0.058450032
134	0xbcce2b51	-0.02516714
135	0xbd0da5cd	-0.034581948
136	0xbd3a6200	-0.045503616
137	0xbd3c6599	-0.04599533
138	0xbdc95c47	-0.09832054
139	0xbcb7cc88	-0.022436395
140	0xbd3eca0b	-0.046579402
141	0xbd2bf699	-0.04198322
142	0x3d66801d	0.056274522
143	0x3cc0d428	0.023538664
144	0x3d46257e	0.0483756
145	0xbbef518e	-0.0073034232
146	0x3d3e5383	0.04646636
147	0x3cbd5308	0.023110881
148	0x3d8e80e6	0.06958179
149	0x3d86a46e	0.06574331
150	0x3d3eb4d8	0.046559185
151	0xbd961768	-0.07328683
152	0xbd0bb530	-0.03410834
153	0xbd5bf251	-0.053697888
154	0xbd0605c0	-0.032720327
155	0xbda2edcf	-0.07955515
156	0xbde4ce97	-0.111722164
157	0x3db95620	0.0904963
158	0xbb986ac0	-0.0046513975
159	0xbdf70066	-0.12060623
160	0xbddf265e	-0.1089599
161	0x3df95719	0.12174816
162	0x3db94f25	0.09048299
163	0x3d7c4592	0.061589785
164	0x3db5f5e0	0.088847876
165	0x3dc19741	0.094526775
166	0x3db26b74	0.08711901
167	0x3cb0a972	0.021565173
168	0xbd0ab2fa	-0.03386209
169	0x3d8cc620	0.06873727
170	0x3b090395	0.0020906676
171	0xbb944340	-0.0045246184
172	0xbd297ff2	-0.041381784
173	0x3d2ebbb5	0.04265948
174	0xbd2d1ba7	-0.0422627
175	0x3da7837d	0.08179376
176	0x3d3a9f30	0.04556197
177	0xbd460a54	-0.048349693
178	0x3cbc064c	0.022952221
179	0x3cab33d8	0.020898744
180	0x3db59e64	0.08868101
181	0xbbea8120	-0.007156506
182	0x3d8f3c96	0.06993978
183	0xbd647fc0	-0.055785894
184	0x3d44ed12	0.04807765
185	0xbd8c88a7	-0.06862002
186	0x3db4a01d	0.08819602
187	0x3d494b7f	0.049144264
188	0xbb4afa8b	-0.003097209
189	0x3d9ad7ca	0.0756069
190	0x3df7349e	0.12070583
191	0x3ccdd3f1	0.025125476
192	0xbdfedf35	-0.12444917
193	0xbc4bf66b	-0.012448887
194	0xbd1e0db4	-0.038587287
195	0xbd862953	-0.06550851
196	0xbda1f2f5	-0.079076685
197	0x3c9a0f73	0.018806195
198	0x3bbecf10	0.0058230236
199	0xbda5d479	-0.080971666
200	0x3df2e828	0.118606865
201	0x3d9955a9	0.074870415
202	0xbc8b946c	-0.017038547
203	0xbca723e8	-0.020402864
204	0x3d75a91d	0.059975732
205	0x3dcaf3d0	0.09909785
206	0x3d99ce8b	0.07510098
207	0x3c0f9fd0	0.00876613
208	0xbdf78d46	-0.12087493
209	0xbd8f046a	-0.06983264
210	0x3cf587b7	0.02997194
211	0x3ccb7008	0.024833694
212	0x3dabc35e	0.08386873
213	0xbd0d9ad0	-0.03457147
214	0x3d31c6be	0.043402426
215	0xbb88c080	-0.0041733384
216	0xbc3d4417	-0.011551878
217	0xbd06d9d2	-0.032922573
218	0xbd97d914	-0.07414451
219	0xbdaa67b2	-0.083205596
220	0x3d8beb56	0.06831996
221	0x3d8746e0	0.06605315
222	0xbd5a12d8	-0.053240627
223	0xbd61804c	-0.055053994
224	0x3c89da30	0.016827673
225	0xbdcf114e	-0.101107225
226	0x3ce6f8c5	0.028194794
227	0xbc9e78f9	-0.019344794
228	0xbd5e1d11	-0.05422694
229	0xbdd95a5c	-0.10612938
230	0x3d9d2742	0.076735035
231	0xbdbda5ae	-0.092601165
232	0xbd320c08	-0.043468505
233	0xbd49397a	-0.04912708
234	0xbd81401e	-0.063110575
235	0x3d8bbd94	0.068232685
236	0x3da160ca	0.07879789
237	0x3b80d31b	0.0039314157
238	0xbdeb3fc0	-0.11486769
239	0xbca12c72	-0.019674513
240	0xbd82f968	-0.06395227
241	0x3d95f8a2	0.073228136
242	0x3cf67ed3	0.030089771
243	0xbdd12e6c	-0.102139324
244	0x3d95cff5	0.07315055
245	0x3dd074da	0.10178538
246	0x3d9b83f0	0.075935245
247	0x3cc88d14	0.024481334
248	0x3de26a13	0.11055388
249	0xbd893d3a	-0.06701131
250	0x3dd10c0e	0.102073774
251	0xbce0f277	-0.027459366
252	0xbd62330d	-0.055224467
253	0x3cc20e39	0.023688423
254	0xbd73bbb0	-0.059505165
255	0x3c359f01	0.011085273

fc3_action.bias f4 [41]
0	0xbc4a1fae	-0.012336655
1	0x3d533980	0.05156851
2	0x3dc64aa4	0.09682205
3	0xbde09a06	-0.10966878
4	0x3b4bc614	0.0031093406
5	0xbd46b947	-0.048516538
6	0xbda848eb	-0.08217033
7	0x3d2d9123	0.04237474
8	0x3cb191ef	0.021676032
9	0xbda6b50b	-0.0814
10	0x3ca9c5d4	0.020724215
11	0xbd9e7752	-0.07737602
12	0xbd0a78e8	-0.03380671
13	0x3d1b7f4f	0.037963208
14	0x3d7f5a29	0.062341843
15	0xbd919116	-0.07107751
16	0xbdca2e7a	-0.09872146
17	0xbdf8bd9a	-0.12145539
18	0xbdfb2b9a	-0.12264176
19	0xbdfcd1ed	-0.12344728
20	0xbd4d4994	-0.050118998
21	0xbcd548a4	-0.026035614
22	0x3c681357	0.014164767
23	0x3d96dfcc	0.073669046
24	0xbc904ffa	-0.01761626
25	0xbb08199f	-0.0020767224
26	0xbd45bf51	-0.048278157
27	0xbd7af115	-0.06126507
28	0xbd67af46	-0.05656364
29	0x3d75b698	0.059988588
30	0x3d78f371	0.06077904
31	0x3dbf16e0	0.09330535
32	0xbdce66a3	-0.1007817
33	0xbd67cce2	-0.056591876
34	0xbd9fb37a	-0.07797904
35	0x3b64e2ca	0.0034925216
36	0xbddf58fa	-0.10905643
37	0x3d6e5fb0	0.058196723
38	0x3bd99c88	0.0066409744
39	0xbdcecfa1	-0.10098196
40	0xbdf55678	-0.11979383
