improved_vrpb_policy_final.pth (torch, 14905 bytes, 6 tensors)

fc1.weight f4 [64, 6]
-0.08845055 0.18145713 0.4049887 -0.030631244 0.23194942 -0.3814998 -0.26562938 0.12887688
0.13165857 -0.33569 0.024568722 0.32483065 -0.23445496 0.29086402 -0.27836955 0.30360436
0.0775299 -0.09840196 -0.34016484 -0.19174454 -0.21860735 0.14347917 0.00668481 0.04650417
-0.2361178 -0.20516331 0.033945985 0.044661075 0.07201654 0.18694144 -0.1477767 -0.23233205
-0.31159917 -0.19924457 -0.2694059 0.014352232 0.06802842 -0.07867077 0.14022338 -0.3390501
0.09704608 0.25742173 -0.08977571 -0.2602623 0.23471828 -0.1834606 -0.13547824 -0.077842176
-0.09581685 -0.2603212 -0.13586745 -0.093498826 -0.2821532 -0.25090414 0.105947495 -0.22401847
-0.24240325 0.01281513 0.3659352 -0.3899633 0.30062896 0.0491432 0.07860892 0.13142748
-0.302491 0.2870574 -0.35159904 -0.070102155 0.237902 -0.1835235 -0.17028023 0.024147779
0.08856563 0.35031587 -0.087664045 0.24501124 0.09091279 0.0115353465 -0.3627369 0.12948272
-0.11654729 -0.34796083 -0.39990714 0.13796914 0.33295158 -0.016032258 -0.14603026 -0.25208136
0.06298402 0.23873758 0.2640904 0.091501266 0.14326005 -0.02919945 0.18618733 -0.3262983
0.29652873 -0.276975 0.3384509 -0.080656685 0.1934898 -0.30978578 0.3876393 0.095797196
0.12450863 0.21932283 -0.36665636 -0.20789881 0.13991112 -0.39203387 -0.38790333 -0.004034656
-0.054272484 0.1395874 -0.28479242 0.2994851 -0.21951488 -0.27939948 0.14792505 0.27482164
-0.027555617 0.15054262 0.0959971 -0.28744075 0.012855475 -0.2874148 0.26545048 -0.020664394
0.043486238 -0.34834236 -0.28053698 0.3959092 0.27900508 0.32619214 -0.009542046 -0.08706991
-0.012420194 -0.3995764 0.15199246 0.19101675 -0.045990877 -0.06560089 -0.41051674 -0.11019364
0.15021501 -0.037846256 0.3128144 -0.08195816 0.36335552 0.062247455 0.31631187 0.03555423
0.1561941 0.23425919 0.30569205 0.1435101 -0.030456394 -0.11413163 0.07628715 0.15646231
-0.26088655 0.21921486 -0.23554064 0.08711011 0.053637106 -0.10623119 -0.22332443 -0.21263936
0.34122184 0.20619887 -0.36024922 -0.34448034 -0.06857853 0.18223035 0.33223057 0.108367436
-0.1830238 0.27083865 -0.008419454 -0.3237356 -0.29484764 -0.13496467 -0.3460697 -0.25986567
0.3083748 0.27378577 -0.066593215 -0.033789374 0.2879244 -0.40580457 -0.060736023 0.33812678
0.23448321 0.38125533 -0.025992464 0.24410002 0.06790629 -0.19814712 -0.16805544 -0.25913218
-0.37412593 0.36606154 0.36337036 0.028838754 -0.23798668 -0.17283615 0.39746433 -0.18588081
-0.13325904 -0.33179012 -0.37439987 0.15419258 0.0413844 0.37387034 0.0033358363 -0.16253369
0.2932328 0.3371808 -0.27290434 0.066761434 -0.2679032 -0.21520393 -0.28714532 -0.26185817
0.07738605 0.022204986 0.31272656 -0.093596935 0.16755387 0.21163084 -0.006528684 0.050660636
-0.045396205 0.21782088 -0.17549731 -0.03225673 -0.1296945 -0.32679018 0.33432612 0.2634161
0.19340736 -0.39511627 -0.2376724 -0.23138522 -0.2329903 -0.16694057 0.30901724 -0.29756284
-0.3556441 -0.24051565 -0.022532975 -0.14767468 0.15522698 0.37597546 0.35280895 0.3480309
00000000: 9025 b5bd e6cf 393e ae5a cf3e 60ee fabc
00000010: 2684 6d3e f153 c3be 9300 88be 4df8 033e
00000020: 81d1 063e 8fdf abbe 5844 c93c 3450 a63e
00000030: f614 70be 21ec 943e 7486 8ebe 0872 9b3e
00000040: ffc7 9e3d f886 c9bd 162a aebe ae58 44be
00000050: 9bda 5fbe 34ec 123e 400c db3b 287b 3e3d
00000060: ddc8 71be 5516 52be f20a 0b3d 88ee 363d
00000070: 687d 933d 946d 3f3e c652 17be 74e8 6dbe
00000080: ed89 9fbe c506 4cbe 92ef 89be a025 6b3c
00000090: 7c52 8b3d 241e a1bd b896 0f3e fa97 adbe
000000a0: 18c0 c63d c8cc 833e 54dc b7bd 1a41 85be
000000b0: fd59 703e 18dd 3bbe cfba 0abe b86b 9fbd
000000c0: a03b c4bd d248 85be d620 0bbe 507c bfbd
000000d0: 6276 90be 8276 80be 00fb d83d 1965 65be
000000e0: 8f38 78be 8df6 513c dc5b bb3e 45a9 c7be
000000f0: 0aec 993e 614a 493d b7fd a03d ed94 063e
00000100: 1ae0 9abe 30f9 923e ca04 b4be b891 8fbd
00000110: 959c 733e 96ed 3bbe f15d 2ebe 90d1 c53c
00000120: e661 b53d 9a5c b33e 3589 b3bd 3ae4 7a3e
00000130: 7c30 ba3d c0fe 3c3c a7b8 b9be 1e97 043e
00000140: 58b0 eebd ec27 b2be a1c0 ccbe c847 0d3e
00000150: a178 aa3e 1556 83bc f588 15be cf10 81be
00000160: c4fd 803d a077 743e db36 873e 0465 bb3d
00000170: c3b2 123e af33 efbc e4a7 3e3e 9210 a7be
00000180: 9dd2 973e abcf 8dbe 7049 ad3e 552f a5bd
00000190: 3122 463e 3e9c 9ebe a978 c63e 5231 c43d
000001a0: 61fe fe3d 2a96 603e 62ba bbbe 6de3 54be
000001b0: dc44 0f3e aab8 c8be 449b c6be 2635 84bb
000001c0: d34c 5ebd 00f0 0e3e 50d0 91be 1c56 993e
000001d0: 82c8 60be 730d 8fbe aa79 173e 6cb5 8c3e
000001e0: 51bc e1bc d827 1a3e 219a c43d 6f2b 93be
000001f0: c59f 523c 0828 93be 20e9 873e 6048 a9bc
00000200: a01e 323d ee59 b2be 8ba2 8fbe 9cb4 ca3e
00000210: c1d9 8e3e a802 a73e 3e56 1cbc b551 b2bd
00000220: 127e 4bbc 4795 ccbe e9a3 1b3e e599 433e
00000230: ee60 3cbd c259 86bd 402f d2be 34ad e1bd
00000240: f7d1 193e ad04 1bbd 3629 a03e aed9 a7bd
00000250: bc09 ba3e 30f7 7e3d a1f3 a13e 50a1 113d
00000260: 59f1 1f3e a4e1 6f3e ab83 9c3e 50f4 123e
00000270: b07f f9bc d8bd e9bd 703c 9c3d a837 203e
00000280: ec92 85be dc79 603e 9131 71be c966 b23d
00000290: 95b2 5b3d bd8f d9bd 29af 64be 22be 59be
000002a0: a1b4 ae3e cc25 533e 9672 b8be ba5f b0be
000002b0: e672 8cbd 989a 3a3e 201a aa3e bfef dd3d
000002c0: 976a 3bbe 5dab 8a3e c0f1 09bc acc0 a5be
000002d0: 45f6 96be 2e34 0abe 0c30 b1be 1d0d 85be
000002e0: 4de3 9d3e a62d 8c3e 0662 88bd ba66 0abd
000002f0: d46a 933e 9ec5 cfbe 56c6 78bd f41e ad3e
00000300: 5e1c 703e e633 c33e 26ee d4bc 5bf5 793e
00000310: 7412 8b3d 14e7 4abe ba16 2cbe f9ac 84be
00000320: 6f8d bfbe 6b6c bb3e ae0b ba3e 403f ec3c
00000330: c8b2 73be f6fb 30be 7280 cb3e 8a57 3ebe
00000340: 0f75 08be 65e0 a9be 57b1 bfbe a9e4 1d3e
00000350: b082 293d ef6b bf3e 0c9e 5a3b 3b6f 26be
00000360: 9c22 963e f6a2 ac3e 1eba 8bbe 38ba 883d
00000370: 9c2a 89be 6b5e 5cbe b604 93be 4612 86be
00000380: 947c 9e3d 3be7 b53c b21d a03e c0af bfbd
00000390: 3e93 2b3e c1b5 583e 92ee d5bb 8781 4f3d
000003a0: 5ff1 39bd 700c 5f3e 91b5 33be a21f 04bd
000003b0: a3ce 04be 0b51 a7be cb2c ab3e 7ade 863e
000003c0: 940c 463e ae4c cabe 6560 73be 3ff0 6cbe
000003d0: 0295 6ebe 78f2 2abe 8237 9e3e 285a 98be
000003e0: fc16 b6be bc49 76be 1397 b8bc 0838 17be
000003f0: d2f3 1e3e db7f c03e 60a3 b43e 1b31 b23e

fc1.bias f4 [64]
-0.39740372 0.26766723 0.36308917 -0.3437641 0.19426242 0.37369388 -0.1805507 0.15121111
-0.1961031 0.25619546 0.007063081 0.36180353 -0.37635383 0.39388677 -0.14817372 0.33188486
0.36595646 0.34556326 0.11623779 0.35637435 0.10339581 -0.28280878 0.09333977 -0.038234327
-0.04019181 0.28678793 -0.30600238 0.07447198 -0.17042537 -0.20958911 -0.17434458 0.08926407
-0.3148703 -0.23454045 0.11636703 0.06876299 -0.33908054 -0.33412567 -0.06766804 -0.21242292
0.0743302 0.010306275 0.086056866 0.097742245 0.18692176 0.2986044 -0.30564997 -0.07666877
-0.12609169 -0.20500521 -0.25987405 0.1958687 0.3948428 0.032338567 -0.31007972 0.19389087
0.30464116 0.19411042 -0.23950034 0.015589133 -0.11714661 -0.30565634 -0.16382869 0.33181393
00000000: 8078 cbbe ae0b 893e d3e6 b93e d901 b0be
00000010: baec 463e ce54 bf3e 48e2 38be 16d7 1a3e
00000020: 40cf 48be 0d2c 833e 6b71 e73b 503e b93e
00000030: 73b1 c0be 87ab c93e daba 17be d0ec a93e
00000040: a55e bb3e abed b03e 140e ee3d b376 b63e
00000050: 2fc1 d33d 50cc 90be ec28 bf3d 999b 1cbd
00000060: 2ba0 24bd ded5 923e 58ac 9cbe c484 983d
00000070: fd83 2ebe 879e 56be 6387 32be 15d0 b63d
00000080: ae36 a1be 5f2b 70be d651 ee3d 9cd3 8c3d
00000090: f79b adbe 8512 abbe 8b95 8abd 6585 59be
000000a0: 6f3a 983d a7db 283c 953e b03d 162d c83d
000000b0: 6b68 3f3e ade2 983e 277e 9cbe 8404 9dbd
000000c0: 2e1e 01be e3ec 51be 360e 85be ce91 483e
000000d0: d628 ca3e 7275 043d c5c2 9ebe 548b 463e
000000e0: edf9 9b3e e2c4 463e 943f 75be 9069 7f3c
000000f0: 90ea efbd fd7e 9cbe b5c2 27be 84e3 a93e

fc2.weight f4 [32, 64]
0.025892153 -0.100386724 -0.037742034 0.11475155 -0.079187855 -0.052054048 0.09133682 0.0054816063
0.04983437 0.017996643 0.08423441 -0.07047047 -0.010903918 -0.026075961 -0.016175717 -0.0056437277
0.078176446 -0.085171714 -0.11027166 -0.037581928 -0.054924637 0.050683036 -0.117502265 -0.09933677
-0.09289821 0.10944952 0.095876694 -0.04071352 0.0336204 0.055393204 -0.04281396 0.10529158
-0.0696057 0.052446913 -0.0673224 0.028569935 0.12414615 0.09538867 0.01845452 0.039628733
-0.051161993 0.008817181 0.03938781 -0.07206195 -0.117515564 -0.107066624 0.06121996 -0.070509
0.07573444 0.10049704 -0.036604706 0.059146434 -0.052052166 -0.02189 -0.08622754 0.08631367
0.12386008 0.047123313 0.02970059 0.0018464273 -0.06554664 -0.08260849 0.012846715 -0.12024803
-0.11453179 0.07438486 0.12077498 0.086698994 -0.080176115 -0.04579936 -0.084821925 -0.029200606
0.100281015 -0.01758889 0.04883971 -0.040835306 0.08488094 0.07578656 0.0033807766 -0.020439526
-0.056272842 -0.021640368 0.075176634 -0.107784234 0.121178314 -0.089188546 -0.061611105 -0.06930896
0.011539425 0.1244754 0.06474902 0.022382975 0.10360136 0.023130756 0.09798846 0.106646664
0.085446395 0.054955933 0.046081405 -0.07718401 -0.03486593 0.083351195 0.096496716 -0.024924051
-0.010640267 0.054676868 0.0853631 -0.10333592 0.09258572 -0.0485915 0.03278674 0.027895734
0.08541359 -0.0327024 0.028202418 0.037795443 -0.083881855 0.063728884 -0.04095167 -0.10764183
-0.08708453 0.03013751 -0.09135208 0.043984722 -0.06335019 -0.076250866 0.07015015 -0.032894924
-0.08958946 -0.098858654 0.02536161 0.021291688 -0.05476303 0.10958259 -0.057640985 0.07754455
-0.1193309 -0.015188396 -0.04263509 0.05417064 -0.06169592 0.1094423 0.10522341 0.044453543
0.05625505 0.030092455 -0.07842705 -0.04453032 -0.03213001 0.099401474 0.021609982 0.10425237
-0.096396685 -0.10013667 0.08985287 0.05574631 -0.026089648 -0.06144844 0.10182685 0.11804596
-0.014597811 -0.036432486 -0.008318926 0.047825124 0.075916365 0.106515154 -0.085949495 0.030709086
-0.12219268 -0.04516656 -0.016350985 -0.11112045 -0.015386846 -0.04073768 -0.10158093 -0.090475336
-0.044220045 -0.014595315 0.054121867 0.012741053 0.07231216 -0.08036032 -0.078530945 0.06044697
0.024043404 0.082456194 -0.0052426406 0.12209829 -0.06739457 0.06908938 0.11456103 -0.035741724
-0.043885946 0.03817916 0.0755658 -0.10029936 -0.024518868 -0.09080064 -0.041526765 -0.06652122
-0.09421714 0.07413662 -0.07572483 -0.009732757 -0.08618771 -0.116365 0.014298566 -0.10042204
0.031123335 -0.09976544 0.09165164 0.06693218 -0.08115192 -0.002356708 0.071856774 -0.040575996
-0.059132084 0.08587874 -0.017295957 0.0146361925 0.014444858 0.087999634 0.117535286 -0.11607256
0.041806575 0.028079156 -0.03602351 0.11360414 0.07633823 -0.037908066 -0.046468645 -0.113397405
-0.026942419 -0.04373717 0.02682804 0.01367687 0.05489584 0.072923206 -0.013987094 -0.023113728
-0.053704277 -0.032918617 0.06275643 -0.040339034 0.085652694 0.014628402 0.045250956 -0.07713351
-0.096528694 -0.10017308 0.035486124 -0.0812829 -0.039780412 -0.031561732 0.07920635 -0.042927224
00000000: c81b d43c 8e97 cdbd 6497 1abd dc02 eb3d
00000010: 3e2d a2bd a036 55bd cc0e bb3d 0c9f b33b
00000020: 201f 4c3d b26d 933c 1783 ac3d d252 90bd
00000030: 59a6 32bc 419d d5bc f082 84bc 05ef b8bb
00000040: f91a a03d 826e aebd 1cd6 e1bd 82ef 19bd
00000050: a8f8 60bd 0499 4f3d 07a5 f0bd 1471 cbbd
00000060: 6b41 bebd 1227 e03d 005b c43d 38c3 26bd
00000070: 8bb5 093d fce3 623d b15d 2fbd 1da3 d73d
00000080: 6f8d 8ebd 93d2 563d 54e0 89bd 7f0b ea3c
00000090: 5640 fe3d 235b c33d ef2d 973c bd51 223d
000000a0: 3d8f 51bd f075 103c 1d55 213d 3795 93bd
000000b0: 00ac f0bd bf45 dbbd c8c1 7a3d 0667 90bd
000000c0: a81a 9b3d 64d1 cd3d d1ee 15bd 8843 723d
000000d0: a734 55bd a852 b3bc 1198 b0bd 39c5 b03d
000000e0: 5baa fd3d 6004 413d a74e f33c d203 f23a
000000f0: 513d 86bd a42e a9bd 077b 523c 9944 f6bd
00000100: a58f eabd 1757 983d df58 f73d 3e8f b13d
00000110: 6033 a4bd 1c98 3bbd 1eb7 adbd 1c36 efbc
00000120: 2260 cd3d 9316 90bc 260c 483d ec42 27bd
00000130: 0fd6 ad3d fc35 9b3d 0590 5d3b cb70 a7bc
00000140: 5a7e 66bd 2447 b1bc 35f6 993d fbbd dcbd
00000150: 562c f83d 7ca8 b6bd ed5b 7cbd dbf1 8dbd
00000160: db0f 3d3c f5ec fe3d 229b 843d 805c b73c
00000170: f32c d43d b67c bd3c 2cae c83d 9169 da3d
00000180: 85fe ae3d 7919 613d dbbf 3c3d a612 9ebd
00000190: 94cf 0ebd 08b4 aa3d 12a0 c53d 862d ccbc
000001a0: 8454 2ebc daf4 5f3d d9d2 ae3d c8a1 d3bd
000001b0: 959d bd3d e107 47bd 644b 063d 9885 e43c
000001c0: 52ed ae3d f4f2 05bd c208 e73c 65cf 1a3d
000001d0: 40ca abbd 4a84 823d f0bc 27bd 5273 dcbd
000001e0: 6059 b2bd f0e2 f63c cd16 bbbd 5329 343d
000001f0: bfbd 81bd 6a29 9cbd e2aa 8f3d d4bc 06bd
00000200: ae7a b7bd 6876 cabd 27c3 cf3c e86b ae3c
00000210: 334f 60bd d66c e03d f418 6cbd adcf 9e3d
00000220: c263 f4bd c0d8 78bc 22a2 2ebd 08e2 5d3d
00000230: dcb4 7cbd 4923 e03d 5f7f d73d eb14 363d
00000240: b26b 663d 7484 f63c 5c9e a0bd 6d65 36bd
00000250: c29a 03bd 0093 cb3d 6b07 b13c 4482 d53d
00000260: a06b c5bd 7414 cdbd c804 b83d 3e56 643d
00000270: f5b9 d5bc 5cb1 7bbd 988a d03d 15c2 f13d
00000280: a82b 6fbc 3b3a 15bd 1b4c 08bc 47e4 433d
00000290: 0a7a 9b3d 9e24 da3d 4a06 b0bd 9f91 fb3c
000002a0: 2840 fabd 9200 39bd 80f2 85bc 1e93 e3bd
000002b0: 1c19 7cbc 8edc 26bd aa09 d0bd 224b b9bd
000002c0: 1420 35bd 3021 6fbc e4ae 5d3d d9bf 503c
000002d0: 6618 943d f493 a4bd d5d4 a0bd 3e97 773d
000002e0: acf6 c43c cbde a83d 75ca abbb ab0e fa3d
000002f0: 2a06 8abd bc7e 8d3d f99e ea3d ea65 12bd
00000300: c0c1 33bd c061 1c3d 3ec2 9a3d c069 cdbd
00000310: cbdb c8bc b0f5 b9bd f817 2abd 473c 88bd
00000320: eaf4 c0bd f1d4 973d 9f15 9bbd 2476 1fbc
00000330: 2f83 b0bd c650 eebd 8844 6a3c 12aa cdbd
00000340: 5df6 fe3c d351 ccbd dbb3 bb3d bd13 893d
00000350: fa32 a6bd 0073 1abb a529 933d 0433 26bd
00000360: 7c34 72bd 31e1 af3d 40b0 8dbc a4cc 6f3c
00000370: 20aa 6c3c 2739 b43d 57b6 f03d 73b7 edbd
00000380: 5f3d 2b3d 4206 e63c 638d 13bd 4aa9 e83d
00000390: 3857 9c3d 7d45 1bbd e855 3ebd e63c e8bd
000003a0: 59b6 dcbc bf25 33bd 7ac6 db3c f314 603c
000003b0: 76da 603d c358 953d 202a 65bc 0059 bdbc
000003c0: 04f9 5bbd acd5 06bd 7186 803d 8b3a 25bd
000003d0: ae6a af3d f7ab 6f3c 1159 393d 2cf8 9dbd
000003e0: d6b0 c5bd 8b27 cdbd e659 113d a677 a6bd
000003f0: c9f0 22bd e046 01bd f036 a23d 75d4 2fbd

fc2.bias f4 [32]
0.05129975 0.0675105 0.09476949 0.07014869 0.016282525 0.05789291 0.1094983 -0.039545707
-0.017852446 0.058069084 0.11357014 -0.12318969 0.105076686 0.08586873 -0.01634114 -0.010988574
-0.07556009 0.094163366 0.034916174 0.09679243 -0.0026715584 0.07734306 0.045876436 0.12213472
0.04703295 -0.028900132 0.0017247644 0.050440297 0.076200835 -0.092100814 -0.11365124 -0.10586701
00000000: b01f 523d f242 8a3d 8216 c23d 1eaa 8f3d
00000010: ee62 853c 1e21 6d3d a540 e03d aefa 21bd
00000020: 4b3f 92bc d9d9 6d3d 7697 e83d e04a fcbd
00000030: 7232 d73d f2db af3d dbdd 85bc 6b09 34bc
00000040: 40bf 9abd b9d8 c03d 4304 0f3d 1c3b c63d
00000050: 5015 2fbb 0a66 9e3d eee8 3b3d c521 fa3d
00000060: 9fa5 403d f8bf ecbc 7d11 e23a 7c9a 4e3d
00000070: 2f0f 9c3d 5a9f bcbd fbc1 e8bd ced0 d8bd

fc3_action.weight f4 [11, 32]
0.16996326 -0.17429613 -0.1199986 -0.05878908 0.14804453 0.027862951 -0.12686163 -0.08044601
-0.019444568 -0.1492568 -0.16292179 -0.10470868 -0.0745032 0.06576302 0.12491185 -0.05294274
0.09592722 -0.13878725 0.10705426 0.04854341 0.08001231 -0.05534761 0.005723442 0.050102536
-0.09452043 0.08348484 0.07437765 0.0005399331 0.0952487 -0.08299395 -0.074400105 0.03433606
0.16012253 0.08559841 -0.11807702 0.14246772 -0.047149193 0.14161934 -0.010781575 -0.020944918
-0.17191233 0.07771897 -0.16943467 0.08159043 -0.104714915 -0.11666702 0.04839844 -0.1716771
-0.051642403 -0.0627337 0.11371948 -0.1266458 0.09578128 0.11733912 -0.15397866 0.01399138
0.09971296 -0.076148756 0.08945231 -0.015746292 -0.029021312 -0.0234939 0.14946935 -0.031948805
-0.15532213 0.14308317 0.044252258 -0.0017085384 0.080513775 -0.040045537 -0.13301273 0.068913504
-0.14131422 0.086160436 0.014934482 0.08327569 -0.1442403 -0.12537137 0.018980447 -0.12538274
0.13233502 0.077734396 -0.024879554 -0.03379968 -0.11097879 0.18006942 0.05299013 0.062290497
0.06750588 -0.09460745 -0.11780958 -0.1729894 -0.15823647 -0.040134102 -0.11107319 -0.10239307
-0.1561196 0.17306556 -0.053833876 0.081802115 0.058118902 -0.16350316 0.005892267 -0.0466895
-0.112837404 0.010564105 -0.14016691 -0.04228674 0.008337429 -0.07331798 -0.043769192 -0.12951384
0.17661272 -0.06946067 -0.03246145 -0.005171266 0.027577082 0.089193575 0.10861391 -0.16921836
-0.043280333 0.15685974 -0.047697578 0.09396712 0.065154746 0.054400325 0.09135917 -0.042697474
0.03897805 -0.052899558 0.016290724 -0.08643892 -0.091818616 -0.089721724 0.16888344 0.0036424783
0.08034594 -0.037354466 0.05150862 0.068670616 0.0020707308 0.065901235 -0.028248187 -0.02565789
0.1290354 0.15316492 -0.033419784 -0.033419397 -0.15928833 0.026949672 0.103066765 0.011850325
-0.06274918 0.017064378 -0.04626825 -0.17397982 -0.039965782 0.11839716 0.1260618 -0.0738307
-0.075321324 0.15079358 -0.13892026 0.11065018 0.14317277 -0.16077374 0.076733775 0.040242136
-0.10886112 0.037182953 -0.09485319 0.035414398 -0.1514837 -0.17222254 -0.010308202 0.17412709
0.15495051 0.12833567 -0.020969952 0.0336313 0.116124466 0.1061161 -0.015234827 0.120468
-0.14553425 0.076211736 -0.16822621 -0.12409317 -0.005381984 -0.051910795 0.019834232 -0.16387857
0.097892664 -0.07408445 -0.16677253 0.16324817 0.0759428 0.10374291 0.12675582 -0.103338785
-0.12451573 0.08096768 -0.1550339 0.056972682 0.13805114 -0.061040774 0.1673167 -0.14369164
0.08450018 -0.16339462 -0.1479255 -0.089521036 0.10622546 0.12308976 0.097642526 0.013471388
0.11223944 0.16598587 -0.14132403 0.098187424 0.14345641 -0.15406638 0.1305031 -0.109069765
0.08069875 0.062091347 0.16811535 0.01312422 0.07241341 -0.10004817 0.05663154 -0.081934765
-0.118139796 0.013910097 0.07406273 0.04869461 0.15633993 -0.08260095 0.07521611 -0.13904883
0.061402395 -0.03571261 -0.11715177 0.0072464608 0.099440314 0.09183567 -0.019364178 0.01656482
-0.012313752 -0.071213126 -0.04532308 0.1430696 -0.045183294 -0.0600534 0.11027979 0.027879134
00000000: d90a 2e3e af7a 32be d3c1 f5bd d1cc 70bd
00000010: fc98 173e d840 e43c 04e8 01be e1c0 a4bd
00000020: 374a 9fbc c6d6 18be f8d4 26be 8171 d6bd
00000030: 2295 98bd c3ae 863d c9d1 ff3d 7dda 58bd
00000040: 7e75 c43d 3f1e 0ebe 443f db3d 74d5 463d
00000050: 7edd a33d 2db4 62bd b68b bb3b 5138 4d3d
00000060: ed93 c1bd 1afa aa3d 4f53 983d 4c8a 0d3a
00000070: c011 c33d bbf8 a9bd 155f 98bd f8a3 0c3d
00000080: 29f7 233e 384e af3d 5dd2 f1bd 0fe3 113e
00000090: 831f 41bd a904 113e 34a5 30bc ad94 abbc
000000a0: c909 30be 202b 9f3d 4880 2dbe e218 a73d
000000b0: c674 d6bd 1eef eebd 713d 463d 1fcc 2fbe
000000c0: fc86 53bd 877a 80bd c2e5 e83d 70af 01be
000000d0: fa28 c43d 7e4f f03d 95ac 1dbe 1a3c 653c
000000e0: 4f36 cc3d e1f3 9bbd c632 b73d 5efe 80bc
000000f0: 1abe edbc 4876 c0bc 7e0e 193e c0dc 02bd
00000100: c40c 1fbe 6584 123e db41 353d 09f1 dfba
00000110: 68e4 a43d ca06 24bd 7d34 08be 8622 8d3d
00000120: adb4 10be e274 b03d c2af 743c 728c aa3d
00000130: bbb3 13be 5a61 00be e27c 9b3c 5564 00be
00000140: d582 073e 3633 9f3d 35d0 cbbc 8971 0abd
00000150: d948 e3bd 1e64 383e 2e0c 593d 5224 7f3d
00000160: 8640 8a3d 8dc1 c1bd 2646 f1bd 2224 31be
00000170: be08 22be a863 24bd 577a e3bd 75b3 d1bd
00000180: d1dd 1fbe 1938 313e e980 5cbd de87 a73d
00000190: 160e 6e3d 5f6d 27be eb13 c13b 7d3d 3fbd
000001a0: 4c17 e7bd 1115 2d3c ea87 0fbe dc34 2dbd
000001b0: b699 083c bd27 96bd 5347 33bd 479f 04be
000001c0: f7d9 343e 6541 8ebd 4cf6 04bd b973 a9bb
000001d0: 55e9 e13c 1fab b63d f870 de3d 9447 2dbe
000001e0: b846 31bd d79f 203e 895e 43bd d571 c03d
000001f0: da6f 853d e0d2 5e3d 841a bb3d 8ce3 2ebd
00000200: 73a7 1f3d 35ad 58bd 2074 853c e306 b1bd
00000210: 660b bcbd 06c0 b7bd c8ef 2c3e a5b6 6e3b
00000220: 6a8c a43d ff00 19bd b4fa 523d 2ea3 8c3d
00000230: 19b5 073b 3af7 863d be68 e7bc 7f30 d2bc
00000240: db21 043e 44d7 1c3e 2fe3 08bd c7e2 08bd
00000250: 7b1c 23be 8fc5 dc3c ab14 d33d de27 423c
00000260: a482 80bd 98ca 8b3c c783 3dbd c427 32be
00000270: 29b3 23bd 367a f23d 5816 013e 8d34 97bd
00000280: 1142 9abd a269 1a3e 1d41 0ebe 909c e23d
00000290: e29b 123e dfa1 24be 9926 9d3d f0d4 243d
000002a0: 94f2 debd 274d 183d 6442 c2bd b00e 113d
000002b0: 8b1e 1bbe 1b5b 30be bce3 28bc 5f4e 323e
000002c0: 59ab 1e3e 6d6a 033e 2dc9 abbc f9c0 093d
000002d0: aad2 ed3d 6653 d93d 7f9b 79bc edb7 f63d
000002e0: ee06 15be e614 9c3d 7e43 2cbe 8f24 febd
000002f0: 5b5b b0bb 6aa0 54bd 667b a23c c9cf 27be
00000300: f37b c83d 97b9 97bd 6bc6 2abe 872a 273e
00000310: e687 9b3d 2a77 d43d 47cc 013e 49a3 d3bd
00000320: 1a02 ffbd 62d2 a53d 35c1 1ebe 305c 693d
00000330: 475d 0d3e e405 7abd 1255 2b3e e723 13be
00000340: 6e0e ad3d eb50 27be c879 17be ce56 b7bd
00000350: bc8c d93d 7c16 fc3d cef8 c73d 19b7 5c3c
00000360: cbdd e53d 33f8 293e 3fb7 10be 7d16 c93d
00000370: 3de6 123e 94c3 1dbe 9ba2 053e f85f dfbd
00000380: 6345 a53d 7f53 7e3d 6e26 2c3e f806 573c
00000390: 7b4d 943d 0ee6 ccbd 79f6 673d 6acd a7bd
000003a0: 47f3 f1bd 2de7 633c 33ae 973d 0074 473d
000003b0: 9317 203e b02a a9bd e70a 9a3d d162 0ebe
000003c0: 1481 7b3d 6347 12bd 44ed efbd b873 ed3b
000003d0: 5da7 cb3d 5714 bc3d a0a1 9ebc f2b2 873c
000003e0: 9fbf 49bc 30d8 91bd b2a4 39bd d680 123e
000003f0: 1e12 39bd 8efa 75bd 5fda e13d c862 e43c

fc3_action.bias f4 [11]
-0.06444547 0.119902775 0.12937896 -0.011798152 -0.08645019 -0.14112572 0.117445275 0.066222675
-0.07376731 -0.12019372 0.053203627
00000000: fdfb 83bd 968f f53d eb7b 043e 094d 41bc
00000010: cc0c b1bd 4383 10be 2687 f03d c19f 873d
00000020: 5113 97bd 2028 f6bd 0cec 593d
