traditional_vrpb_best.pth (torch, 46077 bytes, 6 tensors)

fc1.weight f4 [128, 5]
-0.21337643 -0.101031005 -0.30550647 0.0617882 -0.04242745 -0.12141342 0.40085813 0.07637428
0.2667751 0.2966427 -0.30501318 -0.3802769 -0.25234956 -0.16563977 0.22918028 0.18721437
-0.38209492 0.06561434 -0.25233233 0.3090686 -0.30065247 0.44750878 -0.25860015 -0.08046921
0.09357642 0.31711718 0.24554265 0.022775669 0.019309442 0.3950364 -0.3957431 0.1451032
0.35337394 -0.08407937 0.26686007 0.40650034 -0.16738535 0.40440267 -0.33531493 0.25205365
-0.3700314 0.29186592 0.23709033 0.29085654 0.082199976 0.06492171 -0.09334345 0.38386416
0.044819426 -0.08838288 -0.34132212 -0.061300527 -0.19127467 -0.22370915 -0.13753973 0.26770723
-0.34133962 -0.23418652 -0.34094888 -0.186746 -0.33580452 -0.0040757633 -0.025315225 -0.0022801124
0.158143 -0.059955 0.3617164 -0.050258785 -0.17507228 -0.28190854 -0.095075116 0.027364975
-0.17941149 0.12007746 0.395338 0.15977354 0.14144605 -0.2733189 -0.15113555 -0.30419493
-0.0018051207 0.406604 0.012691437 -0.06299623 0.14348772 -0.39461526 0.0041387677 0.05651748
0.029003322 0.19067937 -0.31621888 0.38653445 -0.25512245 -0.33302447 0.33466116 -0.4082846
0.048624776 -0.36925593 -0.35300675 0.29742542 0.020572692 -0.3578609 0.08766901 0.29690668
-0.23722124 0.13854061 0.10452348 0.11953002 -0.064227074 -0.37985483 -0.29579693 -0.41215545
-0.3367034 0.1371299 -0.28834563 -0.3490235 0.17202622 0.08056235 -0.046739686 0.01615561
0.14484866 0.1693351 -0.40363434 0.4409459 -0.15685073 -0.15773678 0.28028193 0.03360976
0.19314538 0.14892551 0.37327352 0.3638699 0.28128442 -0.122755244 -0.013662044 0.41135097
0.09432661 0.021841057 -0.36947846 0.24398243 0.08048761 0.23555142 -0.14580567 0.29082167
-0.44680318 -0.3561228 -0.34086913 0.3153938 0.12966359 0.31640348 0.07247996 -0.34854713
0.38722682 0.3427197 -0.14902548 0.41082573 -0.11131283 -0.2886039 -0.38522425 0.43710786
-0.09279486 0.14889985 -0.15844348 0.40709662 -0.19142136 -0.4388734 -0.2894091 -0.21885349
-0.3172977 0.13440454 0.11431285 -0.05318276 0.0025121516 -0.06451041 0.21623112 -0.22413994
0.28346828 0.0689156 -0.39046797 0.3515475 -0.19301003 0.3376292 -0.3906688 0.38128576
-0.24887156 0.0006964803 -0.24443953 -0.076165974 0.16473848 -0.0453586 0.39202425 0.21615255
-0.19238378 -0.21485813 -0.36109576 -0.2400046 -0.08272353 0.14880766 0.31126478 0.16032165
0.083695464 0.3361196 -0.33122608 -0.0751157 0.34759107 0.058952395 0.4273422 -0.12689427
-0.13174146 -0.09569496 -0.25830293 0.14626038 -0.3443743 0.13792032 -0.41396433 0.18850474
-0.16776443 -0.3415844 0.4374686 -0.1560711 -0.090810426 0.43151495 -0.40639123 -0.10179305
0.093814254 0.14143813 0.40536264 0.28430283 -0.010820917 0.13364255 -0.326292 0.058018576
0.28454113 0.40951174 -0.28405988 0.045767445 0.09011911 0.33543596 0.027589494 -0.051611178
-0.15155442 0.23488086 0.14051263 0.17782079 -0.20045298 -0.05365461 0.20938623 -0.39647946
0.37623277 -0.011268302 -0.3114938 0.20491165 -0.25581577 -0.2142163 -0.36614144 0.22144586
00000000: 5a7f 5abe 58e9 cebd 586b 9cbe a015 7d3d
00000010: 68c8 2dbd 99a7 f8bd 473d cd3e 1e6a 9c3d
00000020: bf96 883e 8de1 973e b02a 9cbe a7b3 c2be
00000030: f633 81be 799d 29be 3cae 6a3e 20b5 3f3e
00000040: f2a1 c3be d060 863d b431 81be 3d3e 9e3e
00000050: 1fef 99be df1f e53e 3d67 84be 0bcd a4bd
00000060: fea4 bf3d 2f5d a23e 886f 7b3e 0a94 ba3c
00000070: d62e 9e3c 3642 ca3e d79e cabe ef95 143e
00000080: 6eed b43e ce31 acbd e2a1 883e d020 d03e
00000090: 1167 2bbe de0d cf3e 66ae abbe 2d0d 813e
000000a0: c174 bdbe 736f 953e cfc7 723e 26eb 943e
000000b0: 7658 a83d acf5 843d da2a bfbd d889 c43e
000000c0: 9394 373d 1502 b5bd c6c1 aebe 4316 7bbd
000000d0: 82dd 43be 0314 65be 37d7 0cbe ec10 893e
000000e0: 11c4 aebe 97ce 6fbe da90 aebe 583a 3fbe
000000f0: 92ee abbe fb8d 85bb e061 cfbc f06d 15bb
00000100: 3df0 213e 6093 75bd e432 b93e 28dc 4dbd
00000110: 2646 33be 5156 90be beb6 c2bd 832c e03c
00000120: a5b7 37be 2ceb f53d be69 ca3e ad9b 233e
00000130: 3cd7 103e 74f0 8bbe 47c3 1abe 70bf 9bbe
00000140: cd99 ecba 662e d03e bfef 4f3c 2b04 81bd
00000150: 72ee 123e 030b cabe 809e 873b e07e 673d
00000160: 6098 ed3c 7441 433e 71e7 a1be d8e7 c53e
00000170: 699f 82be 2f82 aabe b558 ab3e ae0a d1be
00000180: c62a 473d 1d0f bdbe 4dbd b4be 2548 983e
00000190: 1088 a83c 8b39 b7be cf8b b33d 2704 983e
000001a0: 20ea 72be 97dd 0d3e 6810 d63d 28cc f43d
000001b0: 7c89 83bd 557c c2be b272 97be 0a06 d3be
000001c0: 6364 acbe c86b 0c3e 0aa2 93be 35b3 b2be
000001d0: a427 303e e0fd a43d 1d72 3fbd c558 843c
000001e0: 3553 143e 2e66 2d3e 29a9 cebe a9c3 e13e
000001f0: 7a9d 20be c085 21be 1d81 8f3e 63aa 093d
00000200: e7c7 453e ee7f 183e b51d bf3e 284d ba3e
00000210: 8304 903e 1a67 fbbd c4d6 5fbc 989c d23e
00000220: 4f2e c13d 04ec b23c 482c bdbe 88d6 793e
00000230: b0d6 a43d 6434 713e 154e 15be 94e6 943e
00000240: 63c3 e4be ba55 b6be 6686 aebe 4c7b a13e
00000250: 88c6 043e a3ff a13e 6070 943d c574 b2be
00000260: 9842 c63e f578 af3e 239a 18be c057 d23e
00000270: fbf7 e3bd e4c3 93be 1d3c c5be 9acc df3e
00000280: 3b0b bebd 3479 183e 023f 22be f86e d03e
00000290: f603 44be 04b4 e0be 6e2d 94be 211b 60be
000002a0: d874 a2be 58a1 093e db1c ea3d 2ad6 59bd
000002b0: e9a2 243b 091e 84bd b16b 5d3e f184 65be
000002c0: c122 913e 9f23 8d3d 6beb c7be 09fe b33e
000002d0: 6ca4 45be bcdd ac3e be05 c8be e337 c33e
000002e0: 30d8 7ebe 0094 363a 5b4e 7abe e8fc 9bbd
000002f0: 34b1 283e f0c9 39bd 67b7 c83e 1857 5d3e
00000300: 4100 45be c503 5cbe 8be1 b8be c4c3 75be
00000310: f46a a9bd 0961 183e 195e 9f3e 5c2b 243e
00000320: 8768 ab3d de17 ac3e 7796 a9be 43d6 99bd
00000330: 75f7 b13e 1178 713d 99cc da3e 92f0 01be
00000340: 3ce7 06be b8fb c3bd 4840 84be 48c5 153e
00000350: d451 b0be fc3a 0d3e 22f3 d3be 6307 413e
00000360: 70ca 2bbe 27e4 aebe e2fb df3e 1ad1 1fbe
00000370: d1fa b9bd 87ef dc3e 8312 d0be e078 d0bd
00000380: b021 c03d 28d5 103e b18b cf3e 2490 913e
00000390: 374a 31bc 98d9 083e bf0f a7be e3a4 6d3d
000003a0: 60af 913e 86ab d13e 4c70 91be a576 3b3d
000003b0: 5e90 b83d 43be ab3e 5d03 e23c 3e66 53bd
000003c0: 1531 1bbe 9c84 703e 8be2 0f3e a716 363e
000003d0: 8c43 4dbe f0c4 5bbd 5869 563e 5bff cabe
000003e0: 95a1 c03e af9e 38bc 1e7c 9fbe 5cd4 513e
000003f0: 49fa 82be 855b 5bbe e476 bbbe b4c2 623e

fc1.bias f4 [128]
-0.31575018 -0.43992633 -0.1382066 -0.19998671 0.31649712 0.3792953 -0.28531328 -0.17169543
0.3514363 0.13808993 0.37612382 -0.39627033 0.3345981 -0.25010914 0.31771985 -0.040328212
-0.032093506 -0.37559125 -0.09356519 -0.13670175 -0.271997 -0.28398305 -0.09145671 0.2808896
-0.24239257 0.0006910657 -0.19472252 -0.05709954 -0.23039031 -0.43491176 -0.4092448 -0.33471626
-0.06774791 -0.3589243 -0.2604548 0.18280871 0.019996215 -0.36285606 0.06222277 -0.23426735
-0.37290016 -0.007089047 -0.012066275 0.36851096 0.051825296 -0.2874384 0.2695998 0.21380404
0.401897 0.11836965 0.29795814 -0.11777448 -0.31172296 0.2198779 0.11122035 0.2857593
-0.21070166 -0.012988967 -0.10417092 0.12709986 0.38264185 -0.42525834 0.16390191 0.12343871
0.38863614 -0.3475875 -0.26098597 0.0046089943 0.21555476 0.18259224 0.024346799 -0.35857907
0.07187184 0.3224417 0.3546699 0.21036117 0.09367596 -0.3613699 0.28664762 0.069399364
0.088024125 0.35045812 0.021136172 0.028503977 -0.03227778 -0.18323648 -0.043981344 0.02940046
-0.122118816 0.03613969 0.18785639 0.35202694 -0.44288555 -0.02079868 -0.13663116 -0.16283892
-0.039550215 -0.060217917 0.17604887 0.06897039 -0.2874919 0.2314974 0.22745192 0.33415318
-0.039816096 0.09056655 -0.3326257 0.25070596 -0.1253756 0.053324215 -0.29431418 -0.39496383
0.12608139 0.03423011 -0.15231302 -0.44211435 0.32322955 0.3241404 -0.19660243 -0.35169476
0.3738072 0.24332097 0.41267788 -0.27396005 -0.09021557 0.015841115 -0.25402126 -0.35838893
00000000: 02aa a1be 063e e1be 0886 0dbe 51c9 4cbe
00000010: e90b a23e fe32 c23e 9514 92be edd0 2fbe
00000020: 75ef b33e 7267 0d3e 4d93 c03e f2e3 cabe
00000030: 7150 ab3e 4e0e 80be 2dac a23e 322f 25bd
00000040: 7b74 03bd 7f4d c0be 1b9f bfbd 8bfb 0bbe
00000050: 3143 8bbe 3a66 91be a84d bbbd c3d0 8f3e
00000060: c235 78be a228 353a 5765 47be 35e1 69bd
00000070: 70eb 6bbe c1ac debe 8988 d1be ee5f abbe
00000080: 6bbf 8abd edc4 b7be 555a 85be 3532 3b3e
00000090: 1acf a33c 45c8 b9be 4edd 7e3d c8e3 6fbe
000000a0: c5ec bebe 3d4b e8bb a0b1 45bc 78ad bc3e
000000b0: c346 543d 202b 93be fc08 8a3e 72ef 5a3e
000000c0: 72c5 cd3e c96b f23d f88d 983e bf33 f1bd
000000d0: 279a 9fbe ac27 613e 7fc7 e33d 0b4f 923e
000000e0: 2dc2 57be adcf 54bc 9057 d5bd 7726 023e
000000f0: a2e9 c33e 76bb d9be e7d5 273e 6fcd fc3d
00000100: 51fb c63e fdf6 b1be f49f 85be 0c07 973b
00000110: 63ba 5c3e 76f9 3a3e f072 c73c ad97 b7be
00000120: 8b31 933d 1417 a53e 4b97 b53e eb68 573e
00000130: 2fd9 bf3d 7a05 b9be 7ac3 923e 4121 8e3d
00000140: fe45 b43d 3f6f b33e c425 ad3c 2c81 e93c
00000150: b535 04bd 58a2 3bbe c825 34bd 3cd9 f03c
00000160: 6e19 fabd 3607 143d 6d5d 403e e03c b43e
00000170: e5c1 e2be fe61 aabc 0ae9 0bbe 3fbf 26be
00000180: 68ff 21bd 10a7 76bd 2846 343e 5940 8d3d
00000190: 2332 93be a80d 6d3e 28e9 683e 2016 ab3e
000001a0: 3416 23bd f57a b93d ea4d aabe 885c 803e
000001b0: 7662 00be 7e6a 5a3d 59b0 96be b338 cabe
000001c0: 7b1b 013e df34 0c3d f2f7 1bbe d05c e2be
000001d0: 587e a53e bbf5 a53e 2652 49be 5611 b4be
000001e0: a863 bf3e 2229 793e 844a d33e 7e44 8cbe
000001f0: f1c2 b8bd 3ac5 813c 130f 82be c17e b7be

fc2.weight f4 [64, 128]
0.0677344 0.024110463 0.08365638 0.02489107 -0.043331273 -0.082818896 -0.064377286 0.043319795
0.02819134 0.0573057 0.06782845 0.022490896 -0.012892995 0.0014714077 0.053004675 -0.042814244
-0.0014706025 -0.02825078 0.03210578 0.07788238 -0.06290348 0.021811023 0.06349959 -0.00601132
0.040094003 0.04191621 -0.061295386 -0.07599573 -0.021008298 -0.020666104 0.082015984 -0.005043355
-0.0117406575 0.06650337 0.0668927 0.03931979 0.08613684 0.030365013 -0.0868538 -0.0636892
0.07328259 -0.017200736 -0.021322943 -0.04649294 -0.025001558 0.059468713 -0.06578433 -0.08456478
-0.042944442 -0.07003074 -0.042165082 -0.06256033 -0.020354543 0.062396295 0.048591476 0.072880775
0.05334369 -0.01933857 -0.07911169 0.014806831 -0.028547138 0.032528535 -0.006780655 -0.08336671
0.068243526 0.07707041 0.088365845 -0.021155583 0.019982815 0.022519816 -0.050698217 -0.058900926
0.038488988 0.054623567 0.07688969 0.030598838 -0.08245009 0.03845539 -0.042796377 0.0029700012
-0.0090272315 0.05465989 0.05114467 0.04397157 -0.0303208 0.060928345 0.02939707 -0.043188833
-0.0405751 -0.015187884 0.041908 0.05824638 0.08743739 0.013957781 0.03224464 0.037751537
-0.0014452785 0.019822862 0.08054752 -0.060288813 0.04685751 -0.08174964 0.033610318 -0.06625151
0.07698692 0.06400072 0.0033339858 -0.065359 0.017179959 -0.04687338 -0.0022654678 0.040495865
0.072779514 0.0056395624 0.06702152 -0.00015248358 -0.08406334 -0.0074317115 -0.04514727 0.041112203
0.02691129 0.07722917 -0.017084578 0.047434784 0.073465906 0.01024883 0.05432396 0.078351244
-0.050615035 -0.07376319 0.03524376 -0.019592848 -0.062390327 0.0868332 0.08289059 -0.030975278
0.016261617 0.066582374 0.0022405477 -0.02388636 -0.053078953 -0.079651125 0.03233832 -0.060005736
0.0380646 -0.008532606 0.028701896 0.034860946 0.0026438253 -0.000103822196 0.04994329 0.08461793
0.07343785 0.07348955 0.033967353 0.07050885 0.04186943 -0.06594801 0.07139594 0.028264143
-0.08229294 0.046272837 -0.045136448 0.07562696 -0.01807005 0.013422884 0.00624865 0.041741066
-0.060404666 0.06137107 0.054582335 0.0067236684 0.085275516 -0.079962984 -0.044662938 -0.027993819
-0.03945613 0.059405345 -0.030905118 -0.07542485 -0.07041144 0.03438952 0.07214939 -0.028358081
-0.0049855113 0.034536045 0.084603116 0.05530691 -0.067789465 0.07014012 -0.0646353 0.041628227
-0.053552765 0.0769279 -0.02865285 -0.07969316 -0.03756205 -0.06887314 0.05679828 -0.07677153
-0.03234157 -0.050380904 -0.0044719167 0.06596212 0.049030643 0.056826144 0.07625509 0.041784823
0.055990875 0.05803037 -0.017443212 0.02534394 0.013117011 -0.04449875 0.07429669 -0.0036711814
0.08520619 0.00279544 -0.027046997 -0.020946437 -0.016889561 -0.048250042 0.03010963 -0.022266408
0.06560611 -0.0565726 -0.032014005 -0.06709486 0.06865771 0.032386277 0.07602276 0.004116589
0.031565756 0.08336219 0.0030848205 -0.060261328 0.046467658 -0.02201238 -0.06091564 0.00048196863
-0.07486185 0.037673257 0.05270761 -0.041570257 -0.013175079 0.070745 -0.08391227 -0.05316576
0.035861716 -0.027829004 0.022339806 -0.012997123 0.007910732 -0.08581636 0.063887954 -0.05810443
00000000: 55b8 8a3d 4e83 c53c 0954 ab3d 5be8 cb3c
00000010: 227c 31bd f49c a9bd 3dd8 83bd 1970 313d
00000020: 86f1 e63c 62b9 6a3d a4e9 8a3d d43e b83c
00000030: 243d 53bc 40dc c03a 6e1b 593d fd5d 2fbd
00000040: 3bc1 c0ba 2e6e e7bc 5a81 033d cc80 9f3d
00000050: 8ad3 80bd 08ad b23c 130c 823d 9bfa c4bb
00000060: 9c39 243d 55b0 2b3d df10 7bbd a6a3 9bbd
00000070: 9819 acbc f64b a9bc fff7 a73d ba42 a5bb
00000080: e35b 40bc eb32 883d 0aff 883d ca0d 213d
00000090: 8368 b03d 0cc0 f83c 68e0 b1bd 7c6f 82bd
000000a0: 2f15 963d 8fe8 8cbc 74ad aebc 626f 3ebd
000000b0: 11d0 ccbc 7795 733d efb9 86bd 4d30 adbd
000000c0: 83e6 2fbd 476c 8fbd 4bb5 2cbd a11f 80bd
000000d0: 92be a6bc 4293 7f3d db07 473d 8442 953d
000000e0: ea7e 5a3d ec6b 9ebc 4f05 a2bd 5a98 723c
000000f0: b0db e9bc a43c 053d 4230 debb 2abc aabd
00000100: 43c3 8b3d 17d7 9d3d 27f9 b43d 794e adbc
00000110: 00b3 a33c 7a7b b83c efa8 4fbd 1942 71bd
00000120: a1a6 1d3d f6bc 5f3d 5778 9d3d 6aaa fa3c
00000130: 98db a8bd 6683 1d3d 414b 2fbd 5aa4 423b
00000140: f4e6 13bc 0ce3 5f3d 137d 513d 881b 343d
00000150: 5463 f8bc 0090 793d 20d2 f03c c6e6 30bd
00000160: 1332 26bd 9ad6 78bc b9a7 2b3d c293 6e3d
00000170: 6012 b33d 2daf 643c f512 043d 5ba1 1a3d
00000180: 806f bdba 8e63 a23c 19f6 a43d 67f1 76bd
00000190: a9ed 3f3d 5b6c a7bd f9aa 093d dfae 87bd
000001a0: 51ab 9d3d cf12 833d 007f 5a3b f0da 85bd
000001b0: fcbc 8c3c 4dfe 3fbd 3e78 14bb fede 253d
000001c0: 6d0d 953d 14cc b83b 9442 893d 00e4 1fb9
000001d0: 6729 acbd b785 f3bb 58ec 38bd 4565 283d
000001e0: 1175 dc3c 542a 9e3d f5f4 8bbc fa4a 423d
000001f0: 4b75 963d b5ea 273c cd82 5e3d 9e76 a03d
00000200: b651 4fbd 2811 97bd c35b 103d 2e81 a0bc
00000210: 008d 7fbd 9bd5 b13d 8bc2 a93d debf fdbc
00000220: 1537 853c 575c 883d 27d6 123b 54ad c3bc
00000230: 5169 59bd 2120 a3bd 3075 043d 93c8 75bd
00000240: a0e9 1b3d 58cc 0bbc 3d20 eb3c 5aca 0e3d
00000250: 0744 2d3b 1ebb d9b8 5691 4c3d 2a4c ad3d
00000260: 9566 963d b081 963d 5a21 0b3d f266 903d
00000270: 487f 2b3d c00f 87bd 0938 923d 348a e73c
00000280: 3389 a8bd 9688 3d3d ffe0 38bd 4fe2 9a3d
00000290: a407 94bc a8eb 5b3c 7ac1 cc3b aef8 2a3d
000002a0: e26a 77bd 3b60 7b3d ba91 5f3d 3852 dc3b
000002b0: eea4 ae3d a2c3 a3bd 7cf0 36bd 4b53 e5bc
000002c0: c09c 21bd 0553 733d bb2c fdbc 5878 9abd
000002d0: e033 90bd 06dc 0c3d 0fc3 933d 354f e8bc
000002e0: 805d a3bb ab75 0d3d 6644 ad3d 8089 623d
000002f0: 34d5 8abd a0a5 8f3d 835f 84bd 5c82 2a3d
00000300: 255a 5bbd 608c 9d3d 62b9 eabc 2b36 a3bd
00000310: aada 19bd 5c0d 8dbd 50a5 683d 643a 9dbd
00000320: 9878 04bd 355c 4ebd 2889 92bb 2617 873d
00000330: 5bd4 483d 88c2 683d a12b 9c3d 9026 2b3d
00000340: b056 653d 41b1 6d3d 11e5 8ebc 189e cf3c
00000350: bbe8 563c 5244 36bd dd28 983d 3498 70bb
00000360: 9580 ae3d b333 373b aa91 ddbc dd97 abbc
00000370: fa5b 8abc d6a1 45bd 79a8 f63c 0b68 b6bc
00000380: 7f5c 863d acb8 67bd 1e21 03bd 0869 89bd
00000390: 6a9c 8c3d 79a7 043d d2b1 9b3d 74e4 863b
000003a0: 184b 013d ccb9 aa3d b32a 4a3b 95d4 76bd
000003b0: df54 3e3d 4f53 b4bc ae82 79bd bcb0 fc39
000003c0: 2b51 99bd 464f 1a3d efe3 573d 9345 2abd
000003d0: 49dc 57bc c1e2 903d 32da abbd 57c4 59bd
000003e0: bce3 123d a7f9 e3bc f801 b73c e3f1 54bc
000003f0: 049c 013c 7dc0 afbd b0d7 823d e9fe 6dbd

fc2.bias f4 [64]
0.019415189 -0.016314905 0.06898716 -0.031617813 0.038392562 0.0014842512 0.028319733 -0.086059
0.031634457 0.059487842 0.05806227 0.033664078 0.022783592 0.0062477635 -0.015321107 0.044445567
0.048509143 -0.027089864 -0.013529848 -0.025826894 -0.062722504 -0.057061683 0.0080040535 0.050369494
-0.07273619 -0.07635908 0.0460129 -0.013425839 0.062334258 -0.047350455 -0.065807015 -0.06841237
-0.08626868 0.053077072 0.035330076 0.05536997 0.059794653 -0.07528234 0.07580267 0.07818516
-0.049259137 0.04463436 0.07502449 -0.047703683 0.017312879 -0.025264801 -0.04008319 0.004430391
-0.042216267 -0.039284397 0.015641699 -0.08948894 -0.0055854926 0.036011193 0.0062000817 0.012344354
0.04341057 0.028431147 0.035059504 -0.040156726 0.06918893 -0.06306556 -0.07660398 -0.0684323
00000000: 9a0c 9f3c d6a6 85bc 2449 8d3d ae81 01bd
00000010: 8541 1d3d 358b c23a c9fe e73c b33f b0bd
00000020: 2293 013d 86a9 733d b4d2 6d3d 58e3 093d
00000030: a8a4 ba3c 0aba cc3b 6105 7bbc 8e0c 363d
00000040: 86b1 463d 90eb ddbc 4cac 5dbc ec92 d3bc
00000050: a874 80bd 83b9 69bd 6f23 033c 3e50 4e3d
00000060: b6f6 94bd 2662 9cbd 0678 3c3d 0df8 5bbc
00000070: 3552 7f3d 8df2 41bd d4c5 86bd c91b 8cbd
00000080: a2ad b0bd 5867 593d 45b6 103d 9fcb 623d
00000090: 3deb 743d a12d 9abd 6e3e 9b3d 8b1f a03d
000000a0: f3c3 49bd 85d2 363d 71a6 993d f064 43bd
000000b0: bdd3 8d3c 21f8 cebc 452e 24bd d02c 913b
000000c0: f7ea 2cbd ade8 20bd 0523 803c fa45 b7bd
000000d0: 8206 b7bb 7980 133d 0e2a cb3b f93f 4a3c
000000e0: 48cf 313d 70e8 e83c 8e9a 0f3d 617b 24bd
000000f0: edb2 8d3d 8428 81bd 8ce2 9cbd 3c26 8cbd

fc3_action.weight f4 [26, 64]
-0.11815112 0.00070555566 0.041750636 -0.084011115 0.09916843 -0.047234416 -0.099333316 -0.08437173
0.017277291 -0.08853933 0.009155676 -0.020640548 -0.044068463 0.029149009 -0.06938419 -0.07120313
0.08038713 0.112256594 0.12401204 0.08123044 -0.005914554 0.04388589 -0.06508523 -0.0066607357
0.025460655 0.05290124 -0.023489177 -0.023914604 -0.09780699 0.110911086 0.0026813955 0.12529299
-0.110600606 0.12286657 0.030286094 -0.0006110867 0.08215532 0.112373784 0.024747455 0.034363654
-0.10077636 0.059797384 0.058024254 0.07242597 0.120591775 -0.08461072 -0.016718099 -0.0390089
-0.10644152 -0.07167831 0.05051448 0.07266516 0.1103025 -0.10404022 0.10882149 0.086765125
0.12155781 0.052056804 0.054510098 -0.01293987 -0.10791261 -0.017320499 0.040699154 0.05028827
-0.11870921 -0.0061766654 -0.10565954 0.06456014 0.0022831438 -0.061250996 0.017057767 -0.017068341
0.059068426 0.06446364 -0.042312704 0.09716985 0.09848383 0.120404065 0.08695103 -0.10509056
0.045343503 0.0612543 -0.04572083 -0.04175406 0.06508914 -0.007456123 -0.06392592 0.00068226474
-0.07140834 0.102393016 -0.018260136 -0.077563316 0.10642423 -0.032149244 0.042443953 -0.059228376
0.1249515 -0.10304369 -0.06993361 0.013959652 0.124810725 -0.07994254 -0.034630317 0.036063194
-0.082176164 -0.061240837 -0.11962214 -0.061246876 -0.11213246 0.02330451 0.020571023 0.08106516
0.051645484 0.101835154 -0.035962574 0.08548321 0.10337544 0.021863196 0.08006142 -0.059079908
0.07243164 -0.11173491 -0.07975715 0.10983017 0.060495112 -0.12160236 -0.06635235 0.05690143
0.060934033 0.09144261 -0.1106768 -0.006479679 0.123205334 -0.041502006 -0.06633036 -0.1036126
0.06979709 -0.090961464 0.12673162 0.081387125 -0.058767628 0.043318674 0.025476918 0.030361127
0.08132121 0.01415961 0.10407762 -0.002257645 -0.06780946 -0.033452354 0.009577597 0.08651747
0.014095674 0.03930579 0.09271668 -0.028375845 0.032377776 0.120573826 -0.03285457 -0.04473732
-0.10472761 0.10771118 0.009371777 0.11432647 -0.010442646 0.0396107 0.07835594 0.098587945
0.015383497 -0.076743 -0.023677062 0.026184546 0.0053560715 0.08055042 -0.09630196 -0.1190722
0.084371045 -0.045305524 0.09114414 -0.03596642 -0.018919403 -0.082956135 -0.07103074 0.002042531
-0.10551858 -0.048696354 -0.0019929907 -0.07711223 -0.02984049 0.0064006746 -0.07298529 0.071851976
0.020047862 -0.0716008 0.025805455 0.11165881 -0.08338764 0.06522092 -0.028003516 -0.014773697
0.026787428 0.07072466 0.0016733393 0.012202061 -0.09427955 -0.013580291 -0.08913295 0.11285703
-0.004485503 -0.1230823 -0.062892444 0.11562582 0.061500445 -0.108085014 -0.05191206 0.0039546215
0.06397715 -0.117474556 -0.07102786 0.07847796 0.11456916 0.0076579466 0.090226285 0.076529786
0.09342924 0.106795415 0.0659267 0.10656195 0.10263561 0.057256907 0.08331709 -0.11451485
-0.022777095 -0.0636152 -0.08741241 0.06009572 -0.09202159 0.03128963 -0.03597633 -0.009055659
0.011613911 0.0741334 0.071857885 -0.0074539506 0.024890605 -0.1185399 -0.096457854 -0.03046097
-0.11157274 0.08809742 -0.045638148 0.021595508 -0.09286018 0.032763124 -0.08005583 -0.05230058
00000000: 37f9 f1bd 0af5 383a b702 2b3d 050e acbd
00000010: d118 cb3d e078 41bd 446f cbbd 16cb acbd
00000020: 1b89 8d3c 1c54 b5bd b001 163c 5e16 a9bc
00000030: 2281 34bd e7c9 ee3c 4c19 8ebd f2d2 91bd
00000040: 02a2 a43d c9e6 e53d 06fa fd3d 255c a63d
00000050: e0ce c1bb b1c1 333d 684b 85bd 4d42 dabb
00000060: dd92 d03c f8ae 583d 606c c0bc 8fe8 c3bc
00000070: 084f c8bd 5a25 e33d 5aba 2f3b ce4c 003e
00000080: 9282 e2bd 78a1 fb3d 8b1a f83c 5631 20ba
00000090: 0c41 a83d 3a24 e63d 2dbb ca3c e7c0 0c3d
000000a0: d663 cebd 1aee 743d d7aa 6d3d 1154 943d
000000b0: d2f8 f63d 6348 adbd 65f4 88bc ccc7 1fbd
000000c0: 03fe d9bd 14cc 92bd 45e8 4e3d 79d1 943d
000000d0: 47e6 e13d 0a13 d5bd cddd de3d eab1 b13d
000000e0: 4df3 f83d 8439 553d fb45 5f3d c001 54bc
000000f0: 4901 ddbd b8e3 8dbc 28b4 263d 13fb 4d3d
00000100: d01d f3bd a065 cabb 0764 d8bd 1b38 843d
00000110: cca0 153b 53e2 7abd bbbc 8b3c e8d2 8bbc
00000120: bcf1 713d 8305 843d 1650 2dbd fc00 c73d
00000130: e4b1 c93d 6896 f63d 6213 b23d b839 d7bd
00000140: 1cba 393d cae5 7a3d c445 3bbd 4e06 2bbd
00000150: 744d 853d 7e52 f4bb 98eb 82bd 03da 323a
00000160: 893e 92bd 6eb3 d13d 4896 95bc 84d9 9ebd
00000170: f2f4 d93d edae 03bd b6d9 2d3d 7499 72bd
00000180: 92e6 ff3d 9208 d3bd 5a39 8fbd 06b7 643c
00000190: c49c ff3d eab8 a3bd 85d8 0dbd 00b7 133d
000001a0: fa4b a8bd acd7 7abd 74fc f4bd 01de 7abd
000001b0: b4a5 e5bd 1ae9 be3c 9084 a83c 7e05 a63d
000001c0: 378a 533d f38e d03d 7e4d 13bd d211 af3d
000001d0: 81b6 d33d 721a b33c 3ef7 a33d c6fd 71bd
000001e0: 0a57 943d 46d5 e4bd b757 a3bd a4ee e03d
000001f0: b9c9 773d a80a f9bd bee3 87bd 7911 693d
00000200: f795 793d 4346 bb3d 85aa e2bd 7d53 d4bb
00000210: 1453 fc3d 02fe 29bd 36d8 87bd d832 d4bd
00000220: c7f1 8e3d 014a babd efc5 013e 4bae a63d
00000230: 53b6 70bd ec6e 313d f8b4 d03c e6b7 f83c
00000240: bc8b a63d b5fd 673c a626 d53d fff4 13bb
00000250: b0df 8abd 5605 09bd 5aeb 1c3c 1230 b13d
00000260: 8bf1 663c 1cff 203d 3ee2 bd3d 7674 e8bc
00000270: 8f9e 043d 69ef f63d 8392 06bd 7b3e 37bd
00000280: 6e7b d6bd ae97 dc3d 158c 193c ff23 ea3d
00000290: a217 2bbc d43e 223d 1479 a03d 7ae8 c93d
000002a0: 100b 7c3c 6f2b 9dbd 66f6 c1bc f980 d63c
000002b0: fc81 af3b 9ef7 a43d f639 c5bd 20dc f3bd
000002c0: baca ac3d 4992 39bd c7a9 ba3d 8651 13bd
000002d0: ddfc 9abc e8e4 a9bd 9178 91bd fcdb 053b
000002e0: 201a d8bd d475 47bd d69c 02bb 04ed 9dbd
000002f0: 0b74 f4bc c0bc d13b 5079 95bd 2127 933d
00000300: 6a3b a43c 71a3 92bd f665 d33c 60ad e43d
00000310: 24c7 aabd 8c92 853d a167 e5bc 600d 72bc
00000320: 4f71 db3c 17d8 903d f353 db3a 27eb 473c
00000330: a315 c1bd de7f 5ebc 568b b6bd 9621 e73d
00000340: 20fb 92bb 9312 fcbd c1cd 80bd 3bcd ec3d
00000350: e4e7 7b3d ad5b ddbd bda1 54bd c595 813b
00000360: 7406 833d 8096 f0bd 0e77 91bd 0db9 a03d
00000370: 3ca3 ea3d 83ef fa3b 8fc8 b83d a6bb 9c3d
00000380: d457 bf3d 8eb7 da3d 9404 873d 273d da3d
00000390: 9e32 d23d 3886 6a3d 27a2 aa3d c386 eabd
000003a0: 0897 babc b048 82bd 4705 b3bd ee26 763d
000003b0: d175 bcbd 8e29 003d eb5b 13bd 305e 14bc
000003c0: 4648 3e3c 41d3 973d 3a2a 933d 4540 f4bb
000003d0: 62e7 cb3c 0cc5 f2bd b28b c5bd 4989 f9bc
000003e0: 4080 e4bd 6c6c b43d 11ef 3abd 10e9 b03c
000003f0: 7a2d bebd a032 063d 50f4 a3bd 2239 56bd

fc3_action.bias f4 [26]
-0.09163619 -0.0026825878 -0.05863841 -0.119794995 -0.014275673 -0.019747004 -0.05794695 0.068751544
0.010303697 0.094380096 0.12532215 0.029451437 -0.057484504 -0.03286691 0.04628812 -0.0013259765
0.06716893 0.05184891 -0.047407743 0.07793004 -0.09128863 -0.08745213 0.08148639 -0.0154168345
5.50958e-05 0.04563552
00000000: c1ab bbbd 5bce 2fbb d42e 70bd 1457 f5bd
00000010: 83e4 69bc 78c4 a1bc c859 6dbd 9ccd 8c3d
00000020: d6d0 283c 5a4a c13d 7354 003e 2444 f13c
00000030: df74 6bbd 749f 06bd 9d98 3d3d 63cc adba
00000040: dd8f 893d 865f 543d 9f2e 42bd c999 9f3d
00000050: 89f5 babd 1a1a b3bd 56e2 a63d e496 7cbc
00000060: aa16 6738 50ec 3a3d
