traditional_vrpb_policy_final.pth (torch, 42909 bytes, 6 tensors)

fc1.weight f4 [128, 6]
-0.37329844 0.38543272 -0.014478766 0.17876217 -0.36619478 -0.37928537 0.26153827 -0.3357064
-0.008116096 -0.2329555 0.118698955 -0.055618346 0.20960222 0.065365076 0.091363415 -0.25962418
0.17185394 0.18522185 0.33535323 0.2451575 0.3983897 0.045678675 -0.35944235 0.040844202
-0.06828299 0.18825957 0.21079904 -0.21858479 0.14950976 -0.27341247 0.051043786 0.32844076
-0.22961861 -0.35527867 -0.029202932 0.15143955 0.10866555 -0.08460751 0.37508804 0.069658205
0.22134076 0.35918164 0.39615944 0.118672654 -0.34442207 -0.005390114 -0.13842791 -0.20800705
-0.3748242 0.17008363 -0.15645558 0.052328184 -0.38774428 -0.07703611 -0.17788033 -0.10787082
-0.33639792 0.18656331 -0.27549708 -0.33436263 -0.27814633 0.34751564 0.30956477 0.21900395
-0.2540725 0.22576064 0.17214523 0.08295228 0.29337353 0.03820404 0.2773582 -0.2368674
0.15343064 -0.26311934 -0.19254602 -0.09163502 -0.2929509 0.04204452 -0.21178797 -0.01969927
-0.26998407 -0.39486048 -0.03805421 -0.36719722 0.28605145 -0.052573834 0.18039149 -0.3148374
-0.27527 0.08692962 0.09327582 -0.12919228 -0.2013485 0.120024554 -0.2874502 -0.034508586
0.35435295 0.20081621 -0.13010772 0.29820246 -0.06590867 -0.021817446 -0.24816656 -0.2502714
0.025296032 0.13216066 0.038164854 0.31023002 0.30435562 -0.3078483 -0.19970202 0.35813242
-0.3369443 -0.2527935 -0.118994236 0.1434992 -0.20500036 0.07985702 -0.35487235 -0.34741476
-0.28121993 0.36829877 -0.016426433 0.36125737 -0.11376051 0.10835481 0.070095435 0.13134949
-0.30110514 -0.23876964 0.4030726 -0.3677664 -0.3329423 0.22129926 0.21587843 0.20265333
-0.12401076 -0.24270146 0.20059884 -0.26080212 0.2790839 -0.04542318 -0.11162719 -0.30839595
0.34841853 -0.049957305 -0.30563828 -0.13295771 0.043563917 -0.3750616 -0.26029104 0.0010462452
0.36302447 -0.24069269 0.19451879 0.26702613 0.26525086 -0.28237596 -0.1333222 -0.17038283
-0.19758107 -0.06690192 -0.18208852 0.1446029 0.26774818 -0.23049898 -0.23980206 0.3066681
-0.3147807 -0.22803512 -0.036465436 0.0570381 -0.19782986 -0.06823164 0.0052424893 0.31802788
-0.3681884 0.20896718 -0.17586312 0.35826218 0.1812734 -0.3497991 -0.047896743 -0.18042406
-0.08127704 -0.3590048 -0.22716846 -0.2888477 -0.33275047 0.16698836 0.327872 -0.3784837
-0.06248769 -0.07267034 -0.38193116 -0.2557943 0.076860756 -0.17953053 0.26458567 0.10673197
-0.057932444 -0.0057779527 0.31481802 0.37600577 0.06353319 -0.07170791 -0.06440276 0.38456845
-0.34092396 0.11364579 0.23580194 -0.34923062 -0.37287834 -0.09531629 0.013084561 -0.15775669
-0.26170242 -0.31492645 -0.2199308 -0.34535444 0.07334226 -0.12730622 0.21904011 -0.036622245
-0.23883924 0.15460089 0.062318042 0.10966432 0.2050099 -0.31017813 0.116432756 0.1009287
0.14708179 -0.31537396 0.106637314 -0.005724968 -0.32324085 0.18148774 0.056820996 0.26166856
-0.08901801 -0.043506257 -0.24856745 0.091809474 -0.043473393 -0.11367753 0.20760722 0.079614274
-0.048536208 0.036870196 0.152072 -0.19189915 -0.26667035 0.0002555549 -0.28184894 -0.30346906
00000000: f920 bfbe 7057 c53e 5938 6dbc 6e0d 373e
00000010: e27d bbbe b131 c2be 58e8 853e b6e1 abbe
00000020: 60f9 04bc e38b 6ebe 7018 f33d 10d0 63bd
00000030: f7a1 563e 20de 853d be1c bb3d 76ed 84be
00000040: 7bfa 2f3e ccaa 3d3e 6bb3 ab3e 910a 7b3e
00000050: bcf9 cb3e 9019 3b3d d408 b8be 404c 273d
00000060: f4d7 8bbd 1ec7 403e b4db 573e b1d4 5fbe
00000070: 1619 193e b8fc 8bbe 4a13 513d 6329 a83e
00000080: 2421 6bbe 16e7 b5be fd3a efbc f812 1b3e
00000090: 0b8c de3d b446 adbd 8a0b c03e f6a8 8e3d
000000a0: 27a7 623e a8e6 b73e 69d5 ca3e a60a f33d
000000b0: 1758 b0be 8e9f b0bb 0cc0 0dbe cdff 54be
000000c0: f5e8 bfbe 672a 2e3e e435 20be 1456 563d
000000d0: 6b86 c6be 1cc5 9dbd 4326 36be 60eb dcbd
000000e0: 593c acbe 740a 3f3e f40d 8dbe 9431 abbe
000000f0: 3269 8ebe 92ed b13e 467f 9e3e 9242 603e
00000100: ca15 82be cc2d 673e d746 303e e3e2 a93d
00000110: 0e35 963e d77b 1c3d e501 8e3e 5e8d 72be
00000120: ec1c 1d3e 94b7 86be c92a 45be 24ab bbbd
00000130: a9fd 95be e036 2c3d f2de 58be 5d60 a1bc
00000140: 5a3b 8abe 272b cabe bbde 1bbd 4601 bcbe
00000150: 5675 923e a957 57bd 8cb8 383e 5e32 a1be
00000160: 30f0 8cbe 2808 b23d 6507 bf3d fb4a 04be
00000170: 4d2e 4ebe 6fcf f53d ac2c 93be e058 0dbd
00000180: c06d b53e c4a2 4d3e f53a 05be fead 983e
00000190: 20fb 86bd 80ba b2bc 601f 7ebe 9323 80be
000001a0: a039 cf3c 2055 073e c052 1c3d 78d6 9e3e
000001b0: 80d4 9b3e 4b9e 9dbe b07e 4cbe 225d b73e
000001c0: f783 acbe 266e 81be 40b3 f3bd 74f1 123e
000001d0: 9deb 51be 148c a33d d4b1 b5be 59e0 b1be
000001e0: 0ffc 8fbe a891 bc3e ba90 86bc baf6 b83e
000001f0: 45fb e8bd 20e9 dd3d 328e 8f3d 7b80 063e
00000200: 742a 9abe 0780 74be 885f ce3e e14b bcbe
00000210: 6a77 aabe 469c 623e 3c0f 5d3e 5b84 4f3e
00000220: 5af9 fdbd bb86 78be c869 4d3e db87 85be
00000230: 16e4 8e3e a80d 3abd cc9c e4bd 13e6 9dbe
00000240: ea63 b23e 08a0 4cbd 9f7c 9cbe 1126 08be
00000250: 1470 323d 1308 c0be de44 85be 2a22 893a
00000260: 58de b93e 2578 76be ef2f 473e a6b7 883e
00000270: f6ce 873e 9593 90be 9d85 08be d678 2ebe
00000280: b152 4abe e003 89bd 6a75 3abe c812 143e
00000290: 4a16 893e ed07 6cbe ac8e 75be 9a03 9d3e
000002a0: f02a a1be 0a82 69be c85c 15bd c8a0 693d
000002b0: e993 4abe 08bd 8bbd 30c9 ab3b 8dd4 a23e
000002c0: 3183 bcbe 7efb 553e 7615 34be 246e b73e
000002d0: bc9f 393e de18 b3be 602f 44bd 16c1 38be
000002e0: 9474 a6bd 7acf b7be d99e 68be d9e3 93be
000002f0: 455e aabe fffe 2a3e d7de a73e 9ec8 c1be
00000300: 18f3 7fbd 30d4 94bd 7b8c c3be 78f7 82be
00000310: 2c69 9d3d dad6 37be c677 873e 4b96 da3d
00000320: 924a 6dbd fb54 bdbb d42f a13e d483 c03e
00000330: b01d 823d 99db 92bd 98e5 83bd 28e6 c43e
00000340: 968d aebe 20bf e83d 1076 713e 5bce b2be
00000350: e9e9 bebe 3035 c3bd a060 563c f88a 21be
00000360: dcfd 85be 0a3e a1be 8a35 61be 4cd2 b0be
00000370: 7834 963d 905c 02be 0d4c 603e 3501 16bd
00000380: 4692 74be b24f 1e3e 3441 7f3d b097 e03d
00000390: 1dee 513e abcf 9ebe 4c74 ee3d b5b3 ce3d
000003a0: 9c9c 163e b278 a1be aa64 da3d 8398 bbbb
000003b0: d37f a5be ecd7 393e 22bd 683d 6cf9 853e
000003c0: 134f b6bd 9e33 32bd 7788 7ebe 9b06 bc3d
000003d0: 2811 32bd c4cf e8bd fd96 543e cf0c a33d
000003e0: e7cd 46bd 3405 173d c3b8 1b3e 3681 44be
000003f0: 0489 88be 00fc 8539 814e 90be 4c60 9bbe

fc1.bias f4 [128]
0.018792333 -0.16102096 0.3216596 -0.1195113 -0.31704196 0.0959199 -0.24962145 -0.07483546
0.3517433 -0.1208649 -0.24351834 0.37489152 0.04171884 0.3775253 0.3391642 0.3306119
0.13203466 -0.019884646 -0.3222857 -0.26187065 0.10316231 -0.35705626 0.25490212 -0.34051403
0.26391494 0.09255209 0.3058144 -0.09244549 -0.35667726 0.19691265 -0.28375465 0.23172367
0.09604919 -0.100817345 0.3724174 -0.19285166 0.1710822 0.20616172 0.36836472 -0.09369812
0.18765447 -0.17500012 -0.328364 0.006792728 -0.35382614 0.25407505 -0.1477135 0.31363264
-0.3465324 0.1758892 0.13205846 -0.26051822 0.023529172 -0.36376664 0.21731879 0.28465712
-0.09407126 0.046365384 0.40015036 -0.2686789 -0.021095335 -0.344296 0.101405025 -0.19135374
-0.13817847 -0.35738423 -0.20771164 -0.008146341 0.20459786 0.38665143 0.14672345 -0.31913856
-0.06808782 -0.29035544 0.0068020476 -0.099193215 0.06986539 0.24258447 -0.16487719 0.010809813
-0.1905068 0.030799039 0.333576 -0.11258063 0.30699196 0.07987596 -0.16873783 0.117387556
0.3717464 0.19742393 0.29254958 0.24211872 -0.24121916 -0.071900696 0.032534033 -0.08492111
-0.2282413 0.35242626 -0.20339344 -0.22333916 -0.18392779 -0.085302494 0.3835164 -0.3121907
-0.081548266 0.13402216 0.21466053 0.0008378053 -0.1282694 -0.082219176 0.076957196 -0.27051723
0.31558776 -0.059554666 0.21070613 -0.35411018 0.23207085 0.40351942 0.053690385 0.24869762
-0.05777648 -0.22296406 0.026684841 0.29206508 0.352724 -0.25776622 0.2131234 0.04284212
00000000: 61f2 993c aee2 24be 91b0 a43e 57c2 f4bd
00000010: 5353 a2be a771 c43d c49c 7fbe 5543 99bd
00000020: b317 b43e 0488 f7bd df5c 79be c8f1 bf3e
00000030: 60e1 2a3d ff4a c13e eea6 ad3e f745 a93e
00000040: 1834 073e 20e5 a2bc a202 a5be e913 86be
00000050: c346 d33d 14d0 b6be 8882 823e db57 aebe
00000060: dc1f 873e f38b bd3d b493 9c3e 1054 bdbd
00000070: 679e b6be 78a3 493e 4a48 91be f848 6d3e
00000080: 70b5 c43d 5379 cebd 7ead be3e e87a 45be
00000090: 2c30 2f3e 0f1c 533e 4d9a bc3e cde4 bfbd
000000a0: 7e28 403e 3b33 33be 541f a8be 8895 de3b
000000b0: b328 b5be 2016 823e 3542 17be 7594 a03e
000000c0: b26c b1be 4c1c 343e 553a 073e a562 85be
000000d0: 40c0 c03c 9f3f babe d188 5e3e 94be 913e
000000e0: 6fa8 c0bd a1e9 3d3d 82e0 cc3e 4890 89be
000000f0: 20d0 acbc 9147 b0be 70ad cf3d 3cf2 43be
00000100: a87e 0dbe 11fb b6be 5cb2 54be 3b78 05bc
00000110: 1a82 513e 2df7 c53e ac3e 163e 2166 a3be
00000120: a171 8bbd 78a9 94be b6e3 de3b d025 cbbd
00000130: 9615 8f3d 1068 783e 91d5 28be a41b 313c
00000140: 3714 43be 444e fc3c 79ca aa3e ac90 e6bd
00000150: 0d2e 9d3e 0296 a33d 9cc9 2cbe e368 f03d
00000160: 8b55 be3e 8029 4a3e 0fc9 953e f8ed 773e
00000170: 2802 77be ac40 93bd 6842 053d 1eeb adbd
00000180: 16b8 69be 3771 b43e 5f46 50be 05b3 64be
00000190: 9157 3cbe 13b3 aebd 435c c43e 76d7 9fbe
000001a0: c702 a7bd 1b3d 093e f8cf 5b3e 29a0 5b3a
000001b0: 0e59 03be 8762 a8bd bc9b 9d3d 3c81 8abe
000001c0: b894 a13e 98ef 73bd 59c3 573e ee4d b5be
000001d0: fba3 6d3e 199a ce3e 73ea 5b3d 97aa 7e3e
000001e0: 08a7 6cbd b150 64be 2b9a da3c 8e89 953e
000001f0: 3d98 b43e eff9 83be 053d 5a3e 387b 2f3d

fc2.weight f4 [64, 128]
0.024404427 0.012489967 -0.06331448 0.068007186 -0.025040798 0.050325707 0.009368755 0.02593223
-0.07147018 0.08561259 -0.013711762 -0.078088745 0.00450439 0.07216189 -0.051320672 -0.025476445
0.016607536 -0.035373796 0.085714914 -0.08027769 0.078373216 0.07953166 0.03119873 0.0013722479
-0.041399926 0.079099335 -0.037131645 -0.060153373 -0.029133491 0.0008205065 -0.04719329 0.07028171
-0.07515215 -0.00417643 0.08872446 -0.018909998 0.027843438 0.053764082 -0.03247448 -0.05780742
0.07460576 0.029388933 0.057310663 0.031205434 0.04890372 0.055766467 0.061434068 -0.07886739
0.059832018 0.08644513 -0.066064455 0.053755008 -0.08762827 -0.06959103 -0.027377835 0.00991644
0.055631436 -0.08217157 -0.045988243 -0.0170938 -0.063857384 0.022905223 0.041363366 -0.04181414
0.046251245 0.06442102 0.07087263 -0.025805878 0.037955817 -0.00022668026 -0.0029604584 -0.01786726
-0.08394526 0.08474143 0.065587364 0.054782175 -0.068488695 0.060881518 -0.07635302 0.063012436
-0.026085265 -0.0019447953 -0.032347813 -0.01251246 0.03503012 -0.037514452 0.07288852 0.0061468855
-0.087438926 0.0024592762 0.032051895 0.0860443 0.045600776 0.055680774 -0.077256255 0.0014626011
-0.017811352 0.005648588 -0.08061704 0.06308876 0.0864458 0.0721664 0.05963077 0.073753394
0.06946992 -0.086837344 -0.02789495 0.07480458 0.027807482 0.014309838 -0.04390592 0.0019927248
0.080106236 0.0024219155 -0.023093669 0.06497993 -0.030754756 -0.021913284 0.009482823 0.06801445
-0.02187549 -0.035788774 -0.05955572 0.015559587 -0.059191804 0.074922435 -0.036978867 0.037054848
-0.0077582663 0.05098202 -0.0350854 -0.05666786 0.058011536 -0.073900804 0.06911351 0.043865275
0.032649253 0.07319253 -0.0135701075 0.082182795 0.08282577 -0.0085053295 -0.0073625236 0.027432093
0.0826518 0.039339103 0.049933083 0.01471436 -0.07854895 -0.005760692 0.04723416 -0.05836742
-0.08473182 0.012088494 -0.012606071 0.036607623 0.07161427 -0.01421361 0.07910959 0.041300986
0.01318372 0.022570692 -0.010462085 -0.02412431 0.07897181 -0.039851386 -0.054395303 -0.053187553
-0.08628636 0.05104404 -0.0680217 0.08095427 -0.015558157 -0.053887807 0.053431597 0.005548529
-0.020017043 -0.059280436 0.039010394 -0.0762587 0.008638583 -0.014618233 -0.034001313 -0.053132962
-0.034184914 0.027220486 -0.020176629 0.0118217915 -0.034763403 0.08487543 0.06758223 0.07287782
0.08096745 0.06917832 0.012905046 0.034650605 -0.0070684096 -0.0712198 0.047223218 -0.04656665
0.07432588 -0.0708149 -0.06010769 0.031284288 0.039261214 -0.052994847 0.013315558 0.006621413
0.022079092 -0.016623382 -0.00022743379 -0.03439407 -0.014552308 -0.048224736 -0.0019930287 0.050187454
-0.06880343 0.010244902 0.061856966 0.0049351924 0.03303673 0.047169812 -0.03321454 -0.07639451
0.07629866 -0.017075159 0.073192455 -0.06752181 -0.04056178 0.061430592 0.04067242 -0.0046834648
-0.00749034 0.020472616 -0.051734075 0.05008941 -0.06439087 -0.05409746 0.01931155 -0.07544517
0.015585169 0.037257187 0.07374751 0.07304215 -0.026496818 0.06598092 -0.04265435 -0.08367488
0.058714453 -0.08422277 0.05166421 -0.048123665 -0.017983813 0.0535355 -0.061471373 0.009026328
00000000: cbeb c73c b8a2 4c3c 06ab 81bd 5a47 8b3d
00000010: 5c22 cdbc 5422 4e3d 687f 193c d46f d43c
00000020: f55e 92bd a755 af3d 4ca7 60bc feec 9fbd
00000030: 9099 933b 9dc9 933d a035 52bd fab3 d0bc
00000040: 870c 883c 1de4 10bd 4d8b af3d a168 a4bd
00000050: 2382 a03d 7fe1 a23d 7b94 ff3c 00dd b33a
00000060: f892 29bd d5fe a13d 5a17 18bd 6263 76bd
00000070: 5ca9 eebc 4217 573a c04d 41bd dbef 8f3d
00000080: 5fe9 99bd 6fda 88bb 2bb5 b53d 24e9 9abc
00000090: ec17 e43c ba37 5c3d f603 05bd 79c7 6cbd
000000a0: e8ca 983d 0fc1 f03c 96be 6a3d 8aa2 ff3c
000000b0: 444f 483d 616b 643d 4aa2 7b3d 3a85 a1bd
000000c0: 6b12 753d 250a b13d cd4c 87bd 362e 5c3d
000000d0: 7376 b3bd be85 8ebd 7b47 e0bc 9078 223c
000000e0: cadd 633d 9149 a8bd 2b5e 3cbd 4c08 8cbc
000000f0: a9c7 82bd bca3 bb3c a26c 293d 4e45 2bbd
00000100: f271 3d3d 2bef 833d ab25 913d d966 d3bc
00000110: 8f77 1b3d 05b1 6db9 4004 42bb 5c5e 92bc
00000120: 7eeb abbd ea8c ad3d ab52 863d 4663 603d
00000130: cd43 8cbd e65e 793d f95e 9cbd aa0c 813d
00000140: c4b0 d5bc 80e8 feba 247f 04bd 1001 4dbc
00000150: be7b 0f3d c1a8 19bd 9446 953d d06b c93b
00000160: 2e13 b3bd cf2b 213b d948 033d fe37 b03d
00000170: e1c7 3a3d 8611 643d 8738 9ebd c0b4 bf3a
00000180: 1de9 91bc ca17 b93b 8c1a a5bd ae34 813d
00000190: 7f0a b13d facb 933d 653f 743d 050c 973d
000001a0: 3f46 8e3d c7d7 b1bd f383 e4bc 2533 993d
000001b0: 84cc e33c d073 6a3c b2d6 33bd 6098 023b
000001c0: bd0e a43d 00b9 1e3b ef2e bdbc 3314 853d
000001d0: 66f1 fbbc 7d83 b3bc d85d 1b3c 294b 8b3d
000001e0: 3a34 b3bc 4097 12bd b3f0 73bd a3ed 7e3c
000001f0: 1b73 72bd ef70 993d 2777 17bd d3c6 173d
00000200: 0e39 febb 86d2 503d b5b5 0fbd 8f1c 68bd
00000210: 819d 6d3d 4e59 97bd 628b 8d3d 13ac 333d
00000220: 39bb 053d f7e5 953d 2855 5ebc 744f a83d
00000230: 8fa0 a93d f059 0bbc 5341 f1bb 45b9 e03c
00000240: 5945 a93d 0a22 213d a286 4c3d 8014 713c
00000250: 46de a0bd 30c4 bcbb 9b78 413d ad12 6fbd
00000260: e087 adbd d20e 463c b289 4ebc e0f1 153d
00000270: 81aa 923d 34e0 68bc 3504 a23d 392b 293d
00000280: 8800 583c 2ce6 b83c 2a69 2bbc 58a0 c5bc
00000290: f9bb a13d 353b 23bd 9ccd 5ebd 31db 59bd
000002a0: e7b6 b0bd 8e13 513d f64e 8bbd 5acb a53d
000002b0: a4e7 7ebc 76b9 5cbd 17db 5a3d 6fd0 b53b
000002c0: c8fa a3bc 0bd0 72bd 5dc9 1f3d 852d 9cbd
000002d0: d888 0d3c 5081 6fbc f644 0bbd f3a1 59bd
000002e0: 7b05 0cbd 7ffd de3c 7549 a5bc 30b0 413c
000002f0: 1264 0ebd 2bd3 ad3d 8d68 8a3d f740 953d
00000300: 43d2 a53d 5dad 8d3d b06f 533c cbed 0d3d
00000310: 1e9e e7bb b0db 91bd 226d 413d acbc 3ebd
00000320: 2b38 983d 6707 91bd 7b33 76bd f423 003d
00000330: 5ed0 203d 2011 59bd 8029 5a3c 70f8 d83b
00000340: 36df b43c c22d 88bc 4b7b 6eb9 cce0 0cbd
00000350: ce6c 6ebc 4d87 45bd 799d 02bb 5c91 4d3d
00000360: d0e8 8cbd 3cda 273c bb5d 7d3d 65b7 a13b
00000370: 8651 073d 2235 413d f80b 08bd ba74 9cbd
00000380: 7942 9c3d 34e1 8bbc ede5 953d e048 8abd
00000390: 1c24 26bd a59e 7b3d 2098 263d c077 99bb
000003a0: 8771 f5bb 30b6 a73c 1ce7 53bd 8e2a 4d3d
000003b0: 5cdf 83bd 4c95 5dbd 4133 9e3c ff82 9abd
000003c0: f058 7f3c fe9a 183d ef08 973d 1f97 953d
000003d0: db0f d9bc 0121 873d 54b6 2ebd bc5d abbd
000003e0: 917e 703d fd7c acbd da9d 533d 521d 45bd
000003f0: ca52 93bc 0a48 5b3d 68c9 7bbd 2ae3 133c

fc2.bias f4 [64]
-0.048841827 -0.020124001 0.063786365 -0.021295967 -0.084825665 0.027229765 -0.015831113 -0.047067482
0.036091387 -0.051492143 0.07217663 0.011380029 -0.08377521 -0.063789845 -0.029805187 0.06389245
0.05890682 -0.0021567873 0.08093161 0.05461604 0.073700584 0.03769096 0.060670067 0.063072115
-0.038794078 0.018102622 -0.021454688 0.0430954 -0.03000545 -0.009498447 0.031146372 -0.023050547
-0.019419784 0.082143314 0.07080777 0.055910952 -0.06851639 -0.033322133 -0.04419276 -0.070740186
-0.063472286 -0.06601411 0.026428662 -0.028631527 -0.0026867327 -0.008368638 -0.011442142 0.060626082
0.08763068 0.062983036 -0.040282976 -0.016425421 0.019035637 0.066438116 -0.027868036 -0.04034012
-0.081977166 0.04433255 0.07380765 0.06331394 0.054148085 -0.028267184 -0.049436808 0.037789203
00000000: 5e0e 48bd 17db a4bc 6da2 823d e174 aebc
00000010: 14b9 adbd f510 df3c 40b0 81bc d5c9 40bd
00000020: 90d4 133d 6de9 52bd 57d1 933d 4d73 3a3c
00000030: 5692 abbd 40a4 82bd 022a f4bc 0bda 823d
00000040: 4748 713d e358 0dbb 79bf a53d 12b5 5f3d
00000050: 55f0 963d d661 1a3d 2d81 783d f42b 813d
00000060: 8ae6 1ebd f34b 943c bec1 afbc cd84 303d
00000070: fdcd f5bc 609f 1bbc ad26 ff3c 80d4 bcbc
00000080: 3d16 9fbc c13a a83d aa03 913d e202 653d
00000090: 5252 8cbd ca7c 08bd 7803 35bd 3be0 90bd
000000a0: c2fd 81bd 6832 87bd ec80 d83c aa8c eabc
000000b0: e513 30bb 9d1c 09bc d277 3bbc 0e53 783d
000000c0: b777 b33d 40fd 803d c3ff 24bd 9b8e 86bc
000000d0: a0f0 9b3c b510 883d 824b e4bc af3b 25bd
000000e0: a5e3 a7bd 0c96 353d 7728 973d bdaa 813d
000000f0: 62ca 5d3d 9590 e7bc 407e 4abd dac8 1a3d

fc3_action.weight f4 [11, 64]
0.109222524 -0.008115423 -0.08363065 0.09974295 0.06652534 0.0833074 0.014635939 -0.008336559
-0.04161787 -0.06958002 -0.028702002 -0.027048223 0.1077697 -0.11122869 -0.007968783 -0.121120214
-0.022086916 0.0763404 -0.08501493 0.07871188 -0.016016433 -0.06076558 0.014282471 -0.026580866
0.0067157135 -0.050079558 -0.023616582 -0.050090637 0.06590003 -0.032602012 -0.104980186 0.019662097
-0.05211193 -0.10515915 -0.113051705 -0.024564967 0.09000197 0.060634643 -0.0063385367 -0.060125925
0.04156084 0.10175924 -0.05115086 0.121284634 -0.10971252 0.03642722 -0.0857593 0.0018080333
0.028312664 -0.015469599 0.107239634 0.025413828 -0.03732234 0.029412806 -0.117396444 -0.06891397
0.0992433 0.012029318 0.12259498 -0.03699629 -0.0074894037 -0.056856513 -0.051493466 -0.08832823
0.05577202 -0.12010196 -0.0134780435 -0.07089566 0.0055169165 -0.013331925 -0.02545439 -0.0047691762
-0.043803066 -0.050776973 -0.045501452 0.06635468 -0.007596582 0.04938803 0.11570524 -0.0029248253
-0.08954923 -0.122564524 0.04086483 0.121904224 -0.07793508 0.016558811 -0.06997391 -0.09519566
-0.028211141 0.011057395 -0.07114039 -0.015734486 0.00055007526 -0.0180009 -0.06921836 0.045270324
-0.061181564 -0.025929451 0.027047927 0.00533985 -0.11737059 0.062632285 0.100424156 0.028071534
-0.105079934 -0.07282671 -0.08395223 0.02727554 -0.015130608 0.055631522 -0.066446945 0.110374644
0.07041333 0.015186236 0.048053905 -0.1036974 -0.07841298 -0.1200826 0.04422553 0.012793986
-0.058514193 -0.010288897 0.0636522 0.037913587 -0.04610321 0.040633075 0.11045466 0.0650101
0.07193953 -0.09203047 -0.008403331 0.09965383 -0.07758434 -0.07508894 -0.028195236 -0.089065105
0.11011493 0.122427 0.0667169 0.120468244 -0.09832737 -0.08861779 0.032312453 -0.010657343
-0.100288376 -0.069839284 -0.09239538 -0.0040389 0.10202035 -0.075032204 -0.008325433 -0.015572866
-0.030095678 0.026647883 0.08958245 0.040678233 -0.02501481 -0.08430581 -0.11899625 -0.082424805
0.023355285 -0.027345031 -0.014646614 0.039009146 -0.037006304 0.030786248 0.104707986 -0.015920423
0.1025979 0.07119477 0.08006884 0.018416328 0.09146605 -0.021345017 -0.057568 -0.062122688
0.06685615 0.05431599 -0.10655348 -0.06725206 -0.06981342 0.10004796 0.0132495165 -0.032579172
0.040199116 -0.10079761 0.0806365 0.014788265 -0.045229573 0.034131713 -0.0640191 0.11977106
-0.07943113 -0.06701287 0.070781715 -0.110905424 0.039992586 0.07270683 0.039755065 0.039034992
0.043898314 0.0838024 -0.10163002 0.042131215 0.07589409 -0.052187797 -0.0061855614 0.011303711
0.012517065 0.08747355 -0.08621825 -0.058973983 0.026587937 0.051017538 -0.027346509 -0.09285071
-0.10028142 0.026536223 -0.02463155 0.08610387 0.02533631 -0.052962422 -0.10489685 -0.05653225
0.11468174 -0.1191106 -0.08611618 -0.095941655 0.02524048 0.0016126895 -0.06933741 0.067858554
0.024799138 0.08225985 0.08174354 0.022608267 0.10319906 0.006504079 0.02415368 0.062039256
0.051622763 -0.06472473 -0.054316178 -0.05235755 -0.11652927 0.055674 -0.0026261508 -0.04349323
0.085907474 -0.046763446 0.09135863 -0.026831605 -0.027922407 0.008488269 -0.058186784 0.0542586
00000000: 0fb0 df3d 8df6 04bc 8c46 abbd 0846 cc3d
00000010: 703e 883d 129d aa3d 94cb 6f3c 1096 08bc
00000020: 8077 2abd f87f 8ebd 7620 ebbc 3c94 ddbc
00000030: 5cb6 dc3d decb e3bd 808f 02bc e00d f8bd
00000040: 9fef b4bc 5b58 9c3d 4f1c aebd b233 a13d
00000050: e534 83bc 54e5 78bd 0601 6a3c 1ec0 d9bc
00000060: 7d0f dc3b 3920 4dbd 9077 c1bc d72b 4dbd
00000070: 98f6 863d b089 05bd daff d6bd 6812 a13c
00000080: 5273 55bd ae5d d7bd a787 e7bd 783c c9bc
00000090: f452 b83d 085c 783d 80b3 cfbb 9a46 76bd
000000a0: b33b 2a3d 2667 d03d 9083 51bd 1464 f83d
000000b0: f5b0 e0bd b534 153d 92a2 afbd 88fb ec3a
000000c0: f6ef e73c 3374 7dbc 74a0 db3d a930 d03c
000000d0: 4fdf 18bd 20f3 f03c 8c6d f0bd c422 8dbd
000000e0: 1240 cb3d 9e16 453c 1413 fb3d 6c89 17bd
000000f0: ac69 f5bb 60e2 68bd d0ea 52bd 6ee5 b4bd
00000100: 3471 643d 04f8 f5bd 03d3 5cbc be31 91bd
00000110: 40c7 b43b 256e 5abc ba85 d0bc c046 9cbb
00000120: d86a 33bd 84fb 4fbd bb5f 3abd f6e4 873d
00000130: c0ec f8bb 1a4b 4a3d def6 ec3d 6dae 3fbb
00000140: 9665 b7bd 1c03 fbbd e161 273d eca8 f93d
00000150: 6d9c 9fbd 58a6 873c 7b4e 8fbd f1f5 c2bd
00000160: 0d1b e7bc 132a 353c 0eb2 91bd 9ce5 80bc
00000170: ed32 103a a076 93bc 5bc2 8dbd 606d 393d
00000180: 8599 7abd 006a d4bc 9d93 dd3c e9f9 ae3b
00000190: fe5f f0bd 5b45 803d 2eab cd3d 46f6 e53c
000001a0: 2634 d7bd 2c26 95bd 26ef abbd f470 df3c
000001b0: 5fe6 77bc e1dd 633d 5615 88bd 1a0c e23d
000001c0: dd34 903d b1cf 783c 2cd4 443d 4d5f d4bd
000001d0: fc96 a0bd deed f5bd d425 353d de9d 513c
000001e0: 94ac 6fbd c392 28bc 165c 823d 474b 1b3d
000001f0: b8d6 3cbd de6e 263d 0e36 e23d 0424 853d
00000200: 0855 933d 797a bcbd 20ae 09bc 4f17 cc3d
00000210: 8ae4 9ebd 3bc8 99bd b2f9 e6bc c467 b6bd
00000220: f083 e13d 02bb fa3d dfa2 883d 0eb8 f63d
00000230: dc5f c9bd 3e7d b5bd 105a 043d 239c 2ebc
00000240: fe63 cdbd e607 8fbd ca39 bdbd c058 84bb
00000250: 0cf0 d03d 7caa 99bd 6667 08bc 5625 7fbc
00000260: 368b f6bc a94c da3c 0177 b73d 389e 263d
00000270: dceb ccbc 86a8 acbd 4eb4 f3bd 56ce a8bd
00000280: 9553 bf3c b002 e0bc 5af8 6fbc 0ec8 1f3d
00000290: ec93 17bd 7133 fc3c 2471 d63d 8c6b 82bc
000002a0: d91e d23d 90ce 913d 22fb a33d d7dd 963c
000002b0: 8d52 bb3d bfdb aebc 6ccc 6bbd 5c74 7ebd
000002c0: e1eb 883d 727a 5e3d b638 dabd 73bb 89bd
000002d0: 57fa 8ebd f2e5 cc3d 8014 593c bd71 05bd
000002e0: d4a7 243d fa6e cebd c024 a53d 7b4a 723c
000002f0: a542 39bd b2cd 0b3d 721c 83bd 884a f53d
00000300: caac a2bd 0b3e 89bd 01f6 903d 6222 e3bd
00000310: 44cf 233d 52e7 943d 35d6 223d 28e3 1f3d
00000320: b8ce 333d 98a0 ab3d 6623 d0bd c891 2c3d
00000330: 5c6e 9b3d dfc2 55bd 40b0 cabb 3333 393c
00000340: 6014 4d3c 5525 b33d 3293 b0bd b48e 71bd
00000350: f2ce d93c c4f7 503d c905 e0bc 8328 bebd
00000360: 5860 cdbd 7e62 d93c 1bc8 c9bc 3a57 b03d
00000370: 188e cf3c 20ef 58bd 29d4 d6bd 5c8e 67bd
00000380: 43de ea3d 42f0 f3bd ae5d b0bd 0f7d c4bd
00000390: 20c5 ce3c e160 d33a c600 8ebd 6df9 8a3d
000003a0: 9027 cb3c da77 a83d 2869 a73d f934 b93c
000003b0: 075a d33d 2b20 d53b f0dd c53c e01c 7e3d
000003c0: 6472 533d 668e 84bd a47a 5ebd df74 56bd
000003d0: e6a6 eebd 6c0a 643d 801b 2cbb f525 32bd
000003e0: 42f0 af3d 078b 3fbd 3c1a bb3d f4cd dbbc
000003f0: 88bd e4bc 6112 0b3c 4455 6ebd 443e 5e3d

fc3_action.bias f4 [11]
-0.040305883 0.003642649 -0.05302116 0.09595706 -0.11232184 0.08480792 0.10427347 -0.03624377
0.099771865 0.051098365 0.042401712
00000000: c817 25bd 82b9 6e3b b72c 59bd 2385 c43d
00000010: fe08 e6bd c6af ad3d 548d d53d 5974 14bd
00000020: 3155 cc3d 854c 513d 6bad 2d3d
