traditional_vrpb_policy_final.pth (torch, 15005 bytes, 6 tensors)

fc1.weight f4 [64, 6]
0	0x3e1808bf	0.14847086
1	0xbe23ec74	-0.16008168
2	0xbe5aacce	-0.21354982
3	0x3e9e7dd1	0.30955365
4	0x3cb5249a	0.02211218
5	0x3e957fb6	0.29198998
6	0xbe9d9dd3	-0.30784473
7	0x3e135138	0.14386451
8	0xbec811c0	-0.39076042
9	0xbeaed7b9	-0.34148958
10	0xbdc725f2	-0.09724034
11	0x3e949a8e	0.29024166
12	0x3dd3e59b	0.10346528
13	0xbe7a082b	-0.24417178
14	0x3ea5cb80	0.3238182
15	0x3d99abe0	0.07503486
16	0xbdef2757	-0.11677425
17	0x3de2846c	0.11060414
18	0x3ba8a683	0.005146803
19	0x3e33a495	0.17543252
20	0x3d84d244	0.064854175
21	0x3d93bfbb	0.07214304
22	0x3ebdb370	0.37050962
23	0xbd953a75	-0.072865404
24	0x3d9e690b	0.07734879
25	0xbcb8b300	-0.022546291
26	0x3e1db7ba	0.15402117
27	0x3ebb6722	0.36602122
28	0x3e917ac1	0.28413966
29	0xbebdf487	-0.37100622
30	0xbe0fad86	-0.14031038
31	0xbec15cff	-0.37766263
32	0xbe2c3b8b	-0.16819589
33	0xbd890dc3	-0.06692078
34	0x3ecdcd08	0.4019549
35	0xbd17620b	-0.036958735
36	0x3ec3bf6e	0.38231987
37	0xbe98068f	-0.29692504
38	0xbe5b24b4	-0.2140072
39	0x3eaa946a	0.33316356
40	0xbda6da95	-0.0814716
41	0xbe6be53d	-0.23036666
42	0xbe19f7ec	-0.15035981
43	0xbe9d2ee4	-0.30699837
44	0xbe9139c2	-0.28364378
45	0xbe98cf86	-0.29845828
46	0xbe4e68c2	-0.2015715
47	0x3e845e22	0.25853068
48	0x3e96c7bf	0.2944927
49	0xbe927723	-0.2860652
50	0x3e4ea1a0	0.20178843
51	0xbcae7679	-0.021296727
52	0xbe9b8360	-0.3037367
53	0xbe900b39	-0.28133562
54	0x3ebf1d76	0.37327164
55	0xbe89a0f2	-0.26880604
56	0x3e729cdf	0.23692654
57	0x3ceddc80	0.029035807
58	0x3e7a9aa7	0.24473058
59	0xbecd0f82	-0.40050894
60	0x3ea5f225	0.32411304
61	0x3ec09f0c	0.37621343
62	0xbec0d7a3	-0.37664518
63	0x3ec2fde1	0.3808432
64	0x3e881f1d	0.26586238
65	0x3e361176	0.17780098
66	0xbdbbe0e8	-0.09173757
67	0x3d5dc35d	0.05414139
68	0xbc3505d1	-0.01104875
69	0xbea530b9	-0.32263735
70	0x3e215087	0.15753375
71	0xbbdec7fe	-0.0067987433
72	0xbdbd8ba2	-0.092551485
73	0xbcc9efb1	-0.024650427
74	0x3ebd352a	0.36954623
75	0xbcad9348	-0.021188393
76	0xbe3067b8	-0.17227066
77	0xbe87fd6a	-0.26560527
78	0xbdf87f7e	-0.12133692
79	0x3e220196	0.15820917
80	0xbec4ef79	-0.38463953
81	0x3dd20a54	0.10255876
82	0xbe582846	-0.21109113
83	0xbda55a7f	-0.080739014
84	0xbc9bad50	-0.01900354
85	0xbea6e883	-0.32599267
86	0x3e414dc8	0.18877327
87	0xbdd55734	-0.10417023
88	0x3da44e7c	0.08022782
89	0xbe86c39e	-0.2632112
90	0x3e2617bb	0.1621999
91	0x3eca5fb1	0.39526132
92	0x3cbd3e4a	0.02310099
93	0xbdd57152	-0.10422005
94	0xbe78ef6b	-0.2431008
95	0x3e5d2d42	0.21599296
96	0xbe93f060	-0.2889433
97	0x3eb08fbf	0.3448467
98	0x3e928499	0.2861679
99	0xbe860686	-0.26176852
100	0xbe7a00a3	-0.24414305
101	0x3d8f35c1	0.069926746
102	0xbe70cab1	-0.2351482
103	0xbde153f8	-0.11002344
104	0xbeb39a19	-0.35078505
105	0x3d596c27	0.053081658
106	0x3cde0a82	0.02710462
107	0xbbb68017	-0.0055694687
108	0xbe13ef11	-0.14446665
109	0x3e56dc6c	0.20982522
110	0xbec600da	-0.38672525
111	0x3e1bb11a	0.15204278
112	0x3e667893	0.22506933
113	0xbe4676cf	-0.1938126
114	0x3cb119d2	0.021618757
115	0x3eb9ea37	0.36311504
116	0x3ec08375	0.37600294
117	0x3d589c62	0.052883513
118	0x3eb58d87	0.3545954
119	0x3e8670e1	0.26257995
120	0x3e2194fd	0.15779491
121	0xbea23025	-0.31677356
122	0xbde3f7eb	-0.11131271
123	0x3d1818c4	0.037132993
124	0xbe736ab2	-0.2377117
125	0x3ecd1c84	0.40060818
126	0xbe5a34b8	-0.21309173
127	0x3dc52b48	0.09627396
128	0x3d6212f8	0.05519387
129	0x3d9c7754	0.076399475
130	0x3e9ff00c	0.3123783
131	0xbeb0806e	-0.34472984
132	0xbe9c1e01	-0.3049164
133	0x3d7365e1	0.05942333
134	0xbe7ffc38	-0.24998558
135	0x3e430175	0.19043525
136	0x3e11333f	0.14179705
137	0x3ec24969	0.37946633
138	0x3e0b934c	0.13630408
139	0xbe82954e	-0.25504535
140	0x3e80e270	0.25172758
141	0xbe5c3f40	-0.21508503
142	0xbd669c08	-0.056301147
143	0x3dfb8c68	0.1228264
144	0x3ecf0526	0.40433615
145	0xbeb24f27	-0.34826013
146	0x3e53fdc7	0.20702277
147	0x3ded96b6	0.116010115
148	0xbe954367	-0.29152986
149	0x3e18f892	0.14938572
150	0xbd05a36d	-0.032626558
151	0xbe20c6f0	-0.15700889
152	0x3e0b0e2c	0.13579625
153	0xbe8d5ebb	-0.27611336
154	0xbe398d7c	-0.18120378
155	0xbde8b621	-0.11362863
156	0x3e8cb25c	0.27479827
157	0x3e4e9189	0.20172705
158	0x3e1f6559	0.15566005
159	0x3d187916	0.03722485
160	0x3eaa1ab0	0.33223486
161	0x3ea08a1d	0.31355372
162	0x3e14dea7	0.1453806
163	0x3d9c0999	0.07619018
164	0xbdb66cdd	-0.08907483
165	0x3d9e7271	0.07736672
166	0xbeac8973	-0.33698615
167	0x3e162ea8	0.14666235
168	0xbea5fd37	-0.3241975
169	0x3ecd1e1c	0.40062034
170	0x3eb9c678	0.36284232
171	0x3d918bfc	0.07106778
172	0x3d68fac8	0.05687979
173	0xbe9b5c36	-0.3034379
174	0x3e94a621	0.29032996
175	0x3b9dcc11	0.0048155864
176	0xbe26c5c7	-0.16286384
177	0xbec2a557	-0.3801677
178	0xbe046421	-0.12928821
179	0x3e136941	0.1439562
180	0x3dd53519	0.10410518
181	0x3e007f08	0.12548459
182	0xbec5c5dd	-0.3862752
183	0xbcc2b64d	-0.023768568
184	0x3ec39985	0.38203064
185	0x3ea550d9	0.32288244
186	0xbd290120	-0.04126084
187	0xbe78f458	-0.2431196
188	0x3e6e183b	0.2325143
189	0xbe94a4b6	-0.29031914
190	0xbd781b42	-0.06057287
191	0x3e1980f5	0.149906
192	0xbebf6de4	-0.37388527
193	0x3e1a3db8	0.15062606
194	0xbe8d7140	-0.27625465
195	0xbd73ce60	-0.059522986
196	0xbeb4b6df	-0.3529577
197	0xbddeda0c	-0.10881433
198	0xbdf87d2f	-0.12133252
199	0x3e8661c4	0.26246464
200	0x3ecc861d	0.3994607
201	0xbc1ae511	-0.009454028
202	0x3b70f3e4	0.0036766464
203	0xbec05601	-0.37565616
204	0x3ecc2658	0.39873004
205	0x3c979124	0.018501826
206	0xbe105df6	-0.14098343
207	0x3dbd513f	0.09244012
208	0xbec4d6fd	-0.38445273
209	0x3b960d11	0.0045791944
210	0x3eb7c0c9	0.3588927
211	0x3e837520	0.25675297
212	0x3e4ae2bd	0.19813056
213	0x3ebd226f	0.36940333
214	0x3ecf37d0	0.4047227
215	0x3e9f1d84	0.31077206
216	0x3e4d632d	0.20057364
217	0x3e9e5720	0.30925846
218	0xbe162439	-0.14662255
219	0xbba4ea8f	-0.0050328444
220	0x3ec65ec5	0.38744178
221	0x3dfac0a3	0.12243774
222	0x3e84f94e	0.25971454
223	0x3e95eb7b	0.2928122
224	0x3e1194c5	0.14216907
225	0xbed08bcf	-0.40731665
226	0x3e8c5315	0.27407137
227	0xbdf04433	-0.11731758
228	0x3d827fed	0.06372056
229	0x3e22310a	0.1583902
230	0xbcb280f5	-0.021790007
231	0x3d8ce018	0.0687868
232	0xbce2b2a6	-0.027673077
233	0x3e754140	0.23950672
234	0x3c36b1cc	0.0111507885
235	0xbdbc3e1b	-0.09191533
236	0x3e957df5	0.2919766
237	0x3ebaefe7	0.36511156
238	0xbe888ea8	-0.26671338
239	0x3e984baf	0.29745242
240	0xbd4c10fc	-0.049820885
241	0x3e10d0d8	0.14142168
242	0xbe0c1236	-0.13678822
243	0xbeb011b1	-0.34388497
244	0xbe8e3d27	-0.2778103
245	0x3e7ea2c4	0.24866778
246	0xbd8dd560	-0.06925464
247	0xbe9fce57	-0.31212112
248	0xbeb6c41a	-0.3569649
249	0xbe24af03	-0.16082387
250	0xbeab83c2	-0.3349896
251	0xbe880c43	-0.26571855
252	0x3e50ad6c	0.20378655
253	0xbc80ed07	-0.015738023
254	0x3e8a94b4	0.27066576
255	0x3b44a44a	0.003000515

fc1.bias f4 [64]
0	0xbe07dc45	-0.1326762
1	0xbc0c6fe9	-0.008571603
2	0xbec6065e	-0.38676733
3	0xbc07e8b8	-0.008295231
4	0xbec50487	-0.38480017
5	0xbe8bb612	-0.27287346
6	0x3eb27e6f	0.34862086
7	0xbd2412dd	-0.040057052
8	0x3e99ba64	0.30025017
9	0x3e238b45	0.15971096
10	0x3e9c4141	0.30518535
11	0x3e011e57	0.1260923
12	0x3e1c6a94	0.15275031
13	0x3e406478	0.18788326
14	0xbe76c267	-0.24097596
15	0xbe181c56	-0.1485456
16	0x3eb23a4a	0.34810096
17	0x3c8e9c07	0.017408384
18	0xbe5b886f	-0.21438764
19	0xbea3d9c5	-0.32002082
20	0x3eba20dd	0.36353198
21	0xbed09126	-0.4073574
22	0x3e2a186a	0.16610876
23	0xbec74d3e	-0.3892612
24	0x3ec7db8e	0.39034694
25	0x3e20954a	0.1568195
26	0x3cb20b3e	0.021733876
27	0x3ebeb29a	0.37245637
28	0xbea137b1	-0.31487802
29	0x3e70cdeb	0.23516051
30	0x3da688c1	0.081315525
31	0x3ea5c97f	0.32380292
32	0xbeaeae7c	-0.34117496
33	0x3e679423	0.22615103
34	0x3d915c39	0.07097668
35	0xbc024278	-0.007950418
36	0xbe179694	-0.14803535
37	0xbddaffaa	-0.10693295
38	0x3e971492	0.2950788
39	0x3d064cff	0.032788273
40	0x3e66e482	0.22548106
41	0xbe5f9946	-0.21835813
42	0x3e9b7c8e	0.30368465
43	0xbcf56d61	-0.029959382
44	0xbe8eb9c5	-0.27876106
45	0xbe224d1f	-0.15849732
46	0xbdbccf96	-0.092192814
47	0xbec077d2	-0.37591416
48	0x3d813571	0.06309021
49	0xbce451b7	-0.027870996
50	0x3e16bbad	0.1472003
51	0x3e515ef9	0.20446385
52	0xbe369f40	-0.17834187
53	0xbe339b9a	-0.17539826
54	0xbeca77d4	-0.39544547
55	0x3ebbad66	0.3665573
56	0xbe655aeb	-0.22397964
57	0xbea92b53	-0.33040866
58	0xbe1f3ee1	-0.1555133
59	0x3ec7e145	0.39039055
60	0xbe6d2d16	-0.2316173
61	0xbd5d7d8c	-0.05407481
62	0x3e066b31	0.13126828
63	0x3e63ce2e	0.2224662

fc2.weight f4 [32, 64]
0	0xbde47268	-0.11154634
1	0xbca5a138	-0.020218477
2	0xbd52d8c4	-0.051476255
3	0x3d6b41fc	0.057435974
4	0x3dae5a98	0.08513373
5	0xbd87223a	-0.06598325
6	0x3bbac700	0.005699992
7	0x3d529160	0.05140817
8	0xbd8687a2	-0.06568839
9	0xbde16986	-0.11006455
10	0xbd93f78a	-0.07224949
11	0x3cbe9980	0.023266554
12	0x3de0853a	0.10962911
13	0x3dc29ed4	0.0950295
14	0x3def2f72	0.11678971
15	0xbdb59c0c	-0.08867654
16	0x3ca5e550	0.020250946
17	0xbd22a10c	-0.039704368
18	0xbc8f8a90	-0.017522126
19	0x3cf03ef0	0.029326886
20	0xbdea5270	-0.11441505
21	0xbd532590	-0.051549494
22	0xbdb70af4	-0.08937636
23	0x3cacf220	0.021111548
24	0x3da67e06	0.08129506
25	0x3cd10fc0	0.025520205
26	0x3bdcc600	0.0067374706
27	0x3d9f45c4	0.077769786
28	0x3d6ca598	0.05777511
29	0x3dafb8e0	0.08580184
30	0x3c68dba0	0.014212519
31	0xbdf9cb3e	-0.121969685
32	0x3d6fffe8	0.05859366
33	0x3da150f4	0.07876769
34	0x3d0eeec8	0.03489569
35	0xbb1e86c0	-0.0024189204
36	0xbde3ee84	-0.111294776
37	0x3d6f62d4	0.05844386
38	0xbc99b790	-0.018764287
39	0x3dfce71a	0.123487666
40	0xbccb1c98	-0.024793908
41	0xbc400b60	-0.011721462
42	0x3d703c30	0.05865115
43	0x3db32570	0.08747375
44	0xbd12c3e8	-0.035831362
45	0xbdf30332	-0.11865844
46	0x3d8877cc	0.066634744
47	0xbd9ca2c6	-0.07648234
48	0xbca1a8e8	-0.019733861
49	0xbdf85cb8	-0.1212706
50	0xbdf36272	-0.11884011
51	0xbdcd4120	-0.10022187
52	0xbc3627b0	-0.011117861
53	0xbd7d2cac	-0.06181018
54	0xbdeede9e	-0.116635546
55	0xbd052cbc	-0.032513365
56	0xbd1df880	-0.038567066
57	0xbd589e94	-0.052885607
58	0x3d853132	0.06503524
59	0xbd8c8e66	-0.06863098
60	0xba659a00	-0.00087586045
61	0xbd660b44	-0.056163087
62	0xbdbf88c4	-0.09352258
63	0x3ba5d660	0.005060956
64	0x3dd9c1d1	0.10632671
65	0x3ddd0ebe	0.107938275
66	0x3deb1366	0.11478309
67	0xbddb3f83	-0.10705473
68	0xbdbca444	-0.09211019
69	0xbd4e7faa	-0.05041472
70	0x3cb81d35	0.022474864
71	0xbd38620e	-0.045015387
72	0x3dffdeb6	0.124936506
73	0xbdab37fe	-0.08360289
74	0x3d7dd16a	0.06196729
75	0xbdca9164	-0.09891012
76	0x3d4b030a	0.049563445
77	0x3d483a98	0.048884004
78	0x3c065c20	0.008200675
79	0x3db3b9c7	0.087756686
80	0x3d32ca59	0.043650005
81	0xbdcdf968	-0.10057336
82	0xbd3d2e08	-0.046186477
83	0xbd6a09c9	-0.057138238
84	0xbdbd0d74	-0.092310816
85	0x3d0e607c	0.034759983
86	0xbdb3dd12	-0.087824
87	0x3d61d118	0.055131048
88	0xbd8e3b3d	-0.069448926
89	0xbd982f72	-0.074309245
90	0x3deee202	0.11664201
91	0xbd862d87	-0.065516524
92	0xbda4602c	-0.08026156
93	0xbdae153d	-0.08500145
94	0x3d00c554	0.031438187
95	0xbd51cc12	-0.051220007
96	0x3cc47aa8	0.023984268
97	0x3dfa20d6	0.12213294
98	0xbdd7c589	-0.10535724
99	0x3dc0198a	0.09379871
100	0xbc00d053	-0.007862168
101	0xbde33aaa	-0.11095174
102	0xbbc00e4f	-0.0058610807
103	0xbd085cd8	-0.033291668
104	0x3d4b037b	0.049563866
105	0xbc15c8b0	-0.009142086
106	0x3d6f4ad5	0.058420975
107	0x3dc8cf70	0.098051906
108	0xbda72a16	-0.08162324
109	0x3ca46562	0.020067874
110	0xbdaeb1ac	-0.08529982
111	0x3c22cf70	0.009937152
112	0x3e002f4b	0.12518041
113	0x3d38f0d1	0.045151535
114	0xbd5d76a7	-0.054068234
115	0x3ded5eb1	0.115903266
116	0xbcd6f743	-0.02624095
117	0x3df7581e	0.12077354
118	0xbdcee86a	-0.10102923
119	0x3d7ba4ec	0.06143658
120	0xbdc56c5c	-0.096398085
121	0xbd0644fc	-0.032780632
122	0xbc50316f	-0.012707098
123	0xbd1b939d	-0.037982572
124	0x3d92aa16	0.071613476
125	0xbcb97699	-0.02263956
126	0x3d0bced0	0.03413278
127	0xbd8cd86a	-0.06877215
128	0x3d883a64	0.06651762
129	0x3dce0281	0.10059071
130	0xbd982d4e	-0.07430516
131	0xbd77ce68	-0.06049958
132	0x3d16a4b8	0.03677818
133	0x3d23ed41	0.040021185
134	0x3a5cf4a4	0.0008428788
135	0x3dd764bc	0.105172604
136	0xbd64418d	-0.055726577
137	0xbdb1c027	-0.08679228
138	0xbd1ea696	-0.038733087
139	0x3bb5cfe1	0.0055484627
140	0xbe017fbd	-0.12646385
141	0xbcfa0aea	-0.030522782
142	0x3bac2460	0.0052533597
143	0xbd8f94ab	-0.07010778
144	0xbd450384	-0.048099056
145	0xbc091324	-0.00836638
146	0xbd9a147c	-0.07523438
147	0xbd6267d4	-0.0552748
148	0x3d2cfddf	0.042234298
149	0x3df330ca	0.1187454
150	0xbcf5bf66	-0.029998492
151	0x3df57edc	0.11987087
152	0x3da2361d	0.079204775
153	0xbc3301f7	-0.010925761
154	0x3bfe405e	0.007759138
155	0xbdbfb46c	-0.093605846
156	0xbdfd65c4	-0.12372926
157	0x3d4a5fda	0.049407817
158	0xbd83886e	-0.06422506
159	0xbd200aab	-0.039072674
160	0x3d87b08c	0.066254705
161	0xbd8a99dd	-0.06767628
162	0xbc296f51	-0.010341481
163	0x3dd586bf	0.104260914
164	0xbba10c95	-0.00491483
165	0x3cf75d97	0.030195994
166	0x3d61972f	0.05507582
167	0x3cc13537	0.023584945
168	0x3dd2a181	0.10284711
169	0x3b3bc080	0.0028648674
170	0x3de9842a	0.114021614
171	0x3d6c9ab6	0.05776473
172	0x3d163f18	0.036681265
173	0x3d9aaa90	0.075520635
174	0xbcb0d065	-0.021583745
175	0xbd3f5150	-0.046708405
176	0x3dc07e75	0.0939912
177	0x3d96d045	0.07363943
178	0xbd9cbabb	-0.076528035
179	0xbd16b6fc	-0.0367956
180	0xbd6677e0	-0.056266665
181	0x3d1235c4	0.035695806
182	0x3dd642c8	0.10461956
183	0xbdb27873	-0.0871438
184	0x3ddf44f2	0.10901822
185	0xbde3ae5c	-0.11117241
186	0x3dd27fbe	0.10278271
187	0xbd4eb48d	-0.050465155
188	0xbd29c0b4	-0.04144354
189	0xbdc2304e	-0.0948187
190	0xbdca3358	-0.09873074
191	0x3d8af839	0.06785626
192	0x3c511147	0.012760467
193	0xbcd7f57a	-0.02636217
194	0x3dd32540	0.10309839
195	0x3d2922ae	0.04129284
196	0xbd0a1c45	-0.033718366
197	0x3b72c612	0.0037044329
198	0x3d75395f	0.059869166
199	0x3db815b1	0.08988512
200	0x3da03930	0.07823408
201	0xbd44f3eb	-0.04808418
202	0x3a96962e	0.0011488849
203	0x3cfe8fac	0.031074367
204	0x3d69eaba	0.05710862
205	0x3dd44ba9	0.103659935
206	0x3d91aa52	0.07112564
207	0xbdc8b9de	-0.09801076
208	0xbd9dd648	-0.077068865
209	0x3d95bf82	0.07311918
210	0x3de6f3c4	0.11276963
211	0xbddc0640	-0.107433796
212	0x3d294fa3	0.041335713
213	0xbba6cf00	-0.0050905943
214	0x3cfdbed6	0.030974787
215	0xbd884682	-0.06654073
216	0x3dbf6d51	0.09347022
217	0x3dc9abe9	0.098472424
218	0x3d0592b4	0.03261061
219	0xbdb2be31	-0.087276824
220	0x3daecec2	0.0853553
221	0x3de3b6c4	0.11118844
222	0x3dc22af6	0.094808504
223	0x3dded5ec	0.10880646
224	0xbd4694e8	-0.04848185
225	0xbdaed4c7	-0.08536678
226	0xbd39b499	-0.045338247
227	0x3dad5253	0.08462968
228	0xbd53e35b	-0.051730495
229	0x3d6fc444	0.058536783
230	0x3d74c707	0.05976012
231	0xbd526fcb	-0.051376145
232	0x3dee3e31	0.11632956
233	0xbd904210	-0.070438504
234	0x3b9a6620	0.0047118813
235	0xbdd8b1b4	-0.10580769
236	0xbe038433	-0.12843399
237	0xbb9b6b13	-0.004742989
238	0xbdacca0c	-0.08436975
239	0xbdf6812c	-0.12036356
240	0x3cefbaec	0.029263936
241	0xbd5fce92	-0.05464036
242	0x3d88d0ea	0.06680472
243	0xbd9b7774	-0.07591143
244	0xbd9434fa	-0.07236667
245	0xbd8f5efe	-0.0700054
246	0xbdd91914	-0.106004864
247	0x3c881bd6	0.016614836
248	0xbdeeebeb	-0.116660915
249	0xbdfc7bd2	-0.12328304
250	0x3d3346aa	0.043768562
251	0xbd29dd55	-0.041470844
252	0x3cb48a58	0.022038624
253	0x3dd3a5dc	0.103343695
254	0xbd85c412	-0.06531538
255	0x3d317907	0.04332831

fc2.bias f4 [32]
0	0xbda7a934	-0.0818657
1	0x3dd6d955	0.104906715
2	0x3df89359	0.12137479
3	0x3df0fb83	0.11766722
4	0x3daf7764	0.08567694
5	0x3b4d29c4	0.0031305412
6	0x3d5ed1a0	0.054399133
7	0x3c28ad40	0.010295212
8	0xbcac0134	-0.020996667
9	0x3bf5059f	0.0074774767
10	0xbd6d5ee1	-0.05795181
11	0xbdff5cf6	-0.12468903
12	0xbd4b3d17	-0.049618807
13	0x3db33ee2	0.08752228
14	0x3cb71ab4	0.0223516
15	0x3db28649	0.08717019
16	0xbdb47767	-0.08811837
17	0xbdbcb0ec	-0.09213433
18	0x3dbc5fbd	0.09197948
19	0x3d9fc967	0.07802086
20	0xbbdb8060	-0.006698653
21	0x3d9c1c92	0.07622637
22	0x3d5c00cd	0.0537117
23	0x3be6ef13	0.007047543
24	0x3c2803d4	0.010254819
25	0x3c61e56b	0.013787608
26	0xbd720764	-0.05908908
27	0x3d64c7f9	0.05585477
28	0x3d950a31	0.072773345
29	0xbdda81f5	-0.106693186
30	0x3dd3ae12	0.10335936
31	0x3ca1d24b	0.019753596

fc3_action.weight f4 [11, 32]
0	0x3e1b82df	0.15186642
1	0x3cb0e63b	0.021594157
2	0x3e0641bf	0.13111018
3	0x3e0c1c43	0.13682656
4	0x3e2a670e	0.16640875
5	0x3ce36128	0.027756289
6	0x3e09f7dd	0.13473459
7	0x3e25887f	0.1616535
8	0x3cd6443a	0.02615558
9	0xbca7dc49	-0.020490782
10	0x3e2f049f	0.17091607
11	0xbe04e24a	-0.12976947
12	0x3da5a267	0.080876164
13	0xbd2fdf22	-0.042937405
14	0x3d9f41c0	0.07776213
15	0x3dd8c907	0.10585218
16	0x3dc2d2f5	0.09512893
17	0x3de058aa	0.10954411
18	0x3d87b8ff	0.06627082
19	0xbe1ac5e8	-0.15114558
20	0xbdb7d793	-0.089766644
21	0x3d892e82	0.06698324
22	0x3d8adc89	0.06780345
23	0xbdc34024	-0.09533718
24	0xbd9bbf08	-0.07604796
25	0x3e093e37	0.1340264
26	0x3d969e92	0.07354464
27	0xbda4b730	-0.08042753
28	0xbdfca749	-0.123365946
29	0x3e1f31a8	0.15546286
30	0x3c51a90d	0.0127966525
31	0xbdf68390	-0.12036812
32	0x3e27ec2b	0.16398685
33	0x3d73e8f5	0.059548337
34	0x3d832ef0	0.06405437
35	0x3c5596da	0.013036454
36	0xbd672e64	-0.056440726
37	0x3d9a1cda	0.07525034
38	0xbcbc91d9	-0.023018764
39	0x3cbc89e8	0.023014978
40	0x3de77ad1	0.11302722
41	0xbc397df4	-0.0113215335
42	0x3de58b0e	0.11208163
43	0xbc07efa0	-0.008296877
44	0xbe1bab0a	-0.15201965
45	0x3e18e08f	0.14929412
46	0x3d728dbd	0.059217203
47	0x3e263b71	0.16233613
48	0x3df7d77c	0.12101647
49	0xbd2e5434	-0.04256077
50	0x3d2c1280	0.04200983
51	0x3d4f2a15	0.050577242
52	0x3e0621ae	0.13098785
53	0xbd3a48d4	-0.04547961
54	0x3d7e8d3c	0.06214641
55	0xbd1ad7fb	-0.03780363
56	0xbda6d445	-0.08145956
57	0x3dee54b8	0.116372526
58	0x3e2b4129	0.16724075
59	0x3e113fc2	0.14184478
60	0x3db316a0	0.0874455
61	0x3d9a9e39	0.0754971
62	0x3e179835	0.14804156
63	0xbd898081	-0.06713963
64	0xbda91c86	-0.082573935
65	0x3dcd8709	0.100355215
66	0x3d976cb5	0.07393781
67	0x3d74a03e	0.05972313
68	0xbe13f752	-0.14449814
69	0x3da32a2e	0.079670295
70	0xbd2d789c	-0.04235135
71	0xbd120a8c	-0.03565459
72	0xbe1af689	-0.15133108
73	0xbd2e7b65	-0.042598147
74	0x3d01a1af	0.031648334
75	0x3dd5cd92	0.104396
76	0x3c60ff56	0.013732752
77	0x3c8f64cf	0.017504124
78	0xbd8c113d	-0.068392254
79	0x3deb8967	0.11500817
80	0x3e30375a	0.17208615
81	0xbe1d8e4a	-0.1538631
82	0xbdff15f0	-0.12455356
83	0xbcadac45	-0.021200309
84	0xbe1f9406	-0.1558381
85	0x3d3d6b51	0.046244923
86	0xbdd869c0	-0.10567045
87	0x3de1bb37	0.110220365
88	0xbd80156e	-0.062540874
89	0xbcf115a2	-0.02942926
90	0xbe24045a	-0.16017285
91	0xbd895929	-0.06706459
92	0xbe0f32c5	-0.13984211
93	0xbd5b45a4	-0.05353321
94	0x3e32ad50	0.17448926
95	0xbe069e98	-0.13146436
96	0x3d9a0916	0.07521264
97	0x3e1a280d	0.1505434
98	0xbdd26c2e	-0.1027454
99	0x3cad84f8	0.021181569
100	0x3dd61ae5	0.104543485
101	0xbd2732d4	-0.040819958
102	0x3d7b4699	0.061346624
103	0xbe1a4ee5	-0.15069158
104	0x3e04e91a	0.12979546
105	0x3d7ee510	0.06223017
106	0x3dd83a6e	0.105580196
107	0xbd866d98	-0.06563872
108	0x3d78aae0	0.060709834
109	0x3d6d1ef5	0.05789085
110	0x3e2e8797	0.17043911
111	0xbe333325	-0.17499979
112	0xbe174780	-0.14773369
113	0x3e2ccc1b	0.16874735
114	0xbda52a3c	-0.08064696
115	0xbd30618c	-0.043061778
116	0xbd926823	-0.07148769
117	0x3e0643e7	0.1311184
118	0x3cf2e677	0.02965091
119	0xbe26ce2d	-0.16289587
120	0x3d37beaa	0.044859566
121	0xbdb172eb	-0.08664497
122	0x3e1df099	0.15423812
123	0xbdbaf780	-0.09129238
124	0xbc88b092	-0.016685758
125	0x3e1f5064	0.1555801
126	0x3c07093a	0.008241946
127	0xbd0ed06b	-0.03486673
128	0xbda3b1f1	-0.07992924
129	0xbcd33dfe	-0.025786396
130	0xbcb7d854	-0.02244202
131	0x3dff24d0	0.12458193
132	0x3d98d2ff	0.07462119
133	0x3ddd0bff	0.10793304
134	0x3d2d65c8	0.042333394
135	0x3e2bc673	0.16774921
136	0x3df74d10	0.120752454
137	0x3c932888	0.017963663
138	0xbdfeabc0	-0.124351025
139	0x3cbd5780	0.023113012
140	0x3e284328	0.16431868
141	0xbe26e915	-0.16299851
142	0x3d45884e	0.048225693
143	0x3e28ee45	0.16497143
144	0x3dc185b7	0.09449332
145	0xbd6000ca	-0.054688253
146	0x3e0c9faf	0.1373279
147	0xbdc65066	-0.096833035
148	0xbe090405	-0.1338044
149	0xbcce4059	-0.025177168
150	0xbd40f901	-0.04711247
151	0xbcd0dda6	-0.025496315
152	0xbd246152	-0.040131874
153	0xbb335e02	-0.0027369265
154	0xbd5cc0e6	-0.0538949
155	0xbdcbc9e1	-0.09950615
156	0xbe1c2d61	-0.15251686
157	0x3e02685c	0.12735122
158	0x3d22db17	0.03975972
159	0x3e0841a3	0.13306288
160	0xbbe021e0	-0.0068399757
161	0xbcf25160	-0.029579818
162	0xbe0615c4	-0.1309424
163	0xbd97a5f8	-0.07404703
164	0x3dfb2498	0.12262839
165	0x3d43323b	0.047655325
166	0x3da17c60	0.07885051
167	0xbd98e360	-0.07465243
168	0x3d9efee1	0.07763458
169	0xbe1483f2	-0.14503458
170	0x3e163236	0.14667591
171	0xbdbe62d1	-0.092961915
172	0x3d8de26e	0.06927954
173	0x3e09daec	0.13462418
174	0x3d70fb2b	0.058833282
175	0xbe324662	-0.17409661
176	0xbddf4f5e	-0.1090381
177	0x3ca10c38	0.019659147
178	0x3e1901e0	0.14942122
179	0x3e1215c4	0.14266115
180	0xbd7efadf	-0.062250968
181	0xbd304764	-0.043036833
182	0x3c4f054c	0.01263554
183	0x3d39fa1b	0.045404535
184	0x3da97c6e	0.08275686
185	0x3b94c14e	0.0045396453
186	0xbe31dc77	-0.17369257
187	0x3c9e8958	0.0193526
188	0xbda44e12	-0.08022703
189	0x3dd33209	0.10312278
190	0xbd3f1784	-0.046653286
191	0xbc254bf8	-0.010088913
192	0xbe1e31e8	-0.15448725
193	0xbb452dee	-0.003008719
194	0x3def720e	0.11691676
195	0x3deb2865	0.11482314
196	0xbd22b891	-0.039726797
197	0xbd89929e	-0.06717418
198	0x3d199fa7	0.037505772
199	0x3dcfd79a	0.101485446
200	0xbd03f446	-0.03221538
201	0xbe1717f0	-0.14755225
202	0x3db1c60d	0.08680353
203	0x3c7a46c0	0.015275657
204	0xbe1eefab	-0.15521114
205	0x3d791e6f	0.06082004
206	0x3def58a6	0.1168683
207	0xbc6e7770	-0.014554843
208	0x3d74ee43	0.059797537
209	0x3dddf712	0.108381405
210	0xbc9ddbfd	-0.019269938
211	0xbdbb9745	-0.09159712
212	0xbe119bcd	-0.1421959
213	0x3cc7ef73	0.02440617
214	0xbd63fb74	-0.055659726
215	0x3e1cb604	0.15303808
216	0x3e32bfc6	0.17455968
217	0x3e03ddc7	0.1287757
218	0x3dbb7d06	0.09154706
219	0xbd0d6ac6	-0.034525655
220	0xbe3276a0	-0.17428064
221	0xbdf157c1	-0.11784316
222	0xbd7f7992	-0.062371798
223	0x3da4ae00	0.08041
224	0x3d51bfc8	0.051208287
225	0x3e155104	0.14581686
226	0x3e17db96	0.14829859
227	0x3e0c5763	0.1370521
228	0x3d8ade20	0.06780648
229	0xbe299541	-0.16560842
230	0x3cb10e5b	0.02161329
231	0xbdaf413a	-0.08557363
232	0x3d1ffe29	0.039060745
233	0x3cca7b12	0.024716888
234	0xbda5a7e4	-0.08088663
235	0x3dcb23e6	0.099189565
236	0x3da20bfc	0.07912442
237	0x3bf0872d	0.007340333
238	0xbc2c58be	-0.010519205
239	0xbe034b0b	-0.12821595
240	0xbd62088b	-0.05518393
241	0xbb49a540	-0.0030768663
242	0xbe0adc88	-0.13560688
243	0x3d8fbdb4	0.07018605
244	0x3b21baed	0.0024678067
245	0x3d61d499	0.05513439
246	0x3e1760e3	0.14783053
247	0xbe1b35bd	-0.15157218
248	0x3d86c8db	0.06581279
249	0xbdfee66a	-0.12446292
250	0x3d289714	0.041159704
251	0x3e0fdca6	0.14049014
252	0x3b3b3112	0.0028563184
253	0xbe193db3	-0.14964943
254	0xbd57592b	-0.05257527
255	0xbdee1661	-0.11625362

fc3_action.bias f4 [11]
0	0xbe31137e	-0.17292592
1	0xbd20e608	-0.039281875
2	0xbdd00bbe	-0.1015849
3	0x3cda51b0	0.02665028
4	0x3dca41b3	0.098758124
5	0x3daa2a18	0.0830881
6	0x3d830f13	0.063993596
7	0xbd08df11	-0.033415858
8	0xbc92cb2b	-0.017919144
9	0x3ddad11d	0.106844164
10	0x3d5d4e50	0.054029763
