traditional_vrpb_agent_final.pth (torch, 46225 bytes, 6 tensors)

fc1.weight f4 [128, 5]
0.12614113 0.19507053 -0.323783 -0.4376218 0.17748995 0.3305817 -0.1602493 -0.052081265
-0.03104505 -0.26921132 -0.41969156 -0.060180936 -0.24496746 0.34504926 0.18529184 -0.25111836
0.14436235 0.3490906 -0.16432524 0.34708595 0.09979814 0.17745727 0.16109084 0.21009526
-0.031151053 -0.004591012 0.10006526 0.09956706 0.30231676 0.1112114 -0.20837326 -0.15315887
0.40146476 -0.167442 0.2392556 -0.36322582 0.009723309 0.3209616 0.3668009 0.30527884
-0.032210246 0.37152562 -0.35367286 -0.047572825 0.10423818 0.29313812 0.1860998 -0.44418576
0.1184725 0.27462956 -0.048051093 0.30424452 0.38108727 0.32271388 0.3060659 -0.2669251
-0.08143127 -0.30052495 0.04373455 -0.015923709 -0.14554077 -0.06513828 0.14066929 -0.32225946
-0.2433717 0.38258022 0.05804033 -0.38389835 -0.190135 0.29075772 -0.075502686 -0.21910714
-0.2749419 0.35209924 -0.33738396 -0.23191787 -0.3185528 0.15403438 -0.10412638 0.077841304
0.25150695 0.2666229 0.4180733 -0.23984261 0.29794317 -0.20057157 -0.017428327 -0.29808
-0.3313551 -0.14007032 0.21681002 0.4192982 0.43919292 0.1948014 0.38299638 0.10738825
0.23031698 -0.21486594 -0.37430176 0.04602355 -0.21410283 0.20924757 -0.001893256 0.36983597
0.28976074 -0.081748225 -0.21943086 -0.21918994 0.30265072 -0.44641864 0.025314389 -0.36353096
-0.08634393 0.0590004 0.39492413 0.27246135 -0.14411117 0.27586558 0.2802039 0.035070896
-0.091626495 0.018057376 -0.12218374 -0.18008158 -0.06058821 -0.3927505 0.05847351 -0.08668559
0.23269974 0.11281945 0.43375236 0.33174112 0.31272784 -0.27112824 -0.25371692 -0.38935667
-0.1829391 0.028578825 -0.23771206 0.1079798 -0.08887787 -0.31098413 -0.041107956 0.279164
-0.096796244 0.44380322 0.22329907 -0.35777766 0.129921 -0.3175208 -0.2997452 0.25302818
0.31498793 -0.43430766 0.32945535 -0.33486253 0.28468287 -0.18927976 0.087747216 -0.39937004
-0.061608177 0.4335809 -0.25571868 -0.39464784 0.2651529 -0.22799154 -0.18542942 -0.31966466
0.3701494 -0.02386945 0.25636974 -0.44107363 0.40966928 -0.3501249 -0.15603375 0.172183
-0.2675592 0.09811651 -0.3665249 0.16527517 -0.05871624 -0.16422437 -0.39506936 0.30230084
0.39081356 0.02231839 -0.0002835597 0.09183018 -0.414105 0.30286902 0.3746203 0.18573195
0.21959288 -0.17371838 0.25647175 -0.27752322 -0.21252634 0.285386 -0.15679266 0.29779628
-0.40326917 0.11950194 -0.4170967 0.29521647 -0.12136095 -0.26480684 0.40215552 0.40945584
-0.17519039 0.38656342 -0.4403258 -0.35931313 -0.23235151 0.17948103 -0.17820868 0.36880147
0.4059834 -0.43352583 -0.3338872 -0.0022289557 -0.36426106 0.17997588 -0.17823735 -0.030035818
0.34877032 0.32981938 0.43871677 0.3338392 -0.24683446 0.21723379 -0.37910494 -0.25038213
-0.2461967 -0.3295497 -0.19581562 0.392839 -0.06453278 0.34732416 0.10622079 -0.30732912
0.41200724 -0.10274925 0.14839476 -0.38209492 -0.25567803 -0.1581109 0.31766078 0.08621525
-0.3467814 0.24042079 -0.07349115 -0.26334715 0.3883765 -0.42201853 -0.04340184 -0.013387382
00000000: 242b 013e 92c0 473e e3c6 a5be f70f e0be
00000010: edbf 353e 0142 a93e 6418 24be 2a53 55bd
00000020: 3052 febc 11d6 89be d0e1 d6be 4980 76bd
00000030: c0d8 7abe 4caa b03e 25bd 3d3e 9692 80be
00000040: b9d3 133e 01bc b23e e044 28be 40b5 b13e
00000050: f862 cc3d 5cb7 353e fff4 243e 3623 573e
00000060: 7e30 ffbc 3370 96bb 04ef cc3d d1e9 cb3d
00000070: 43c9 9a3e cdc2 e33d cd5f 55be aed5 1cbe
00000080: ca8c cd3e ea75 2bbe 6cff 743e bcf8 b9be
00000090: 844e 1f3c 1455 a43e 54cd bb3e 824d 9c3e
000000a0: e4ee 03bd 9b38 be3e 9c14 b5be b9db 42bd
000000b0: d47a d53d 3316 963e f290 3e3e 516c e3be
000000c0: b6a1 f23d 3f9c 8c3e 39d1 44bd f0c5 9b3e
000000d0: df1d c33e c13a a53e abb4 9c3e 68aa 88be
000000e0: 70c5 a6bd 68de 99be 0023 333d 7072 82bc
000000f0: a408 15be 3867 85bd 9c0b 103e 31ff a4be
00000100: 6e36 79be 8ee1 c33e b2bb 6d3d 538e c4be
00000110: c0b2 42be 32de 943e 27a1 9abd 9f5d 60be
00000120: 2fc5 8cbe 5a46 b43e 97bd acbe e17b 6dbe
00000130: 5a19 a3be 30bb 1d3e 3640 d5bd 436b 9f3d
00000140: 85c5 803e cc82 883e b40d d63e 4d99 75be
00000150: 028c 983e a262 4dbe dac5 8ebc f19d 98be
00000160: 60a7 a9be 986e 0fbe 7203 5e3e 41ae d63e
00000170: e5dd e03e 057a 473e 1a18 c43e 5fee db3d
00000180: 37d8 6b3e d105 5cbe 7ba4 bfbe 3183 3c3d
00000190: c63d 5bbe ff44 563e 2127 f8ba 245b bd3e
000001a0: 855b 943e 9d6b a7bd 7cb2 60be 5473 60be
000001b0: 09f5 9a3e fc90 e4be 1f60 cf3c bb20 babe
000001c0: 16d5 b0bd 67aa 713d 7f33 ca3e 0e80 8b3e
000001d0: e191 13be 413e 8d3e e376 8f3e 80a6 0f3d
000001e0: aca6 bbbd 10ed 933c 783b fabd 4e67 38be
000001f0: 582b 78bd 9816 c9be eb81 6f3d 3788 b1bd
00000200: d748 6e3e e20d e73d ca14 de3e f9d9 a93e
00000210: dd1d a03e 52d1 8abe 2fe7 81be c259 c7be
00000220: 6354 3bbe 241e ea3c ca6a 73be 8324 dd3d
00000230: 9a05 b6bd 5039 9fbe d160 28bd 95ee 8e3e
00000240: 1c3d c6bd 2d3a e33e 83a8 643e a22e b7be
00000250: 030a 053e 1692 a2be 3478 99be e98c 813e
00000260: 1946 a13e 935d debe 5fae a83e 1a73 abbe
00000270: f4c1 913e 8ed2 41be d0b4 b33d 3b7a ccbe
00000280: db58 7cbd 51fe dd3e 8fed 82be 480f cabe
00000290: 1fc2 873e 9d76 69be 36e1 3dbe 16ab a3be
000002a0: 3984 bd3e dd89 c3bc e542 833e 67d4 e1be
000002b0: 2cc0 d13e 9243 b3be 50c7 1fbe be50 303e
000002c0: 85fd 88be 4ff1 c83d 27a9 bbbe e53d 293e
000002d0: 7180 70bd 6f2a 28be 8846 cabe 2dc7 9a3e
000002e0: b718 c83e 0ed5 b63c bdaa 94b9 7611 bc3d
000002f0: 9205 d4be a611 9b3e 3bce bf3e 8430 3e3e
00000300: f5dc 603e 3be3 31be 4450 833e 8617 8ebe
00000310: 81a0 59be 1d1e 923e 418e 20be c178 983e
00000320: 4c79 cebe 6fbd f43d b38d d5be 9d26 973e
00000330: 178c f8bd c394 87be 54e7 cd3e 32a4 d13e
00000340: 1c65 33be a4eb c53e 6272 e1be e4f7 b7be
00000350: 8eed 6dbe e0c9 373e 567c 36be 8cd3 bc3e
00000360: 0edd cf3e 19f7 ddbe 43f3 aabe ac13 12bb
00000370: 6d80 babe 994b 383e da83 36be ad0d f6bc
00000380: 0692 b23e 16de a83e 7c9f e03e f9ec aa3e
00000390: 2cc2 7cbe 8972 5e3e 0b1a c2be 1632 80be
000003a0: fd1a 7cbe bdba a8be e483 48be 3222 c93e
000003b0: c329 84bd 79d4 b13e 498a d93d 3e5a 9dbe
000003c0: 9df2 d23e 336e d2bd ccf4 173e f2a1 c3be
000003d0: 3be8 82be d3e7 21be 6fa4 a23e 9f91 b03d
000003e0: 558d b1be de30 763e 8782 96bd 70d5 86be
000003f0: 49d9 c63e d012 d8be 21c6 31bd c056 5bbc

fc1.bias f4 [128]
0.05174677 0.049275663 0.07140458 0.043215994 0.440014 -0.38047716 0.016494073 0.21773282
0.22759587 -0.1864853 0.43995085 -0.0016839206 0.10290784 -0.22244239 0.062340334 0.027955716
-0.38715118 0.39077377 0.39583507 -0.13945986 -0.33083966 0.043914806 -0.04153485 -0.3397801
-0.34979463 -0.30484524 0.3328475 0.40943292 0.21072556 -0.101826146 0.2792619 0.030995399
-0.37486324 0.24579677 0.41552138 -0.10606702 0.1875746 0.010996291 0.06124201 0.09787121
0.10286931 -0.44611225 -0.057579488 0.27855495 0.031991165 -0.406302 0.065276384 -0.17020175
0.22021401 -0.0052871606 0.2781789 -0.25710237 -0.323131 0.14377177 -0.2310596 0.36948156
-0.08150697 0.08468038 0.104508184 0.02986259 0.36954853 0.08164202 0.27195084 0.40815794
0.10619942 -0.3024936 -0.029829988 -0.44423512 0.14048535 0.118574604 -0.2911494 -0.24233355
-0.43060893 0.16821326 -0.010415088 -0.39006177 -0.35332555 -0.15306917 0.38176724 0.3718518
0.06778814 0.287538 0.44489107 -0.2822031 0.018607007 0.1255061 0.36168528 -0.39545333
0.18197872 0.28366646 0.2865066 -0.27440307 0.26340768 0.38375533 -0.17201035 0.37780508
-0.42621794 0.2976131 -0.1844061 -0.16964953 -0.033339024 -0.31899405 0.32930642 -0.14301687
0.12212113 0.03955644 0.036732186 0.043298062 -0.13654764 0.008858678 0.44044077 -0.037995275
-0.3252611 -0.14548272 0.3612879 -0.23029122 -0.2688833 -0.20799278 -0.11161889 -0.19939056
-0.363537 0.3601637 0.37211803 0.14552617 0.13203453 -0.2056258 -0.2075397 0.12023749
00000000: 6cf4 533d 47d5 493d 903c 923d 4103 313d
00000010: 8449 e13e e7cd c2be 941e 873c 5af5 5e3e
00000020: e40e 693e 01f6 3ebe 3d41 e13e 00b7 dcba
00000030: 58c1 d23d f0c7 63be 9458 7f3d 6303 e53c
00000040: ae38 c6be 8013 c83e e5aa ca3e 91ce 0ebe
00000050: d163 a9be 03e0 333d 7220 2abd a8f7 adbe
00000060: 4818 b3be ad14 9cbe fd6a aa3e 31a1 d13e
00000070: 71c8 573e 3a8a d0bd 6afb 8e3e 10ea fd3c
00000080: 13ee bfbe 26b2 7b3e 38bf d43e aa39 d9bd
00000090: 8e13 403e ca29 343c e7d8 7a3d b370 c83d
000000a0: 25ad d23d d368 e4be 78d8 6bbd c19e 8e3e
000000b0: 2b09 033d d106 d0be a0af 853d 5e49 2ebe
000000c0: c87f 613e eb3f adbb 776d 8e3e eca2 83be
000000d0: 6d71 a5be e838 133e e39a 6cbe b02c bd3e
000000e0: 20ed a6bd e86c ad3d 6308 d63d 64a2 f43c
000000f0: 7735 bd3e ee33 a73d 243d 8b3e 14fa d03e
00000100: 157f d93d 71e0 9abe 055e f4bc c972 e3be
00000110: 64db 0f3e 3ed7 f23d 8911 95be 4926 78be
00000120: c678 dcbe 1940 2c3e 0ca4 2abc 2db6 c7be
00000130: 16e7 b4be 2abe 1cbe ff76 c33e 5c63 be3e
00000140: 82d4 8a3d 2e38 933e c3c8 e33e ed7c 90be
00000150: b96d 983c ac84 003e d02e b93e dc78 cabe
00000160: a158 3a3e bb3c 913e feb0 923e 8f7e 8cbe
00000170: 5fdd 863e 947b c43e 7b23 30be ab6f c13e
00000180: 3d39 dabe bf60 983e f4d4 3cbe 9bb8 2dbe
00000190: 808e 08bd 3053 a3be da9a a83e 0473 12be
000001a0: a51a fa3d ef05 223d 7d74 163d 4f59 313d
000001b0: 25d3 0bbe fd23 113c 7481 e13e efa0 1bbd
000001c0: 9f88 a6be 6cf9 14be bafa b83e 76d1 6bbe
000001d0: 12ab 89be 0ffc 54be 7298 e4bd 0a2d 4cbe
000001e0: 8621 babe 6067 b83e 4186 be3e d004 153e
000001f0: 0f34 073e 928f 52be 4a85 54be 133f f63d

fc2.weight f4 [64, 128]
-0.029841768 0.062238608 0.052363485 -0.08150343 -0.056335323 0.08257063 0.050040577 -0.07996509
-0.024562938 -0.059664983 0.03682405 0.027424797 0.054899685 -0.0182083 0.079171024 -0.035665024
0.063377865 0.018734096 -0.056528296 0.06829202 -0.044250134 0.042954743 -0.055229176 0.05563151
-0.06797196 0.046654027 -0.061570268 0.04180412 0.005105818 -0.020354947 -0.0389482 0.07721447
0.04836018 0.043062776 -0.005995733 -0.077919096 0.046242286 -0.06564499 -0.032420363 -0.0054579754
-0.041287724 0.056090213 -0.07719621 -0.077171095 0.07935294 0.01397838 0.03222941 -0.06104085
-0.0005109362 -0.054171793 -0.010938584 0.0013271496 0.041887138 0.048281096 0.06826388 0.05597853
-0.0053796023 0.060251348 -0.0426319 0.03620145 0.052704725 -0.08149906 0.06444386 -0.010663116
0.06283496 0.009129137 0.043363612 0.06934325 0.055407442 0.035210587 0.012336771 -0.06221428
0.035605088 0.06487511 -0.012569651 -0.058401264 -0.054500267 -0.029227396 -0.07647353 0.03698551
0.047026485 -0.08889549 0.014508607 -0.011811669 -0.063600555 -0.03544223 -0.068894476 0.0849538
0.04419897 -0.019408192 -0.030690856 -0.029237283 -0.04497797 0.063149 0.013482738 0.017609134
-0.052549545 0.077099696 0.04508994 0.04991228 -0.017642286 0.030024784 -0.008076626 0.058257893
-0.076167464 0.020780234 0.022792429 0.059833854 0.021844285 -0.08057101 0.08071051 -0.030307457
0.019706577 -0.0042476654 -0.056618348 -0.013818465 0.07338149 -0.060838733 0.009406827 0.016361235
0.0673306 0.06813724 -0.077513635 -0.03765588 -0.03906967 -0.046782427 -0.028060708 0.052591708
-0.056427095 0.055928662 0.049490694 -0.050174244 0.08687676 -0.0069428436 0.07383333 -0.030457372
0.0014100844 0.029561648 0.08221719 0.06316411 -0.0832458 0.04949856 0.03276237 0.03944087
0.07535009 -0.048288696 0.028594548 0.06407758 0.011138356 -0.08347009 -0.024556201 0.049792368
-0.07439989 0.08372236 -0.017467184 -0.06833123 0.04511343 0.02116399 -0.039236244 0.075384386
0.00042869218 0.079383545 -0.07846972 -0.08640248 0.07787504 0.063702025 -0.057810564 0.060743026
0.018343624 -0.05582039 0.06391322 0.05310518 0.045061223 0.010470424 -0.017135717 0.052705474
0.014919474 -0.075237244 0.082310274 0.026380323 0.016952 0.032149754 0.03759951 0.050190795
0.0219118 0.05235281 -0.046916556 0.01615205 0.027977573 -0.021388263 0.06185553 0.017709615
-0.0011695403 -0.0009831712 0.08749592 -0.055674706 0.0054470175 0.07385605 0.060496155 0.005620445
0.051276974 0.029700957 0.032825578 0.03551222 -0.027693942 0.03672205 0.020070078 0.03740492
0.008265008 -3.6965565e-05 0.026354935 0.07525644 -0.031054467 -0.05898449 0.038414642 0.07852408
-0.053155743 -0.026853103 -0.017459488 -0.060178373 -0.061570708 -0.0065363236 0.011716406 0.056426723
0.003517548 -0.03762257 -0.031309962 -0.016582854 -0.05490344 0.012219331 0.014498844 -0.07306884
-0.050409373 0.0020988064 -0.07352301 -0.08774963 0.055663023 -0.03573516 -0.05929919 0.048304882
-0.044526964 0.08729928 -0.07854919 -0.051150616 -0.0035669953 -0.045970727 0.054796576 -0.038768396
0.031473238 0.003316471 -0.08652951 -0.048254315 0.073893115 0.059520468 -0.041981086 -0.01587933
00000000: b976 f4bc e9ed 7e3d 187b 563d 45eb a6bd
00000010: debf 66bd ca1a a93d 59f7 4c3d bdc4 a3bd
00000020: 3738 c9bc 4563 74bd d1d4 163d f8a9 e03c
00000030: 7ede 603d 9329 95bc 6b24 a23d 7d15 12bd
00000040: 41cc 813d 3f78 993c 378a 67bd b0dc 8b3d
00000050: a13f 35bd 50f1 2f3d fd37 62bd dedd 633d
00000060: e234 8bbd 4b18 3f3d 1b31 7cbd cc3a 2b3d
00000070: b54e a73b 6bbf a6bc 2688 1fbd 9f22 9e3d
00000080: 5315 463d 9862 303d db77 c4bb 0c94 9fbd
00000090: 8d68 3d3d e170 86bd 37cb 04bd d1d8 b2bb
000000a0: 511d 29bd dabe 653d 0c19 9ebd e10b 9ebd
000000b0: cb83 a23d 9305 653c fc02 043d f805 7abd
000000c0: 59f0 05ba 3ee3 5dbd bf37 33bc c0f3 ad3a
000000d0: d991 2b3d 66c2 453d efcd 8b3d be49 653d
000000e0: 6047 b0bb 1eca 763d ca9e 2ebd f947 143d
000000f0: e9e0 573d fbe8 a6bd 24fb 833d 5ab4 2ebc
00000100: 9eaf 803d 6092 153c 0b9e 313d d503 8e3d
00000110: eaf2 623d fa38 103d 2b20 4a3c 67d4 7ebd
00000120: a4d6 113d 3edd 843d f0f0 4dbc 2a36 6fbd
00000130: ac3b 5fbd 4b6e efbc 279e 9cbd 1e7e 173d
00000140: d89e 403d d70e b6bd 82b5 6d3c bb85 41bc
00000150: 0241 82bd df2b 11bd 8c18 8dbd 42fc ad3d
00000160: fb09 353d eefd 9ebc 646b fbbc 0783 efbc
00000170: d23a 38bd 4354 813d b4e6 5c3c 0841 903c
00000180: 313e 57bd 72e6 9d3d 3bb0 383d d270 4c3d
00000190: 8e86 90bc 89f6 f53c d353 04bc d49f 6e3d
000001a0: b0fd 9bbd 4f3b aa3c 30b7 ba3c 5814 753d
000001b0: c9f2 b23c 6a02 a5bd 8d4b a53d 5847 f8bc
000001c0: b06f a13c 0030 8bbb a4e8 67bd d866 62bc
000001d0: 0949 963d 0932 79bd 181f 1a3c ff07 863c
000001e0: a0e4 893d 8a8b 8b3d 78bf 9ebd 0d3d 1abd
000001f0: 8507 20bd ee9e 3fbd 92df e5bc 676a 573d
00000200: 1920 67bd 7415 653d c1b6 4a3d 8283 4dbd
00000210: 71ec b13d cb80 e3bb ee35 973d bd81 f9bc
00000220: 95d2 b83a 452b f23c 7c61 a83d 2f5c 813d
00000230: c67c aabd 01bf 4a3d d631 063d c08c 213d
00000240: 2651 9a3d 5eca 45bd 1d3f ea3c 1b3b 833d
00000250: a77d 363c 5ef2 aabd 162a c9bc 15f3 4b3d
00000260: f85e 98bd a176 ab3d 5717 8fbc 3ef1 8bbd
00000270: dcc8 383d 1b60 ad3c 2fb6 20bd 2163 9a3d
00000280: 17c2 e039 d793 a23d bcb4 a0bd c9f3 b0bd
00000290: f37c 9f3d 3576 823d c5ca 6cbd aecd 783d
000002a0: 5e45 963c eca3 64bd efe4 823d d184 593d
000002b0: 1e92 383d 248c 2b3c 3460 8cbc b2e1 573d
000002c0: cf70 743c fc15 9abd 4a92 a83d 8c1b d83c
000002d0: ecde 8a3c 76af 033d f201 1a3d dd94 4d3d
000002e0: 6080 b33c e66f 563d 932b 40bd 4e51 843c
000002f0: 3931 e53c 7036 afbc 395c 7d3d c113 913c
00000300: 434b 99ba c0dd 80ba 1031 b33d 290b 64bd
00000310: e57c b23b d741 973d d1ca 773d b62b b83b
00000320: ce07 523d 6c4f f33c 1d74 063d 4375 113d
00000330: 68de e2bc dc69 163d 016a a43c e735 193d
00000340: f569 073c 790b 1bb8 4ee6 d73c 0c20 9a3d
00000350: f065 febc b899 71bd ac58 1d3d 3cd1 a03d
00000360: d6b9 59bd 0afb dbbc 3307 8fbc 997d 76bd
00000370: 9131 7cbd a82e d6bb 2bf6 3f3c b51f 673d
00000380: aa86 663b 201a 1abd e03e 00bd c4d8 87bc
00000390: 6ee2 60bd 9733 483c 8f8c 6d3c 1ea5 95bd
000003a0: 0f7a 4ebd 218c 093b 3b93 96bd 14b6 b3bd
000003b0: e9fe 633d 085f 12bd b5e3 72bd 57db 453d
000003c0: e861 36bd f7c9 b23d 66de a0bd 4f83 51bd
000003d0: 40c4 69bb cd4b 3cbd 6072 603d 9ccb 1ebd
000003e0: 15ea 003d 2659 593b 6236 b1bd 51a6 45bd
000003f0: 4655 973d bccb 733d 5cf4 2bbd 5e15 82bc

fc2.bias f4 [64]
0.07932531 -0.039290026 -0.07986805 -0.055248972 -0.021381859 -0.06164828 -0.04823399 0.027075622
0.016058784 0.058683 -0.08375636 0.037499502 0.076844424 -0.08074198 -0.05891945 0.031266835
0.08566546 0.055987976 -0.03970623 0.05976703 -0.051888574 0.0124780685 -0.07471444 0.060573686
0.04655804 -0.060761612 0.078367956 -0.043378893 -0.085159056 0.05671514 0.009230201 0.07748228
-0.019197881 -0.037045237 -0.06875521 0.001129983 0.0026661477 0.024410456 0.027758032 0.059244018
0.041224357 -0.013769996 -0.021998823 -0.05344051 0.040564764 -0.020722993 -0.039713915 -0.048657514
-0.0075678555 0.044762887 -0.081132285 -0.065621085 -0.07711264 0.07613901 -0.07433762 0.02313288
0.010271151 -0.0029392305 0.03549321 0.0808598 0.0647921 -0.088347256 -0.07135517 0.08630443
00000000: 4f75 a23d 94ee 20bd dc91 a3bd bf4c 62bd
00000010: 0229 afbc e882 7cbd 0191 45bd b2cd dd3c
00000020: b68d 833c 965d 703d 7488 abbd 1499 193d
00000030: 9c60 9d3d 0d5c a5bd 8555 71bd a711 003d
00000040: 5f71 af3d a653 653d 00a3 22bd 46ce 743d
00000050: 1d89 54bd d070 4c3c e203 99bd 1d1c 783d
00000060: a5b3 3e3d 2be1 78bd 617f a03d 11ae 31bd
00000070: df67 aebd 224e 683d 453a 173c 08af 9e3d
00000080: e044 9dbc bfbc 17bd 88cf 8cbd f01b 943a
00000090: 89ba 2e3b 70f8 c73c d064 e33c dba9 723d
000000a0: dfda 283d 8d9b 61bc e036 b4bc 70e4 5abd
000000b0: 3d27 263d 44c3 a9bc 0fab 22bd 1a4d 47bd
000000c0: c6fb f7bb 4a59 373d af28 a6bd 5964 86bd
000000d0: 3bed 9dbd c5ee 9b3d 523e 98bd 2a81 bd3c
000000e0: 5448 283c 1ba0 40bb 5461 113d d399 a53d
000000f0: b8b1 843d 68ef b4bd a922 92bd 61c0 b03d

fc3_action.weight f4 [26, 64]
0.026894758 0.038439985 -0.10163683 0.06318508 -0.122323275 0.09787695 0.01789661 -0.094535336
0.105364725 -0.048897 0.04595892 0.04623648 -0.046548363 -0.074585155 -0.031442884 0.0026004002
-0.08091561 -0.100893155 0.07809366 0.10646811 0.0014873594 -0.06782197 -0.124129415 -0.024139445
-0.0751111 -0.10749252 -0.07650864 0.10421867 -0.050316066 -0.030171707 -0.06373895 -0.0315631
0.07738554 -0.015563518 -0.014914064 -0.07567871 -0.014618708 0.03772168 0.021399856 -0.10105188
-0.056410253 0.042016394 -0.032411635 -0.040301085 0.055393208 0.08679448 0.10752055 0.078814134
-0.06384656 -0.08355341 0.12153026 -0.06496899 0.025616834 -0.0706949 -0.10163616 0.085572615
-0.017859805 0.0413496 -0.10948864 0.051129077 0.004324632 -0.030142143 0.026412979 0.11162551
-0.09467793 0.11920586 -0.064886004 0.049579814 -0.07148317 0.009435415 -0.026855782 -0.10523406
0.115963936 -0.033654347 0.1243 -0.12653622 0.030816723 0.11094239 -0.046724718 -0.07123464
0.04433844 0.113464564 0.00090797246 -0.0653489 0.055133983 0.10751774 -0.034388468 -0.09934867
-0.07733667 -0.08284062 -0.055897877 -0.07813508 -0.09509583 -0.09976531 0.08079172 -0.025609504
-0.002734805 0.04584302 0.1176374 0.017690485 -0.07775507 -0.05259852 0.11665322 0.073105104
0.08453747 -0.052471034 -0.11479409 0.09632627 0.089555636 -0.03254976 0.10568697 -0.09357603
-0.015694221 -0.041519344 -0.07871359 -0.07078354 -0.09333206 0.08357213 -0.07521607 -0.019665394
-0.043806408 -0.11964579 -0.028716858 -0.0021997744 -0.09997192 -0.0103174 -0.018924862 -0.001631206
0.079744555 -0.01268602 0.06431122 0.026515871 -0.05632027 -0.03605187 0.10690124 0.0049955132
0.0011000002 -0.122490466 0.002004396 0.09179923 -0.010742575 -0.0069929212 0.032782964 0.019012107
-0.054060582 0.115613446 0.11690192 0.119415976 -0.05344154 0.105307154 0.024979964 0.05461651
-0.009280348 0.09439968 -0.10763228 -0.032617874 0.06781843 0.018348677 0.020016339 0.12265334
0.040292002 0.087674305 0.10519228 -0.059583567 -0.08481638 -0.09611274 0.052148506 0.027534617
-0.07654302 -0.06822804 -0.11244981 0.04246734 -0.03714848 -0.11741162 -0.05308249 -0.0483609
0.08396695 0.065999895 0.06891103 -0.0971808 -0.08624084 0.07286996 0.07246976 0.04037155
0.08593758 -0.05572547 -0.10407303 -0.043868788 0.0997238 -0.022557288 -0.099463776 -0.07691546
0.022846002 -0.051190704 0.11041832 0.03186947 -0.016912675 -0.039020434 -0.06752831 0.088659845
0.06881703 -0.073302984 -0.11548811 -0.062010616 -0.009343686 -0.12309198 -0.01793722 -0.11001863
0.048892736 -0.034386873 0.0021130443 -0.030571286 -0.0075121224 0.072880216 0.06853722 -0.092031695
-0.03266758 0.097746 -0.11464597 -0.03521616 0.0015959889 -0.053803824 -0.040621225 0.020964717
0.08810021 -0.0071778893 0.11993253 -0.08478646 0.12612744 0.08428669 -0.059342667 -0.033613972
-0.11330012 -0.029555047 0.10512182 -0.07442945 0.08940831 0.022298826 -0.012114182 -0.004643768
-0.040229134 -0.106814705 -0.096616134 -0.11572779 0.040871058 0.032903112 0.0032822513 -0.009016617
-0.055985123 0.078415394 -0.060073096 0.05826956 -0.043937176 0.07138142 -0.033995867 0.022424353
00000000: 6552 dc3c 3f73 1d3d f826 d0bd 2e67 813d
00000010: a084 fabd b673 c83d e99b 923c be9b c1bd
00000020: 76c9 d73d 3848 48bd 6c3f 3c3d 7762 3d3d
00000030: 7fa9 3ebd 1ac0 98bd 41ca 00bd 7a6b 2a3b
00000040: 15b7 a5bd 12a1 cebd 92ef 9f3d f40b da3d
00000050: 80f3 c23a 3fe6 8abd 9037 febd 16c0 c5bc
00000060: d9d3 99bd 0a25 dcbd 90b0 9cbd 9970 d53d
00000070: 3818 4ebd a82a f7bc 9189 82bd 4f48 01bd
00000080: 4f7c 9e3d 20fe 7ebc 1e5a 74bc 71fd 9abd
00000090: 4e83 6fbc 0c82 1a3d c04e af3c 4af4 cebd
000000a0: 700e 67bd 6219 2c3d 10c2 04bd c012 25bd
000000b0: fde3 623d 4ec1 b13d bc33 dc3d 4e69 a13d
000000c0: fcc1 82bd 0d1e abbd dbe4 f83d 760e 85bd
000000d0: 65da d13c 7dc8 90bd 9e26 d0bd b240 af3d
000000e0: ba4e 92bc 335e 293d 953b e0bd b96c 513d
000000f0: a5b5 8d3b a8ec f6bc 0860 d83c ea9b e43d
00000100: 81e6 c1bd 3422 f43d f4e2 84bd 3414 4b3d
00000110: c565 92bd 0097 1a3c a800 dcbc f484 d7bd
00000120: 807e ed3d 24d9 09bd 0091 fe3d b692 01be
00000130: 5a73 fc3c c435 e33d 6b62 3fbd 78e3 91bd
00000140: 399c 353d 1c60 e83d 0005 6e3a a5d5 85bd
00000150: 2cd4 613d 4332 dc3d ecda 0cbd 5177 cbbd
00000160: b062 9ebd 58a8 a9bd 2cf5 64bd 4905 a0bd
00000170: 9ac1 c2bd c151 ccbd 2176 a53d 06cb d1bc
00000180: 6a3a 33bb e4c5 3b3d e1eb f03d a3eb 903c
00000190: 0d3e 9fbd 8c71 57bd e2e7 ee3d 21b8 953d
000001a0: fb21 ad3d deeb 56bd 2a19 ebbd b546 c53d
000001b0: f268 b73d e652 05bd 6972 d83d caa4 bfbd
000001c0: 2b91 80bc 3010 2abd 9734 a1bd f6f6 90bd
000001d0: e124 bfbd dd27 ab3d e20a 9abd 5219 a1bc
000001e0: 596e 33bd da08 f5bd 9e3f ebbc 172a 10bb
000001f0: 14be ccbd 500a 29bc 5008 9bbc 31ce d5ba
00000200: 1d51 a33d 06d9 4fbc 9ab5 833d d037 d93c
00000210: 15b0 66bd 20ab 13bd 0aef da3d 67b1 a33b
00000220: e22d 903a 48dc fabd 2f5c 033b 3c01 bc3d
00000230: a001 30bc e024 e5bb 6e47 063d 47bf 9b3c
00000240: a16e 5dbd bec6 ec3d 466a ef3d 5d90 f43d
00000250: 84e5 5abd 47ab d73d c8a2 cc3c 90b5 5f3d
00000260: 9a0c 18bc 9f54 c13d 506e dcbd 529a 05bd
00000270: 64e4 8a3d f74f 963c 4ef9 a33c ad31 fb3d
00000280: 3a09 253d 968e b33d 0d6f d73d e60d 74bd
00000290: 36b4 adbd c2d6 c4bd ac99 553d 4790 e13c
000002a0: 96c2 9cbd 25bb 8bbd 164c e6bd 3cf2 2d3d
000002b0: 0129 18bd 8175 f0bd 066d 59bd 1416 46bd
000002c0: ddf6 ab3d f42a 873d 3a21 8d3d ba06 c7bd
000002d0: 0a9f b0bd d83c 953d 076b 943d a35c 253d
000002e0: 0b00 b03d 6440 64bd 3e24 d5bd c2af 33bd
000002f0: fe3b cc3d 10ca b8bc aab3 cbbd da85 9dbd
00000300: 8a27 bb3c 58ad 51bd 0023 e23d 9089 023d
00000310: 738c 8abc e4d3 1fbd 484c 8abd 4b93 b53d
00000320: f1ef 8c3d e01f 96bd 0885 ecbd d8fe 7dbd
00000330: 4216 19bc a617 fcbd 14f1 92bc 7351 e1bd
00000340: c043 483d 40d9 0cbd 007b 0a3b a270 fabc
00000350: 4028 f6bb 3942 953d 3e5d 8c3d 1d7b bcbd
00000360: 71ce 05bd 0e2f c83d 82cb eabd d23e 10bd
00000370: 8030 d13a 6661 5cbd 7162 26bd 33be ab3c
00000380: e26d b43d 8034 ebbb 309f f53d 86a4 adbd
00000390: 8d27 013e 809e ac3d 4c11 73bd ceae 09bd
000003a0: e509 e8bd 6d1d f2bc 1c4a d73d 786e 98bd
000003b0: b41b b73d 07ac b63c 907a 46bc c02a 98bb
000003c0: 4ec7 24bd abc1 dabd aede c5bd b102 edbd
000003d0: 6968 273d 6ac5 063d 0a1b 573b 6fba 13bc
000003e0: a850 65bd 4098 a03d 350f 76bd 10ac 6e3d
000003f0: 78f7 33bd 6c30 923d 403f 0bbd 47b3 b73c

fc3_action.bias f4 [26]
-0.072461635 -0.016521296 0.054825068 0.06297404 -0.08263538 -0.115441285 0.055352446 0.07934036
0.052123223 -0.106312476 -0.07742463 0.024183076 -0.009676059 0.034598842 -0.048398815 0.031973302
-0.018043965 0.12170312 -0.00211716 0.02948468 0.06287848 -0.08917147 -0.05026665 0.041634753
-0.118001476 0.052866153
00000000: c466 94bd ab57 87bc 4090 603d 89f8 803d
00000010: bd3c a9bd 7b6c ecbd 3fb9 623d 337d a23d
00000020: 297f 553d 5bba d9bd ce90 9ebd 961b c63c
00000030: 5588 1ebc 84b7 0d3d d63d 46bd 70f6 023d
00000040: f0d0 93bc 7c3f f93d 0dc0 0abb db89 f13c
00000050: 6fc6 803d 889f b6bd 67e4 4dbd 3489 2a3d
00000060: c2aa f1bd 2e8a 583d
