traditional_vrpb_final.pth (torch, 46153 bytes, 6 tensors)

fc1.weight f4 [128, 5]
000000 5a 7f 5a be 58 e9 ce bd 58 6b 9c be a0 15 7d 3d
       -0.21337643 -0.101031005 -0.30550647 0.0617882
000010 68 c8 2d bd 26 b4 f8 bd 96 37 cd 3e d1 2c 9e 3d
       -0.04242745 -0.121437356 0.4008147 0.07723392
000020 0b 40 89 3e d9 f7 97 3e b4 8d 9c be ab 16 c3 be
       0.26806673 0.2968128 -0.3057686 -0.38103232
000030 fa 96 81 be bc 1b 2a be 2c e8 69 3e 31 b7 40 3e
       -0.25310498 -0.16612142 0.22842473 0.18819882
000040 68 1f c3 be 08 e6 88 3d 6c 99 80 be 2a c3 9e 3e
       -0.381099 0.066845 -0.25117052 0.31008273
000050 7d 6f 99 be 52 54 e4 3e 0b 11 85 be 74 4a a7 bd
       -0.2996787 0.4459558 -0.25989565 -0.08168498
000060 50 5a be 3d 47 63 a2 3e 64 24 7c 3e 56 51 c3 3c
       0.092945695 0.31716368 0.24623257 0.023842495
000070 e4 c3 a6 3c 06 9a ca 3e 22 80 ca be 09 f6 16 3e
       0.02035708 0.39570636 -0.39550883 0.14742292
000080 cd 23 b6 3e 09 99 a7 bd 46 f3 89 3e 4e 30 d0 3e
       0.3557419 -0.08183486 0.26943415 0.40661854
000090 f1 88 2a be 0e 40 cf 3e 89 a9 ab be d9 69 81 3e
       -0.16653802 0.40478557 -0.33527783 0.25276068
0000a0 f4 67 bd be 7c 70 95 3e 00 54 73 3e 36 f3 94 3e
       -0.36993372 0.2918738 0.23762512 0.29091805
0000b0 47 b4 a9 3d f7 ab 85 3d 74 3c bf bd 05 6f c4 3e
       0.08286338 0.0652694 -0.093377024 0.3836595
0000c0 cc 35 35 3d 83 81 b5 bd 43 15 af be d5 6f 7d bd
       0.044240758 -0.08862593 -0.3419591 -0.06187423
0000d0 0c 57 44 be 1c d9 64 be b1 ad 0d be ec 10 89 3e
       -0.19173831 -0.22348446 -0.1383579 0.26770723
0000e0 11 c4 ae be 97 ce 6f be da 90 ae be 58 3a 3f be
       -0.34133962 -0.23418652 -0.34094888 -0.186746
0000f0 45 5a ac be 7f de 86 bb e5 00 cf bc 7d 8c 12 bb
       -0.3366262 -0.004115879 -0.025268981 -0.002236157
000100 c6 c3 21 3e 60 93 75 bd e4 32 b9 3e 28 dc 4d bd
       0.15797338 -0.059955 0.3617164 -0.050258785
000110 26 46 33 be 51 56 90 be 02 48 c4 bd f6 3d d5 3c
       -0.17507228 -0.28190854 -0.09584047 0.026030522
000120 11 9d 38 be ad c5 f3 3d bc ab c9 3e b4 18 23 3e
       -0.18028666 0.11902938 0.39388835 0.15927392
000130 7d 2a 10 3e c9 03 8c be e8 61 1b be 70 bf 9b be
       0.14078708 -0.27346638 -0.15174067 -0.30419493
000140 44 2d 76 39 b8 64 d1 3e ae 09 76 3c 73 bd 79 bd
       0.00023477251 0.40897155 0.015016956 -0.06097169
000150 ff 38 15 3e 03 0b ca be 80 9e 87 3b e0 7e 67 3d
       0.14572524 -0.39461526 0.0041387677 0.05651748
000160 60 98 ed 3c 74 41 43 3e 4a bc a2 be b9 a3 c4 3e
       0.029003322 0.19067937 -0.31784278 0.3840616
000170 7f dd 83 be a3 95 ab be 3a 15 aa 3e cc 0f d1 be
       -0.25754926 -0.335126 0.3321932 -0.40832365
000180 93 ed 43 3d 56 8a bd be f9 f5 b4 be e5 d3 97 3e
       0.04783399 -0.37019604 -0.35343912 0.2965385
000190 00 01 b0 3c 7a c0 b6 be 57 42 b5 3d 1e 69 98 3e
       0.021484852 -0.35693723 0.08850544 0.29767698
0001a0 20 ea 72 be f2 89 0d 3e 1d 69 d5 3d dd 24 f4 3d
       -0.23722124 0.13822153 0.104204394 0.119210936
0001b0 c7 30 84 bd 55 7c c2 be b2 72 97 be 0a 06 d3 be
       -0.06454616 -0.37985483 -0.29579693 -0.41215545
0001c0 63 64 ac be c8 6b 0c 3e 0a a2 93 be 96 f9 b2 be
       -0.3367034 0.1371299 -0.28834563 -0.34956044
0001d0 a5 43 2e 3e c1 2a a1 3d 63 4f 46 bd 7d 06 71 3c
       0.17017992 0.07869483 -0.048415553 0.01471102
0001e0 7c e3 12 3e 6a 3c 2c 3e 1c 35 cf be 22 2f e1 3e
       0.14344591 0.16819921 -0.40470207 0.43981272
0001f0 48 ca 20 be 9c f0 22 be 6e 7d 8f 3e e3 d4 06 3d
       -0.15702164 -0.15912098 0.28025383 0.03291787
000200 ba fb 44 3e 60 29 18 3e dd e6 be 3e 6a 94 b9 3e
       0.19236651 0.14859533 0.3728551 0.36246043
000210 8a 9d 8f 3e b1 f3 fc bd 14 f1 72 bc e2 a7 d3 3e
       0.2804988 -0.12351168 -0.014827985 0.41339022
000220 20 56 c3 3d d3 72 bc 3c c2 cd bc be 86 3b 7b 3e
       0.095379114 0.023003971 -0.3687573 0.24534425
000230 6f 87 a3 3d 71 dc 70 3e 6c 28 16 be e4 70 94 3e
       0.07984816 0.23521592 -0.14663857 0.2899238
000240 63 c3 e4 be d6 b5 b5 be c4 05 ad be 27 9d a2 3e
       -0.44680318 -0.35490292 -0.3379346 0.31760523
000250 ba 23 07 3e 5d 0c a3 3e 97 9f 95 3d c4 33 b2 be
       0.13197222 0.3184537 0.0730583 -0.3480512
000260 02 70 c6 3e ff 9b af 3e 6b 82 18 be 67 42 d1 3e
       0.3875733 0.34298703 -0.148935 0.40870973
000270 e9 ef e8 bd b0 6d 94 be 10 a6 c5 be 24 64 de 3e
       -0.11373884 -0.28989935 -0.38603258 0.43435776
000280 ce eb bc bd 5f fe 14 3e 21 21 25 be 5d dd ce 3e
       -0.09224664 0.1455016 -0.16125919 0.40403262
000290 80 39 47 be 04 b4 e0 be 6e 2d 94 be 21 1b 60 be
       -0.19455528 -0.4388734 -0.2894091 -0.21885349
0002a0 d8 74 a2 be 58 a1 09 3e 86 b5 e8 3d f8 f8 5f bd
       -0.3172977 0.13440454 0.11362748 -0.054680794
0002b0 2c 00 7c 3b 4f 7a 80 bd f2 f5 5c 3e a7 84 63 be
       0.003845225 -0.062733285 0.21578196 -0.22218572
0002c0 08 62 92 3e 81 44 93 3d f7 67 c6 be e0 2a b5 3e
       0.28590417 0.071908005 -0.38751194 0.35384274
0002d0 18 37 46 be 6b 07 ad 3e 2b da c7 be 11 77 c3 3e
       -0.19356954 0.33794722 -0.39033636 0.38176778
0002e0 91 80 7e be 00 94 36 3a 5b 4e 7a be e8 fc 9b bd
       -0.24853732 0.0006964803 -0.24443953 -0.076165974
0002f0 34 b1 28 3e f0 c9 39 bd 8d 24 c8 3e ec 75 5c 3e
       0.16473848 -0.0453586 0.39090386 0.21529359
000300 49 f4 45 be 57 29 5d be b7 e6 b8 be 28 ed 75 be
       -0.19331469 -0.21597801 -0.3611352 -0.24016249
000310 eb 6f ac bd e2 04 17 3e 3e cd 9e 3e 92 d9 22 3e
       -0.08419784 0.14747956 0.31015962 0.15903309
000320 60 b8 a7 3d 6f 59 ab 3e 94 e6 a9 be 00 e9 96 bd
       0.081894636 0.3346667 -0.3318373 -0.0736866
000330 c4 1c b1 3e 7a 9d 72 3d 3a 0a db 3e 02 5a 02 be
       0.3459226 0.059232213 0.4278124 -0.12729648
000340 6d 0f 07 be 5f 15 c3 bd 48 40 84 be 48 c5 15 3e
       -0.13189478 -0.095255606 -0.25830293 0.14626038
000350 d4 51 b0 be fc 3a 0d 3e 22 f3 d3 be 0b cb 42 3e
       -0.3443743 0.13792032 -0.41396433 0.19022767
000360 47 f7 2b be 36 85 af be ff 5d df 3e 1b 16 20 be
       -0.16793548 -0.3428132 0.436264 -0.15633433
000370 08 f9 bb bd 65 48 dc 3e d3 cb d0 be 79 1f d4 bd
       -0.09178358 0.43023983 -0.40780506 -0.103575654
000380 10 24 bd 3d 1f b6 11 3e 5c 3d cf 3e a2 7c 91 3e
       0.09235394 0.1422963 0.404765 0.284154
000390 25 1d 30 bc 39 22 08 3e 7e 5b a6 be 03 56 73 3d
       -0.010749136 0.13294305 -0.32491678 0.0594082
0003a0 b7 6a 92 3e 85 61 d2 3e 82 79 90 be 45 06 36 3d
       0.28597042 0.41090026 -0.28217703 0.044439573
0003b0 05 c9 b8 3d cc cc ab 3e 08 03 e3 3c d8 04 55 bd
       0.090227164 0.33554685 0.027711406 -0.052006572
0003c0 3a 34 1c be f3 1e 71 3e d3 45 0f 3e ff 47 35 3e
       -0.15254298 0.23546962 0.1399148 0.17703246
0003d0 48 9e 4c be 9f 8f 60 bd 5a 4b 56 3e d4 0f cb be
       -0.19982255 -0.054824468 0.20927182 -0.39660513
0003e0 ad 9d c0 3e ee 01 3c bc 23 c5 9f be 3b 82 50 3e
       0.37620297 -0.011475069 -0.3120509 0.20362179
0003f0 4d b5 83 be 81 02 5c be a2 1f bc be ec d6 61 3e
       -0.2572426 -0.2148533 -0.36742884 0.22054642

fc1.bias f4 [128]
000000 02 aa a1 be 64 22 e1 be 18 4c 0e be 83 bf 4b be
       -0.31575018 -0.4397155 -0.13896215 -0.19897275
000010 c7 af a1 3e f7 87 c2 3e 31 c3 90 be 39 23 2f be
       0.3157942 0.37994358 -0.2827392 -0.1710328
000020 67 08 b4 3e 35 7f 0d 3e 0c 28 c0 3e f2 e3 ca be
       0.3516266 0.13818057 0.37530553 -0.39627033
000030 90 31 ab 3e 4e 0e 80 be e1 f1 a1 3e a2 16 27 bd
       0.3343625 -0.25010914 0.3162985 -0.04079307
000040 5d b8 f4 bc 7f 4d c0 be fc ac c4 bd 0d e4 0c be
       -0.029873068 -0.37559125 -0.09603307 -0.1375887
000050 a8 d9 8a be 0b 90 91 be a8 4d bb bd 78 1d 8f 3e
       -0.27119184 -0.2843021 -0.09145671 0.2795217
000060 ae 98 79 be 6f 97 2f b8 b1 96 48 be 1b fa 63 bd
       -0.24374649 -4.1864285e-05 -0.19588734 -0.05565844
000070 36 9e 6c be 07 a0 dd be 76 5c d1 be 64 c8 ac be
       -0.23107228 -0.43286154 -0.40890855 -0.33746636
000080 1d 2a 90 bd ed c4 b7 be 33 95 85 be d8 99 3d 3e
       -0.070392825 -0.3589243 -0.26090392 0.18515718
000090 c0 6f a5 3c 45 c8 b9 be dc 44 7a 3d cc 35 71 be
       0.020194888 -0.36285606 0.061100826 -0.23555678
0000a0 76 c7 bf be c3 d5 da bb a0 b1 45 bc 74 b5 bc 3e
       -0.37456864 -0.0066783144 -0.012066275 0.36857188
0000b0 f5 3b 4e 3d 81 3a 93 be 6d f7 8a 3e fb 78 5a 3e
       0.05035015 -0.28755572 0.27141896 0.21335213
0000c0 7a c4 cd 3e fa c7 f1 3d d9 e5 97 3e 72 69 f0 bd
       0.40188962 0.118057206 0.29667547 -0.11738862
0000d0 14 f2 9e be ac 27 61 3e 6d 04 e3 3d 63 fc 91 3e
       -0.31044066 0.2198779 0.110848285 0.28512868
0000e0 2d c2 57 be df 7a 6e bc 0b b9 d7 bd 81 13 01 3e
       -0.21070166 -0.014555662 -0.10533341 0.12605096
0000f0 a8 c0 c3 3e f1 39 d9 be 12 88 26 3e d9 38 fe 3d
       0.38232923 -0.42427018 0.16262844 0.124131866
000100 e0 33 c6 3e 40 b4 b1 be f4 9f 85 be 1b 97 cd 3b
       0.38711452 -0.34707832 -0.26098597 0.0062741167
000110 e8 7b 5c 3e a8 07 3b 3e dc 02 d1 3c ad 97 b7 be
       0.21531641 0.1826464 0.025514059 -0.35857907
000120 79 b5 95 3d 84 8e a6 3e 52 49 b5 3e 77 3a 58 3e
       0.07310004 0.32530606 0.354075 0.21116053
000130 1d f5 bb 3d 4c 28 b9 be b7 76 92 3e 18 dd 8f 3d
       0.09177611 -0.36163557 0.28606197 0.07024592
000140 0a 70 b8 3d bb a7 b3 3e 0f da a0 3c f0 fb d7 3c
       0.09005745 0.35088906 0.019635228 0.02636525
000150 27 6a ff bc 41 89 39 be c8 25 34 bd f1 49 f1 3c
       -0.031178547 -0.18118764 -0.043981344 0.029454203
000160 94 c6 fb bd f3 5f 10 3d 74 cd 40 3e a2 96 b4 3e
       -0.12293735 0.035247754 0.18828374 0.35271174
000170 82 07 e3 be 59 f8 a5 bc 72 78 0e be 6b 16 28 be
       -0.44341666 -0.020260023 -0.13913134 -0.16414802
000180 68 ff 21 bd 7f 17 70 bd ab 59 33 3e 1d f4 8b 3d
       -0.039550215 -0.058616158 0.17514674 0.0683367
000190 00 05 93 be b0 c0 6e 3e 5d aa 6a 3e 7d 3c aa 3e
       -0.28714752 0.23315692 0.22916551 0.33249274
0001a0 d2 13 22 bd b2 99 b9 3d ea 4d aa be f9 68 7f 3e
       -0.039569683 0.09062518 -0.3326257 0.24942388
0001b0 f8 df fc bd 25 05 56 3d fa eb 97 be 7a 31 ca be
       -0.12347406 0.052251 -0.29672223 -0.39490873
0001c0 66 cb 00 3e 07 37 06 3d c9 60 1c be d0 5c e2 be
       0.1257759 0.032767322 -0.15271296 -0.44211435
0001d0 50 e4 a5 3e ae 61 a6 3e 26 52 49 be 6a c4 b3 be
       0.3240075 0.324964 -0.19660243 -0.3511079
0001e0 ec 1d bf 3e 27 fa 78 3e f2 9d d2 3e 9d aa 8c be
       0.37327516 0.24314176 0.41136128 -0.27473918
0001f0 50 19 ba bd 57 6f 86 3c 0c 22 82 be 09 1b b6 be
       -0.09086859 0.016410513 -0.254166 -0.355675

fc2.weight f4 [64, 128]
000000 55 b8 8a 3d fe e5 db 3c f7 c0 ab 3d a4 fa cc 3c
       0.0677344 0.026843067 0.083864145 0.025021859
000010 c5 02 29 bd 5d 67 a7 bd ad 09 7c bd 23 d6 2b 3d
       -0.041262407 -0.08174012 -0.061532665 0.041952264
000020 bf 29 f9 3c ce 73 70 3d e8 16 8e 3d d4 3e b8 3c
       0.030415414 0.05870419 0.06937963 0.022490896
000030 cf c9 33 bc 40 dc c0 3a 4e e9 5d 3d fd 5d 2f bd
       -0.010973408 0.0014714077 0.054177575 -0.042814244
000040 6f 21 0e 39 2e 6e e7 bc 8d 0b 09 3d f5 ed a2 3d
       0.0001355463 -0.02825078 0.03345828 0.07955543
000050 8a d3 80 bd 08 ad b2 3c 13 0c 82 3d 71 d5 6e bb
       -0.06290348 0.021811023 0.06349959 -0.003644314
000060 72 86 23 3d b0 4a 35 3d d9 3b 76 bd e8 37 9c bd
       0.03992314 0.04426068 -0.06011567 -0.07627851
000070 98 19 ac bc 77 0b ad bc f9 14 a7 3d d2 78 c3 bb
       -0.021008298 -0.02112363 0.08158297 -0.0059653306
000080 6a 8c 1c bc eb 32 88 3d d2 46 89 3d e4 e1 26 3d
       -0.009554962 0.06650337 0.06702961 0.04074277
000090 7c f9 b5 3d 0c c0 f8 3c 83 68 b2 bd de e8 7d bd
       0.08885476 0.030365013 -0.0871134 -0.061989658
0000a0 fa 59 97 3d 45 b0 81 bc 74 ad ae bc ee 24 40 bd
       0.073902085 -0.015831122 -0.021322943 -0.04691022
0000b0 19 b7 c1 bc a9 58 7c 3d 29 62 82 bd 2f 98 a9 bd
       -0.023646878 0.06160799 -0.06366379 -0.0828098
0000c0 05 da 26 bd 2d 62 8a bd 30 4a 25 bd ef cc 77 bd
       -0.040735263 -0.06757007 -0.040353954 -0.060498174
0000d0 09 df 99 bc 42 93 7f 3d 28 4c 4b 3d 2b 63 98 3d
       -0.01878311 0.062396295 0.049633175 0.0744079
0000e0 ea 7e 5a 3d 35 e5 8e bc f7 aa 9e bd e0 d3 60 3c
       0.05334369 -0.017443279 -0.07747453 0.01372239
0000f0 f4 ca da bc ad 39 0c 3d 5c 6a ba bb cf af a8 bd
       -0.026708104 0.03423469 -0.0056889486 -0.08236658
000100 63 6b 8b 3d 05 33 a2 3d 27 f9 b4 3d 01 93 96 bc
       0.06807592 0.079198875 0.088365845 -0.018380644
000110 15 e3 a8 3c b0 01 cb 3c 92 21 4a bd 19 42 71 bd
       0.020616094 0.024781078 -0.04934842 -0.058900926
000120 c2 29 29 3d a2 dd 60 3d 42 03 9f 3d 05 b7 ff 3c
       0.04129959 0.054898866 0.07764293 0.0312152
000130 31 75 a5 bd 3f ba 20 3d a0 7d 2a bd 74 bc 93 3b
       -0.08078993 0.039240118 -0.04162371 0.0045085493
000140 87 18 f9 bb 4d 8b 64 3d 72 5f 50 3d ec b0 33 3d
       -0.007601801 0.05579691 0.050872274 0.043869898
000150 74 4b f7 bc ac 80 80 3d 20 d2 f0 3c c6 e6 30 bd
       -0.030187346 0.06274542 0.02939707 -0.043188833
000160 03 d7 28 bd c1 8c 72 bc 66 63 34 3d 2e 84 78 3d
       -0.041220676 -0.014804066 0.044040106 0.06067293
000170 0d 82 b6 3d 98 31 4b 3c 3c 67 05 3d 4d 1d 16 3d
       0.08911524 0.012401961 0.032569155 0.036649037
000180 80 6f bd ba 56 57 b9 3c 87 d0 a6 3d 79 3a 75 bd
       -0.0014452785 0.022624653 0.08145242 -0.059870217
000190 2c 76 3d 3d ad 90 a4 bd eb 74 13 3d 6c e9 86 bd
       0.046255276 -0.08035407 0.036000174 -0.065874904
0001a0 51 ab 9d 3d 0b f8 86 3d 00 7f 5a 3b 13 9b 80 bd
       0.07698692 0.06590279 0.0033339858 -0.06279578
0001b0 b6 9b 8d 3c c3 06 3b bd ee db ae ba fe de 25 3d
       0.017286163 -0.045660745 -0.0013340691 0.040495865
0001c0 3f 2b 98 3d bb 9e c0 3b 0a 8c 89 3d 00 e4 1f b9
       0.074301235 0.005878297 0.067161635 -0.00015248358
0001d0 9d 46 ab bd 8a c2 b1 bb 58 ec 38 bd 8b 8e 2c 3d
       -0.08363078 -0.005424802 -0.04514727 0.042128127
0001e0 64 3c e7 3c 88 b4 9d 3d e5 8e 7d bc 71 94 4a 3d
       0.028227039 0.07700449 -0.015475963 0.04945797
0001f0 4e 0b 94 3d cc 15 36 3c 5c e4 62 3d 35 12 9f 3d
       0.07228719 0.011113595 0.05539356 0.077671446
000200 b6 51 4f bd 24 79 95 bd 1c 82 0f 3d 4d df aa bc
       -0.050615035 -0.07298496 0.03503619 -0.020858431
000210 8c 9e 7b bd f0 7b b2 3d dc b5 ab 3d 93 53 ff bc
       -0.0614305 0.087150455 0.08384296 -0.031167781
000220 68 ed 89 3c e6 f2 88 3d f4 b7 29 3b 54 ad c3 bc
       0.016836837 0.06686954 0.0025896998 -0.02388636
000230 21 9b 56 bd 21 20 a3 bd 1c 34 06 3d 4a 2a 76 bd
       -0.052394036 -0.079651125 0.03276454 -0.060098924
000240 77 01 1f 3d 58 cc 0b bc 5a d3 f0 3c 37 a2 0f 3d
       0.038819756 -0.008532606 0.029397655 0.03506681
000250 5e ac 54 3b 2f 54 61 39 56 91 4c 3d a6 f3 ae 3d
       0.0032451372 0.00021489033 0.04994329 0.08542566
000260 02 3f 97 3d 49 23 98 3d 00 50 0c 3d c5 65 90 3d
       0.07385065 0.07428605 0.03425598 0.07050661
000270 8b d1 29 3d 1a fc 87 bd 22 10 95 3d 69 3b d9 3c
       0.0414596 -0.066398814 0.07278468 0.026517587
000280 c7 c0 a7 bd 96 88 3d 3d f9 51 3f bd ef fe 9b 3d
       -0.08191066 0.046272837 -0.046709035 0.07616984
000290 9a 2c 8f bc a8 eb 5b 3c 25 9b b1 3b 0e 15 2c 3d
       -0.017477322 0.013422884 0.005420106 0.042012267
0002a0 17 b9 78 bd df a1 7d 3d ba 91 5f 3d c3 17 d0 3b
       -0.06072339 0.06192195 0.054582335 0.006350489
0002b0 b8 78 af 3d ba 90 a2 bd 24 99 34 bd b2 2b e1 bc
       0.08567947 -0.07937761 -0.04409136 -0.027486656
0002c0 1d 6a 1e bd ed 9e 76 3d b3 34 fd bc 21 7c 99 bd
       -0.038675416 0.060210157 -0.030908918 -0.07494379
0002d0 07 a7 8f bd 06 dc 0c 3d a7 93 94 3d 22 9c e5 bc
       -0.0701428 0.03438952 0.07254725 -0.028028551
0002e0 80 5d a3 bb 37 14 0f 3d 37 b0 ad 3d 9b 4b 65 3d
       -0.0049855113 0.034931388 0.08480876 0.055980306
0002f0 ff 39 8a bd 4a 57 90 3d c8 20 83 bd 5e 89 2a 3d
       -0.06749343 0.07047899 -0.06402737 0.04163491
000300 f8 e1 5a bd a5 43 9e 3d 62 b9 ea bc a1 9d a1 bd
       -0.053438157 0.07727746 -0.02865285 -0.078913935
000310 b7 8b 18 bd 04 5f 8b bd eb 91 69 3d 64 3a 9d bd
       -0.037242617 -0.06805232 0.057023924 -0.07677153
000320 41 ad 00 bd 81 b1 4d bd eb 37 89 bb 29 19 86 3d
       -0.031415228 -0.05021811 -0.004187574 0.06547768
000330 ed 01 4a 3d 33 50 69 3d 91 bb 9d 3d 2f c1 2b 3d
       0.049318243 0.05696125 0.07701791 0.04193228
000340 68 4c 67 3d 85 ee 6e 3d 20 a2 96 bc f9 6e cc 3c
       0.05646935 0.05833294 -0.018387854 0.02495526
000350 18 a6 42 3c d3 63 35 bd dd 28 98 3d 01 76 06 bb
       0.01188042 -0.044284653 0.07429669 -0.0020517113
000360 4a 9d ae 3d a6 b9 43 3b f5 1d d4 bc d8 ee a4 bc
       0.08526094 0.0029865294 -0.02589319 -0.02013342
000370 8e d0 89 bc 8a aa 49 bd 7b 36 fa 3c ff d8 b3 bc
       -0.01682308 -0.049234904 0.030543556 -0.021954058
000380 7f 5c 86 3d b0 49 64 bd bc 02 01 bd 28 68 8a bd
       0.06560611 -0.055734336 -0.03149675 -0.067581475
000390 d5 08 8c 3d 2c 91 05 3d 22 38 9d 3d ad 7e 82 3b
       0.06837622 0.03260915 0.07676722 0.003982386
0003a0 ef 38 07 3d 20 91 ab 3d b3 2a 4a 3b a4 ff 72 bd
       0.03301328 0.0837729 0.0030848205 -0.05932583
0003b0 c2 e2 3a 3d ec e5 af bc 07 52 7b bd dd 9a 2f 39
       0.04562641 -0.02147194 -0.061357524 0.00016746992
0003c0 c0 fb 98 bd aa 10 1b 3d 07 c6 58 3d 93 45 2a bd
       -0.074698925 0.03785769 0.05292323 -0.041570257
0003d0 89 69 5f bc ba d9 91 3d 32 da ab bd 8b 7c 5b bd
       -0.013636001 0.07121606 -0.08391227 -0.05358557
0003e0 c3 86 14 3d 1e f2 e5 bc 23 dd b9 3c e3 e2 51 bc
       0.03626133 -0.028069552 0.022688454 -0.012810442
0003f0 de fc ff 3b 3c 23 af bd 0e f5 82 3d 62 7e 75 bd
       0.0078121265 -0.08551642 0.06394397 -0.05993498

fc2.bias f4 [64]
000000 5c 1d a8 3c 43 57 82 bc 4c f0 8a 3d e4 91 f3 bc
       0.020521812 -0.01591075 0.06784114 -0.029732652
000010 73 37 15 3d ee 70 27 3b a5 1b ee 3c b3 3f b0 bd
       0.036429834 0.002554949 0.029065916 -0.086059
000020 51 32 0a 3d 90 a7 77 3d 69 1c 70 3d 68 57 03 3d
       0.03373939 0.060462534 0.058620844 0.03206578
000030 1c 36 ad 3c b0 e6 d6 3b 6f 45 88 bc cd 73 3a 3d
       0.021143965 0.006558262 -0.016634671 0.045520592
000040 86 b1 46 3d 2b 9a e8 bc a4 8c 78 bc 9d e1 d2 bc
       0.048509143 -0.028393826 -0.01517025 -0.025742346
000050 a8 74 80 bd 3c b0 6b bd af 6c e9 3b 0a e9 4a 3d
       -0.062722504 -0.057541117 0.007123552 0.04953865
000060 54 a9 92 bd 26 62 9c bd 06 78 3c 3d ef 8d 3b bc
       -0.07161203 -0.07635908 0.0460129 -0.011447414
000070 70 00 82 3d bb d6 47 bd 7d 6d 86 bd 8a ce 87 bd
       0.0634774 -0.048788767 -0.06563852 -0.06631191
000080 a2 ad b0 bd 57 1e 5a 3d 59 18 0d 3d f1 5a 68 3d
       -0.08626868 0.05325159 0.034447048 0.056727353
000090 11 2c 77 3d a1 2d 9a bd 62 f7 9e 3d 5b 45 9b 3d
       0.06034476 -0.07528234 0.07762028 0.07581588
0000a0 7f 8e 49 bd 52 ca 3d 3d e6 21 9a 3d cc 59 42 bd
       -0.04920816 0.046335526 0.07525997 -0.04744892
0000b0 75 41 8a 3c 21 a2 b2 bc d4 71 21 bd d0 2c 91 3b
       0.016876915 -0.021805825 -0.039415196 0.004430391
0000c0 1e 50 29 bd 7c b2 20 bd 28 86 78 3c d5 21 b8 bd
       -0.04133617 -0.039232716 0.015168704 -0.08990828
0000d0 27 63 d5 bb 26 06 1b 3d 6a fc a2 3b d8 1c 57 3c
       -0.006512064 0.03784766 0.0049739378 0.0131294355
0000e0 92 fd 2c 3d 70 e8 e8 3c 6e f9 12 3d 61 7b 24 bd
       0.04223401 0.028431147 0.035882406 -0.040156726
0000f0 f9 d8 8c 3d 84 28 81 bd 8c e2 9c bd 07 c2 8b bd
       0.06877322 -0.06306556 -0.07660398 -0.06824117

fc3_action.weight f4 [26, 64]
000000 77 2b f4 bd 52 16 f2 b9 4d e8 24 3d 54 dd ae bd
       -0.11922353 -0.00046174467 0.0402606 -0.08538309
000010 83 25 c9 3d 2e cf 48 bd d9 18 ce bd 16 cb ac bd
       0.09821608 -0.049025707 -0.10063333 -0.08437173
000020 27 13 81 3c 47 b3 b7 bd dd aa 12 3c 44 b8 b1 bc
       0.015756203 -0.08969741 0.00895187 -0.02169431
000030 29 54 39 bd d8 3e ec 3c af 50 90 bd 6c 90 93 bd
       -0.045246277 0.02883856 -0.07046639 -0.07205281
000040 02 a2 a4 3d cc 0f e4 3d 60 e4 fb 3d 99 dc a5 3d
       0.08038713 0.111358255 0.122994184 0.08098716
000050 e0 ce c1 bb 57 00 32 3d d7 76 87 bd cc 20 fe bb
       -0.005914554 0.043457355 -0.06614464 -0.0077553745
000060 c7 e9 c8 3c f8 ae 58 3d 60 6c c0 bc db 83 ce bc
       0.024525536 0.05290124 -0.023489177 -0.025209358
000070 7f 92 cd bd 76 06 e1 3d fc a2 cb 3a 85 13 ff 3d
       -0.100377075 0.109875605 0.0015536244 0.12454895
000080 92 82 e2 bd ed fb fb 3d 30 d4 ef 3c f5 58 e1 ba
       -0.110600606 0.123039104 0.029275984 -0.0017192649
000090 60 93 a5 3d 3a 24 e6 3d 63 0d c2 3c 3f 62 08 3d
       0.0808475 0.112373784 0.023688024 0.03329682
0000a0 91 7e ce bd 0f b2 73 3d 61 d3 69 3d 19 6a 92 3d
       -0.100827344 0.05949598 0.057086352 0.07149143
0000b0 89 00 f5 3d 18 6e af bd 01 5e 92 bc cc c7 1f bd
       0.11962993 -0.085659206 -0.01786709 -0.0390089
0000c0 29 b3 db bd 8a 32 95 bd b7 36 4a 3d 7f 5e 95 3d
       -0.107275315 -0.0728503 0.049368586 0.07293414
0000d0 bb ef df 3d 8e 79 d7 bd 28 22 dd 3d 98 9d af 3d
       0.10934397 -0.105212316 0.107975304 0.085749805
0000e0 c8 af f6 3d 84 39 55 3d fa 5b 5b 3d c0 01 54 bc
       0.12045246 0.052056804 0.053554513 -0.01293987
0000f0 dd 60 df bd b8 e3 8d bc 28 b4 26 3d 5a e1 49 3d
       -0.10907147 -0.017320499 0.040699154 0.049287178
000100 23 a9 f4 bd c0 a5 f5 bb 71 7e d7 bd d7 28 83 3d
       -0.11946323 -0.0074965656 -0.10522164 0.06404274
000110 fd 5b 99 3a a6 81 81 bd 44 42 80 3c e8 d2 8b bc
       0.0011700388 -0.063235566 0.015656598 -0.017068341
000120 2c ea 69 3d 6a 53 81 3d 3a 5b 35 bd 71 bc c4 3d
       0.05710809 0.06314738 -0.044276454 0.09606255
000130 ba 83 c7 3d a6 f3 f5 3d ac b3 b0 3d 8f 5e da bd
       0.09741922 0.12009363 0.0862802 -0.10662567
000140 1c ba 39 3d 41 07 73 3d 19 32 41 bd e9 ea 2d bd
       0.045343503 0.05933309 -0.047166917 -0.042460356
000150 74 4d 85 3d 9c ad 1e bc 19 63 85 bd 62 c0 81 ba
       0.06508914 -0.009684946 -0.06513042 -0.0009899253
000160 d9 89 94 bd 6e b3 d1 3d 48 96 95 bc d5 86 a2 bd
       -0.07252855 0.102393016 -0.018260136 -0.079358734
000170 f2 f4 d9 3d e9 fd 08 bd 6a 16 26 3d ff 8c 75 bd
       0.10642423 -0.033445273 0.04054872 -0.059948917
000180 92 e6 ff 3d 92 08 d3 bd bc 8d 92 bd 4d 1b 46 3c
       0.1249515 -0.10304369 -0.0715594 0.01209147
000190 69 85 fe 3d ea b8 a3 bd 7f 49 17 bd b0 00 15 3d
       0.1242779 -0.07994254 -0.036935326 0.03637761
0001a0 fa 4b a8 bd 49 21 7b bd 1e 13 f8 bd da 76 80 bd
       -0.082176164 -0.06131104 -0.12113021 -0.06272669
0001b0 8a a6 e8 bd 29 52 b3 3c 69 03 9b 3c 7e 05 a6 3d
       -0.1135989 0.021889763 0.018922525 0.08106516
0001c0 36 d4 49 3d f6 10 cb 3d 15 89 17 bd 73 15 ae 3d
       0.049274646 0.099153444 -0.036995966 0.08500185
0001d0 be 2c d1 3d e1 a3 a8 3c d9 5f 9c 3d 91 76 76 bd
       0.10213612 0.020585956 0.07635469 -0.060171667
0001e0 aa ca 91 3d 46 d5 e4 bd a7 a5 a6 bd a4 ee e0 3d
       0.07118733 -0.11173491 -0.081370644 0.10983017
0001f0 a6 b5 72 3d a8 0a f9 bd be e3 87 bd 96 32 61 3d
       0.059255265 -0.12160236 -0.06635235 0.054979883
000200 13 56 76 3d ab 9f b7 3d 9a f3 e3 bd 0c b4 19 bc
       0.06014068 0.08966001 -0.11130448 -0.009381305
000210 3e cb f8 3d 85 26 38 bd 23 5d 8c bd d8 32 d4 bd
       0.1214814 -0.04495861 -0.06853702 -0.1036126
000220 e4 41 89 3d 91 51 bc bd 56 9c 01 3e d0 5b a2 3d
       0.06702021 -0.09195245 0.12657294 0.07927668
000230 fc 0d 77 bd ec 6e 31 3d bd be c7 3c 94 3a e4 3c
       -0.06031607 0.043318674 0.024382943 0.027859963
000240 bc 8b a6 3d f5 bc 45 3c 34 1a d1 3d 6d 33 b4 bb
       0.08132121 0.012068977 0.10210076 -0.0054992945
000250 b0 df 8a bd f3 d4 1b bd 93 7c 03 3c 1c 24 ae 3d
       -0.06780946 -0.03804488 0.008025306 0.08502981
000260 be da 37 3c 1c ff 20 3d 3e e2 bd 3d 9d 44 f5 bc
       0.011221586 0.03930579 0.09271668 -0.029939944
000270 8f 9e 04 3d 42 5b f3 3d 1b 87 0e bd 96 f7 3c bd
       0.032377776 0.118826404 -0.034796815 -0.046134554
000280 6e 7b d6 bd ae 97 dc 3d 63 a7 f2 3b d0 fc e6 3d
       -0.10472761 0.10771118 0.007405208 0.11278689
000290 14 f2 57 bc d4 3e 22 3d 22 d7 9d 3d ef 58 c8 3d
       -0.0131802745 0.0396107 0.07707049 0.09782588
0002a0 10 0b 7c 3c 6f 2b 9d bd bd 9d d1 bc 92 f2 c3 3c
       0.015383497 -0.076743 -0.02558791 0.023919377
0002b0 65 79 4d 3b 9d 6c a0 3d f3 6b c7 bd 20 dc f3 bd
       0.0031352874 0.07833216 -0.097373866 -0.1190722
0002c0 b9 35 a9 3d 03 0f 44 bd 1f 6a b8 3d 86 51 13 bd
       0.082622 -0.04786588 0.09004616 -0.03596642
0002d0 a8 99 9f bc e6 96 ae bd 5d 6a 93 bd 2c 02 68 ba
       -0.019482449 -0.08524875 -0.071980216 -0.0008850421
0002e0 ac 41 dc bd d4 75 47 bd 4d e6 81 bb 04 ed 9d bd
       -0.107547134 -0.048696354 -0.0039642216 -0.07711223
0002f0 78 85 00 bd c0 bc d1 3b 50 79 95 bd b4 ba 8e 3d
       -0.031377286 0.0064006746 -0.07298529 0.069692045
000300 8f 1c ae 3c ab 89 90 bd ff 31 dd 3c c6 79 e7 3d
       0.021253852 -0.07057508 0.027001379 0.11302523
000310 f4 65 a8 bd d2 89 84 3d 0c 40 de bc 60 0d 72 bc
       -0.08222571 0.064716 -0.02713015 -0.014773697
000320 f7 db d0 3c 9a 86 93 3d 2f c2 d2 3a cb 57 55 3c
       0.025495512 0.072034076 0.00160796 0.01302142
000330 ce e7 be bd f0 95 63 bc 1a 3d b4 bd e2 1e e8 3d
       -0.09321557 -0.013890728 -0.08800717 0.113340154
000340 20 fb 92 bb 38 42 fd bd a0 8a 7e bd 4f d5 ef 3d
       -0.004485503 -0.12366146 -0.06214392 0.11710607
000350 e4 e7 7b 3d 71 11 dd bd 46 07 51 bd cf eb 93 3b
       0.061500445 -0.10794342 -0.051032327 0.0045141946
000360 2b ad 84 3d 80 96 f0 bd 0e 77 91 bd 9a dd a1 3d
       0.06478342 -0.117474556 -0.07102786 0.07903595
000370 3c a3 ea 3d f7 16 10 3c f3 5e b9 3d ec 7e 9f 3d
       0.11456916 0.008794538 0.09051313 0.0778788
000380 d4 57 bf 3d 8e b7 da 3d 49 ab 87 3d ad 39 da 3d
       0.09342924 0.106795415 0.06624467 0.10655532
000390 b7 44 ce 3d 38 86 6a 3d b2 bf a4 3d 60 b1 e8 bd
       0.100717 0.057256907 0.080443755 -0.113619566
0003a0 08 97 ba bc b0 48 82 bd 4d 65 b1 bd 00 ea 79 3d
       -0.022777095 -0.0636152 -0.086619 0.061014175
0003b0 5c 09 bb bd 27 e4 02 3d d1 e8 10 bd 30 5e 14 bc
       -0.091326445 0.031955864 -0.03537828 -0.009055659
0003c0 6a 5f 3a 3c 41 3e 8f 3d 8b 94 95 3d 05 03 02 bc
       0.011375288 0.06994296 0.07303723 -0.00793529
0003d0 53 db d4 3c 2c 05 f1 bd e5 fa ce bd 61 50 f0 bc
       0.025983488 -0.117685646 -0.10106448 -0.029335203
0003e0 bc 89 e2 bd 6c 6c b4 3d 94 19 39 bd 10 e9 b0 3c
       -0.11061427 0.08809742 -0.04519041 0.021595508
0003f0 52 3d bc bd a0 32 06 3d 50 f4 a3 bd fa e9 5e bd
       -0.091913834 0.032763124 -0.08005583 -0.054422356

fc3_action.bias f4 [26]
000000 2a cd bd bd 9c bc 83 bb 02 cb 77 bd 2c 75 f3 bd
       -0.092676476 -0.0040202867 -0.060496338 -0.11887583
000010 79 f2 5c bc ea 76 a1 bc 87 1c 6f bd fc fd 8a 3d
       -0.013485544 -0.019710023 -0.058376815 0.06786725
000020 fc dd 21 3c 2f b1 c5 3d 07 44 fe 3d c1 44 02 3d
       0.009879585 0.09652936 0.12415319 0.03180385
000030 23 2f 6f bd 0e 05 08 bd 19 26 44 3d da 0a 7e bb
       -0.058394562 -0.033207946 0.047887895 -0.0038763792
000040 7d c6 8a 3d 2d cd 57 3d 42 d9 46 bd 1c 22 9f 3d
       0.0677614 0.052685905 -0.048547037 0.07770178
000050 c2 fa be bd 34 c4 b6 bd d4 0b a9 3d 79 3a 83 bc
       -0.09325172 -0.089241415 0.08254209 -0.016019093
000060 83 86 3a 38 67 87 3d 3d
       4.447113e-05 0.046271708
