traditional_vrpb_strict_train_v3_best.pth (torch, 43005 bytes, 6 tensors)

fc1.weight f4 [128, 6]
000000 d6 27 b8 be 5c a6 91 bd 38 3d b6 3e 36 e2 cf be
       -0.35967892 -0.07111809 0.3559358 -0.40602273
000010 82 86 26 3e ba 5c 93 3e 9e 1d 55 3e 25 23 b5 3e
       0.16262248 0.28781682 0.2081208 0.35378376
000020 7e c3 61 3e 7c ec d5 bd e0 d7 ad be b9 d1 f1 bd
       0.2204723 -0.104454964 -0.33953762 -0.118075795
000030 32 52 6a 3d 1b 1f cf be dd dc 63 3d 00 54 a6 3d
       0.057207294 -0.4045342 0.055630554 0.081214905
000040 97 57 3e be a8 44 0b 3e be 1a 43 3e 48 20 cd be
       -0.185881 0.13600409 0.1905317 -0.4006369
000050 cc d2 3a 3e 1f c3 43 bc f7 43 cc 3e 87 24 b5 bd
       0.18244475 -0.011948376 0.39895603 -0.08844858
000060 d7 aa 85 3d 2b fd c3 bd 59 e6 70 3e 70 f3 8c be
       0.06526726 -0.09569772 0.2352537 -0.27529478
000070 d0 88 9f be 1d 3c 36 be 70 5b bb be 9f e9 f9 3d
       -0.31159067 -0.17796369 -0.365932 0.12202763
000080 da c7 c3 3e 9a 50 2f 3e 8b a6 26 3e d0 ec b8 be
       0.38238412 0.17120591 0.16274469 -0.36118174
000090 c7 5d 51 be ee 7c 11 be 11 78 aa 3d eb a0 40 3e
       -0.2044593 -0.14207813 0.08323682 0.18811385
0000a0 7c 0a b1 be ac a5 5e bd 1c 65 51 be 66 ba 8d be
       -0.3457831 -0.054357216 -0.20448726 -0.27681273
0000b0 4c 6f ae 3e f7 60 57 be 55 8e dc bb 90 66 a5 be
       0.34069288 -0.21033083 -0.0067308345 -0.3230481
0000c0 bd 80 84 be 3a ed b2 3e 11 df b7 3e 50 b9 ee 3d
       -0.2587947 0.34946615 0.35912374 0.11656439
0000d0 b3 ad 76 3d 2c f0 a1 be f4 94 83 be 40 1f f1 bd
       0.060224246 -0.3162855 -0.2569958 -0.117735386
0000e0 28 18 82 bd ba 45 c2 3e 30 52 3a bd e0 fa ef 3d
       -0.06352264 0.37943822 -0.045488536 0.117177725
0000f0 48 26 29 be 96 c8 74 be 7f 48 02 be 0f 9a 22 bd
       -0.1651851 -0.23904642 -0.12722968 -0.039697703
000100 6c ce 9d be a8 81 00 3e 37 c6 b7 3e b7 80 88 be
       -0.3082155 0.1254946 0.35893413 -0.26660702
000110 8f 57 75 3e 79 42 b3 bc 9a 86 b5 bd a9 2a 13 3e
       0.23959182 -0.021882283 -0.08863564 0.14371742
000120 1f 19 ee bd 3d 31 be 3c d1 88 a0 3e d7 44 00 be
       -0.11625885 0.023216838 0.31354383 -0.1252626
000130 f8 1b c9 be cc 11 bb 3d fe 1b 81 3d 17 c9 92 bc
       -0.3927915 0.09134254 0.06304167 -0.017918153
000140 09 64 9e bd 22 75 f4 3d 02 29 e2 bc 71 6d 7a 3e
       -0.07733924 0.11936404 -0.027607445 0.24455811
000150 54 4a 0b 3e d8 e3 4c 3e 98 4c 22 bd 54 f4 50 be
       0.13602573 0.2000879 -0.039623827 -0.20405704
000160 24 59 8c 3d 54 51 8f be f9 fa 68 3c ea d2 92 3e
       0.0685294 -0.27991736 0.014219993 0.2867654
000170 7b 58 f7 bd a4 e1 3f be 47 87 3e be 37 89 c7 bd
       -0.12077423 -0.18738419 -0.18606292 -0.097429685
000180 d4 a5 8a 3d d8 a0 1d 3c ff 73 9a be 6a d2 6d be
       0.067699105 0.009620868 -0.30166623 -0.23224798
000190 28 3d 0d bd c2 f0 a6 3e 9f 70 9e be a7 44 32 3e
       -0.03448215 0.3260556 -0.30945298 0.17409001
0001a0 80 97 c0 3e 62 51 85 bd 2b 67 a5 be 81 3d 12 bd
       0.37615585 -0.06509663 -0.32305273 -0.035703186
0001b0 ce 89 35 3e 6b 3c 8e 3e 1e 72 8b 3e 9c e9 fb bd
       0.1772835 0.2778047 0.27235502 -0.12300417
0001c0 28 93 46 be 0e b0 23 3e fd ce d9 bd c4 23 44 3e
       -0.19392073 0.15985128 -0.10635183 0.19154269
0001d0 e5 1d 98 be f0 f7 86 3e 90 52 6b 3e d8 09 64 3e
       -0.29710308 0.26361036 0.22980714 0.2226938
0001e0 b8 33 b9 3e 85 91 3f 3e 24 d7 8f be b0 e4 2c 3e
       0.3617227 0.18707855 -0.28093827 0.16884112
0001f0 d7 c2 38 3e 8a 6f 25 be c4 00 db bd 58 7f ea 3d
       0.18043076 -0.1615583 -0.106935054 0.1145007
000200 68 48 bb 3d 18 2d 93 be 4e bd bb be c0 6e 9e 3b
       0.0914467 -0.2874534 -0.36667866 0.00483498
000210 74 71 7f 3e 2c 6a c1 be 61 62 ce be 71 4a b3 3e
       0.24945623 -0.37776315 -0.40309432 0.35017732
000220 d7 e3 54 3e 82 99 87 be 94 01 92 3d 1a 88 12 be
       0.20790039 -0.26484305 0.07129207 -0.14309731
000230 11 12 40 3e e2 21 af b9 6d a5 bf 3e dc b6 82 be
       0.18756892 -0.00033403846 0.37430897 -0.25530136
000240 f9 93 a9 be 50 4c 32 3d 55 c3 ae 3e 55 14 9d 3d
       -0.33120707 0.04352981 0.34133402 0.07669894
000250 36 24 8d bd ee bf 90 be 30 17 56 3d 4f ff bd be
       -0.06891672 -0.2827143 0.052268207 -0.37108847
000260 ea 93 4d be e4 75 be be 82 e4 96 be c8 70 6a 3d
       -0.20075956 -0.37199318 -0.29471213 0.057236463
000270 a7 2d 59 be 0e 13 4a be 98 5a c2 3e 90 44 1e be
       -0.21208821 -0.19733831 0.37959743 -0.15455842
000280 c6 00 a6 be d9 f0 94 be 4b ec b7 3e 15 4d 67 be
       -0.32422465 -0.29090002 0.35922465 -0.22587998
000290 07 62 a1 3d 9d 57 f3 3c 47 11 69 3e 20 00 81 3e
       0.07880025 0.029704863 0.22760497 0.25195408
0002a0 1c 4b b0 3e c9 17 82 be 4e 8b ac 3e 95 e6 46 be
       0.34432304 -0.25408772 0.3370003 -0.19423898
0002b0 04 30 81 be 73 ea 3b bd 8b 23 ba be 4d 2a ae be
       -0.25231946 -0.045877885 -0.36355242 -0.34016648
0002c0 d1 88 77 3e a7 43 b7 3d 34 19 c4 be b7 42 29 be
       0.24173285 0.089484505 -0.38300478 -0.16529356
0002d0 71 cf ad 3e c6 c0 43 be 2b ed c6 3d 7f 4a c8 3e
       0.33947328 -0.19116506 0.09713205 0.39119336
0002e0 5b c3 92 3e a2 19 cd be 97 75 cf bd d9 39 51 3e
       0.2866467 -0.4005862 -0.1012985 0.20432223
0002f0 68 a9 8d be 69 ac b5 3e 71 46 a5 be 8f 42 3a be
       -0.2766831 0.354831 -0.32280305 -0.18189453
000300 46 69 af 3d ae 70 9b be ee a0 9a bd 54 bb 8b 3e
       0.08565001 -0.30359405 -0.07550226 0.27291358
000310 4c 84 73 be e8 73 b9 3e 52 f3 75 3d 2d d8 9a be
       -0.23780936 0.36221242 0.0600465 -0.30243054
000320 9d 0a 94 3c 14 fb 8a 3e 16 bf fb 3c aa 1e 0e be
       0.018071467 0.27144682 0.030730765 -0.13878885
000330 20 d3 ca bd a8 82 25 bd 42 82 a9 bd ed 13 3b 3e
       -0.0990355 -0.040407807 -0.08276798 0.1826932
000340 34 d9 bd 3e 92 f9 88 be e5 d5 79 3e e5 f7 c5 be
       0.37079775 -0.26752907 0.24398 -0.3866569
000350 8a 5d 71 be 4e 0f 21 be c8 b8 6f 3e 07 e9 62 be
       -0.23570839 -0.15728495 0.23410332 -0.22159205
000360 50 2b af be 70 0a be 3e 12 48 96 be 31 36 91 be
       -0.34212732 0.37117338 -0.2935186 -0.28361657
000370 a8 c0 78 3e 88 0a a5 be 09 82 96 3b 04 d3 a9 be
       0.24292243 -0.32234597 0.004593138 -0.33168805
000380 90 2b a5 bd 19 be b4 be a1 51 c2 be 83 07 21 3e
       -0.080649495 -0.35301283 -0.37952903 0.15725522
000390 bf fd 83 be 4c 48 93 be 30 aa cd 3e 61 d1 02 be
       -0.2577953 -0.28766096 0.40168905 -0.12775184
0003a0 7e 4e 96 be 3b 74 66 3d a8 a9 9a be bf 9b cc 3e
       -0.2935676 0.05626319 -0.30207562 0.39962575
0003b0 af 97 4d be 52 35 d6 3d 64 6d e5 3d 67 aa e6 bc
       -0.20077394 0.10459389 0.11202505 -0.028157426
0003c0 27 6a 70 3e 3c eb 77 bd 73 cd ce 3c 9a c9 2d be
       0.23477994 -0.06052707 0.02524445 -0.16971436
0003d0 9b c5 8c 3e b4 79 b0 3e 1c 97 45 be 26 cc 49 3e
       0.2749451 0.34467852 -0.19295925 0.19706783
0003e0 78 d8 5f be d0 1c a8 3e 6a 60 0f bd 1d 16 95 be
       -0.2185992 0.32834482 -0.035004057 -0.29118434
0003f0 6f 86 d0 3e 56 c0 99 be 8c 39 c5 3e 04 0b 88 3e
       0.40727565 -0.30029553 0.38520467 0.26570904

fc1.bias f4 [128]
000000 86 6e 6e 3d 8a 74 96 3d f1 cc 9f 3e e5 81 be be
       0.058210872 0.07346447 0.31211045 -0.37208477
000010 37 3d b1 3d db 10 af 3e af ca 9d 3d 0b 1e c9 bc
       0.08654254 0.34192547 0.077046745 -0.024550458
000020 9a b3 78 be f0 1f c4 be b0 eb a3 3d b2 94 16 3e
       -0.24287263 -0.38305616 0.08003938 0.1470516
000030 35 6a 0e 3e f5 35 95 3e ba 31 90 be b9 ca 93 3e
       0.13907702 0.29142728 -0.28162938 0.28865603
000040 c9 df b5 3e f7 57 67 3e a8 d7 7b 3e 7d 37 34 be
       0.35522297 0.2259215 0.24593985 -0.17599292
000050 24 6b 11 3e 0e 95 6b be 27 40 53 bd 5b 41 59 be
       0.14201027 -0.23006079 -0.051574852 -0.21216337
000060 a5 a5 47 be 68 4b c8 be ee f4 bf be 86 02 c1 3e
       -0.19496782 -0.3912003 -0.37491554 0.37697238
000070 54 4d 73 3e e0 42 21 3e f7 c5 43 be 80 c1 d1 3e
       0.23759967 0.15748167 -0.19118486 0.4096794
000080 88 62 ae 3e 0c 95 38 be 01 c1 9a 3e c2 af 60 be
       0.34059548 -0.18025607 0.30225375 -0.21942046
000090 e8 10 92 be 04 f7 bf 3e 3a 7d 98 3e f7 3b ba 3e
       -0.28528523 0.37493145 0.2978304 0.36373875
0000a0 03 a2 e3 3d ad f5 84 3e ef 77 83 be 7d e4 34 be
       0.11114886 0.25968686 -0.2567744 -0.17665286
0000b0 63 0b 3b 3e 9c 16 c3 be cf 9b 4c bd 2c 5e 04 be
       0.18266062 -0.38103187 -0.04995328 -0.12926549
0000c0 90 7c 6e 3d 0d 5c bf be 33 f4 c5 3e e3 53 42 be
       0.05822426 -0.37374917 0.38662872 -0.18977313
0000d0 b4 04 cd 3e a7 3d 74 3e 69 fe a0 3e ff 88 55 be
       0.4004265 0.23851644 0.314441 -0.20853041
0000e0 90 ef 30 bb f5 bd c3 3d 4a 65 5f 3e 74 9a fa bc
       -0.002699826 0.09557716 0.21815982 -0.030591227
0000f0 4b 83 47 be 35 1a 51 be 3c 71 77 3e 66 3a 9c 3e
       -0.19483678 -0.20420153 0.24164289 0.30513304
000100 8b 42 b0 be db 5a a7 be ec 94 ea bd 1a 0b d9 bd
       -0.34425768 -0.32686505 -0.11454186 -0.105978206
000110 bd ab 1a be c8 d3 75 bd 11 86 a1 be 07 97 ad be
       -0.15104575 -0.060016423 -0.31547597 -0.33904287
000120 b2 2b 43 3d 99 53 eb 3d 28 4f d7 bd 2d 62 f0 bc
       0.047649093 0.11490554 -0.10513145 -0.029343689
000130 db 5c 61 3e c5 61 6f 3e 1b ae 15 be e3 8d ab 3d
       0.22008078 0.2337714 -0.14617197 0.08376672
000140 05 68 9c 3e 23 e8 d9 3d 74 c5 91 3e 7a 07 cb 3d
       0.3054811 0.1063998 0.28470957 0.099135354
000150 97 44 8a be 5d 5e 24 3c 7e ec c7 3e a0 76 8f 3d
       -0.27005455 0.010032264 0.39047617 0.07005048
000160 b2 9b 56 bd 0a a4 8f 3e 65 f1 46 3e 82 e7 05 3e
       -0.052394576 0.2805484 0.19428022 0.13076594
000170 b8 c1 ba be 8b 33 55 3e cc 8d 75 3e dd f2 f1 3d
       -0.3647592 0.20820443 0.23979872 0.118139006
000180 f1 be bf 3e 7b 9b cc be c0 3f 84 be de b6 a9 be
       0.37450364 -0.39962372 -0.25829887 -0.3314733
000190 1f b1 38 3c fc 1a 8b 3e 0a e5 fc bd 0f 5a bb bc
       0.011272698 0.27169025 -0.12348373 -0.022870092
0001a0 a7 3c 64 be 09 f4 ed bd 71 0b 93 be 1e 65 8c be
       -0.22288762 -0.11618812 -0.28719667 -0.27420896
0001b0 60 2e 15 be 52 86 79 be 04 fa 48 3d e8 8f b1 be
       -0.14568472 -0.24367645 0.04906656 -0.34680104
0001c0 44 12 b0 be d0 69 86 bc 16 c3 20 3e e8 aa 83 be
       -0.34388936 -0.016407877 0.1569942 -0.2571633
0001d0 02 fe 99 bd 68 45 cd 3e a3 d1 27 3d 57 4f 8e 3e
       -0.07519151 0.40092015 0.04097141 0.27794906
0001e0 d0 14 53 3d 32 e3 91 be b9 f4 03 be 02 dc 87 3e
       0.05153352 -0.2849365 -0.12886323 0.2653504
0001f0 0a 82 ad 3e 85 49 88 3e 26 d4 ea 3d d0 4d b3 3e
       0.33888274 0.2661859 0.11466245 0.35020304

fc2.weight f4 [64, 128]
000000 82 53 6a 3d 61 8c 49 bc a0 70 a6 b9 32 a5 2c bc
       0.057208546 -0.012301535 -0.000317459 -0.0105374325
000010 72 ed 10 bc 6a 02 83 bd c4 ce 71 bd 71 30 af bd
       -0.008845674 -0.06396945 -0.059035078 -0.08554161
000020 8e e3 73 3d e9 14 a8 3d 1d 5d ca 3c 52 77 3f bd
       0.059543185 0.08207113 0.024702603 -0.046744652
000030 9c 1c 6c 3d 53 78 98 bd 7b e3 15 bd 8e 0c 67 3d
       0.05764447 -0.07444825 -0.036593895 0.056408457
000040 35 fb c6 3c 6b 6e 79 bc 54 d3 8b bd 5d bf 63 bd
       0.024289707 -0.01522408 -0.06827417 -0.05560242
000050 c1 2e 0c 3d c4 7c bb 3c 87 e1 db ba 7a 14 55 3c
       0.034224275 0.022886641 -0.0016775586 0.01300537
000060 3e d3 76 3d c6 ac 0a 3d 3c 95 0c 3d f0 66 63 3d
       0.06026005 0.033856176 0.03432201 0.05551809
000070 b7 01 89 3d 6a 68 2e bd f4 5a 16 3d 45 7e 19 3c
       0.0668978 -0.042580046 0.036707833 0.009368484
000080 88 37 94 3d b3 a9 85 bd f9 e8 00 3d 16 df d8 bc
       0.07237154 -0.06526508 0.03147218 -0.026473563
000090 59 a0 a5 3d de 22 bc bd 23 f4 6f bc cf c5 83 3d
       0.080872245 -0.09186338 -0.014645609 0.06434213
0000a0 d6 0c cb bb 2b 91 ae 3d d4 ea a2 bd e4 88 84 3c
       -0.0061965985 0.08523782 -0.07954946 0.016178556
0000b0 64 9f eb bc 68 49 ae bc f5 e7 ae bd b0 f4 79 bd
       -0.028762527 -0.021275237 -0.08540336 -0.061024368
0000c0 55 dd 1b 3d 42 8a 7c bc 1d 0e 09 3d e0 ee 95 3d
       0.038052876 -0.015413823 0.033460725 0.073209524
0000d0 a6 33 08 bd 74 b3 37 bc d5 40 74 3d 71 44 12 bd
       -0.03325238 -0.011212219 0.05963214 -0.035709802
0000e0 b7 64 00 bd 8a 9b 85 bc df 81 51 bd c4 21 88 3d
       -0.03134605 -0.016309518 -0.051149245 0.06647065
0000f0 ae db 33 3d 60 61 83 3c 4c 4f 45 3c 5b 29 b1 bd
       0.043910675 0.016037643 0.012042832 -0.08650466
000100 eb 76 54 bd 0c 84 07 bd bc 3a b1 3c d0 4d 33 3d
       -0.05187122 -0.033084914 0.021634452 0.04377538
000110 92 b9 b3 bd b7 4a 25 bd b4 3b 95 bd 68 54 2b 3c
       -0.08775629 -0.040354457 -0.07286778 0.010457136
000120 cb b8 86 bc f0 fc a7 3c 02 b9 90 bd 81 19 58 3d
       -0.016445538 0.020506352 -0.070665374 0.052758697
000130 49 96 fa bb e4 12 3f 3d 16 fc 1c bd 32 26 0a 3b
       -0.00764731 0.046648875 -0.038326345 0.0021079895
000140 5c 33 86 3c 77 bd e9 3c 70 39 7d bd 14 23 b3 3d
       0.016381912 0.028532727 -0.061822355 0.08746925
000150 f0 20 af bd 4a f4 57 3d ad 87 12 3d fb b9 99 3d
       -0.08551204 0.052723207 0.03577392 0.07506176
000160 79 46 6d bd 6f c1 1e bc 84 00 d8 3c 75 69 ba bc
       -0.057928536 -0.009689673 0.026367433 -0.022755364
000170 a0 bf 47 3c 20 1d 83 bd ce f2 b2 3d 37 cb a3 bd
       0.012191683 -0.064020395 0.087377176 -0.079977445
000180 99 94 92 3c be 96 8c bd 33 8d e0 bc a8 0b 6a bd
       0.017893123 -0.06864689 -0.027411079 -0.057140023
000190 b3 3a 28 3d d7 da 57 bd 54 45 73 bd fa a6 30 bd
       0.041071605 -0.052698936 -0.05939229 -0.04312799
0001a0 c7 6e 1f bd a6 54 8c bb b3 b4 64 bd b0 c4 a7 3c
       -0.038924005 -0.004282552 -0.05583639 0.02047953
0001b0 3d ba 82 3d 2e 5a 4e bd 3c 5d 5a 3c 52 35 0f 3d
       0.063831784 -0.05037897 0.013327893 0.03496296
0001c0 1a 8e 38 3d 7e f2 38 3d 78 9e cb bc 4f 0b c7 bc
       0.045057394 0.045153134 -0.024855837 -0.024297385
0001d0 a4 08 67 3d 10 f9 a7 3d c8 7f a4 bb d3 dd 98 3d
       0.056404725 0.08201802 -0.0050201155 0.074641846
0001e0 d5 0e 27 bd aa 38 aa bd a3 3f b0 bd 12 dd 81 bd
       -0.04078563 -0.08311589 -0.08605888 -0.06340994
0001f0 1a 50 04 bd 06 74 43 bd 20 6f 43 bb 8f 43 0c 3d
       -0.032302953 -0.04771807 -0.0029820874 0.034244116
000200 02 ed 39 3d 71 20 95 3d ac 6f ab bd ea e7 22 3d
       0.045392044 0.07281578 -0.08370909 0.03977195
000210 ec ff 2c bd 01 ca ac 3d c1 33 1d bd 40 65 e4 3c
       -0.042236254 0.08436967 -0.038379434 0.027880311
000220 3b 1f a9 bd 95 1c 97 3d d8 d7 65 bc 20 c5 8a bd
       -0.0825791 0.073784985 -0.014028512 -0.0677588
000230 31 72 a7 3d a6 ef 01 bd a5 6a a4 3d 88 60 48 3c
       0.08176077 -0.031722687 0.08028153 0.012230046
000240 77 40 42 bd 29 98 88 3d e4 35 3a bd c5 ee 83 3d
       -0.04742476 0.06669647 -0.04546155 0.06442026
000250 7b b7 14 bd 82 13 08 3d a2 37 7d 3d 18 16 3c bd
       -0.036307793 0.03322173 0.061820634 -0.045919508
000260 00 43 0e 3c a0 6d 98 bb 40 f8 8f bb 58 42 ce 3c
       0.008682966 -0.00465174 -0.0043936074 0.02517812
000270 40 be 03 bc 67 e6 2b bd 1e ae 5b 3d 19 c9 8d 3d
       -0.008040965 -0.041967776 0.053632848 0.06923122
000280 fd 0b 92 3d 84 58 1d bd 58 1f 40 3c 70 72 0f 3d
       0.07131193 -0.038414493 0.011726223 0.035021245
000290 4b 1f 36 bd 92 39 84 bd 6b a4 a5 3d 97 a7 88 3d
       -0.044463437 -0.06456293 0.08088001 0.0667259
0002a0 0f 96 07 bd 14 de ad bc f8 db 2e 3c b5 73 a8 3d
       -0.03310209 -0.02122406 0.010672562 0.08225194
0002b0 20 ac 9b bc 51 18 93 3d c0 ea 0a 3c d4 15 a8 bc
       -0.019002974 0.07182372 0.00847882 -0.020518221
0002c0 f4 2c dd 3c 38 f0 7e bc 00 23 8d ba dd 87 4a bd
       0.026998974 -0.015560202 -0.0010767877 -0.049445976
0002d0 98 42 45 bd 99 b6 96 3d 59 2a 48 bd e8 cc f0 bc
       -0.048159212 0.073590465 -0.04886851 -0.029394582
0002e0 c3 a2 a1 bd 1c 20 ab bd 20 c6 da bc 07 7e 9d 3d
       -0.078923725 -0.08355734 -0.026705801 0.076900534
0002f0 80 70 65 3c be 82 41 3d 96 9d 04 3d 2b 9a 51 bd
       0.014003873 0.047243826 0.03237685 -0.051172417
000300 a4 f5 b7 3c 28 2f c5 bc b5 3d 04 bd 50 77 e9 bb
       0.022455998 -0.024070337 -0.03228541 -0.007124819
000310 3e 77 39 3d 0e 7e ab bd 3a a9 9a bd e3 5e ab 3d
       0.045279734 -0.083736524 -0.07551809 0.083677076
000320 97 20 59 bd 55 be 81 3d 68 31 33 bd b0 58 13 bc
       -0.053009596 0.06335131 -0.04374829 -0.008993313
000330 66 53 04 bd a4 bf 12 3d 30 7a 13 bd 98 dd ca 3c
       -0.032306097 0.035827294 -0.0360052 0.024763867
000340 06 8c 5c 3d 83 f3 80 bd 78 c0 9a 3c 42 aa a9 bd
       0.053844474 -0.06296446 0.018890604 -0.08284427
000350 ff 3a b3 3d e0 4b 01 3d a9 71 19 bd 20 17 96 bd
       0.08751487 0.0315665 -0.03746191 -0.073286295
000360 fd 7d 63 bd 14 70 2e bd 12 9d ac bd 10 c8 c6 bb
       -0.055540074 -0.042587355 -0.08428396 -0.00606633
000370 40 28 e7 3b 0a 53 7f bd 90 88 5a bc 38 23 51 bd
       0.0070543587 -0.06233505 -0.013338223 -0.051058978
000380 10 88 46 bd 30 84 d2 3c da 93 53 3d a0 21 fb bb
       -0.048469603 0.025697798 0.051654674 -0.0076639205
000390 35 df 8c bd 1c 65 ae bc 42 11 53 3d d8 7c 3c 3c
       -0.06878511 -0.021288447 0.05153013 0.011504374
0003a0 b4 26 4c bd 40 dd de ba 71 ed 8f 3d e9 be 83 bd
       -0.049841598 -0.0017003193 0.0702771 -0.064328976
0003b0 5f c1 9e bd ce 08 58 3d ca 7e 52 3d be d5 71 3d
       -0.07751726 0.05274277 0.051390447 0.05904173
0003c0 b7 4c a7 3d 10 c2 bf bc 97 2a ac bd 7e d0 a6 bd
       0.08168929 -0.023407966 -0.08406561 -0.081452355
0003d0 81 11 a7 3d 0c 09 8a 3c 08 fa e6 3c f7 3c 87 bd
       0.081576355 0.016850017 0.028195396 -0.06603425
0003e0 5a db 91 bd a0 03 ff bb fd 07 a5 3d 90 ea d1 3c
       -0.07121916 -0.0077824146 0.08058164 0.025624543
0003f0 b9 00 1d bd 01 9a 9f 3d 0b 51 ae bd 58 b2 2c bc
       -0.038330767 0.07793046 -0.085115515 -0.010540567

fc2.bias f4 [64]
000000 6f fe 08 bd 28 da 1c bc b4 17 67 bd d3 42 7b 3c
       -0.03344577 -0.009573497 -0.05641909 0.015335756
000010 ca 03 a6 3d 2f 8a f9 3c 83 4a f4 3c 5c 21 ac bd
       0.081061915 0.030461399 0.029820686 -0.084048
000020 d9 ae b4 3c 20 65 11 3c 01 80 91 bd f8 a1 11 3d
       0.02205603 0.008874208 -0.07104493 0.035554856
000030 14 c9 68 3d f1 8a 67 bd 08 c7 33 3d 6c ef 97 bd
       0.056832388 -0.05652899 0.043890983 -0.07418713
000040 59 14 b7 3d 93 6b 72 3c bd ef 7b bd 8f 0c a4 bd
       0.08939428 0.0147961555 -0.06150793 -0.08010208
000050 94 7f 69 3d bc 37 f9 bb 12 32 38 bd 07 1f fb bc
       0.057006434 -0.007605521 -0.044969626 -0.030654443
000060 11 39 3a 3c fe 5c 9f 3c 89 43 82 3d 09 46 91 bd
       0.011366145 0.019453522 0.063605376 -0.07093436
000070 3c 17 ea bb c4 35 ce 3c 6e d2 77 3d f3 52 4b bc
       -0.007143883 0.025172122 0.060503416 -0.012409913
000080 cd e2 1a bd 5d 42 2e 3d a2 2f 2d 3d 3f 66 b3 3d
       -0.03781395 0.042543758 0.042281754 0.08759736
000090 60 7d 98 3c bb 80 7f 3d 8c 25 ac bd 35 27 53 bc
       0.018614471 0.062378626 -0.08405599 -0.012887766
0000a0 cd 13 01 bc d3 56 a9 3d 65 7a b6 bc 0b 87 16 3d
       -0.007878256 0.082685135 -0.02227516 0.03674988
0000b0 98 88 a4 3d a1 92 7f 3c ac 01 80 3c 26 55 95 3d
       0.08033866 0.015598924 0.015625797 0.072916314
0000c0 a8 4b 61 3d 3f 9c 3e 3d 60 67 85 bd 86 25 77 3d
       0.055003792 0.046535727 -0.06513858 0.06033852
0000d0 45 fd ab 3d be b7 96 3d d2 ef 80 3d ca dd 68 3d
       0.08397917 0.07359265 0.06295742 0.05685214
0000e0 22 58 80 bd d9 a1 8a 3d 3f 1e 75 bd 07 0b 72 bd
       -0.0626681 0.06769151 -0.059843298 -0.059092548
0000f0 19 e1 26 3b 40 15 a8 bd 9a 7b 2b 3b 57 a9 9e 3c
       0.0025463759 -0.08207178 0.0026166202 0.019367857

fc3_action.weight f4 [11, 64]
000000 9a 1d af 3d 10 b6 53 bc 91 5f c6 bd f0 4b 16 bd
       0.08550568 -0.012921825 -0.096861966 -0.036693513
000010 44 93 9e 3d db 1a c5 3d e0 42 99 3d d8 c3 16 bd
       0.077429324 0.09624263 0.074834585 -0.036807865
000020 76 5c 92 3c d3 82 6e 3d c2 76 84 3d f7 af e2 3d
       0.017866354 0.058230232 0.06467964 0.11068719
000030 c6 4d 04 be 30 74 ab 3c 3b 5a ee 3d e0 ab 71 bd
       -0.12920293 0.020929426 0.11638304 -0.059001803
000040 77 92 f4 bd dd 17 ee bd 10 89 1f 3c 07 20 eb 3d
       -0.119419985 -0.11625645 0.009737268 0.11480718
000050 31 4b 7c bd d8 6f f1 3d 6a ca eb 3d a0 4a be 3d
       -0.061595146 0.117889106 0.11513217 0.09291577
000060 da ac 82 3d e8 d0 fb bd 06 94 d8 bd 0c d7 81 bc
       0.06380625 -0.12295705 -0.10575108 -0.015849613
000070 2c da f1 bd c2 e3 5e 3d 36 a3 ce 3d c9 1a bf 3d
       -0.11809191 0.054416426 0.10089724 0.09331281
000080 16 12 d0 3d 7a 56 18 bb 91 62 42 3d 16 03 fc 3d
       0.101596996 -0.0023244903 0.04745728 0.12305276
000090 3c 5b aa 3d 10 d6 f8 bd 6c c6 08 bd 2d 12 a9 3d
       0.08318183 -0.12150204 -0.033392355 0.0825542
0000a0 a6 3b d0 3c fc ea 53 3d cc 79 8d bb f4 c1 c8 3b
       0.025419068 0.05173777 -0.004317498 0.0061266366
0000b0 7a 50 5f 3d fb 86 ef bd 00 ae 1b 3a c3 a9 f0 3d
       0.054520108 -0.11695667 0.0005938709 0.117511295
0000c0 fb 50 2e bd df b8 bb 3d 7f 33 6c bd e6 57 a3 3d
       -0.042557698 0.09166121 -0.057666298 0.0797575
0000d0 cb a6 be bd 10 37 9e bc c5 bf 2e 3d 60 a5 ca 3d
       -0.09309157 -0.019313365 0.042663354 0.09894824
0000e0 f5 69 d3 3c a2 a8 d9 3d 65 e5 f3 3d b3 cc 1d bc
       0.02580736 0.10627867 0.11908988 -0.009631324
0000f0 eb a7 a1 bd 5a 84 f4 3d f0 08 7e 3d c5 60 da bd
       -0.07893356 0.119393066 0.062020242 -0.106629886
000100 82 58 fe 3d 26 c6 e4 3d 50 19 fc 3b 6b 23 04 bd
       0.12419225 0.11170606 0.007693447 -0.03226034
000110 4b 21 ac 3d 5a 82 8a 3d 23 1c 9f 3d d0 90 cd 3c
       0.08404788 0.06763144 0.077690385 0.025093466
000120 6f a2 ea 3b 4e 96 82 bd da ef ac bd 58 93 52 bd
       0.007160477 -0.063763246 -0.084441856 -0.05141005
000130 f8 6d aa 3d 9b 24 b3 bd 74 6b c8 3c 7c 8a cd 3d
       0.08321756 -0.08747216 0.0244653 0.100361794
000140 4f 7f 9c 3b 92 c1 e9 bd bc 4e e8 bd ac 21 28 3d
       0.0047759186 -0.11413874 -0.113431424 0.041047737
000150 b6 2b d2 bd d1 0c 56 bd ec 4f d3 3d d0 cc ee ba
       -0.102622434 -0.052258316 0.10317978 -0.0018218998
000160 94 cb 9f bd c4 82 e1 bd f7 af 0e 3d 78 aa 9b 3d
       -0.07802501 -0.1101127 0.034835782 0.07600874
000170 d5 ac dd bd 3e 4a a4 3d 84 c0 bb bd 74 b6 d5 bb
       -0.10823981 0.08021973 -0.09167579 -0.0065219942
000180 0c c0 9e 3d 8a eb c6 bd 9d 80 d8 bd 94 fc dc bd
       0.07751474 -0.09712894 -0.10571406 -0.10790363
000190 a7 9a f2 bd 62 bf ab 3c 5c 3b ea 3d 10 02 82 bd
       -0.11845904 0.020965282 0.11437103 -0.0634805
0001a0 8f d4 2d 3d 00 d8 0e ba ca b2 14 3d 05 75 af bd
       0.04243904 -0.00054490566 0.03630332 -0.085672416
0001b0 a3 27 6d 3c 6a 6e 3e 3c ac a4 65 bd 57 b7 a4 bc
       0.014474782 0.011623004 -0.056065246 -0.020106955
0001c0 1f 7f b0 3c c0 a4 d2 bd 11 3f f1 bd 7e ce 84 3d
       0.021544991 -0.1028533 -0.11779607 0.06484698
0001d0 df eb 2c 3c bc bf bb 3d 85 6f 8f bc c6 54 bb 3d
       0.010554283 0.0916743 -0.017509231 0.091470286
0001e0 40 3a 89 3d ae 1e e0 bd fa 82 b7 bd fa 3c 91 3d
       0.067005634 -0.10943352 -0.08960529 0.070917085
0001f0 5e d0 be 3d 4d 8c cd bc 59 5d 35 bc de e3 56 bd
       0.09317087 -0.025091315 -0.011069619 -0.052463405
000200 0c c9 78 bd bc d5 ac 3d c8 ce 4d bd 19 16 dd 3a
       -0.06073861 0.08439204 -0.05024603 0.0016867548
000210 39 97 ab 3d 30 83 0f 3d fc 89 dc 3d 82 ae ce 3d
       0.08378453 0.03503722 0.10768506 0.100918785
000220 0a dc 9b 3d b0 7e c8 3d c8 a3 1e bd 3c 65 fd 3d
       0.076103285 0.09789789 -0.038730413 0.123728245
000230 e2 e8 b2 3d a2 60 f3 3d 9c 00 32 3d 0a bf bc 3d
       0.08735825 0.118836656 0.043457612 0.09216125
000240 05 67 a7 3c 10 38 ff 3c d0 90 de bc a2 01 a3 bd
       0.020434866 0.031154662 -0.027168661 -0.07959296
000250 d6 b7 e9 3d 9c f3 89 bd fd dc df bb 01 d2 a0 3d
       0.11412017 -0.06735918 -0.006831764 0.07852555
000260 dc 42 80 bb f3 c5 28 3b 37 b6 e6 bd 00 44 93 3d
       -0.0039142203 0.0025752753 -0.112652235 0.07190704
000270 00 63 b2 bd a3 49 92 bd c2 69 c7 bd 07 7e 13 bd
       -0.08710289 -0.07142951 -0.097369686 -0.03600886
000280 b0 f1 8a bc 6c f5 79 bd 58 30 14 bd b4 27 df 3d
       -0.016960949 -0.06102507 -0.036178917 0.10896245
000290 06 03 31 3c 57 40 89 bb 08 ec 00 bd 81 c0 65 bd
       0.0108039435 -0.004188578 -0.031475097 -0.05609179
0002a0 8a 54 3a 3d 60 fe a6 3b ad 46 41 bd 06 49 db 3d
       0.04549078 0.005096242 -0.047186542 0.107072875
0002b0 f9 72 65 bd 74 16 1a bd f0 ec 69 bc b6 6f a8 3d
       -0.05601785 -0.03761907 -0.014277682 0.08224432
0002c0 6b 30 4e bd bf 1d 48 3c 81 a0 9b bc a0 60 68 3c
       -0.050339144 0.012214123 -0.018997433 0.014183193
0002d0 8a 73 c0 3d e9 19 f4 bd 47 41 97 bd 65 37 60 3d
       0.09397037 -0.119190045 -0.073854975 0.05474033
0002e0 0e 0b c0 bd 7a a0 d6 3d 74 7a 1c bd 04 dd 8b 3d
       -0.093771085 0.10479827 -0.038202718 0.06829265
0002f0 d4 b0 c0 bc 85 89 b3 3d 3c f0 4e bd 42 24 81 bd
       -0.023521818 0.08766464 -0.050522074 -0.06305744
000300 34 40 45 3d a0 9b a6 3c 38 4a ee bd 97 35 f7 3c
       0.048156932 0.02033788 -0.1163525 0.03017692
000310 f8 93 87 bc dd 65 7e 3d 35 b3 ce bd 34 5f 47 bd
       -0.01655005 0.062108863 -0.10092775 -0.048674777
000320 12 e9 88 3d db 83 ff bd 80 c4 78 3c ec 01 a0 3d
       0.0668508 -0.12476321 0.015183568 0.078128666
000330 e9 6c 9f 3d 8b 23 cb bd 1c 11 64 3d 83 fc d2 3d
       0.07784445 -0.09918889 0.05568038 0.10302069
000340 39 1b b8 bd f7 e7 dd bc 48 be bc 3d 9c 67 89 3d
       -0.08989567 -0.027088149 0.09215981 0.06709215
000350 79 fc 85 bd 18 5c e7 3d 92 7d f7 bd ed 10 22 3d
       -0.06542296 0.11296862 -0.120844975 0.039566923
000360 94 9c 4a 3d f7 de 3c bd 67 f7 ed 3d 90 70 f0 3c
       0.04946573 -0.046111073 0.11619454 0.029350549
000370 3c d2 2f 3d fb d1 78 3d 90 75 bc 3c e1 29 c5 3d
       0.042925104 0.060747128 0.023005277 0.096271284
000380 90 aa 1c bc 8e d6 ce bd 7d 41 86 bd 12 76 e1 bd
       -0.00956215 -0.10099517 -0.0655546 -0.11008848
000390 51 51 e0 3c e9 50 de bd d0 ad a3 bd e0 5e d9 bd
       0.027382525 -0.10855276 -0.079921365 -0.10613799
0003a0 94 46 07 bd bc 03 da bd 64 21 de bd cf ce 47 bc
       -0.033026293 -0.106452435 -0.108462125 -0.012195303
0003b0 d6 57 a1 bb e7 a7 eb 3d f2 48 f5 bd 42 9e f9 bd
       -0.004923801 0.11506634 -0.11976804 -0.121883884
0003c0 9a 5a 52 bd 29 11 87 3d 3c 62 4c bd fc d1 13 3d
       -0.051355936 0.0659507 -0.04989837 0.03608893
0003d0 6b f6 9d bd 1a c6 dc bd 24 6f 3c 3d 03 51 c0 bd
       -0.07713016 -0.107799724 0.04600443 -0.09390452
0003e0 c1 dc e6 3d ee b5 a7 bd f0 c8 fc bd 64 cd e8 bd
       0.11272574 -0.08188997 -0.12343013 -0.113673
0003f0 f9 04 82 bd 4e 67 6d 3d 1b 2a f6 3d fc d4 d8 bb
       -0.06348605 0.057959847 0.1201975 -0.0066171866

fc3_action.bias f4 [11]
000000 7e 79 5a 3d 68 71 29 bd 30 99 4c 3d e3 28 11 bd
       0.05333852 -0.04136792 0.04995078 -0.035439383
000010 01 4f 28 bd d8 65 9a bd 04 d1 56 3d 3e aa bc 3d
       -0.04109097 -0.075389564 0.052445427 0.092121586
000020 f6 4d e8 bd cf cd a2 3d c5 28 8c 3b
       -0.11342995 0.07949411 0.004277321
