traditional_vrpb_agent_best.pth (torch, 46213 bytes, 6 tensors)

fc1.weight f4 [128, 5]
00000000: 95e1 023e 6ff3 493e 0f14 a5be 0cd5 debe
00000010: 9943 383e bc5a a93e f444 23be ed08 54bd
00000020: f222 fbbc ce42 8abe ab69 d7be e676 79bd
00000030: 6358 7cbe fdda af3e 8787 3c3e 445d 80be
00000040: 38e5 153e b0b5 b33e ada9 26be 32a1 b23e
00000050: 1049 cf3d e79a 363e 0da7 263e ecfd 583e
00000060: 80af f3bc a7d0 5fbb 1fe1 d03d c5aa cf3d
00000070: bfc1 9b3e 4c7e e73d 910f 56be 4f2e 1dbe
00000080: 5caa cd3e c916 2bbe 3496 743e 420b babe
00000090: 2c36 123c 5c22 a43e 9ccc bb3e d209 9c3e
000000a0: d7cb 06bd c628 be3e 2910 b5be cb63 43bd
000000b0: 3c29 d53d b8ae 953e f5bd 3d3e d4dc e3be
000000c0: 1e3e f03d d13b 8c3e dd50 40bd 29c6 9b3e
000000d0: 7c20 c33e 7c4e a53e fae4 9c3e 68aa 88be
000000e0: 70c5 a6bd 68de 99be 0023 333d 7072 82bc
000000f0: a408 15be 3867 85bd 9c0b 103e 31ff a4be
00000100: 6e36 79be fdea c33e eb34 6b3d 72af c4be
00000110: 0f0e 42be 3ea1 943e 8560 9cbd ea2b 61be
00000120: 8a30 8dbe 72d7 b33e 97bd acbe f53c 6cbe
00000130: 439e a2be 238f 1f3e 0fa3 d1bd c5a6 a23d
00000140: 7c31 803e c964 883e c621 d63e dda3 75be
00000150: 5541 983e fd22 4ebe ea87 8ebc 69f6 97be
00000160: 2023 a9be 508b 0fbe 6438 5e3e db14 d63e
00000170: d951 e03e b835 463e ecc3 c33e 587e db3d
00000180: 3bf1 6b3e 2f20 5cbe 85ce bebe fa58 3d3d
00000190: b843 5bbe a95f 563e 3308 e8ba ff89 bd3e
000001a0: 6480 943e d742 a5bd 67b6 5fbe f15e 5fbe
000001b0: 377f 9b3e fc90 e4be 6626 c93c 61fe babe
000001c0: 2c20 b3bd 091b 6e3d 5b59 c93e f356 8b3e
000001d0: c764 14be 5304 8d3e a932 8f3e 72b0 0d3d
000001e0: aca6 bbbd 10ed 933c 783b fabd 4e67 38be
000001f0: 582b 78bd 9816 c9be c7d8 6e3d 30c7 b1bd
00000200: 571f 6e3e 4fb9 e63d eb70 de3e 0eba aa3e
00000210: 54cf a03e 6a27 8abe ac26 81be 3b63 c7be
00000220: e282 3abe ae10 f73c ef9e 71be a8aa de3d
00000230: d263 b7bd 245f 9fbe 3b5d 29bd 15c1 8e3e
00000240: 651d c7bd 8413 e33e db1c 643e 023a b7be
00000250: dbd2 043e c5ff a2be f6b9 98be dc99 823e
00000260: cc17 a23e 469d ddbe 61a2 a93e 1a73 abbe
00000270: f4c1 913e 8ed2 41be d0b4 b33d 3b7a ccbe
00000280: dc6f 7ebd 687c dd3e 731e 83be 1fb2 cabe
00000290: 8f47 873e 930a 6abe 7945 3fbe b622 a4be
000002a0: bc0f bd3e a245 cdbc 5e0e 833e 994c e2be
000002b0: ff80 d13e d05d b3be 5bb2 20be 1705 313e
000002c0: 3b58 88be c6c0 c93d 4dac bbbe eb90 293e
000002d0: d251 71bd 25ea 28be 60ea cabe b54c 9a3e
000002e0: bca6 c73e 3f41 b33c a2ae 46ba 6c4a bc3d
000002f0: fa0e d4be 63db 9a3e df50 bf3e 0baf 3d3e
00000300: 2b36 603e f7de 32be eb0c 833e c3ce 8dbe
00000310: 87fd 59be 612d 923e 1c2f 20be 73bd 983e
00000320: bde9 cdbe a03f f53d 82e5 d5be ffbd 963e
00000330: bc0e f8bd c6d4 86be 3423 cf3e c2b1 d23e
00000340: 5586 31be 3623 c73e 6272 e1be e4f7 b7be
00000350: 8eed 6dbe e0c9 373e 567c 36be 4509 bc3e
00000360: e4ec ce3e 2dfe debe e024 acbe 3fd7 7cbb
00000370: b7e5 b9be f3cc 383e c618 35be ba8d e8bc
00000380: bcec b23e ff28 a93e 98e8 e03e 6c6b ab3e
00000390: 4a8b 7bbe fc8b 5f3e 0b1a c2be 1632 80be
000003a0: fd1a 7cbe bdba a8be e483 48be 6656 c93e
000003b0: 02cd 83bd 39db b13e e5b4 d93d 2d4f 9dbe
000003c0: 594d d23e 62a9 d5bd e7ce 163e e8fa c3be
000003d0: 129f 83be 6618 22be 94e2 a23e dd12 b13d
000003e0: 5f80 b1be 2d9d 763e 29ad 96bd 5bf6 86be
000003f0: 8c32 c63e a8c7 d8be 3835 33bd c056 5bbc
0.12781365 0.19721769 -0.32241866 -0.43521917 0.17994536 0.33077037 -0.15944272 -0.051766325
-0.030656312 -0.27004093 -0.42072806 -0.060904406 -0.24643092 0.34346762 0.18411075 -0.25071156
0.14638221 0.35099554 -0.16275664 0.34888607 0.101213574 0.17832528 0.16274662 0.21190614
-0.02974677 -0.0034151466 0.101991884 0.101399936 0.30421254 0.11303386 -0.20904376 -0.15349697
0.40169036 -0.1670791 0.23885423 -0.36336714 0.008924048 0.32057464 0.36679542 0.30476242
-0.03290924 0.37140483 -0.35363892 -0.047702592 0.104082555 0.29234862 0.18529494 -0.44504416
0.11730598 0.27389386 -0.046952117 0.30424622 0.3811072 0.3228644 0.30643445 -0.2669251
-0.08143127 -0.30052495 0.04373455 -0.015923709 -0.14554077 -0.06513828 0.14066929 -0.32225946
-0.2433717 0.3826522 0.057423513 -0.38415104 -0.18950675 0.29029268 -0.07635597 -0.21989408
-0.27576095 0.3512531 -0.33738396 -0.23070128 -0.3176137 0.15581946 -0.10236179 0.07941965
0.25037754 0.26639393 0.41822642 -0.2398829 0.29737344 -0.20130534 -0.017398793 -0.29680184
-0.3303461 -0.14017987 0.21701199 0.41812786 0.43812445 0.1935643 0.38235414 0.107174575
0.23041241 -0.21496652 -0.37266937 0.046227433 -0.21412551 0.20934929 -0.0017702639 0.37019345
0.29004204 -0.08069389 -0.21846925 -0.21813561 0.30370495 -0.44641864 0.024554443 -0.365222
-0.08746371 0.05813125 0.39325985 0.27214774 -0.14491569 0.27542362 0.27968338 0.0345921
-0.091626495 0.018057376 -0.12218374 -0.18008158 -0.06058821 -0.3927505 0.058312204 -0.0868057
0.23254143 0.112658136 0.43445525 0.33345073 0.3140818 -0.26983196 -0.25224817 -0.38942894
-0.1821399 0.03015932 -0.23595785 0.10872394 -0.08954586 -0.31127274 -0.041348677 0.27881685
-0.097224034 0.44350827 0.22276632 -0.35786444 0.1297106 -0.31835762 -0.29829377 0.2550801
0.3165878 -0.43284053 0.33131698 -0.33486253 0.28468287 -0.18927976 0.087747216 -0.39937004
-0.062118396 0.43258977 -0.25609168 -0.3958902 0.26421782 -0.22855596 -0.18678845 -0.32057732
0.36926067 -0.025057618 0.255969 -0.44199064 0.4091873 -0.3503251 -0.15693037 0.17287098
-0.26629815 0.09851222 -0.36654893 0.16559188 -0.05891592 -0.16495569 -0.3963194 0.30136648
0.38994396 0.021881698 -0.0007579123 0.09193882 -0.41417676 0.30245504 0.37366387 0.18523805
0.21895663 -0.17467867 0.25595793 -0.2769681 -0.2128812 0.28550246 -0.15642971 0.29832038
-0.4021739 0.11975026 -0.41776663 0.2944183 -0.12112185 -0.26334208 0.40456545 0.41151243
-0.173364 0.3889405 -0.4403258 -0.35931313 -0.23235151 0.17948103 -0.17820868 0.36725822
0.40415108 -0.43553296 -0.33621883 -0.0038580445 -0.3630807 0.18046932 -0.17685232 -0.028387893
0.3494624 0.3303909 0.43927455 0.33480394 -0.24564853 0.21830744 -0.37910494 -0.25038213
-0.2461967 -0.3295497 -0.19581562 0.3932373 -0.064355865 0.34737566 0.10630206 -0.3072447
0.41074637 -0.10432698 0.14727364 -0.38277364 -0.257073 -0.1582962 0.3181349 0.08646176
-0.34668252 0.24083395 -0.073572464 -0.2635983 0.3871044 -0.42339826 -0.043751925 -0.013387382

fc1.bias f4 [128]
00000000: 8fc7 5d3d ceef 4a3d 4dd1 8f3d 94ce 373d
00000010: 920f e23e a5e4 c1be 17fa 833c 9386 5e3e
00000020: 90f1 683e b6b3 3fbe a461 e13e 00b7 dcba
00000030: 58c1 d23d 8652 64be 65d8 7b3d 6af1 f13c
00000040: fd7a c6be a80b c83e 575e ca3e 1b99 0ebe
00000050: f23e a9be 8f31 383d 8af1 30bd ef32 aebe
00000060: 4818 b3be d529 9cbe 2226 ab3e ba02 d23e
00000070: de52 573e 7668 d1bd caf7 8f3e 10ea fd3c
00000080: a368 c0be 5683 7a3e 9b51 d43e de8f d8bd
00000090: 4f37 3f3e 8acf 2d3c e231 783d 8083 c93d
000000a0: 802a d33d 4131 e3be 78d8 6bbd fbba 8d3e
000000b0: c1de 053d 2498 cfbe a0af 853d 7336 2ebe
000000c0: 1400 603e 27de a1bb 513f 8e3e eca2 83be
000000d0: 32c5 a5be ff49 133e e39a 6cbe 3f57 bd3e
000000e0: 20ed a6bd e86c ad3d 0d87 d53d c5fe fe3c
000000f0: d242 bd3e 676e a73d a6bb 8b3e 0d7f d13e
00000100: 32af d93d 71e0 9abe 3212 f9bc d827 e3be
00000110: 3e4c 0f3e a30f f33d 5026 94be 536e 7abe
00000120: c678 dcbe 386e 2c3e b16c 2fbc 2139 c7be
00000130: bf33 b5be 5dbb 1dbe 281b c43e ddfe be3e
00000140: 8fdb 873d 5cdf 913e eab9 e33e bf19 90be
00000150: 3994 983c e7d2 003e c6b8 b83e fe93 cabe
00000160: cb94 3b3e 84c0 913e c80e 923e a268 8cbe
00000170: 1373 873e 6d97 c53e a955 30be f9d2 c03e
00000180: e16f d9be e5a2 983e b15b 3ebe f555 2ebe
00000190: cdd8 09bd 51d1 a2be 3736 a83e 2d45 12be
000001a0: 4c1d fe3d 820e 213d 6f3c 183d e569 383d
000001b0: 5767 0bbe e319 113c 171f e13e 1ae3 1fbd
000001c0: 9f88 a6be 6cf9 14be 58a2 b83e 76d1 6bbe
000001d0: 12ab 89be 0ffc 54be 3592 e4bd 34bd 4abe
000001e0: 76aa b9be affa b73e c960 be3e 7cb9 143e
000001f0: 1637 063e a2c4 51be 0d52 55be 1f7c f83d
0.054145392 0.0495451 0.07022343 0.044874743 0.44152504 -0.37869754 0.016110463 0.21731023
0.22748399 -0.18720898 0.44019806 -0.0016839206 0.10290784 -0.22297105 0.061485667 0.02953406
-0.38765708 0.39071393 0.395251 -0.13925593 -0.33055836 0.044969138 -0.0431991 -0.34023234
-0.34979463 -0.30500665 0.3342753 0.41017705 0.21027705 -0.102250025 0.28118736 0.030995399
-0.3757983 0.24464163 0.4146851 -0.105743155 0.18673442 0.010608563 0.060594447 0.09839535
0.103108406 -0.44373515 -0.057579488 0.27681717 0.032683138 -0.40545762 0.065276384 -0.17012958
0.2187503 -0.0049398127 0.27782682 -0.25710237 -0.3237701 0.14383696 -0.2310596 0.36980626
-0.08150697 0.08468038 0.104261495 0.031127343 0.36965042 0.081753545 0.27291602 0.40917245
0.10629119 -0.3024936 -0.030404184 -0.44366336 0.13993928 0.11868217 -0.2893548 -0.24456148
-0.43060893 0.1683892 -0.010707066 -0.38910773 -0.35391042 -0.15403505 0.3830197 0.3730382
0.06633674 0.28490722 0.4447778 -0.28144643 0.018625366 0.12580453 0.3607847 -0.39566034
0.18318479 0.2846719 0.28526902 -0.27423579 0.26454982 0.3859209 -0.17220177 0.3766096
-0.4246817 0.2981178 -0.18589665 -0.17024978 -0.033654023 -0.3180032 0.32853863 -0.14284201
0.12407932 0.039320476 0.03716701 0.045022864 -0.1361364 0.0088562695 0.43969032 -0.03903494
-0.3252611 -0.14548272 0.36061358 -0.23029122 -0.2688833 -0.20799278 -0.11160699 -0.19798738
-0.36262864 0.35933444 0.37183216 0.14523882 0.13106951 -0.20485166 -0.20832081 0.12133049

fc2.weight f4 [64, 128]
00000000: a675 fbbc d488 7f3d 6ed0 5d3d 314a a3bd
00000010: 215b 5fbd 685e ad3d 65d8 543d 75de 9fbd
00000020: be9e bfbc 151b 74bd 7f50 1e3d f8a9 e03c
00000030: 7ede 603d 33a2 9dbc 6b24 a23d 8043 0fbd
00000040: 718a 853d 4b08 923c 1b2f 60bd 8b51 893d
00000050: c806 2dbd 50f1 2f3d 5f97 5fbd 1aa3 683d
00000060: e234 8bbd 0510 453d bb70 75bd 832f 2f3d
00000070: ab63 c13b eeaf a5bc 140b 19bd 9f22 9e3d
00000080: d8c2 413d 1289 363d 3f0f b1bb fc25 9ebd
00000090: 4475 433d df0e 86bd 0f10 fcbc 8119 72bb
000000a0: de3a 2ebd 1d37 6d3d 0c19 9ebd 2744 9ebd
000000b0: 1e46 a53d 60dc 803c fc02 043d f624 77bd
000000c0: d43c a6b9 3ce6 58bd 9e49 29bc c0f3 ad3a
000000d0: c5b2 293d a8fc 463d efcd 8b3d e4d1 6c3d
000000e0: 6047 b0bb 1eca 763d b4b5 26bd 7d02 1d3d
000000f0: 9335 533d 945d a6bd e130 853d 1b9b 30bc
00000100: bcb4 843d 6092 153c aa08 393d 238a 8e3d
00000110: bdff 693d 75c2 173d cd85 3e3c d2ee 7cbd
00000120: a4d6 113d 9ab6 883d 2362 31bc 0064 70bd
00000130: ac3b 5fbd de52 e1bc b037 9abd 40b1 1d3d
00000140: 7001 493d c122 b2bd f98a 853c cd0b 39bc
00000150: 121d 7cbd 52f8 09bd 31cc 88bd 565f b23d
00000160: 9bed 3c3d 2fe6 a2bc 960b eebc 116b ebbc
00000170: 09bd 31bd 9e2c 813d 6326 613c 7fd3 9c3c
00000180: ed21 50bd 8baa a13d 4359 383d 52b0 4a3d
00000190: 0104 8fbc 25be fb3c 8b86 cfbb d2dc 6d3d
000001a0: 0263 9abd 7a01 b13c 1888 c93c 8ccd 7b3d
000001b0: 1986 b43c bbf6 a0bd 14d8 a43d 5090 f3bc
000001c0: b06f a13c 0030 8bbb b2df 68bd d866 62bc
000001d0: 0949 963d 0932 79bd 6dde 113c 2082 873c
000001e0: e88d 8a3d 4bfb 8e3d f5f1 9abd c9fd 11bd
000001f0: e05d 1fbd af05 43bd 6376 dabc 5ae0 5d3d
00000200: 0a45 65bd 137c 663d d24f 483d ed66 51bd
00000210: a86f b03d 1d77 00bc 4475 953d 6522 00bd
00000220: 2692 3c3a 76eb f23c 0fb9 a63d 2f5c 813d
00000230: c67c aabd 313a 4a3d db34 033d a2ed 253d
00000240: 2014 983d 93d9 42bd 58ab e33c 2acf 843d
00000250: 9a01 263c a884 adbd 73d1 c5bc a7f3 4b3d
00000260: f85e 98bd 07ea a73d 635d 93bc 00d3 8bbd
00000270: 3341 3b3d 6d4d b43c e076 24bd 2163 9a3d
00000280: 69d4 9c3a 0412 a33d 416f a0bd 7ba1 b0bd
00000290: dc63 9e3d 085f 823d a5d7 6fbd 1acd 753d
000002a0: 7c50 9b3c e48a 69bd efe4 823d beea 5a3d
000002b0: 4823 353d 80f8 1a3c 3460 8cbc 0755 5b3d
000002c0: a213 733c e62e 9cbd 03c8 a73d 8c1b d83c
000002d0: ddbe 883c 15c5 033d f201 1a3d f39c 4a3d
000002e0: 6080 b33c e66f 563d a063 44bd f1d7 763c
000002f0: 28c2 eb3c ef75 a4bc 6e4e 823d 3a3c 8e3c
00000300: 4d3b ceba c0dd 80ba fb3d b13d cd3c 64bd
00000310: b33d 953b 188c 953d 58f8 793d 0125 d73b
00000320: ce07 523d 20fc ed3c 343c 033d 9778 0d3d
00000330: 2f94 e7bc 75c0 123d 45d5 a23c 47d0 1e3d
00000340: f4d6 f23b 9e65 3bba f413 d13c 37de 9c3d
00000350: 6d55 02bd 2290 74bd 8881 1a3d ff98 9f3d
00000360: aa64 5dbd 3bc5 d8bc fbc2 95bc a413 77bd
00000370: 2f49 7fbd 47d5 cfbb add3 403c 92a2 653d
00000380: 217d 513b e29b 1dbd ffd6 f7bc 18e2 89bc
00000390: f6ea 5fbd 8cce 483c 0650 6c3c f28a 96bd
000003a0: a5b2 4ebd 2cdd 403b 4f35 98bd eb00 b4bd
000003b0: fa1c 653d 1863 15bd a228 73bd 0fb7 463d
000003c0: e861 36bd f7c9 b23d b4e3 9fbd 4f83 51bd
000003d0: 40c4 69bb cd4b 3cbd 93f7 653d 9ba6 1bbd
000003e0: e7f7 033d f5cb 313b a2e8 b2bd 8339 49bd
000003f0: 1072 973d ebed 733d e175 2dbd d150 86bc
-0.030695748 0.06238635 0.054153852 -0.07973135 -0.054530267 0.08465272 0.051964182 -0.07806102
-0.023391124 -0.05959614 0.038650986 0.027424797 0.054899685 -0.019242382 0.079171024 -0.034976482
0.06520546 0.01782622 -0.054732423 0.06705006 -0.042242795 0.042954743 -0.054587718 0.05679617
-0.06797196 0.04811098 -0.05992196 0.04276992 0.005901774 -0.020225491 -0.03736408 0.07721447
0.047304958 0.044564314 -0.005403429 -0.07722089 0.047719255 -0.06545805 -0.030769376 -0.003694147
-0.04253661 0.05791389 -0.07719621 -0.07727843 0.080700144 0.015730083 0.03222941 -0.060337983
-0.00031707308 -0.052953944 -0.010332493 0.0013271496 0.041430254 0.048580796 0.06826388 0.057817355
-0.0053796023 0.060251348 -0.04070063 0.03833245 0.051564764 -0.08123317 0.065034635 -0.0107791675
0.06479785 0.009129137 0.04517428 0.06959941 0.057128657 0.037050683 0.01162858 -0.061751194
0.035605088 0.066754535 -0.01082662 -0.058689117 -0.054500267 -0.027505334 -0.07530153 0.038499117
0.049073637 -0.08698035 0.016301619 -0.011294317 -0.06155116 -0.033684082 -0.066795714 0.0870959
0.046125036 -0.01988515 -0.029058259 -0.028737577 -0.04339317 0.06307338 0.013742062 0.019143818
-0.050813604 0.078938566 0.045007 0.04948456 -0.017457964 0.030730316 -0.0063331774 0.05807192
-0.075384155 0.02160715 0.024601027 0.06147532 0.022036599 -0.0785956 0.08049026 -0.0297319
0.019706577 -0.0042476654 -0.056853957 -0.013818465 0.07338149 -0.060838733 0.008903128 0.01654154
0.06765348 0.06981524 -0.07565681 -0.03564242 -0.038907886 -0.047612842 -0.02666778 0.054169036
-0.055974044 0.05627067 0.048904248 -0.05112355 0.08615047 -0.007840899 0.07297757 -0.0312828
0.00071934087 0.029653292 0.08140766 0.06316411 -0.0832458 0.049371902 0.03203283 0.040509827
0.074257135 -0.047570776 0.027791664 0.06484826 0.010132218 -0.08472568 -0.024147725 0.04979291
-0.07439989 0.08198934 -0.017988866 -0.068273544 0.045716476 0.022009576 -0.04015243 0.075384386
0.0011965159 0.079624206 -0.0783372 -0.0862455 0.077338904 0.06365782 -0.058555264 0.060010053
0.018959276 -0.057017222 0.06391322 0.053446524 0.0442231 0.009458661 -0.017135717 0.053547885
0.014836224 -0.07626133 0.08192446 0.026380323 0.016692573 0.032170374 0.03759951 0.049466085
0.0219118 0.05235281 -0.047946572 0.015066133 0.028779104 -0.020075766 0.063626155 0.017362703
-0.0015734226 -0.0009831712 0.086544 -0.055722047 0.0045544743 0.073021114 0.061027855 0.0065656905
0.051276974 0.029050887 0.032039836 0.03453883 -0.028268902 0.035828073 0.019877085 0.038772848
0.0074108783 -0.0007148626 0.02552221 0.076595716 -0.03181975 -0.05970777 0.037721187 0.077928536
-0.05405108 -0.026461234 -0.01828145 -0.060321465 -0.062325653 -0.0063425633 0.011769217 0.056063242
0.0031965452 -0.03847874 -0.030253885 -0.016831443 -0.054667436 0.012256276 0.014423376 -0.073507205
-0.050463337 0.0029428704 -0.07432043 -0.087892376 0.055935837 -0.036471456 -0.059364922 0.048514422
-0.044526964 0.08729928 -0.07807103 -0.051150616 -0.0035669953 -0.045970727 0.05614431 -0.038000684
0.03221884 0.0027129625 -0.087357774 -0.049127113 0.073948026 0.059553068 -0.042348746 -0.016395958

fc2.bias f4 [64]
00000000: fdd6 a53d 2c7f 23bd dc91 a3bd a669 60bd
00000010: 9f10 bbbc e882 7cbd d9c5 3fbd eaf3 e13c
00000020: b1be 8c3c 965d 703d 52a6 a8bd 0c31 153d
00000030: 203b a03d 0d5c a5bd 1d0b 72bd 7edc 023d
00000040: acb7 af3d 0a40 633d 00a3 22bd 27a4 6b3d
00000050: 1d89 54bd 894f 3f3c e203 99bd d749 723d
00000060: 6ec7 3b3d 348d 73bd 1d94 a33d 7cf0 2dbd
00000070: df67 aebd b524 693d 5b85 223c b8ff 993d
00000080: 48c4 95bc bfbc 17bd 86b5 8bbd 0c26 153b
00000090: fcc5 1a3b 70f8 c73c d064 e33c 96bd 6c3d
000000a0: 6940 253d 4348 62bc e036 b4bc 30de 50bd
000000b0: 4dae 223d f0fe 9ebc 8834 1ebd 1a4d 47bd
000000c0: 032c 03bc 9ffc 393d 3e9c a5bd 6c8d 84bd
000000d0: 90ae 99bd 523d 9d3d 69bd 97bd 3483 ba3c
000000e0: d763 173c 9178 24bb 9ecc 0f3d ca04 a53d
000000f0: bbfb 833d 68ef b4bd a922 92bd 7e68 b33d
0.080976464 -0.039916202 -0.07986805 -0.054788254 -0.022835074 -0.06164828 -0.04681954 0.027582128
0.017180772 0.058683 -0.08234848 0.036423728 0.07823777 -0.08074198 -0.05909263 0.03194856
0.085799545 0.055480994 -0.03970623 0.057529595 -0.051888574 0.0116766775 -0.07471444 0.05915245
0.045844488 -0.059460834 0.07987235 -0.042465672 -0.085159056 0.056919772 0.00991949 0.075194776
-0.01828207 -0.037045237 -0.06821732 0.0022758273 0.0023616543 0.024410456 0.027758032 0.05779799
0.04034463 -0.013811174 -0.021998823 -0.050993145 0.039717007 -0.019408673 -0.038624316 -0.048657514
-0.008006099 0.045406934 -0.080864415 -0.064722866 -0.07503998 0.076777115 -0.07409174 0.02276764
0.009240112 -0.0025096277 0.035107248 0.08057554 0.06444498 -0.088347256 -0.07135517 0.08760165

fc3_action.weight f4 [26, 64]
00000000: bc47 df3c ef90 223d f826 d0bd 1698 803d
00000010: 3b94 f8bd b673 c83d 10f6 973c ac83 bfbd
00000020: 99b6 d83d 3848 48bd 5b05 3d3d 49e2 3d3d
00000030: 8a83 3bbd 1ac0 98bd f9b5 f8bc 940d 473b
00000040: 21be a3bd bb27 ccbd 92ef 9f3d 742f dc3d
00000050: 80f3 c23a e21d 89bd 9037 febd 0620 c0bc
00000060: 364d 98bd 7a2d ddbd ecd3 9abd 5ee8 d63d
00000070: 3818 4ebd 5ffd efbc 5a5b 81bd 319d fabc
00000080: 1c59 9f3d 20fe 7ebc a737 71bc 742f 99bd
00000090: 40a1 65bc 0c82 1a3d c04e af3c 3d3a cdbd
000000a0: 06d1 65bd 8a05 2e3d 10c2 04bd e8b1 21bd
000000b0: bd2a 653d 535b b43d ab17 df3d 4e69 a13d
000000c0: def5 81bd de03 adbd b508 fa3d d970 84bd
000000d0: 553f d63c 3ae0 91bd 6bf9 cfbd c09a b13d
000000e0: f522 8cbc e583 263d 0a30 e1bd a83b 523d
000000f0: c758 a13b a8ec f6bc 0860 d83c 25c3 e53d
00000100: 583d c1bd cea2 f53d f4e2 84bd 3414 4b3d
00000110: 0f86 91bd 0097 1a3c 439a d6bc 7f91 d6bd
00000120: 662b ee3d 24d9 09bd 1503 ff3d 4c5d 00be
00000130: 9a30 003d c435 e33d 8725 3dbd 5568 91bd
00000140: ed54 373d 03e8 e93d 0005 6e3a da6e 82bd
00000150: 2cd4 613d 668a dd3d ecda 0cbd 0524 cbbd
00000160: f03f 9ebd 6146 aabd 55d7 62bd 6016 9fbd
00000170: 9ac1 c2bd 6b7d cabd 1f82 a33d 122a cebc
00000180: 3e51 41bb e4c5 3b3d e1eb f03d 790e 963c
00000190: 925c 9fbd 8c71 57bd e2e7 ee3d ed6f 963d
000001a0: c890 ad3d 291e 55bd 2a19 ebbd 0083 c53d
000001b0: 44da b73d be30 02bd 7fb7 da3d caa4 bfbd
000001c0: ecad 88bc 3010 2abd 9ec8 9fbd 7463 8fbd
000001d0: 1717 c0bd ac4f ab3d a130 9bbd 1f68 9bbc
000001e0: 4cb6 31bd 6119 f7bd bcc8 eabc 940c 2ebb
000001f0: 6572 cebd 500a 29bc 5008 9bbc 55ce 16bb
00000200: 5782 a23d 24f3 57bc 9ab5 833d d037 d93c
00000210: c2ba 68bd 20ab 13bd 9011 da3d 04a3 953b
00000220: ebe6 383a 48dc fabd 2f34 cb3a c7c3 bb3d
00000230: f6d5 34bc e024 e5bb 9630 053d 07c6 983c
00000240: 60f9 5ebd 8a81 eb3d 466a ef3d def1 f33d
00000250: 84e5 5abd 534b d83d c8a2 cc3c e8fe 5e3d
00000260: c9bb 1fbc bd9d c13d c1fb dcbd 90c6 06bd
00000270: 64e4 8a3d 6f3d 8e3c 1367 953c 4d53 fa3d
00000280: 4f30 233d 968e b33d 0d6f d73d ede5 75bd
00000290: 0b11 aebd c2d6 c4bd ac99 553d a42e dd3c
000002a0: 4b5e 9dbd 9c0e 8cbd 164c e6bd e7dc 2c3d
000002b0: 220d 1abd 3b71 f1bd e456 5cbd 1416 46bd
000002c0: c57e a93d f42a 873d 94f6 8c3d 52d7 c6bd
000002d0: b24c b1bd 2266 993d 7de2 933d 5193 233d
000002e0: dc1a af3d 91c4 66bd fa17 d6bd 60ee 35bd
000002f0: e4a4 cc3d 10ca b8bc aab3 cbbd 96e7 9ebd
00000300: 3148 b13c 7bd0 52bd 0023 e23d 9089 023d
00000310: 8124 8ebc e4d3 1fbd 6080 8bbd 41a7 b43d
00000320: 3979 8b3d e01f 96bd 3cfc efbd 90e9 82bd
00000330: 03b8 1ebc a617 fcbd 451c 96bc 96df e1bd
00000340: 70cc 463d b49c 10bd 007b 0a3b 06c8 fabc
00000350: 4028 f6bb 11da 913d 3e5d 8c3d b9c0 bcbd
00000360: 5ef9 07bd 974d c83d 618e ebbd 4ae9 10bd
00000370: 8030 d13a 2c45 5ebd a323 2cbd 0cb7 a83c
00000380: c0b0 b33d 8034 ebbb 309f f53d bcdd aebd
00000390: adef ff3d 809e ac3d 4c11 73bd 2fb1 0bbd
000003a0: eda0 e8bd 9fa5 fabc 1c4a d73d 4c4b 99bd
000003b0: 857f b63d 1bbc b23c 6f31 63bc c02a 98bb
000003c0: 78c2 2dbd abc1 dabd 970a c7bd e079 eebd
000003d0: b168 253d ff1a 003d 94c4 553b 28b4 19bc
000003e0: 0be5 66bd c5ec 9f3d 7c66 78bd 57ae 6e3d
000003f0: 3a50 3cbd 6c30 923d 403f 0bbd 448d b43c
0.027255885 0.039689 -0.10163683 0.06279008 -0.12137648 0.09787695 0.018549949 -0.09351286
0.10581703 -0.048897 0.046147685 0.04635838 -0.045779742 -0.074585155 -0.030360209 0.0030373083
-0.079952486 -0.099685155 0.07809366 0.107512385 0.0014873594 -0.06695153 -0.124129415 -0.02345277
-0.07436602 -0.107996896 -0.07559952 0.10493539 -0.050316066 -0.029295621 -0.06316252 -0.030592533
0.07780668 -0.015563518 -0.014722741 -0.07479754 -0.014015496 0.03772168 0.021399856 -0.10020874
-0.056107543 0.04248575 -0.032411635 -0.039476305 0.05594896 0.08806481 0.10893186 0.078814134
-0.063457236 -0.08448003 0.12208692 -0.064668365 0.026153246 -0.07122846 -0.101549946 0.08672094
-0.017106513 0.04065313 -0.10995491 0.051326424 0.004923913 -0.030142143 0.026412979 0.112188615
-0.094355285 0.11993943 -0.064886004 0.049579814 -0.07105648 0.009435415 -0.026196605 -0.1047697
0.11629371 -0.033654347 0.1245176 -0.1253559 0.03129635 0.11094239 -0.046178367 -0.07099978
0.044758726 0.11421206 0.00090797246 -0.063687995 0.055133983 0.10817413 -0.034388468 -0.099189796
-0.07727039 -0.08314205 -0.055381138 -0.077679396 -0.09509583 -0.09887203 0.07983803 -0.025166545
-0.0029497887 0.04584302 0.1176374 0.018317448 -0.07781328 -0.05259852 0.11665322 0.07345567
0.084748805 -0.052030716 -0.11479409 0.09644127 0.08977178 -0.031784765 0.1067953 -0.09357603
-0.016684495 -0.041519344 -0.078019366 -0.07001391 -0.09379404 0.083648056 -0.075776346 -0.018970547
-0.043386742 -0.120653875 -0.02866017 -0.002655779 -0.10080413 -0.0103174 -0.018924862 -0.0023011167
0.079350166 -0.013180528 0.06431122 0.026515871 -0.05681873 -0.03605187 0.10647881 0.004566552
0.00070534524 -0.122490466 0.0015503223 0.09168201 -0.01103734 -0.0069929212 0.03251704 0.018649114
-0.05443704 0.11499317 0.11690192 0.11911367 -0.05344154 0.10561242 0.024979964 0.054442316
-0.009749361 0.09453914 -0.10790206 -0.032904208 0.06781843 0.017363278 0.018237626 0.122229196
0.039840993 0.087674305 0.10519228 -0.060033727 -0.084993444 -0.09611274 0.052148506 0.026999779
-0.076840006 -0.06838724 -0.11244981 0.042202856 -0.03761018 -0.11789175 -0.053793803 -0.0483609
0.082761325 0.065999895 0.068829685 -0.09709038 -0.086572066 0.074901834 0.072209336 0.039935414
0.08550045 -0.056339804 -0.10453792 -0.044416785 0.09992388 -0.022557288 -0.099463776 -0.07759015
0.021640869 -0.051468354 0.11041832 0.03186947 -0.01735139 -0.039020434 -0.06811595 0.08820964
0.06810231 -0.073302984 -0.11718032 -0.06392205 -0.0096874265 -0.12309198 -0.018324027 -0.11028974
0.04853481 -0.035305694 0.0021130443 -0.030612957 -0.0075121224 0.07121671 0.06853722 -0.092164464
-0.0331968 0.09780424 -0.11501766 -0.03537873 0.0015959889 -0.054265186 -0.042026173 0.020595096
0.08773947 -0.0071778893 0.11993253 -0.08538386 0.124968864 0.08428669 -0.059342667 -0.034104522
-0.11358819 -0.030596552 0.10512182 -0.07485065 0.08911041 0.021818211 -0.013866766 -0.004643768
-0.042421788 -0.106814705 -0.09718817 -0.116443396 0.040383045 0.031275745 0.003261839 -0.0093813315
-0.056370776 0.07808832 -0.06064461 0.058271732 -0.045974948 0.07138142 -0.033995867 0.022040017

fc3_action.bias f4 [26]
00000000: 88cb 92bd 1424 84bc 72df 5e3d 7f33 803d
00000010: 97cb aebd b862 e8bd e9d3 5b3d 16d4 a33d
00000020: aac2 5a3d 1b99 dabd a956 a1bd 7c68 c13c
00000030: e289 2bbc aae4 0c3d e975 43bd be3b 063d
00000040: 415b 8abc b2b0 fc3d 0280 c5ba 0d7f ed3c
00000050: 09b9 7c3d dc22 b6bd 0ac3 4cbd de43 263d
00000060: 16db f4bd 23ad 553d
-0.07167727 -0.016130485 0.054412313 0.06259822 -0.085349254 -0.11346954 0.05366889 0.079994366
0.053408302 -0.10673734 -0.07877857 0.023609392 -0.010469886 0.03439776 -0.04771987 0.03277182
-0.016889216 0.123383895 -0.0015068057 0.028991247 0.0616999 -0.08893368 -0.04999069 0.040592067
-0.1195585 0.05216707
