traditional_vrpb_best.pth (torch, 46077 bytes, 6 tensors)

fc1.weight f4 [128, 5]
-0.21337643 -0.101031005 -0.30550647 0.0617882 -0.04242745 -0.121646434 0.40061566 0.077339455
0.26828134 0.29664677 -0.3057686 -0.38103232 -0.25310498 -0.16612142 0.22842473 0.18807505
-0.3813142 0.066734135 -0.25117186 0.30995518 -0.3003051 0.44556832 -0.26037976 -0.08217369
0.092449665 0.31713542 0.24624126 0.023855839 0.020416616 0.39564478 -0.3960058 0.14730784
0.35542795 -0.082107216 0.26916772 0.4066736 -0.16656928 0.40466377 -0.3353636 0.25276315
-0.36961225 0.2919637 0.23767589 0.2909706 0.08295312 0.06558243 -0.09306211 0.38400984
0.04450929 -0.088188015 -0.34183207 -0.061568744 -0.19130503 -0.22338206 -0.13802879 0.26770723
-0.34133962 -0.23418652 -0.34094888 -0.186746 -0.33666903 -0.0043829842 -0.025474573 -0.0023887563
0.15773194 -0.059955 0.3617164 -0.050258785 -0.17507228 -0.28190854 -0.09571418 0.025954042
-0.18017976 0.11921095 0.3939367 0.15887731 0.14044648 -0.27382678 -0.15210325 -0.30419493
-0.00030933297 0.4087476 0.014576533 -0.06135518 0.14531383 -0.39461526 0.0041387677 0.05651748
0.029003322 0.19067937 -0.3182017 0.38401556 -0.25762466 -0.33519357 0.33206275 -0.40792888
0.04797701 -0.36996862 -0.35339755 0.29674083 0.021021174 -0.35739827 0.08813101 0.2973552
-0.23722124 0.13822153 0.104204394 0.119210936 -0.06454616 -0.37985483 -0.29579693 -0.41215545
-0.3367034 0.1371299 -0.28834563 -0.34945428 0.17020805 0.07860553 -0.04855046 0.014767296
0.1434326 0.16811453 -0.40472215 0.43980914 -0.15702164 -0.15861234 0.2803359 0.03329098
0.19280705 0.14884521 0.3731326 0.36282557 0.28095844 -0.12306009 -0.014446549 0.4129881
0.09544424 0.022694731 -0.36907113 0.24524552 0.07997168 0.23531464 -0.14651367 0.2900685
-0.44680318 -0.35513824 -0.3378418 0.31764773 0.13199577 0.3184887 0.07322487 -0.34791154
0.38774773 0.343175 -0.14873235 0.40943083 -0.1129362 -0.28933033 -0.3857079 0.43513277
-0.092393525 0.14559221 -0.16119646 0.4041263 -0.19438273 -0.4388734 -0.2894091 -0.21885349
-0.3172977 0.13440454 0.113439746 -0.05471941 0.0034458002 -0.06319007 0.2156157 -0.22272137
0.28542298 0.071374066 -0.38793218 0.35329652 -0.19316775 0.3383148 -0.3896912 0.38245615
-0.24820463 0.0006964803 -0.24443953 -0.076165974 0.16473848 -0.0453586 0.39120868 0.21555704
-0.19304857 -0.21571125 -0.36101848 -0.24022174 -0.08414522 0.14761527 0.3102606 0.15917589
0.08149717 0.33475372 -0.3317876 -0.07399988 0.34588155 0.0589192 0.42732742 -0.12767541
-0.13217627 -0.0957116 -0.25830293 0.14626038 -0.3443743 0.13792032 -0.41396433 0.19015259
-0.167667 -0.34266755 0.43633068 -0.156162 -0.091508314 0.43085203 -0.40720293 -0.10303844
0.09292118 0.14216083 0.4047261 0.28427935 -0.010570094 0.13295029 -0.32502344 0.05939285
0.28581616 0.41079292 -0.28222632 0.04488192 0.09070421 0.33595634 0.028026337 -0.05160398
-0.15266664 0.23525885 0.13979273 0.17690733 -0.20008443 -0.05467389 0.20933074 -0.39656085
0.37621185 -0.011352104 -0.31241697 0.20344299 -0.2573438 -0.21495005 -0.3676473 0.22027206
00000000: 5a7f 5abe 58e9 cebd 586b 9cbe a015 7d3d
00000010: 68c8 2dbd c421 f9bd 7f1d cd3e 2664 9e3d
00000020: 2c5c 893e 16e2 973e b48d 9cbe ab16 c3be
00000030: fa96 81be bc1b 2abe 2ce8 693e bf96 403e
00000040: 9d3b c3be e8ab 883d 9999 80be 72b2 9e3e
00000050: 97c1 99be 8821 e43e 7f50 85be ae4a a8bd
00000060: 4056 bd3d 935f a23e ab26 7c3e 526d c33c
00000070: bf40 a73c f491 ca3e 46c1 cabe ded7 163e
00000080: a7fa b53e d427 a8bd 5ad0 893e 8637 d03e
00000090: 2391 2abe 1730 cf3e c7b4 abbe 2c6a 813e
000000a0: d13d bdbe 447c 953e 4f61 733e 19fa 943e
000000b0: 53e3 a93d 1550 863d 5997 bebd f09c c43e
000000c0: 604f 363d eb9b b4bd 9d04 afbe 822f 7cbd
000000d0: 77e5 43be 44be 64be 6b57 0dbe ec10 893e
000000e0: 11c4 aebe 97ce 6fbe da90 aebe 583a 3fbe
000000f0: e25f acbe 239f 8fbb 0db0 d0bc ae8c 1cbb
00000100: 7b84 213e 6093 75bd e432 b93e 28dc 4dbd
00000110: 2646 33be 5156 90be cc05 c4bd 929d d43c
00000120: 0b81 38be df24 f43d 12b2 c93e bcb0 223e
00000130: 34d1 0f3e 0633 8cbe f4c0 1bbe 70bf 9bbe
00000140: f82d a2b9 5e47 d13e 69d2 6e3c 924f 7bbd
00000150: 26cd 143e 030b cabe 809e 873b e07e 673d
00000160: 6098 ed3c 7441 433e 55eb a2be b09d c43e
00000170: 61e7 83be 7e9e abbe 2104 aa3e 0edc d0be
00000180: 8b83 443d 876c bdbe 86f0 b4be 6aee 973e
00000190: 9934 ac3c e8fc b6be 087e b43d f13e 983e
000001a0: 20ea 72be f289 0d3e 1d69 d53d dd24 f43d
000001b0: c730 84bd 557c c2be b272 97be 0a06 d3be
000001c0: 6364 acbe c86b 0c3e 0aa2 93be aceb b2be
000001d0: 054b 2e3e f0fb a03d d9dc 46bd 87f2 713c
000001e0: ffdf 123e 3726 2c3e be37 cfbe aa2e e13e
000001f0: 48ca 20be 466b 22be 3088 8f3e 1f5c 083d
00000200: 366f 453e e16a 183e 3c0b bf3e 46c4 b93e
00000210: c9d9 8f3e ee06 fcbd 38b1 6cbc 2d73 d33e
00000220: 4578 c33d 4dea b93c e4f6 bcbe a421 7b3e
00000230: 31c8 a33d 52f6 703e ae07 16be dc83 943e
00000240: 63c3 e4be aed4 b5be 9af9 acbe b9a2 a23e
00000250: e629 073e f310 a33e ecf6 953d 7621 b2be
00000260: df86 c63e a2b4 af3e 4b4d 18be eba0 d13e
00000270: 184b e7bd 1b23 94be 827b c5be b9c9 de3e
00000280: d138 bdbd 2016 153e af10 25be a4e9 ce3e
00000290: 440c 47be 04b4 e0be 6e2d 94be 211b 60be
000002a0: d874 a2be 58a1 093e 1953 e83d 7621 60bd
000002b0: efd2 613b cc69 81bd 5dca 5c3e 1211 64be
000002c0: f622 923e 912c 923d 0c9f c6be 48e3 b43e
000002d0: c4cd 45be 9937 ad3e 9b85 c7be 4bd1 c33e
000002e0: 5b29 7ebe 0094 363a 5b4e 7abe e8fc 9bbd
000002f0: 34b1 283e f0c9 39bd 814c c83e fcba 5c3e
00000300: 86ae 45be 69e3 5cbe 6ad7 b8be b0fc 75be
00000310: 5454 acbd 7528 173e 7ada 9e3e 01ff 223e
00000320: fde7 a63d d764 ab3e 10e0 a9be 408d 97bd
00000330: 6317 b13e 4255 713d a9ca da3e 58bd 02be
00000340: 3759 07be 7104 c4bd 4840 84be 48c5 153e
00000350: d451 b0be fc3a 0d3e 22f3 d3be 5cb7 423e
00000360: e6b0 2bbe 1f72 afbe bc66 df3e eee8 1fbe
00000370: b668 bbbd a398 dc3e e77c d0be d105 d3bd
00000380: 764d be3d 9c92 113e 4238 cf3e 108d 913e
00000390: 302e 2dbc 1f24 083e 7969 a6be eb45 733d
000003a0: 7f56 923e 7353 d23e f87f 90be 1bd6 373d
000003b0: 21c3 b93d 7802 ac3e 7d97 e53c b25e 53bd
000003c0: a554 1cbe b2e7 703e d325 0f3e 3227 353e
000003d0: efe2 4cbe bbf1 5fbd cc5a 563e 060a cbbe
000003e0: d79e c03e 2dfe 39bc 1ef5 9fbe 5c53 503e
000003f0: 91c2 83be de1b 5cbe 443c bcbe 008f 613e

fc1.bias f4 [128]
-0.31575018 -0.43992004 -0.13896215 -0.19910029 0.3152821 0.37986043 -0.28300563 -0.17105532
0.35175958 0.13862151 0.37563473 -0.39627033 0.33410996 -0.25010914 0.3163069 -0.041188493
-0.030275289 -0.37559125 -0.096163526 -0.13738643 -0.27154848 -0.2843021 -0.09145671 0.2795824
-0.243766 0.00027033122 -0.19550668 -0.05587444 -0.23092537 -0.43282655 -0.4087402 -0.33669135
-0.070316434 -0.3589243 -0.26107016 0.1845719 0.02063876 -0.36285606 0.061380833 -0.23541312
-0.37460968 -0.007109353 -0.012066275 0.36877918 0.050917376 -0.28763658 0.27137503 0.21382543
0.40170753 0.11818332 0.29644245 -0.117744036 -0.31102383 0.2198779 0.11067716 0.28516814
-0.21070166 -0.014345674 -0.10561992 0.1262776 0.38225323 -0.42441514 0.16268326 0.12395602
0.38729396 -0.3473377 -0.26098597 0.005878618 0.21542293 0.18303874 0.02550824 -0.35857907
0.07292958 0.32509902 0.3540497 0.21100417 0.09212985 -0.36147267 0.28609285 0.07031316
0.089860275 0.35104316 0.019595975 0.026402947 -0.031309787 -0.18128493 -0.043981344 0.029528782
-0.122920915 0.035510663 0.18862364 0.3526821 -0.44351196 -0.020364927 -0.13870478 -0.16379173
-0.039550215 -0.05892271 0.17540972 0.06821176 -0.28708413 0.23258854 0.22875144 0.33245933
-0.03953401 0.090772085 -0.3326257 0.24955134 -0.12328909 0.05241247 -0.29687414 -0.39494017
0.12591654 0.032786716 -0.15267336 -0.44211435 0.3234471 0.3251907 -0.19660243 -0.35120127
0.37321427 0.24350408 0.41173196 -0.27491894 -0.09100134 0.016139712 -0.25400114 -0.35581255
00000000: 02aa a1be 333d e1be 184c 0ebe f2e0 4bbe
00000010: a86c a13e 117d c23e 1de6 90be 2029 2fbe
00000020: d519 b43e ccf2 0d3e 3253 c03e f2e3 cabe
00000030: 7610 ab3e 4e0e 80be faf2 a13e 44b5 28bd
00000040: e203 f8bc 7f4d c0be 62f1 c4bd 07af 0cbe
00000050: 6708 8bbe 0b90 91be a84d bbbd 6d25 8f3e
00000060: cb9d 79be 3ebb 8d39 e732 48be 99dc 64bd
00000070: b377 6cbe 719b ddbe 6546 d1be cf62 acbe
00000080: 1002 90bd edc4 b7be fdaa 85be 6b00 3d3e
00000090: 9e12 a93c 45c8 b9be 786a 7b3d 2310 71be
000000a0: d7cc bfbe 93f5 e8bb a0b1 45bc a0d0 bc3e
000000b0: bd8e 503d 1a45 93be abf1 8a3e 0ef5 5a3e
000000c0: 9cac cd3e 190a f23d 4ec7 973e c923 f1bd
000000d0: 843e 9fbe ac27 613e b5aa e23d 8f01 923e
000000e0: 2dc2 57be 1e0a 6bbc 424f d8bd ea4e 013e
000000f0: b2b6 c33e f14c d9be 7196 263e a7dc fd3d
00000100: 654b c63e 3fd6 b1be f49f 85be 6ca1 c03b
00000110: d497 5c3e 826e 3b3e a8f6 d03c ad97 b7be
00000120: 1b5c 953d 6173 a63e 0146 b53e 7a11 583e
00000130: 93ae bc3d f212 b9be c37a 923e 5900 903d
00000140: aa08 b83d eebb b33e bd87 a03c fe4a d83c
00000150: b13e 00bd c2a2 39be c825 34bd 58e6 f13c
00000160: f6bd fbbd a173 113d 8e26 413e c092 b43e
00000170: 0014 e3be 59d4 a6bc a008 0ebe 05b9 27be
00000180: 68ff 21bd f158 71bd 9b9e 333e 9bb2 8b3d
00000190: b1fc 92be b12b 6e3e d13d 6a3e 1c38 aa3e
000001a0: 6aee 21bd b7e6 b93d ea4d aabe 638a 7f3e
000001b0: fe7e fcbd 75ae 563d e3ff 97be 9935 cabe
000001c0: 44f0 003e 5d4b 063d 6856 1cbe d05c e2be
000001d0: dc9a a53e 657f a63e 2652 49be a7d0 b3be
000001e0: f115 bf3e 2259 793e 88ce d23e 2dc2 8cbe
000001f0: e95e babd 6e37 843c 700c 82be 102d b6be

fc2.weight f4 [64, 128]
0.0677344 0.026672635 0.083864145 0.025014043 -0.041597646 -0.081808336 -0.061863873 0.0422272
0.030289281 0.05881099 0.06902392 0.022490896 -0.011163597 0.0014714077 0.054080464 -0.042814244
-0.00011499148 -0.02825078 0.03305167 0.079090685 -0.06290348 0.021811023 0.06349959 -0.003909094
0.03992314 0.04410399 -0.060213726 -0.076360166 -0.021008298 -0.0211308 0.08152258 -0.0059264274
-0.009647775 0.06650337 0.067067124 0.04045406 0.08861819 0.030365013 -0.08730679 -0.061975207
0.07354685 -0.016277514 -0.021322943 -0.04658551 -0.02402533 0.061452318 -0.06370337 -0.08285636
-0.040860448 -0.067696616 -0.04075517 -0.060533833 -0.019168146 0.062396295 0.0495817 0.0743356
0.05334369 -0.017548533 -0.07747914 0.013908335 -0.026723092 0.034421563 -0.005931261 -0.0822329
0.06822403 0.078993246 0.088365845 -0.018674275 0.02067578 0.024620447 -0.049169637 -0.058900926
0.04095275 0.055104062 0.07766642 0.031032598 -0.08124553 0.03931587 -0.041734256 0.0045118197
-0.007730099 0.0557411 0.050780483 0.044024047 -0.030073794 0.062306367 0.02939707 -0.043188833
-0.040990256 -0.014817527 0.04374595 0.060529597 0.08869177 0.012258786 0.032387957 0.03672768
-0.0014452785 0.022388676 0.08128451 -0.05957641 0.04628579 -0.08038091 0.03590655 -0.06578957
0.07698692 0.06576396 0.0033339858 -0.06302818 0.017129138 -0.045956723 -0.0015907475 0.040495865
0.07437769 0.005841325 0.06721308 -0.00015248358 -0.08335908 -0.005512215 -0.04514727 0.042481232
0.027920539 0.07735867 -0.015548117 0.049330883 0.07271729 0.010982204 0.05542386 0.07754541
-0.050615035 -0.073155284 0.03503619 -0.020485252 -0.06148083 0.08715545 0.083709605 -0.03106736
0.016784111 0.066846065 0.002509827 -0.02388636 -0.052371617 -0.079651125 0.03279968 -0.060249418
0.038728256 -0.008532606 0.029363282 0.035019394 0.0033324603 0.00021489033 0.04994329 0.08537312
0.07401687 0.07420597 0.03411124 0.07061542 0.041564282 -0.06626149 0.07312161 0.027128829
-0.08170498 0.046272837 -0.04639755 0.07614356 -0.017252404 0.013422884 0.005612939 0.04212106
-0.06057952 0.06190257 0.054582335 0.006510696 0.08570599 -0.079532884 -0.0441255 -0.027528908
-0.038732536 0.060177557 -0.030922495 -0.075048484 -0.07025064 0.03438952 0.07261038 -0.028035393
-0.0049855113 0.034882747 0.08488961 0.05604348 -0.067506015 0.07040254 -0.06407734 0.04168352
-0.053286098 0.077389844 -0.02865285 -0.07903438 -0.037105598 -0.068108775 0.05698145 -0.07677153
-0.031498488 -0.049925234 -0.004105925 0.06582803 0.04932787 0.05688733 0.07720416 0.042060364
0.05652691 0.058340907 -0.018039249 0.025118532 0.012303594 -0.044362843 0.07429669 -0.0018497112
0.08565144 0.0030443573 -0.025856981 -0.020214038 -0.01689127 -0.049237892 0.030495586 -0.021892961
0.06560611 -0.055896208 -0.031426802 -0.067577 0.06856605 0.0325903 0.07669974 0.00404624
0.033140354 0.08373826 0.0030848205 -0.059382085 0.04598729 -0.021512313 -0.061053194 8.585296e-05
-0.07466631 0.037872102 0.052907616 -0.041570257 -0.013580358 0.0711959 -0.08391227 -0.053791728
0.036279347 -0.027989632 0.022688342 -0.012375328 0.007990701 -0.08551113 0.06374954 -0.05949219
00000000: 55b8 8a3d 9280 da3c f7c0 ab3d 40ea cc3c
00000010: 4b62 2abd 218b a7bd f964 7dbd 6ef6 2c3d
00000020: 3a21 f83c cbe3 703d 6a5c 8d3d d43e b83c
00000030: 85e7 36bc 40dc c03a 7a83 5d3d fd5d 2fbd
00000040: 9527 f1b8 2e6e e7bc 3061 073d 4cfa a13d
00000050: 8ad3 80bd 08ad b23c 130c 823d db17 80bb
00000060: 7286 233d 63a6 343d aba2 76bd b862 9cbd
00000070: 9819 acbc 801a adbc 4ff5 a63d 7a32 c2bb
00000080: b411 1ebc eb32 883d 7d5a 893d 28b3 253d
00000090: 747d b53d 0cc0 f83c e7cd b2bd b7d9 7dbd
000000a0: bb9f 963d 6c58 85bc 74ad aebc 73d0 3ebd
000000b0: c5d0 c4bc 6db5 7b3d ea76 82bd 98b0 a9bd
000000c0: 495d 27bd 86a4 8abd e5ee 26bd 53f2 77bd
000000d0: 8406 9dbc 4293 7f3d 2e16 4b3d 433d 983d
000000e0: ea7e 5a3d f1c1 8fbc 62ad 9ebd c9df 633c
000000f0: 63ea dabc a0fd 0c3d 065b c2bb b969 a8bd
00000100: 0ab9 8b3d 36c7 a13d 27f9 b43d cbfa 98bc
00000110: 4160 a93c d2b0 c93c 1a66 49bd 1942 71bd
00000120: 12be 273d ccb4 613d 920f 9f3d 1338 fe3c
00000130: 0e64 a6bd ad09 213d 8af1 2abd e3d7 933b
00000140: c54c fdbb c850 643d 32ff 4f3d 8f52 343d
00000150: 515d f6bc f634 7f3d 20d2 f03c c6e6 30bd
00000160: 66e5 27bd 36c5 72bc f42e 333d e2ed 773d
00000170: 08a4 b53d 13d9 483c 3ca9 043d c46f 163d
00000180: 806f bdba 7568 b73c 7e78 a63d 6506 74bd
00000190: 2b96 3d3d bf9e a4bd bf12 133d afbc 86bd
000001a0: 51ab 9d3d 41af 863d 007f 5a3b eb14 81bd
000001b0: 6852 8c3c 1e3d 3cbd a180 d0ba fede 253d
000001c0: 5553 983d 9668 bf3b 03a7 893d 00e4 1fb9
000001d0: 2ab8 aabd d09f b4bb 58ec 38bd cd00 2e3d
000001e0: 9db9 e43c 396e 9e3d 88bd 7ebc 2e0f 4a3d
000001f0: cdec 943d b4ee 333c 2104 633d 21d0 9e3d
00000200: b651 4fbd 70d2 95bd 1c82 0f3d b0d0 a7bc
00000210: 53d3 7bbd 8e7e b23d f16f ab3d fa80 febc
00000220: d57e 893c 97e6 883d e97b 243b 54ad c3bc
00000230: 9f83 56bd 2120 a3bd f558 063d 18c8 76bd
00000240: 85a1 1e3d 58cc 0bbc 448b f03c 7f70 0f3d
00000250: 6865 5a3b 2f54 6139 5691 4c3d 1ad8 ae3d
00000260: 2896 973d 4df9 973d 3ab8 0b3d d19e 903d
00000270: 4f3f 2a3d 1bb4 87bd c8c0 953d 473d de3c
00000280: f154 a7bd 9688 3d3d 5b0b 3ebd 28f1 9b3d
00000290: ea54 8dbc a8eb 5b3c bfec b73b 2287 2c3d
000002a0: 3b22 78bd 8d8d 7d3d ba91 5f3d ad57 d53b
000002b0: 9f86 af3d 23e2 a2bd f1bc 34bd 4e84 e1bc
000002c0: 02a6 1ebd be7c 763d 2c51 fdbc 05b3 99bd
000002d0: 91df 8fbd 06dc 0c3d c0b4 943d 7baa e5bc
000002e0: 805d a3bb 36e1 0e3d 9bda ad3d d98d 653d
000002f0: 9840 8abd 352f 903d fb3a 83bd 57bc 2a3d
00000300: 8642 5abd 917e 9e3d 62b9 eabc c7dc a1bd
00000310: 0afc 17bd 9d7c 8bbd 6265 693d 643a 9dbd
00000320: 8f04 01bd 677e 4cbd ff8a 86bb d9d0 863d
00000330: 050c 4a3d b002 693d 371d 9e3d 7d47 2c3d
00000340: c388 673d e0f6 6e3d 0cc7 93bc 61c5 cd3c
00000350: 0395 493c d0b5 35bd dd28 983d 0272 f2ba
00000360: 066a af3d d783 473b 05d2 d3bc e997 a5bc
00000370: 905f 8abc acad 49bd e1d1 f93c de58 b3bc
00000380: 7f5c 863d 6cf3 64bd 64b9 00bd cf65 8abd
00000390: 5b6c 8c3d 687d 053d c114 9d3d 5296 843b
000003a0: 2ebe 073d f77e ab3d b32a 4a3b a13a 73bd
000003b0: 2b5d 3c3d 973a b0bc ea12 7abd f50b b438
000003c0: a6ea 98bd c71f 1b3d a8b5 583d 9345 2abd
000003d0: 2680 5ebc 28cf 913d 32da abbd b754 5cbd
000003e0: a799 143d 834a e5bc e7dc b93c e3c1 4abc
000003f0: 6eeb 023c 7620 afbd 1e8f 823d 15ae 73bd

fc2.bias f4 [64]
0.02044202 -0.015873816 0.06803658 -0.029852843 0.03655167 0.0024103627 0.028794402 -0.086059
0.03312619 0.060279246 0.058779053 0.03220475 0.020697063 0.006558262 -0.01685714 0.045531232
0.048509143 -0.028164627 -0.014812643 -0.025463294 -0.062722504 -0.05717092 0.007409072 0.049656454
-0.071583465 -0.07635908 0.0460129 -0.011826832 0.063027255 -0.04852173 -0.06526123 -0.066429555
-0.08626868 0.053350955 0.034674965 0.05693992 0.060427178 -0.07528234 0.07758865 0.07581123
-0.049259137 0.046311654 0.07495165 -0.04723921 0.016931133 -0.022409419 -0.0393527 0.004430391
-0.04147701 -0.039315473 0.015399851 -0.08990828 -0.006048217 0.03746008 0.005136261 0.01320304
0.042166207 0.028431147 0.035867985 -0.040156726 0.06857668 -0.06306556 -0.07660398 -0.06833832
00000000: 0676 a73c ce09 82bc c356 8b3d f38d f4bc
00000010: 34b7 153d 2df7 1d3b 3de2 eb3c b33f b0bd
00000020: 54af 073d 5fe7 763d 4ec2 703d 21e9 033d
00000030: e38c a93c b0e6 d63b fc17 8abc f57e 3a3d
00000040: 86b1 463d 81b9 e6bc bab0 72bc 6698 d0bc
00000050: a874 80bd 0e2c 6abd cdc7 f23b 9164 4b3d
00000060: 5a9a 92bd 2662 9cbd 0678 3c3d 54c5 41bc
00000070: 6f14 813d b9be 46bd aea7 85bd 380c 88bd
00000080: a2ad b0bd 8886 5a3d 5607 0e3d d539 693d
00000090: 7d82 773d a12d 9abd cce6 9e3d eb42 9b3d
000000a0: f3c3 49bd 4ab1 3d3d 4080 993d e77d 41bd
000000b0: 29b3 8a3c f593 b7bc 4c30 21bd d02c 913b
000000c0: cce3 29bd 4309 21bd a84f 7c3c d521 b8bd
000000d0: 1f30 c6bb be6f 193d 154e a83b 9051 583c
000000e0: 79b6 2c3d 70e8 e83c 4fea 123d 617b 24bd
000000f0: ee71 8c3d 8428 81bd 8ce2 9cbd f6f4 8bbd

fc3_action.weight f4 [26, 64]
-0.1190457 -0.00015332464 0.040254634 -0.08501632 0.09842332 -0.048798855 -0.10030176 -0.08437173
0.01609213 -0.089441344 0.009328092 -0.021283733 -0.044925954 0.02883856 -0.0701663 -0.071727894
0.08038713 0.11151914 0.123315424 0.08156668 -0.005914554 0.043707386 -0.065916024 -0.00751008
0.02468937 0.05290124 -0.023489177 -0.024936022 -0.099947006 0.110215016 0.0018444394 0.124863215
-0.110600606 0.123140454 0.029549692 -0.0014563439 0.08112053 0.112373784 0.023902891 0.03322288
-0.10077636 0.059162457 0.05743738 0.071799755 0.11993551 -0.08533862 -0.017459018 -0.0390089
-0.1067648 -0.07292886 0.049493473 0.07293414 0.10954304 -0.10488119 0.10814508 0.08592711
0.12077635 0.052056804 0.053883266 -0.01293987 -0.10868763 -0.017320499 0.040699154 0.049453594
-0.11950305 -0.0077150273 -0.10525281 0.06404539 0.001000614 -0.06346634 0.015328131 -0.017068341
0.05676015 0.0630168 -0.044352163 0.09580855 0.09731688 0.12009363 0.08629584 -0.10709995
0.045343503 0.058858424 -0.04748569 -0.042496745 0.06508914 -0.010102673 -0.06540983 -0.0013621663
-0.07275816 0.102393016 -0.018260136 -0.07977963 0.10642423 -0.03362755 0.040118136 -0.060108338
0.1249515 -0.10304369 -0.07194248 0.011726824 0.12409102 -0.07994254 -0.037377447 0.036325444
-0.082176164 -0.061240837 -0.1214495 -0.06299092 -0.11397364 0.021564202 0.018782249 0.08106516
0.049216133 0.098350935 -0.036974076 0.08500185 0.10212703 0.020276468 0.07542341 -0.06042655
0.07092742 -0.11173491 -0.081711166 0.10983017 0.059086494 -0.12160236 -0.06635235 0.054507967
0.06000566 0.09004939 -0.11135309 -0.009385242 0.1217172 -0.04476293 -0.06807444 -0.1036126
0.0672838 -0.09161298 0.1263701 0.07960044 -0.060093794 0.043318674 0.024144454 0.028341142
0.08132121 0.012652413 0.102556445 -0.005455893 -0.06780946 -0.037867974 0.008477844 0.08560687
0.01139758 0.03930579 0.09271668 -0.029348942 0.032377776 0.11905235 -0.034308545 -0.04595557
-0.10472761 0.10771118 0.00792919 0.11332478 -0.013267427 0.0396107 0.077737205 0.097660094
0.015383497 -0.076743 -0.0251269 0.024191342 0.003593767 0.07873135 -0.097096175 -0.1190722
0.08270458 -0.04763339 0.08984275 -0.03596642 -0.019216001 -0.08484805 -0.07145953 -0.00051821454
-0.107176684 -0.048696354 -0.0034750488 -0.07711223 -0.031013135 0.0064006746 -0.07298529 0.07034035
0.02158267 -0.07025052 0.027232222 0.11330724 -0.08202282 0.064711876 -0.026789686 -0.014773697
0.025445767 0.07228482 0.0016448932 0.013403266 -0.09286568 -0.013890728 -0.0876927 0.113719404
-0.004485503 -0.12340112 -0.06182247 0.11717909 0.061500445 -0.10742777 -0.05074558 0.0047883275
0.064890124 -0.117474556 -0.07102786 0.07931987 0.11456916 0.008980358 0.090896904 0.07823042
0.09342924 0.106795415 0.0665109 0.10679009 0.10077204 0.057256907 0.08050426 -0.11333893
-0.022777095 -0.0636152 -0.086216815 0.06118828 -0.090950765 0.032210767 -0.03498854 -0.009055659
0.011404773 0.07058598 0.07329574 -0.00793529 0.026271587 -0.117285945 -0.100765795 -0.029089399
-0.1102533 0.08809742 -0.044968195 0.021595508 -0.09155107 0.032763124 -0.08005583 -0.054270737
00000000: 3bce f3bd c5c5 20b9 0be2 243d 091d aebd
00000010: 2a92 c93d 4fe1 47bd 026b cdbd 16cb acbd
00000020: a5d3 833c 062d b7bd dbd4 183c 395b aebc
00000030: 4704 38bd d83e ec3c 59b3 8fbd 13e6 92bd
00000040: 02a2 a43d 2664 e43d cc8c fc3d 6e0c a73d
00000050: e0ce c1bb 8406 333d fbfe 86bd 1e17 f6bb
00000060: 5d41 ca3c f8ae 583d 606c c0bc a146 ccbc
00000070: 04b1 ccbd 69b8 e13d 1ec1 f13a 49b8 ff3d
00000080: 9282 e2bd 1031 fc3d 3212 f23c cbe2 beba
00000090: 8522 a63d 3a24 e63d ffcf c33c b714 083d
000000a0: d663 cebd 5554 723d 7543 6b3d c00b 933d
000000b0: c0a0 f53d 04c6 aebd 3706 8fbc ccc7 1fbd
000000c0: 81a7 dabd ba5b 95bd abb9 4a3d 7f5e 953d
000000d0: 1a58 e03d f3cb d6bd 2b7b dd3d 8dfa af3d
000000e0: 9759 f73d 8439 553d b3b4 5c3d c001 54bc
000000f0: 9f97 debd b8e3 8dbc 28b4 263d da8f 4a3d
00000100: 04be f4bd 57ce fcbb c98e d7bd 3b2a 833d
00000110: 0927 833a a4fa 81bd d722 7b3c e8d2 8bbc
00000120: 557d 683d f40e 813d 9daa 35bd 4637 c43d
00000130: 134e c73d a6f3 f53d e0bb b03d 3857 dbbd
00000140: 1cba 393d 8815 713d 5b80 42bd 1111 2ebd
00000150: 744d 853d af85 25bc 97f5 85bd b78a b2ba
00000160: 3b02 95bd 6eb3 d13d 4896 95bc 8163 a3bd
00000170: f2f4 d93d 0bbd 09bd ea52 243d 2934 76bd
00000180: 92e6 ff3d 9208 d3bd 9456 93bd dd21 403c
00000190: 6f23 fe3d eab8 a3bd 1819 19bd fdc9 143d
000001a0: fa4b a8bd acd7 7abd 84ba f8bd 6201 81bd
000001b0: 036b e9bd 69a7 b03c 3bdd 993c 7e05 a63d
000001c0: db96 493d 376c c93d 2172 17bd 7315 ae3d
000001d0: fa27 d13d d61a a63c 9777 9a3d d581 77bd
000001e0: 6542 913d 46d5 e4bd 2f58 a7bd a4ee e03d
000001f0: ae04 723d a80a f9bd bee3 87bd bf43 5f3d
00000200: 7fc8 753d d16b b83d 170d e4bd 8fc4 19bc
00000210: de46 f93d 5659 37bd 9d6a 8bbd d832 d4bd
00000220: 17cc 893d 969f bbbd 2a67 013e 8e05 a33d
00000230: e924 76bd ec6e 313d 97ca c53c af2b e83c
00000240: bc8b a63d 114c 4f3c 1d09 d23d 59c7 b2bb
00000250: b0df 8abd 731b 1bbd a8e6 0a3c a852 af3d
00000260: eabc 3a3c 1cff 203d 3ee2 bd3d 316d f0bc
00000270: 8f9e 043d b8d1 f33d 1e87 0cbd e83b 3cbd
00000280: 6e7b d6bd ae97 dc3d 6fe9 013c d216 e83d
00000290: 9f5f 59bc d43e 223d af34 9f3d 0402 c83d
000002a0: 100b 7c3c 6f2b 9dbd eed6 cdbc ec2c c63c
000002b0: 6885 6b3b e73d a13d 5cda c6bd 20dc f3bd
000002c0: 0561 a93d 3b1b 43bd 7aff b73d 8651 13bd
000002d0: e06a 9dbc d0c4 adbd 6059 92bd cad8 07ba
000002e0: 737f dbbd d475 47bd a5bd 63bb 04ed 9dbd
000002f0: 420f febc c0bc d13b 5079 95bd 9a0e 903d
00000300: 24ce b03c 81df 8fbd 1c16 df3c a00d e83d
00000310: 95fb a7bd a987 843d 0b76 dbbc 600d 72bc
00000320: a473 d03c 100a 943d 7599 d73a 5f99 5b3c
00000330: 5d30 bebd f095 63bc 3b98 b3bd b8e5 e83d
00000340: 20fb 92bb bab9 fcbd 8f39 7dbd 97fb ef3d
00000350: e4e7 7b3d 1703 dcbd 99da 4fbd 67e7 9c3b
00000360: 1de5 843d 8096 f0bd 0e77 91bd 7572 a23d
00000370: 3ca3 ea3d 5a22 133c 2828 ba3d 4537 a03d
00000380: d457 bf3d 8eb7 da3d de36 883d c3b4 da3d
00000390: 9261 ce3d 3886 6a3d 6bdf a43d 3e1e e8bd
000003a0: 0897 babc b048 82bd 7192 b0bd 90a0 7a3d
000003b0: 6544 babd 70ef 033d 2550 0fbd 305e 14bc
000003c0: 16db 3a3c 628f 903d 141c 963d 0503 02bc
000003d0: 8337 d73c 9d33 f0bd 4c5e cebd e44c eebc
000003e0: 7bcc e1bd 6c6c b43d 9230 38bd 10e9 b03c
000003f0: 217f bbbd a032 063d 50f4 a3bd fe4a 5ebd

fc3_action.bias f4 [26]
-0.09232335 -0.0042768586 -0.060093265 -0.118514955 -0.013884305 -0.0200736 -0.05879277 0.068070814
0.009615764 0.096110545 0.12441386 0.031608194 -0.05865691 -0.03331156 0.047620635 -0.003526803
0.06784244 0.05261928 -0.04852554 0.07826974 -0.09289457 -0.08893917 0.08233639 -0.016187074
0.00018301336 0.045868225
00000000: 0614 bdbd e424 8cbb 5b24 76bd f8b7 f2bd
00000010: ff7a 63bc 6471 a4bc b0d0 70bd b668 8b3d
00000020: 708b 1d3c 9bd5 c43d b2cc fe3d 9877 013d
00000030: 3a42 70bd b471 08bd db0d 433d f021 67bb
00000040: faf0 8a3d 5087 573d b7c2 46bd e34b a03d
00000050: 823f bebd bd25 b6bd fb9f a83d c19a 84bc
00000060: 46e7 3f39 52e0 3b3d
