traditional_vrpb_policy_best.pth (torch, 42897 bytes, 6 tensors)

fc1.weight f4 [128, 6]
0.19430234 0.11552054 0.2304515 0.05663335 -0.23695809 0.048450425 0.20344202 -0.08014906
-0.20971401 0.02628135 0.24068584 -0.12917486 0.06584945 0.27309078 -0.4006946 -0.0678139
-0.34708476 -0.32786286 -0.12666027 0.05273994 0.3449466 -0.041226543 0.1913112 0.11385166
0.19104846 -0.22542207 -0.24033488 -0.23855022 0.2047139 -0.2633438 0.26737657 0.35041752
-0.2569931 -0.27000913 0.26517028 0.13818009 -0.34036207 -0.1907856 0.36995786 0.024023566
0.21879077 0.29761273 -0.040333483 -0.17176001 0.22036284 0.29998046 -0.3223441 0.13084176
-0.28373644 -0.016027594 0.3959091 0.28704873 -0.39265546 -0.14399199 -0.22022413 0.2860675
0.34194902 0.17044386 0.25341892 0.40505356 0.04130456 -0.04793781 -0.09839317 0.34953856
0.021224707 -0.15875596 -0.14434846 0.35172364 0.01661191 0.17150724 0.26309407 -0.31326288
0.2051433 0.401482 -0.2357239 -0.12113737 0.29077092 -0.2758566 -0.22040865 0.03537993
0.10197167 0.16344099 -0.26093528 0.28425488 0.39319783 -0.053815097 -0.25133255 0.2728306
0.11984635 0.052422654 -0.40331867 -0.26673615 -0.06142816 0.27665448 -0.2883016 -0.2400271
-0.22955884 -0.118578345 -0.03023073 -0.15531573 -0.072447926 -0.2865603 0.2731236 0.2652866
0.30829966 0.34896654 -0.089041285 -0.3558652 -0.2880287 -0.20835398 -0.108412795 0.20088254
-0.13814509 0.3738552 0.09237081 -0.23132166 0.3542835 0.21324992 0.039009485 0.11064842
-0.20127147 0.38871974 -0.09018474 -0.12549172 0.122703806 -0.3640377 0.3409987 0.24986345
0.39011332 -0.19542302 0.1859069 -0.32081705 -0.23087937 0.14984483 0.06763816 -0.3619257
-0.034613222 -0.24288805 -0.3924176 0.39713928 0.19564752 -0.32683417 0.13068065 0.23851897
0.2668832 -0.16815227 0.23999238 -0.15176065 -0.07297798 -0.09093363 -0.2577309 0.03419906
-0.32965466 -0.34203735 -0.19097209 0.14223099 0.21659057 -0.40401587 -0.29829994 -0.15512058
0.3292576 -0.23429695 0.13370046 0.20111036 -0.3123997 0.35892615 0.31556338 -0.2745491
-0.21240744 -0.3290247 0.21280724 -0.25989917 -0.18860538 0.20426959 0.2725859 -0.06374501
-0.13009122 -0.06991242 -0.17634293 0.08850318 0.1800536 0.0665243 0.16424926 -0.14451124
0.1795466 0.077995844 -0.2483677 0.061891768 0.1783052 0.26309964 -0.31602058 0.3602877
0.13479532 0.17057222 0.3132928 0.26875594 0.27685025 0.37915963 0.25669572 -0.12980704
0.25358543 0.28593132 0.16136824 -0.19075955 -0.12421202 -0.19627853 0.23851137 0.08382783
0.4101241 -0.17650427 0.20989573 0.40292808 0.06681017 0.38762525 0.16989717 0.3681292
-0.3603798 0.15300012 -0.11755857 0.028841168 -0.17508611 -0.39155445 0.3220804 0.3904178
0.071162045 -0.07840108 -0.24364448 0.040743355 -0.016898897 -0.2239939 0.25702727 -0.39851853
-0.104551286 0.24370487 0.054269396 0.10143754 -0.21058857 -0.32853514 0.34539545 -0.3211067
-0.30347624 -0.26306424 0.25247964 0.10749447 0.14497554 0.20846511 0.20936398 0.11267938
0.3099779 0.09605182 -0.005866655 -0.18149945 0.0083500445 -0.25580937 -0.3143034 -0.27465135
00000000: 31f7 463e 0896 ec3d 7afb 6b3e 5ff8 673d
00000010: 24a5 72be f473 463d 1b53 503e 3125 a4bd
00000020: 45bf 56be fc4b d73c 5976 763e 6a46 04be
00000030: 14dc 863d 8ed2 8b3e d827 cdbe 04e2 8abd
00000040: 18b5 b1be a4dd a7be 3bb3 01be d605 583d
00000050: d79c b03e 2add 28bd 15e7 433e 0f2b e93d
00000060: 35a2 433e 0bd5 66be 591a 76be 8246 74be
00000070: 85a0 513e 00d5 86be 95e5 883e ed69 b33e
00000080: 9994 83be a33e 8abe 66c4 873e 157f 0d3e
00000090: f043 aebe 4d5d 43be 1e6b bd3e 12cd c43c
000000a0: b00a 603e b260 983e b934 25bd dbe1 2fbe
000000b0: cca6 613e 0a97 993e 490a a5be 62fb 053e
000000c0: e745 91be 4d4c 83bc 99b4 ca3e 0df8 923e
000000d0: 230a c9be a372 13be 6f82 61be 7077 923e
000000e0: f113 af3e d688 2e3e 20c0 813e 2e63 cf3e
000000f0: f82e 293d 705a 44bd 5c82 c9bd b8f6 b23e
00000100: 70df ad3c ec90 22be 15d0 13be 1f15 b43e
00000110: b315 883c 989f 2f3e 44b4 863e fe63 a0be
00000120: 1611 523e 0c8f cd3e 9b61 71be df16 f8bd
00000130: eddf 943e 143d 8dbe ceb2 61be 8cea 103d
00000140: 86d6 d03d 135d 273e 4f99 85be db89 913e
00000150: 3a51 c93e 386d 5cbd a9ae 80be 74b0 8b3e
00000160: 0172 f53d 23b9 563d c97f cebe a491 88be
00000170: 189c 7bbd a8a5 8d3e 449c 93be aac9 75be
00000180: 7911 6bbe 34d9 f2bd 70a6 f7bc 160b 1fbe
00000190: 945f 94bd 08b8 92be dbd6 8b3e a5d3 873e
000001a0: 74d9 9d3e beab b23e 475b b6bd f733 b6be
000001b0: 7f78 93be bf5a 55be 8707 debd 27b4 4d3e
000001c0: e875 0dbe f369 bf3e e82c bd3d 96df 6cbe
000001d0: a664 b53e 305e 5a3e 69c8 1f3d a49b e23d
000001e0: 1c1a 4ebe 4606 c73e c7b2 b8bd e780 00be
000001f0: 224c fb3d 2663 babe 6297 ae3e 34dc 7f3e
00000200: efbc c73e f91c 48be 615e 3e3e 2242 a4be
00000210: a46b 6cbe ec70 193e e085 8a3d 534e b9be
00000220: 98c6 0dbd a5b7 78be f6ea c8be d755 cb3e
00000230: d357 483e cf56 a7be 26d1 053e 513e 743e
00000240: eaa4 883e 1c30 2cbe 90c0 753e 2567 1bbe
00000250: 7b75 95bd 693b babd 4ef5 83be 5014 0c3d
00000260: 7fc8 a8be 851f afbe 308e 43be 00a5 113e
00000270: ebc9 5d3e 2bdb cebe c5ba 98be eed7 1ebe
00000280: 7494 a83e 8aeb 6fbe c6e8 083e e0ef 4d3e
00000290: daf2 9fbe 2bc5 b73e 8691 a13e b391 8cbe
000002a0: 5681 59be ed75 a8be 24ea 593e 8111 85be
000002b0: c521 41be 0c2c 513e 6190 8b3e be8c 82bd
000002c0: a236 05be 3e2e 8fbd 3e93 34be 2841 b53d
000002d0: f95f 383e e43d 883d f530 283e c1fa 13be
000002e0: 10db 373e 49bc 9f3d 1a54 7ebe 3982 7d3d
000002f0: a395 363e ffb4 863e 73cd a1be a177 b83e
00000300: c907 0a3e 7caa 2e3e ea67 a03e 619a 893e
00000310: 51bf 8d3e 3621 c23e 9f6d 833e 23ec 04be
00000320: f3d5 813e 9765 923e b73d 253e 7956 43be
00000330: df62 febd 3dfd 48be 533c 743e edad ab3d
00000340: c9fb d13e 89bd 34be e8ee 563e 974c ce3e
00000350: c5d3 883d d176 c63e 86f9 2d3e 6e7b bc3e
00000360: b383 b8be 10ac 1c3e 8cc2 f0bd 5044 ec3c
00000370: c649 33be d379 c8be b9e7 a43e d8e4 c73e
00000380: 68bd 913d bf90 a0bd f07d 79be 81e2 263d
00000390: 8e6f 8abc a85e 65be 1499 833e 9f0a ccbe
000003a0: fc1e d6bd c58d 793e 9649 5e3d 7cbe cf3d
000003b0: 88a4 57be c235 a8be acd7 b03e 1968 a4be
000003c0: 3d61 9bbe 5bb0 86be 0345 813e 1026 dc3d
000003d0: 7874 143e e177 553e 8363 563e 72c4 e63d
000003e0: 6cb5 9e3e d1b6 c43d 123d c0bb feda 39be
000003f0: a0ce 083c 72f9 82be 60ec a0be 1a9f 8cbe

fc1.bias f4 [128]
-0.16959973 0.16081354 -0.12392038 0.06849334 0.27848998 0.15621719 0.06428931 0.26343435
-0.12256663 -0.23275638 -0.37206945 0.094173856 0.26999184 -0.089612335 -0.27267262 -0.2715367
-0.31457663 0.07963104 -0.28972736 0.054874238 0.18843664 -0.16353065 -0.21897396 -0.36189955
0.2949704 -0.3290013 0.12420648 0.24402452 0.3461589 -0.06910221 0.36183372 0.13622437
-0.104146205 -0.2531604 -0.24242754 0.36044294 -0.34666476 0.26607957 0.327983 -0.064048536
-0.26436302 -0.20317072 -0.07302347 0.30150986 0.22691455 0.35299313 0.2429851 -0.043787092
0.027172962 -0.23060562 -0.15405296 -0.07694496 -0.14099452 -0.2946657 0.37722245 -0.11068517
-0.08212758 -0.22086377 -0.37163106 0.2657816 -0.30918932 -0.12722121 0.11788204 0.022356942
-0.15656982 0.19157784 -0.03436054 -0.10243192 -0.24357218 0.17990726 -0.052104864 0.06799776
0.18674417 -0.019938344 0.26394123 -0.2855835 -0.189077 -0.37880152 -0.1910733 -0.21976304
0.112709515 0.04253082 -0.16357672 0.0022148828 -0.18263513 0.30979282 0.38991407 0.3687992
0.26086947 -0.08683812 -0.37463662 -0.3507394 -0.23339877 -0.22460279 -0.085806295 -0.19413273
-0.28502935 0.07822147 0.28885978 0.33702692 0.37459493 0.1542392 -0.20463522 -0.336101
0.038431946 -0.1715122 -0.2549048 0.28546235 0.19978143 0.1563822 -0.3393647 0.35066772
-0.22193073 0.37981433 0.2157433 -0.26267555 0.12196536 0.34413457 -0.28662157 -0.35715216
-0.2424844 0.3049384 0.075473376 -0.19772284 0.08631274 0.24757409 0.097985126 -0.072260484
00000000: 8dab 2dbe 4eac 243e f8c9 fdbd 3c46 8c3d
00000010: 3d96 8e3e 66f7 1f3e 1daa 833d dee0 863e
00000020: 3704 fbbd b057 6ebe e37f bebe 39de c03d
00000030: 5f3c 8a3e ac86 b7bd bf9b 8bbe dc06 8bbe
00000040: 3010 a1be 9915 a33d 2557 94be cfc3 603d
00000050: 89f5 403e 9474 27be b63a 60be e64a b9be
00000060: 5c06 973e dc72 a8be f85f fe3d 90e1 793e
00000070: bd3b b13e 7685 8dbd 4542 b93e 677e 0b3e
00000080: 9b4a d5bd 3d9e 81be ed3e 78be fa8b b83e
00000090: 0b7e b1be 953b 883e 63ed a73e e12b 83bd
000000a0: 975a 87be fc0b 50be 548d 95bd 805f 9a3e
000000b0: 4a5c 683e 84bb b43e 16d1 783e 185a 33bd
000000c0: d599 de3c e123 6cbe 0fc0 1dbe 5295 9dbd
000000d0: de60 10be 6cde 96be 4d23 c13e e8ae e2bd
000000e0: 8132 a8bd 1d2a 62be 6d46 bebe 8714 883e
000000f0: 104e 9ebe 4746 02be 246c f13d e825 b73c
00000100: d753 20be fb2c 443e a3bd 0cbd d4c7 d1bd
00000110: fc6a 79be 9c39 383e e96b 55bd 6942 8b3d
00000120: dd39 3f3e bd55 a3bc 4e23 873e 0038 92be
00000130: 679d 41be 46f2 c1be b8a8 43be 9009 61be
00000140: 3fd4 e63d cc34 2e3d a880 27be 9127 113b
00000150: b404 3bbe 2a9d 9e3e d1a2 c73e 40d3 bc3e
00000160: af90 853e 2fd8 b1bd 5fd0 bfbe 1d94 b3be
00000170: 1600 6fbe 46fe 65be 36bb afbd bbca 46be
00000180: 5eef 91be 9432 a03d 6ee5 933e cb8e ac3e
00000190: e8ca bf3e e1f0 1d3e e58b 51be 6e15 acbe
000001a0: d16a 1d3d e5a0 2fbe e282 82be 1f28 923e
000001b0: 8193 4c3e a822 203e 36c1 adbe b88a b33e
000001c0: cf41 63be 0677 c23e d0eb 5c3e 697d 86be
000001d0: fac8 f93d 6832 b03e 10c0 92be a6dc b6be
000001e0: d54d 78be e320 9c3e c991 9a3d db77 4abe
000001f0: bcc4 b03d 1084 7d3e 6dac c83d 4efd 93bd

fc2.weight f4 [64, 128]
-0.036026366 -0.0051776236 0.011330292 -0.036974665 0.013323848 0.03383706 0.0815082 -0.018418722
0.048956655 0.053894848 0.083034284 0.0071501937 -0.058543842 0.05772496 -0.04228208 -0.0120378435
-0.04231556 0.079120144 -0.049621414 -0.07471058 0.07225486 0.08322822 0.014078625 -0.08785424
-0.08042756 0.0015947521 0.06520624 -0.04328039 -0.015897714 -0.029592907 0.002038833 0.05360304
0.07044869 0.053443816 0.042602375 -0.007147733 -0.08525631 -0.04973798 -0.073928736 0.052806377
0.06582048 0.07694371 0.068880595 0.04042319 -0.08955005 0.08049514 0.015955474 0.04502248
-0.08102244 -0.07278262 -0.057908073 -0.0009612877 -0.028583815 0.033752978 0.05750564 -0.051204205
-0.063865855 0.01576896 0.0437159 0.0051519996 -0.02063609 0.015792243 -0.032061446 -0.038427323
-0.05959274 0.051233888 0.040224362 0.07607238 -0.0745715 0.072543986 0.06809817 0.006128454
0.066076174 -0.07665552 0.06676633 -0.015632637 0.02996305 0.060640626 0.056511674 0.011338554
-0.026837552 0.04591992 0.031796604 0.04762823 0.00444679 0.03681221 0.01557695 -0.02265769
-0.02477519 0.08368671 0.053318862 -0.08073627 0.08700255 -0.050216094 -0.060017806 0.008429181
-0.03673183 0.06116127 0.07835254 -0.043600135 0.06378877 -0.06932356 -0.038021468 -0.0010782033
0.002481051 0.004500054 -0.017098965 -0.002954725 0.009864223 -0.06534385 -0.023405029 -0.08217412
0.0017836764 -0.08020673 0.008043899 -0.039704945 -0.05844469 -0.036313284 0.025738858 -0.05100055
-0.0037541687 0.064564675 -0.0418595 -0.02453152 0.08719929 -0.030137183 0.0783014 -0.048053082
-0.06575653 -0.086699486 -0.076103 0.024455847 0.042021416 -0.060811084 0.037543137 -0.02640235
0.036025405 0.045703743 0.04522807 0.06917053 -0.07547966 0.008798546 0.0045600897 -0.079963
0.031012475 -0.023269868 -0.02039544 0.038819846 -0.04582001 -0.05744573 0.065080784 -0.064175256
-0.06697203 -0.029997293 -0.0092427535 -0.0034475985 -0.03634235 0.08114473 -0.0704866 -0.06262015
0.07559346 -0.048290517 -0.057460852 0.05255867 -0.05545184 0.032829568 -0.009480644 -0.004361473
-0.003129135 0.04185277 0.07929046 0.025248809 0.04064878 -0.062165055 -0.03642825 0.07397986
-0.02294008 -0.0671535 0.06797897 -0.03764117 -0.07803815 -0.02962054 3.277351e-05 0.0012054152
0.033551373 -0.0742059 0.0769444 -0.0074000508 -0.08719745 0.055284314 -0.02848949 0.038317863
0.06289592 -0.011724486 -0.077603 -0.013418814 -0.021067042 0.075189814 0.06434288 -0.0209084
-0.078460015 0.033317707 0.0062219505 -0.01734627 -0.053383928 -0.063894756 -0.063668706 -0.07281599
-0.033487387 0.07331019 0.06087588 0.008871953 -0.043647945 -0.066617 0.04917862 -0.0695416
0.047062118 -0.07053334 0.005885999 0.08801397 0.017931446 -0.0010765529 0.011821343 0.022090761
-0.06050708 0.0044829925 -0.03024409 0.03196069 0.038099084 0.057322998 -0.058362976 -0.08721474
0.026283136 -0.011543013 0.028515853 -0.052159637 0.020776855 -0.056345087 0.035589594 -0.010893098
0.015097916 -0.07256563 -0.07319784 -0.05845724 0.030601311 -0.01332273 0.021891892 0.012342691
-0.023388684 0.058945544 -0.08293741 -0.04908288 0.016616626 0.07311318 -0.032247942 -0.0853404
00000000: 6290 13bd 0ea9 a9bb b0a2 393c bf72 17bd
00000010: 454c 5a3c bb98 0a3d c5ed a63d dce2 96bc
00000020: c686 483d d8c0 5c3d e10d aa3d 2c4c ea3b
00000030: abcb 6fbd 0271 6c3d f92f 2dbd 603a 45bc
00000040: 1553 2dbd be09 a23d d33f 4bbd dc01 99bd
00000050: 5bfa 933d 8f73 aa3d 08aa 663c ecec b3bd
00000060: 34b7 a4bd 0007 d13a d98a 853d c746 31bd
00000070: ec3b 82bc d36c f2bc f19d 053b dc8e 5b3d
00000080: 6747 903d e7e7 5a3d d47f 2e3d 8837 eabb
00000090: dc9a aebd 0dba 4bbd f367 97bd 804b 583d
000000a0: e3cc 863d aa94 9d3d 4511 8d3d c992 253d
000000b0: 0466 b7bd a3da a43d 0eb5 823c 7e69 383d
000000c0: 18ef a5bd 0e0f 95bd 0431 6dbd edfe 7bba
000000d0: 9b28 eabc 9040 0a3d 098b 6b3d 80bb 51bd
000000e0: 1acc 82bd e82d 813c 720f 333d 1bd2 a83b
000000f0: 040d a9bc bc5e 813c dd52 03bd f865 1dbd
00000100: 8417 74bd a0da 513d 4dc2 243d d6cb 9b3d
00000110: f1b8 98bd f191 943d 0e77 8b3d 33d1 c83b
00000120: f252 873d 92fd 9cbd c9bc 883d 0410 80bc
00000130: 1275 f53c 4e62 783d c978 673d 58c5 393c
00000140: 6dda dbbc 8716 3c3d 283d 023d d215 433d
00000150: 61b6 913b 66c8 163d 7736 7f3c 9f9c b9bc
00000160: 57f5 cabc f063 ab3d e164 5a3d 0f59 a5bd
00000170: 652e b23d 64af 4dbd 3bd5 75bd 8c1a 0a3c
00000180: 1e74 16bd 3d84 7a3d 4c77 a03d 0e96 32bd
00000190: b0a3 823d 83f9 8dbd 66bc 1bbd 8052 8dba
000001a0: 2199 223b 3075 933b 2113 8cbc 0fa4 41bb
000001b0: 8d9d 213c ffd2 85bd e7bb bfbc e84a a8bd
000001c0: 40ca e93a 6d43 a4bd 8fca 033c a7a1 22bd
000001d0: b363 6fbd 3dbd 14bd 4cda d23c f4e5 50bd
000001e0: 8008 76bb 7c3a 843d de74 2bbd 54f6 c8bc
000001f0: 8b95 b23d 41e2 f6bc 7c5c a03d 4fd3 44bd
00000200: 5cab 86bd 808f b1bd e4db 9bbd a157 c83c
00000210: a61e 2c3d 0b15 79bd d5c6 193d be49 d8bc
00000220: 608f 133d d933 3b3d 1241 393d 47a9 8d3d
00000230: 1495 9abd c727 103c ce6c 953b a4c3 a3bd
00000240: e00d fe3c 73a0 bebc 5614 a7bc 8f01 1f3d
00000250: c3ad 3bbd 374c 6bbd 1349 853d 516e 83bd
00000260: a228 89bd e2bc f5bc eb6e 17bc 1bf1 61bb
00000270: b7db 14bd 352f a63d 475b 90bd fe3e 80bd
00000280: bed0 9a3d 47cc 45bd 125c 6bbd c347 573d
00000290: 7821 63bd 4c78 063d b454 1bbc b0ea 8ebb
000002a0: 2c12 4dbb cf6d 2b3d 0963 a23d 97d6 ce3c
000002b0: 567f 263d c9a0 7ebd ca35 15bd c182 973d
000002c0: d6ec bbbc c687 89bd 8f38 8b3d a12d 1abd
000002d0: 77d2 9fbd c6a6 f2bc 4a76 0938 06ff 9d3a
000002e0: 2a6d 093d 43f9 97bd 0795 9d3d 207c f2bb
000002f0: 9494 b2bd ce71 623d ca62 e9bc 31f3 1c3d
00000300: 93cf 803d 0f18 40bc 52ee 9ebd 96da 5bbc
00000310: ca94 acbc 1efd 993d 33c6 833d 1848 abbc
00000320: a5af a0bd 2678 083d 81e1 cb3b c419 8ebc
00000330: 1ba9 5abd 41db 82bd bd64 82bd 8d20 95bd
00000340: 122a 09bd a723 963d fd58 793d ab5b 113c
00000350: 30c8 32bd 7e6e 88bd 856f 493d d46b 8ebd
00000360: 35c4 403d c973 90bd 57df c03b ab40 b43d
00000370: f8e4 923c 1f1b 8dba 4eae 413c aff7 b43c
00000380: 46d6 77bd 11e6 923b 74c2 f7bc 36e9 023d
00000390: c90d 1c3d 85cb 6a3d 040e 6fbd a49d b2bd
000003a0: bb4f d73c e81e 3dbc 149a e93c 58a5 55bd
000003b0: 3934 aa3c 1bca 66bd 65c6 113d f778 32bc
000003c0: 405d 773c 4a9d 94bd c0e8 95bd dc70 6fbd
000003d0: 9aaf fa3c 9447 5abc a056 b33c 0039 4a3c
000003e0: a099 bfbc e270 713d 17db a9bd 210b 49bd
000003f0: 971f 883c 5dbc 953d 6b16 04bd f3c6 aebd

fc2.bias f4 [64]
0.082224295 0.03860748 -0.013176299 0.026245423 -0.06430148 0.05388089 -0.026224907 0.0069201253
0.00084361434 0.076117255 0.05419626 -0.08638282 -0.027508266 -0.072007746 -0.082131736 -0.07359193
0.023084335 -0.0030271634 0.08484352 0.03391464 -0.04518333 -0.08420496 0.045787282 -0.06864011
0.04589416 -0.061130166 -0.06439789 -0.0099785365 -0.062364817 0.0017997881 0.06342787 0.039628748
0.06646394 -0.012549391 0.04825749 0.06884631 -0.07186462 -0.060885146 0.08241344 -0.011356015
-0.022814745 0.08097753 0.015626324 0.021565657 0.08282036 -0.06776752 0.003879298 0.074344255
0.03838773 0.09007234 -0.015024829 -0.02120012 0.066495374 -0.012364058 -0.0719439 -0.032148372
-0.08833139 0.051092476 -0.018416148 0.072660156 -0.05183698 -0.039169468 -0.010316799 0.016268935
00000000: 3665 a83d e022 1e3d 67e1 57bc a400 d73c
00000010: 7fb0 83bd 35b2 5c3d 9ed5 d6bc 38c2 e23b
00000020: 0026 5d3a 5de3 9b3d e6fc 5d3d 7ae9 b0bd
00000030: 0459 e1bc cc78 93bd af34 a8bd 5eb7 96bd
00000040: 5c1b bd3c 6063 46bb 70c2 ad3d 14ea 0a3d
00000050: 2812 39bd a673 acbd 728b 3b3d 3093 8cbd
00000060: 84fb 3b3d a063 7abd 0ae3 83bd 047d 23bc
00000070: 4072 7fbd dee6 eb3a 79e6 813d c151 223d
00000080: 3f1e 883d f69b 4dbc a5a9 453d 4bff 8c3d
00000090: c22d 93bd b462 79bd 61c8 a83d 940e 3abc
000000a0: fde5 babc 8cd7 a53d c702 803c 76aa b03c
000000b0: b99d a93d b3c9 8abd d23b 7e3b cd41 983d
000000c0: 743c 1d3d d977 b83d b32a 76bc e0ab adbc
000000d0: ba2e 883d 9e92 4abc 5357 93bd 03ae 03bd
000000e0: 16e7 b4bd 5846 513d 76dd 96bc d9ce 943d
000000f0: 0353 54bd 2a70 20bd cb07 29bc 6e46 853c

fc3_action.weight f4 [11, 64]
0.06974743 0.047505997 -0.07434876 -0.062142283 -0.07142937 0.10470727 0.07808223 -0.1249609
-0.009093821 0.102197506 0.11391565 0.031613916 -0.069821246 -0.06321332 0.08723765 -0.017335055
-0.032489225 -0.10491748 -0.0826146 0.077719234 0.013529046 0.0775619 -0.0026062408 -0.013649747
0.017496282 -0.097341016 -0.025990732 -0.039832123 0.05816898 0.00063199585 0.05097214 0.02291639
-0.005288749 -0.06586069 0.06909177 -0.059278138 0.094325095 0.037271038 -0.09111236 -0.06580511
0.011518605 -0.052914087 0.010986159 0.008688719 0.056820214 -0.08961214 0.029215338 -0.0913387
0.07567867 -0.10732216 -0.049042527 0.04005508 -0.067039266 0.004244555 0.0762704 -0.010678187
0.08347446 0.03726802 -0.0733337 -0.03843627 0.107734635 0.088633165 -0.09200727 -0.014325985
0.065672554 -0.028647296 0.0055942433 0.095041834 -0.10089792 0.10035106 0.107123956 0.081914134
0.083526134 0.0051236255 0.071964845 0.03303346 0.07724294 0.02006196 0.06420539 0.07061441
-0.03863164 0.06274177 0.0057631275 0.12179066 -0.011431393 0.070903495 -0.07749864 -0.01727821
-0.054553147 -0.013036064 -0.08254082 0.122149065 0.042767763 -0.014813658 -0.038246114 -0.028422982
-0.02483886 0.040922515 -0.055495393 0.09451928 0.12021805 -0.09743093 -0.07444762 0.0049753217
-0.050714158 -0.11572052 -0.07812574 0.07052183 0.034228675 -0.121210195 -0.0009622064 -0.0053972956
-0.11547986 0.03760244 -0.09452162 0.11542736 -0.0080794785 -0.023027753 -0.0808225 -0.05962798
-0.049041096 0.04743402 -0.018912127 -0.001400922 0.11587331 -0.07430628 0.052868403 0.08074598
-0.05321496 0.012086934 0.09553892 0.08022196 -0.07745935 -0.00044579763 0.03503692 0.088959225
0.012658462 -0.046613224 -0.08716023 -0.097363204 -0.069288656 0.045765657 -0.07218698 0.094696015
-0.12517275 -0.09630941 -0.11810424 -0.10263081 0.10491093 -0.020127445 -0.037764996 0.12282874
-0.06166884 0.08922977 0.0946852 -0.09506601 -0.0047169505 -0.004962115 -0.029175092 -0.091760226
-0.020970762 0.022814646 0.011484509 -0.05884712 0.016591534 -0.08593841 0.033613637 -0.062209424
-0.019062517 -0.035609197 -0.12564555 0.008811922 0.058300897 0.021178246 -0.052775238 -0.038635235
-0.061185636 0.08658502 -0.109083585 -0.055762425 -0.039133806 -0.070616856 0.056852102 -0.11990385
-0.0040192585 0.049084567 0.040718444 -0.11065142 -0.028875291 -0.08328055 0.067965396 0.019464996
-0.06342745 -0.050351564 -0.07046466 0.051641263 -0.051623464 -0.07647142 0.1038613 -0.082356416
0.08807136 -0.056073643 0.029580384 -0.12384659 0.051168073 -0.05156676 -0.11491631 0.11961709
0.0016806234 -0.059070442 0.02132494 0.044718917 0.05068782 0.00971356 -0.051930666 -0.105862305
0.09050634 0.020530483 -0.118744455 0.037407693 -0.07878566 -0.06698321 -0.12467464 -0.11588611
-0.11396083 -0.054579966 0.029915387 0.02957458 0.11831257 -0.026091933 0.040556557 0.114760004
-0.11426168 -0.08290413 -0.0676866 0.01825491 0.022093106 -0.03545289 -0.02651191 0.07991184
0.02489302 0.07741499 0.009632694 0.08501612 0.104292616 -0.024339978 0.030421734 -0.04479754
-0.013118002 -0.10725287 -0.09287237 0.016875263 0.09277302 0.0063023926 0.07210484 -0.11730263
00000000: bed7 8e3d a695 423d 2a44 98bd e888 7ebd
00000010: 9049 92bd c470 d63d 94e9 9f3d 80eb ffbd
00000020: 40fe 14bc ed4c d13d 9c4c e93d 987d 013d
00000030: 71fe 8ebd fc75 81bd a7a9 b23d 3f02 8ebc
00000040: 6c13 05bd fade d6bd d831 a9bd 432b 9f3d
00000050: efa8 5d3c c6d8 9e3d 77cd 2abb 30a3 5fbc
00000060: 5d54 8f3c ba5a c7bd 84ea d4bc 0227 23bd
00000070: 9942 6e3d 86ac 253a 2ac8 503d 27bb bb3c
00000080: 3e4d adbb f8e1 86bd fc7f 8d3d a2cd 72bd
00000090: 842d c13d 84a9 183d 1e99 babd d4c4 86bd
000000a0: 88b8 3c3c 71bc 58bd 4aff 333c 215b 0e3c
000000b0: 50bc 683d 9286 b7bd 0155 ef3c c90f bbbd
000000c0: 6bfd 9a3d b8cb dbbd d1e0 48bd cc10 243d
000000d0: e24b 89bd e815 8b3b a833 9c3d 90f3 2ebc
000000e0: a8f4 aa3d 5aa6 183d fb2f 96bd 5a6f 1dbd
000000f0: faa3 dc3d 4e85 b53d 4f6e bcbd 89b7 6abc
00000100: 557f 863d bcad eabc ea4f b73b 4ba5 c23d
00000110: 92a3 cebd db84 cd3d ce63 db3d 99c2 a73d
00000120: c00f ab3d 16e4 a73b 4e62 933d 184e 073d
00000130: 8c31 9e3d fb58 a43c 1e7e 833d 4a9e 903d
00000140: 363c 1ebd c27e 803d 9ed8 bc3b 626d f93d
00000150: bd4a 3bbc da35 913d 9bb7 9ebd 088b 8dbc
00000160: 1f73 5fbd 3795 55bc 290b a9bd 4a29 fa3d
00000170: 402d 2f3d fcb4 72bc f5a7 1cbd 50d7 e8bc
00000180: dd7a cbbc 5e9e 273d 234f 63bd 5393 c13d
00000190: e234 f63d de89 c7bd fe77 98bd 0608 a33b
000001a0: a6b9 4fbd e1fe ecbd 6300 a0bd c06d 903d
000001b0: 5e33 0c3d 0d3d f8bd 943c 7cba ccdb b0bb
000001c0: b480 ecbd 0405 1a3d 8d94 c1bd 2e65 ec3d
000001d0: ca5f 04bc b3a4 bcbc 4486 a5bd 783c 74bd
000001e0: 51df 48bd 2d4a 423d 9bed 9abc 249f b7ba
000001f0: fc4e ed3d e42d 98bd 8a8c 583d 265e a53d
00000200: eef7 59bd 4708 463c e9a9 c33d 694b a43d
00000210: 02a3 9ebd f2b9 e9b9 e082 0f3d 4130 b63d
00000220: 7065 4f3c 82ed 3ebd 1081 b2bd 5c66 c7bd
00000230: 36e7 8dbd c574 3b3d c4d6 93bd fcef c13d
00000240: 492d 00be de3d c5bd a3e0 f1bd 1a30 d2bd
00000250: 8bdb d63d 50e2 a4bc 78af 1abd a28d fb3d
00000260: 7798 7cbd 19be b63d 50ea c13d f8b1 c2bd
00000270: a690 9abb 3d99 a2bb 9a00 efbc c9ec bbbd
00000280: e0ca abbc c8e5 ba3c 8629 3c3c ad09 71bd
00000290: f8ea 873c 7a00 b0bd 74ae 093d 4fcf 7ebd
000002a0: ff28 9cbc f3da 11bd 3aa9 00be e15f 103c
000002b0: eccc 6e3d 007e ad3c d92a 58bd fb3f 1ebd
000002c0: ca9d 7abd 7d53 b13d 3767 dfbd 2467 64bd
000002d0: c54a 20bd 929f 90bd c0dd 683d 2690 f5bd
000002e0: fcb3 83bb e60c 493d 62c8 263d 369d e2bd
000002f0: e08b ecbc fe8e aabd 7131 8b3d 0e75 9f3c
00000300: 40e6 81bd 713d 4ebd c74f 90bd ca85 533d
00000310: 2073 53bd 0c9d 9cbd 3cb5 d43d 7baa a8bd
00000320: c25e b43d 7aad 65bd 9052 f23c 48a3 fdbd
00000330: 9d95 513d ab37 53bd 3e59 ebbd cef9 f43d
00000340: 5d48 dc3a d9f3 71bd a4b1 ae3c 2f2b 373d
00000350: 089e 4f3d a025 1f3c 40b5 54bd 56ce d8bd
00000360: 635b b93d 8b2f a83c 4b30 f3bd cf38 193d
00000370: 605a a1bd 7e2e 89bd 6b55 ffbd b255 edbd
00000380: 4c64 e9bd 3e8f 5fbd 1d11 f53c 6446 f23c
00000390: dc4d f23d c0be d5bc a21e 263d 4b07 eb3d
000003a0: 0702 eabd a4c9 a9bd 469f 8abd 528b 953c
000003b0: 9afc b43c 0d37 11bd 812f d9bc d2a8 a33d
000003c0: 72ec cb3c c08b 9e3d 72d2 1d3c ee1c ae3d
000003d0: 5e97 d53d a264 c7bc 0037 f93c a07d 37bd
000003e0: e3ec 56bc 65a7 dbbd de33 bebd fe3d 8a3c
000003f0: c8ff bd3d 4d84 ce3b b4ab 933d 5c3c f0bd

fc3_action.bias f4 [11]
-0.09868791 0.10289056 0.02108655 -0.108816385 -0.06963264 -0.0802579 0.017196372 0.00837753
-0.028082706 0.103543155 -0.026849527
00000000: e31c cabd 49b8 d23d b3bd ac3c 20db debd
00000010: 8f9b 8ebd 415e a4bd 68df 8c3c e841 093c
00000020: b40d e6bc 6f0e d43d 8af3 dbbc
