traditional_vrpb_policy_best.pth (torch, 14993 bytes, 6 tensors)

fc1.weight f4 [64, 6]
0.14388797 -0.16710114 -0.21841764 0.3020154 0.014473969 0.28915268 -0.31237888 0.14059179
-0.3912905 -0.34633425 -0.105761275 0.2848113 0.102398224 -0.24287157 0.3230267 0.07355947
-0.11747612 0.112040386 0.0026045863 0.17282848 0.0642079 0.07132109 0.3692248 -0.07297785
0.07303093 -0.022546291 0.14840515 0.36493942 0.28325132 -0.37100622 -0.14604926 -0.3824041
-0.16819589 -0.0688692 0.40021214 -0.042013675 0.382882 -0.30057797 -0.20998032 0.3280878
-0.087638095 -0.23501243 -0.15109633 -0.30745184 -0.28621602 -0.29655948 -0.1999783 0.26019898
0.29521328 -0.28632578 0.2021634 -0.02135557 -0.2998758 -0.28699318 0.3780834 -0.26388827
0.23547582 0.033557706 0.25095594 -0.3969453 0.31948066 0.37314987 -0.3763303 0.38249552
0.26614118 0.1761051 -0.090206824 0.053288136 -0.010317438 -0.31871316 0.1609765 -0.0038963368
-0.10094614 -0.020270301 0.35849515 -0.03004855 -0.17849699 -0.26155603 -0.12818964 0.15833336
-0.3895557 0.10662328 -0.20453091 -0.08512506 -0.01900354 -0.32599267 0.18877327 -0.10417023
0.08022782 -0.2632112 0.15586686 0.39107928 0.017300583 -0.10607654 -0.25070956 0.210073
-0.29072747 0.34610215 0.28738645 -0.26586312 -0.24276328 0.06524484 -0.23981678 -0.11445871
-0.35078505 0.047596548 0.023479093 -0.010348327 -0.14608304 0.20982522 -0.38879928 0.15364426
0.2271651 -0.1938126 0.017897723 0.36278495 0.3715588 0.051566895 0.35406458 0.26112634
0.15798835 -0.31650877 -0.11083029 0.03982093 -0.23760204 0.40010613 -0.21309173 0.09627396
0.05519387 0.076399475 0.3123783 -0.34472984 -0.30382684 0.060483046 -0.24707684 0.18598181
0.13547462 0.38232487 0.13630408 -0.25504535 0.25172758 -0.21508503 -0.056301147 0.1228264
0.39975724 -0.35316613 0.20998202 0.11216655 -0.29863462 0.14766586 -0.040560313 -0.16045512
0.13066456 -0.27560663 -0.18359776 -0.11589019 0.27615097 0.1996679 0.15976812 0.037331164
0.3328144 0.30990696 0.14648116 0.07947241 -0.09355518 0.08339938 -0.32916722 0.14506361
-0.3241975 0.40062034 0.36284232 0.07106778 0.05687979 -0.3034379 0.29690972 0.007357353
-0.16000901 -0.3721559 -0.12274861 0.15166903 0.100055166 0.12688816 -0.38999552 -0.02370405
0.3811383 0.32802555 -0.043554008 -0.2432983 0.22928108 -0.292317 -0.059274256 0.14879301
-0.37388527 0.15062606 -0.27625465 -0.059522986 -0.3529577 -0.10881433 -0.12356266 0.2599141
0.4052653 -0.020196922 -0.008565325 -0.3787234 0.40156445 0.02493371 -0.14061454 0.093231454
-0.38242725 0.006568346 0.35796264 0.25500163 0.19864202 0.3650454 0.39938965 0.31135505
0.19991511 0.31067517 -0.14939614 -0.0048355125 0.39021978 0.11983076 0.2586813 0.29239747
0.14119701 -0.4070699 0.2739924 -0.11679618 0.06722059 0.15968247 -0.019110993 0.06961335
-0.02715261 0.23958643 0.011023342 -0.091925 0.2925586 0.37135726 -0.25750604 0.29957145
-0.05452863 0.13935354 -0.14090668 -0.3480631 -0.28216556 0.24821338 -0.06925464 -0.31212112
-0.3569649 -0.16082387 -0.3349896 -0.26571855 0.20812823 -0.014499188 0.27391395 0.003036647
00000000: 5e57 133e 901c 2bbe e0a8 5fbe c3a1 9a3e
00000010: 3a24 6d3c d20b 943e 20f0 9fbe 4bf7 0f3e
00000020: 3a57 c8be b952 b1be 5e99 d8bd c9d2 913e
00000030: 29b6 d13d 53b3 78be c163 a53e 59a6 963d
00000040: 5297 f0bd 6e75 e53d b5b1 2a3b f3f9 303e
00000050: 6e7f 833d cb10 923d 080b bd3e 6975 95bd
00000060: 3d91 953d 00b3 b8bc 85f7 173e 57d9 ba3e
00000070: 5106 913e 87f4 bdbe f08d 15be 78ca c3be
00000080: 8b3b 2cbe 4c0b 8dbd 9be8 cc3e 8816 2cbd
00000090: 1c09 c43e 5be5 99be 1505 57be 20fb a73e
000000a0: 9a7b b3bd 19a7 70be ffb8 1abe 546a 9dbe
000000b0: e88a 92be a5d6 97be 1dc7 4cbe cd38 853e
000000c0: 3226 973e 4b99 92be ec03 4f3e e0f1 aebc
000000d0: 5289 99be c5f0 92be 2694 c13e 5d1c 87be
000000e0: 9320 713e ce73 093d 4c7d 803e 6a3c cbbe
000000f0: f892 a33e 800d bf3e 5dae c0be 74d6 c33e
00000100: a843 883e e554 343e 5bbe b8bd a944 5a3d
00000110: 790a 29bc 5f2e a3be 06d7 243e af59 7fbb
00000120: dabc cebd e70d a6bc ad8c b73e 6028 f6bc
00000130: eac7 36be acea 85be 2544 03be 2422 223e
00000140: d873 c7be 4e5d da3d 8d70 51be 0c56 aebd
00000150: 50ad 9bbc 83e8 a6be c84d 413e 3457 d5bd
00000160: 7c4e a43d 9ec3 86be 909b 1f3e 8b3b c83e
00000170: f4b9 8d3c a83e d9bd 015d 80be 601d 573e
00000180: 3bda 94be 4d34 b13e 5124 933e 361f 88be
00000190: f096 78be 169f 853d 8892 75be 5469 eabd
000001a0: 199a b3be 99f4 423d 3a57 c03c 088c 29bc
000001b0: cb96 15be 6cdc 563e b310 c7be ec54 1d3e
000001c0: f89d 683e cf76 46be 3f9e 923c f3be b93e
000001d0: f43c be3e cf37 533d f447 b53e 5ab2 853e
000001e0: b3c7 213e 700d a2be fefa e2bd 461b 233d
000001f0: f34d 73be b6da cc3e b834 5abe 482b c53d
00000200: f812 623d 5477 9c3d 0cf0 9f3e 6e80 b0be
00000210: 318f 9bbe 12bd 773d b601 7dbe 0472 3e3e
00000220: dcb9 0a3e 16c0 c33e 4c93 0b3e 4e95 82be
00000230: 70e2 803e 403f 5cbe 089c 66bd 688c fb3d
00000240: fbac cc3e 31d2 b4be 8705 573e 93b7 e53d
00000250: a3e6 98be b835 173e 9222 26bd 594e 24be
00000260: eecc 053e 501c 8dbe 0d01 3cbe d657 edbd
00000270: a963 8d3e be75 4c3e 419a 233e 90e8 183d
00000280: a666 aa3e 20ac 9e3e 28ff 153e 6ec2 a23d
00000290: dc99 bfbd 4bcd aa3d 9b88 a8be 8e8b 143e
000002a0: 37fd a5be 1c1e cd3e 78c6 b93e fc8b 913d
000002b0: c8fa 683d 365c 9bbe 8d04 983e f315 f13b
000002c0: 67d9 23be 388b bebe a063 fbbd 204f 1b3e
000002d0: b9e9 cc3d f8ee 013e 7ead c7be ff2e c2bc
000002e0: 8f24 c33e f7f2 a73e b065 32bd 3123 79be
000002f0: a9c8 6a3e 93aa 95be 90c9 72bd 325d 183e
00000300: e46d bfbe b83d 1a3e 4071 8dbe 60ce 73bd
00000310: dfb6 b4be 0cda debd 6b0e fdbd 7613 853e
00000320: ef7e cf3e 0474 a5bc 9455 0cbc 09e8 c1be
00000330: db99 cd3e c841 cc3c 42fd 0fbe 22f0 be3d
00000340: 81cd c3be 483b d73b e146 b73e 938f 823e
00000350: d068 4b3e 3be7 ba3e cd7c cc3e ee69 9f3e
00000360: 8cb6 4c3e d110 9f3e 4dfb 18be 3873 9ebb
00000370: e3ca c73e d469 f53d e071 843e 1fb5 953e
00000380: f395 103e 776b d0be bb48 8c3e d632 efbd
00000390: f3aa 893d cd83 233e a88e 9cbc 7291 8e3d
000003a0: 266f debc 2556 753e 3f9b 343c 2d43 bcbd
000003b0: 3eca 953e 8a22 be3e d5d7 83be 6e61 993e
000003c0: 6a59 5fbd b2b2 0e3e d749 10be 5435 b2be
000003d0: 0178 90be a62b 7e3e 60d5 8dbd 57ce 9fbe
000003e0: 1ac4 b6be 03af 24be c283 abbe 430c 88be
000003f0: 911f 553e 018e 6dbc 733e 8c3e 7c02 473b

fc1.bias f4 [64]
-0.14162828 -0.014001946 -0.3874691 -0.008988679 -0.38592258 -0.27460638 0.3433994 -0.038388837
0.2974178 0.16444553 0.306396 0.12999448 0.14315644 0.18926929 -0.24097596 -0.15446556
0.34161338 0.0108666755 -0.21297218 -0.32126877 0.36544305 -0.4073574 0.16239896 -0.3892612
0.3863027 0.15386845 0.021359347 0.3766907 -0.31487802 0.24495967 0.08158254 0.31977326
-0.34117496 0.21532156 0.07190851 -0.011513947 -0.14936116 -0.10713638 0.29653886 0.03980137
0.22441095 -0.21835813 0.30606017 -0.028940473 -0.27579424 -0.15066257 -0.09375337 -0.37591416
0.054152224 -0.021224888 0.14828166 0.20914607 -0.18040633 -0.17539826 -0.39544547 0.36107573
-0.22576009 -0.33040866 -0.15982445 0.39430228 -0.2316173 -0.060305502 0.13890201 0.22624864
00000000: 0107 11be 6b68 65bc 5a62 c6be 4145 13bc
00000010: a597 c5be 3599 8cbe 0cd2 af3e 9d3d 1dbd
00000020: 2547 983e 6964 283e f0df 9c3e 461d 053e
00000030: 9a97 123e cfcf 413e 67c2 76be 382c 1ebe
00000040: f3e7 ae3e 240a 323c 6115 5abe 577d a4be
00000050: 5a1b bb3e 2691 d0be ea4b 263e 3e4d c7be
00000060: 78c9 c53e b18f 1d3e ccf9 ae3c 9add c03e
00000070: b137 a1be b5d6 7a3e bf14 a73d 52b9 a33e
00000080: 7cae aebe 417d 5c3e c544 933d fea4 3cbc
00000090: 22f2 18be 526a dbbd f1d3 973e c306 233d
000000a0: fccb 653e 4699 5fbe ebb3 9c3e 9214 edbc
000000b0: e734 8dbe 4a47 1abe c401 c0bd d277 c0be
000000c0: b9ce 5d3d d1df adbc 26d7 173e 632a 563e
000000d0: 70bc 38be 9a9b 33be d477 cabe ebde b83e
000000e0: a72d 67be 532b a9be 05a9 23be fde1 c93e
000000f0: 162d 6dbe e702 77bd 543c 0e3e b9ad 673e

fc2.weight f4 [32, 64]
-0.11154634 -0.020218477 -0.051476255 0.057435974 0.08513373 -0.06598325 0.005699992 0.05140817
-0.06568839 -0.11006455 -0.07224949 0.023266554 0.10962911 0.0950295 0.11678971 -0.08867654
0.020250946 -0.039704368 -0.017522126 0.029326886 -0.11441505 -0.051549494 -0.08937636 0.021111548
0.08129506 0.025520205 0.0067374706 0.077769786 0.05777511 0.08580184 0.014212519 -0.121969685
0.05859366 0.07876769 0.03489569 -0.0024189204 -0.111294776 0.05844386 -0.018764287 0.123487666
-0.024793908 -0.011721462 0.05865115 0.08747375 -0.035831362 -0.11865844 0.066634744 -0.07648234
-0.019733861 -0.1212706 -0.11884011 -0.10022187 -0.011117861 -0.06181018 -0.116635546 -0.032513365
-0.038567066 -0.052885607 0.06503524 -0.06863098 -0.00087586045 -0.056163087 -0.09352258 0.005060956
0.100408785 0.09822927 0.11015183 -0.10954474 -0.09325311 -0.053609822 0.020256784 -0.058532763
0.12787715 -0.08375643 0.057809513 -0.107022844 0.052590314 0.04174006 0.008200675 0.08159676
0.035924025 -0.10656502 -0.050726764 -0.0594251 -0.09921951 0.034759983 -0.095141515 0.055131048
-0.072892144 -0.069979414 0.11269747 -0.07133627 -0.08026156 -0.093953565 0.025415303 -0.058881402
0.023984268 0.12165475 -0.10880501 0.09034948 -0.010785122 -0.113184735 -0.011396553 -0.03837311
0.039549883 -0.009142086 0.05477952 0.086682014 -0.08569477 0.01953299 -0.08688472 0.009937152
0.11437687 0.0369053 -0.063028745 0.11304824 -0.036407527 0.12077354 -0.10102923 0.05997301
-0.10586894 -0.032780632 -0.011967775 -0.041704785 0.071613476 -0.024025781 0.03157799 -0.07874992
0.06260499 0.10605989 -0.074366644 -0.068211466 0.03156975 0.028589385 -0.0022023856 0.11313286
-0.05140977 -0.08939128 -0.04380109 0.0016885189 -0.11579722 -0.03467634 0.0052533597 -0.06865869
-0.04369753 -0.022532016 -0.08921208 -0.061246786 0.042290445 0.1187454 -0.03669993 0.11987087
0.08038416 -0.006661967 0.0038818805 -0.09255226 -0.12372926 0.051374003 -0.071160674 -0.035098538
0.066254705 -0.069835424 -0.006441634 0.100016184 -0.013144218 0.025899353 0.05232237 0.02484606
0.1073414 0.0028648674 0.11142713 0.063554935 0.030584272 0.08339707 -0.017376823 -0.046708405
0.0967911 0.07103621 -0.07053315 -0.037903197 -0.048991624 0.035695806 0.10461956 -0.09064519
0.10301571 -0.11117241 0.10651891 -0.056448802 -0.04144354 -0.10224764 -0.09716608 0.063727506
0.011800782 -0.017715424 0.10456777 0.040309038 -0.03431209 0.0015092298 0.058753848 0.10117411
0.07764303 -0.049008936 0.00035031728 0.035184026 0.05752314 0.10294673 0.07112564 -0.09591227
-0.072014496 0.07013182 0.110981986 -0.108646944 0.042173326 -0.0050905943 0.031131556 -0.06654073
0.09326523 0.098925106 0.03225007 -0.08687389 0.0853553 0.113815375 0.09457779 0.112226136
-0.04848185 -0.086053565 -0.04817015 0.083823204 -0.05305742 0.052003965 0.05989948 -0.05150066
0.122060314 -0.070438504 0.0044685905 -0.09888313 -0.125422 -0.0035233381 -0.0870734 -0.12036356
0.03204074 -0.052322745 0.06945565 -0.07671343 -0.07045285 -0.0700054 -0.106004864 0.0155070415
-0.120492876 -0.12328304 0.044634983 -0.04247726 0.022038624 0.10257549 -0.057407126 0.044988282
00000000: 6872 e4bd 38a1 a5bc c4d8 52bd fc41 6b3d
00000010: 985a ae3d 3a22 87bd 00c7 ba3b 6091 523d
00000020: a287 86bd 8669 e1bd 8af7 93bd 8099 be3c
00000030: 3a85 e03d d49e c23d 722f ef3d 0c9c b5bd
00000040: 50e5 a53c 0ca1 22bd 908a 8fbc f03e f03c
00000050: 7052 eabd 9025 53bd f40a b7bd 20f2 ac3c
00000060: 067e a63d c00f d13c 00c6 dc3b c445 9f3d
00000070: 98a5 6c3d e0b8 af3d a0db 683c 3ecb f9bd
00000080: e8ff 6f3d f450 a13d c8ee 0e3d c086 1ebb
00000090: 84ee e3bd d462 6f3d 90b7 99bc 1ae7 fc3d
000000a0: 981c cbbc 600b 40bc 303c 703d 7025 b33d
000000b0: e8c3 12bd 3203 f3bd cc77 883d c6a2 9cbd
000000c0: e8a8 a1bc b85c f8bd 7262 f3bd 2041 cdbd
000000d0: b027 36bc ac2c 7dbd 9ede eebd bc2c 05bd
000000e0: 80f8 1dbd 949e 58bd 3231 853d 668e 8cbd
000000f0: 009a 65ba 440b 66bd c488 bfbd 60d6 a53b
00000100: 1fa3 cd3d 6d2c c93d 4897 e13d fe58 e0bd
00000110: 7dfb bebd f995 5bbd 8ef1 a53c 0dc0 6fbd
00000120: 3af2 023e 7e88 abbd abc9 6c3d cb2e dbbd
00000130: f168 573d a0f7 2a3d 205c 063c 341c a73d
00000140: 1225 133d c33e dabd dec6 4fbd bc67 73bd
00000150: 9933 cbbd 7c60 0e3d 8ed9 c2bd 18d1 613d
00000160: 7a48 95bd 5e51 8fbd eecd e63d c018 92bd
00000170: 2c60 a4bd ba6a c0bd c133 d03c a02d 71bd
00000180: a87a c43c 2026 f93d 29d5 debd 2609 b93d
00000190: 15b4 30bc 66cd e7bd 9cb8 3abc 1f2d 1dbd
000001a0: 0fff 213d b0c8 15bc 7d60 603d 5786 b13d
000001b0: bd80 afbd a603 a03c 9ef0 b1bd 70cf 223c
000001c0: 6c3e ea3d 032a 173d 3715 81bd d685 e73d
000001d0: 0f20 15bd 1e58 f73d 6ae8 cebd 42a6 753d
000001e0: d1d1 d8bd fc44 06bd 7d14 44bc a3d2 2abd
000001f0: 16aa 923d b7d1 c4bc ec57 013d a347 a1bd
00000200: 0c37 803d ed35 d93d 8a4d 98bd 74b2 8bbd
00000210: 484f 013d 4934 ea3c e655 10bb 33b2 e73d
00000220: 0d93 52bd c712 b7bd c668 33bd 4b51 dd3a
00000230: 1827 edbd c708 0ebd 6024 ac3b ed9c 8cbd
00000240: 2efc 32bd 1095 b8bc d3b4 b6bd e9dd 7abd
00000250: bf38 2d3d ca30 f33d aa52 16bd dc7e f53d
00000260: 73a0 a43d a14c dabb 2667 7e3b 0a8c bdbd
00000270: c465 fdbd 8c6d 523d b0bc 91bd 7cc3 0fbd
00000280: 8cb0 873d e005 8fbd 5814 d3bb 49d5 cc3d
00000290: d95a 57bc e12a d43c fb4f 563d f789 cb3c
000002a0: cfd5 db3d 80c0 3b3b e833 e43d 1729 823d
000002b0: de8b fa3c 15cc aa3d d759 8ebc 5051 3fbd
000002c0: 6a3a c63d 6f7b 913d af73 90bd 6240 1bbd
000002d0: 71ab 48bd c435 123d c842 d63d 2fa4 b9bd
000002e0: e7f9 d23d 5cae e3bd 9626 da3d dc36 67bd
000002f0: b4c0 29bd 3667 d1bd 02ff c6bd 9183 823d
00000300: 1158 413c f01f 91bc a127 d63d 171b 253d
00000310: d68a 0cbd 59d1 c53a e0a7 703d 5f34 cf3d
00000320: 4f03 9f3d 98bd 48bd caaa b739 201d 103d
00000330: 629d 6b3d bcd5 d23d 52aa 913d a76d c4bd
00000340: 567c 93bd 46a1 8f3d 864a e33d 4a82 debd
00000350: f0bd 2c3d 00cf a6bb 9b07 ff3c 8246 88bd
00000360: d701 bf3d 3f99 ca3d a618 043d f0ea b1bd
00000370: c2ce ae3d 0918 e93d 00b2 c13d d1d6 e53d
00000380: e894 46bd da3c b0bd 104e 45bd 80ab ab3d
00000390: bd52 59bd 1c02 553d 2859 753d 5bf2 52bd
000003a0: c2fa f93d 1042 90bd 416d 923b 3d83 cabd
000003b0: a06e 00be cee7 66bb 8a53 b2bd 2c81 f6bd
000003c0: 273d 033d 6050 56bd c43e 8e3d ee1b 9dbd
000003d0: 9549 90bd fe5e 8fbd 1419 d9bd 3f11 7e3c
000003e0: f8c4 f6bd d27b fcbd 2cd3 363d a3fc 2dbd
000003f0: 588a b43c 1913 d23d bc23 6bbd a245 383d

fc2.bias f4 [32]
-0.0818657 0.10047439 0.117497705 0.117521025 0.093924895 0.004073362 0.06396974 0.010295212
-0.0203692 0.0066030305 -0.054379884 -0.12468903 -0.048126977 0.08218307 0.023809874 0.0863912
-0.09494688 -0.09213433 0.09805983 0.082106106 -0.00880805 0.068416834 0.061546896 0.0045334157
0.009295681 0.016130527 -0.05908908 0.058031585 0.07118137 -0.102610655 0.095105626 0.016440438
00000000: 34a9 a7bd 84c5 cd3d a3a2 f03d ddae f03d
00000010: b25b c03d d679 853b 9102 833d 40ad 283c
00000020: 4fdd a6bc 3c5e d83b 71bd 5ebd f65c ffbd
00000030: cb20 45bd 994f a83d ed0c c33c dfed b03d
00000040: 8373 c2bd ecb0 bcbd 98d3 c83d 3f27 a83d
00000050: a44f 10bc 201e 8c3d 9918 7c3d 0c8d 943b
00000060: e94c 183c 2b24 843c 6407 72bd 87b2 6d3d
00000070: 8ac7 913d 8925 d2bd bdc6 c23d 19ae 863c

fc3_action.weight f4 [11, 32]
0.15186642 0.025818788 0.13668615 0.14260304 0.17119254 0.03158497 0.13928194 0.1616535
0.027018849 -0.015166262 0.17093806 -0.12976947 0.08410423 -0.036684223 0.07979679 0.10675627
0.09480914 0.10954411 0.07038592 -0.14818665 -0.08408651 0.07179085 0.07315579 -0.09005185
-0.06972518 0.13820274 0.07354464 -0.08064543 -0.11561039 0.15591076 0.015418419 -0.11676714
0.16398685 0.05814789 0.065686755 0.01202597 -0.054351386 0.07525034 -0.02190322 0.023014978
0.11212271 -0.010739957 0.11398537 -0.008296877 -0.1503488 0.1496386 0.052937042 0.15929063
0.11443025 -0.04256077 0.043293066 0.0498535 0.12878591 -0.049276162 0.060969375 -0.040225983
-0.080826275 0.11421812 0.16724075 0.14125863 0.086160265 0.071726866 0.14493904 -0.06870451
-0.082573935 0.08510669 0.06883372 0.04819209 -0.14861834 0.079670295 -0.049583077 -0.03565459
-0.15248255 -0.04558307 0.034292497 0.104396 0.012443124 0.0065245917 -0.07979515 0.103542745
0.15454698 -0.1538631 -0.13352045 -0.030112922 -0.1687033 0.031920057 -0.11481061 0.106558226
-0.07738617 -0.03614652 -0.16017285 -0.06729949 -0.14032419 -0.055037618 0.16306193 -0.14401901
0.07521264 0.14921415 -0.1080862 0.017986033 0.10037125 -0.040819958 0.058228374 -0.15069158
0.12892357 0.061128043 0.10704387 -0.06563872 0.05933065 0.052675236 0.16923147 -0.1758318
-0.14881118 0.16874735 -0.0843952 -0.04431896 -0.073710084 0.12910934 0.027200961 -0.16625187
0.04184845 -0.08765351 0.15423812 -0.09128955 -0.02540328 0.15526189 0.0071386886 -0.038251523
-0.07992924 -0.024907513 -0.022732163 0.12677477 0.07304108 0.1081452 0.041442078 0.16774921
0.12148034 0.01635653 -0.12401783 0.023113012 0.16110685 -0.15826456 0.05086663 0.16741103
0.100365534 -0.054688253 0.14157046 -0.094596975 -0.13742176 -0.022405414 -0.041591644 -0.028825333
-0.040842976 -0.003497542 -0.0538949 -0.099462524 -0.15193199 0.13022664 0.04226731 0.13485855
-0.0068399757 -0.028432423 -0.13120033 -0.07214826 0.12379524 0.050939634 0.079949014 -0.07465243
0.076028496 -0.14859763 0.14999133 -0.092961915 0.067484565 0.13850988 0.061904777 -0.17178625
-0.10648237 0.019659147 0.1540186 0.1450229 -0.06405764 -0.040376123 0.015534223 0.03347992
0.08470329 0.005571335 -0.17369257 0.019342944 -0.08656171 0.1052163 -0.044919904 -0.007700531
-0.15448725 -0.0060922643 0.11495108 0.11031254 -0.043748587 -0.06726798 0.03409992 0.101485446
-0.032239616 -0.14990881 0.08293451 0.015275657 -0.1564334 0.056704618 0.11196264 -0.018884378
0.054811504 0.108381405 -0.022269402 -0.096571386 -0.14428273 0.020108787 -0.05951619 0.1608906
0.17089231 0.1267904 0.09154706 -0.035264935 -0.17352639 -0.12091081 -0.06698615 0.07481442
0.051208287 0.14753258 0.14214967 0.13633613 0.062061127 -0.17060505 0.018716102 -0.08557363
0.039251532 0.023822661 -0.0887333 0.099189565 0.07990631 0.001055684 -0.008400618 -0.12749045
-0.05128827 -0.0030768663 -0.13898444 0.06900212 0.0031488333 0.05647724 0.14750068 -0.14976038
0.065222 -0.12493898 0.041159704 0.14081417 -0.011391954 -0.14877619 -0.05214668 -0.11647864
00000000: df82 1b3e ec81 d33c 74f7 0b3e 8806 123e
00000010: 194d 2f3e 3e5f 013d ed9f 0e3e 7f88 253e
00000020: a256 dd3c ea7b 78bc 630a 2f3e 4ae2 04be
00000030: d73e ac3d 3242 16bd 806c a33d 08a3 da3d
00000040: 4b2b c23d aa58 e03d 7e26 903d 3ebe 17be
00000050: 8c35 acbd 1507 933d b4d2 953d 1b6d b8bd
00000060: 13cc 8ebd 0585 0d3e 929e 963d 6e29 a5bd
00000070: 24c5 ecbd 12a7 1f3e 899d 7c3c 9c23 efbd
00000080: 2bec 273e 7b2c 6e3d c786 863d 9308 453c
00000090: 8f9f 5ebd da1c 9a3d 626e b3bc e889 bc3c
000000a0: 97a0 e53d a5f6 2fbc 2971 e93d a0ef 07bc
000000b0: 09f5 19be dc3a 193e 83d4 583d 151d 233e
000000c0: 685a ea3d 3454 2ebd 1254 313d 2f33 4c3d
000000d0: 74e0 033e cdd5 49bd 06bb 793d 00c4 24bd
000000e0: 3f88 a5bd 31eb e93d 2941 2b3e 1aa6 103e
000000f0: cb74 b03d 89e5 923d e66a 143e f3b4 8cbd
00000100: 861c a9bd 6b4c ae3d b2f8 8c3d 1265 453d
00000110: 682f 18be 2e2a a33d a017 4bbd 8c0a 12bd
00000120: 6324 1cbe 50b5 3abd 4a76 0c3d 92cd d53d
00000130: 3fde 4b3c 3ecc d53b a46b a3bd 380e d43d
00000140: 9041 1e3e 4a8e 1dbe 96b9 08be 60af f6bc
00000150: 8fc0 2cbe 9bbe 023d d321 ebbd 333b da3d
00000160: a47c 9ebd 600e 14bd 5a04 24be 51d4 89bd
00000170: 25b1 0fbe 206f 61bd b5f9 263e b879 13be
00000180: 1609 9a3d 98cb 183e 4c5c ddbd 7257 933c
00000190: 718f cd3d d432 27bd e080 6e3d e54e 1abe
000001a0: 8a04 043e 6661 7a3d d139 db3d 986d 86bd
000001b0: b204 733d fdc1 573d 044b 2d3e 400d 34be
000001c0: f561 18be 1bcc 2c3e 64d7 acbd cc87 35bd
000001d0: 50f5 96bd 3d35 043e 8dd4 de3c ee3d 2abe
000001e0: 4869 2b3d af83 b3bd 99f0 1d3e 04f6 babd
000001f0: 8a1a d0bc f9fc 1e3e a9eb e93b a1ad 1cbd
00000200: f1b1 a3bd d70a ccbc cd38 babc 3fd1 013e
00000210: 9096 953d 3b7b dd3d 2bbf 293d 73c6 2b3e
00000220: afca f83d 21fe 853c 0ffd fdbd 8057 bd3c
00000230: 32f9 243e 1b10 22be 8759 503d cc6d 2b3e
00000240: 728c cd3d ca00 60bd d9f7 103e 0fbc c1bd
00000250: 4ab8 0cbe 8f8b b7bc 005c 2abd 1b23 ecbc
00000260: f74a 27bd 0537 65bb e6c0 5cbd 02b3 cbbd
00000270: 0f94 1bbe 225a 053e 7d20 2d3d 5c18 0a3e
00000280: e021 e0bb 1deb e8bc 6159 06be 78c2 93bd
00000290: 5c88 fd3d 14a6 503d 4fbc a33d 60e3 98bd
000002a0: d4b4 9b3d fa29 18be 5497 193e d162 bebd
000002b0: 5935 8a3d 89d5 0d3e dd8f 7d3d bce8 2fbe
000002c0: 6e13 dabd 380c a13c 0db7 1d3e e280 143e
000002d0: a730 83bd 6f61 25bd 4183 7e3c 3e22 093d
000002e0: eb78 ad3d bf8f b63b 77dc 31be 1875 9e3c
000002f0: 4447 b1bd a57b d73d effd 37bd bc54 fcbb
00000300: e831 1ebe 9ea1 c7bb 796b eb3d 8aeb e13d
00000310: b831 33bd cbc3 89bd 5cac 0b3d 9ad7 cf3d
00000320: b00d 04bd b281 19be 92d9 a93d c046 7a3c
00000330: 1430 20be 1a43 683d ab4c e53d 69b3 9abc
00000340: 0782 603d 12f7 dd3d 526e b6bc 38c7 c5bd
00000350: dabe 13be 2fbb a43c 40c7 73bd 81c0 243e
00000360: 65fe 2e3e 58d5 013e 067d bb3d f771 10bd
00000370: e7b0 31be 16a0 f7bd 0930 89bd 4d38 993d
00000380: c8bf 513d c812 173e af8f 113e b39b 0b3e
00000390: cf33 7e3d 17b3 2ebe 8352 993c 3a41 afbd
000003a0: 37c6 203d be27 c33c ceb9 b5bd e623 cb3d
000003b0: eba5 a33d e15e 8a3a bfa2 09bc db8c 02be
000003c0: a613 52bd 40a5 49bb f051 0ebe fc50 8d3d
000003d0: a85c 4e3b ae54 673d 6b0a 173e c95a 19be
000003e0: 1d93 853d 02e0 ffbd 1497 283d 9731 103e
000003f0: 51a5 3abc c958 18be c297 55bd 5a8c eebd

fc3_action.bias f4 [11]
-0.16696794 -0.040322483 -0.11382432 0.024139263 0.10075924 0.084980145 0.06016788 -0.033470895
-0.014804092 0.100837186 0.06172261
00000000: a5f9 2abe 3029 25bd ba1c e9bd b4bf c53c
00000010: dc5a ce3d 120a ae3d 9872 763d c718 09bd
00000020: dd8c 72bc ba83 ce3d d9d0 7c3d
