traditional_vrpb_policy_best.pth (torch, 42897 bytes, 6 tensors)

fc1.weight f4 [128, 6]
0	0x3ecd3029	0.40075806
1	0x3e012342	0.12611106
2	0xbb130464	-0.0022433037
3	0xbe4f08d8	-0.20218217
4	0x3ec0ded1	0.37669995
5	0x3cacd17d	0.021095986
6	0xbe125d37	-0.14293371
7	0x3e8a9a2c	0.2707075
8	0xbe239495	-0.15974648
9	0xbe40802e	-0.18798897
10	0x3ea43214	0.32069457
11	0xbecc878c	-0.39947164
12	0x3ea2b541	0.3177891
13	0x3eb59ea6	0.35472602
14	0x3d8c2e41	0.0684476
15	0xbe87e23d	-0.26539794
16	0x3ebf2ed6	0.3734042
17	0x3e1f827f	0.15577124
18	0xbddebd4c	-0.10875949
19	0x3e1ae5f0	0.15126777
20	0x3d200a20	0.039072156
21	0xbdbd4490	-0.09241593
22	0xbc6502c0	-0.013977706
23	0x3d16b790	0.036796153
24	0x3ec42314	0.38308012
25	0x3e4f8590	0.20265794
26	0x3ec97c82	0.39352804
27	0xbe240815	-0.16018708
28	0x3d224430	0.03961581
29	0xbea0daa6	-0.31416816
30	0xbccd9db8	-0.02509962
31	0x3ece4dd6	0.4029376
32	0x3da2235f	0.07916903
33	0x3c9d27d5	0.019184032
34	0x3e4a1c8a	0.1973745
35	0x3e29ead9	0.16593494
36	0xbd90d293	-0.07071414
37	0x3e3c6297	0.18396984
38	0xbec33a4a	-0.3813041
39	0xbe8f1fa5	-0.2795383
40	0x3e8be5ac	0.27323663
41	0x3e3ad549	0.18245424
42	0xbe875d7b	-0.26438507
43	0x3e481c68	0.19542086
44	0xbe344061	-0.17602684
45	0xbe010762	-0.12600473
46	0xbecc043a	-0.39846975
47	0x3e5586b1	0.20852162
48	0x3e6e1d63	0.23253398
49	0x3e326ca7	0.1742426
50	0x3e150d33	0.14555816
51	0xbec6d4d7	-0.3883426
52	0x3e658779	0.2241496
53	0xbc165491	-0.009175436
54	0x3c8e18e8	0.01734586
55	0xbd6a022b	-0.057130974
56	0x3e67639c	0.22596592
57	0x3e190d2c	0.14946431
58	0x3c27578c	0.010213744
59	0x3dd42df4	0.10360327
60	0xbe9adb1d	-0.30245295
61	0xbe1a35f1	-0.1505964
62	0x3e104db3	0.1409214
63	0x3ebe9958	0.37226367
64	0x3e50c490	0.20387483
65	0xbe537441	-0.20649816
66	0x3e842354	0.25808203
67	0x3e854e6d	0.26036397
68	0x3e7fc713	0.24978285
69	0x3e623aef	0.22092794
70	0xbdf3a04e	-0.1189581
71	0xbeba162d	-0.36345044
72	0x3d101bf8	0.035182923
73	0xbe9d9ea0	-0.30785084
74	0xbe9331e1	-0.28748992
75	0x3ea22690	0.31670046
76	0xbeb68834	-0.3565079
77	0x3d4489f0	0.04798311
78	0xbe3b486a	-0.18289343
79	0x3d6df8a8	0.058098465
80	0xbebf53e9	-0.37368706
81	0xbddfd2b8	-0.10928863
82	0xbe8e7e98	-0.27830958
83	0xbe4f4aa4	-0.20243317
84	0x3e596510	0.21229959
85	0xbe826c77	-0.25473377
86	0xbe6097e6	-0.21932945
87	0xbe1a5339	-0.1507081
88	0xbea4d5da	-0.32194406
89	0x3e372cb3	0.17888145
90	0x3e24620a	0.16053024
91	0xbdf1fa09	-0.118152685
92	0x3d67cb99	0.05659065
93	0xbdd48fa7	-0.10378962
94	0xbe960b0e	-0.2930531
95	0x3d670666	0.056402586
96	0xbd3562de	-0.04428374
97	0x3e859e80	0.26097488
98	0x3e9e6269	0.30934456
99	0x3dfac23e	0.1224408
100	0xbe22908e	-0.15875456
101	0x3de7cbb4	0.1131815
102	0x3e584bab	0.21122615
103	0x3e8fd767	0.28094026
104	0x3e802076	0.25024766
105	0xbce66d96	-0.028128427
106	0x3e7a9601	0.24471284
107	0x3df661bb	0.12030359
108	0x3e9d4483	0.30716333
109	0xbdbe76f0	-0.09300029
110	0xbeb6d9b1	-0.3571296
111	0x3eb29ac9	0.34883717
112	0x3eb21a4f	0.34785697
113	0xbe9b8450	-0.30374384
114	0x3ea56851	0.3230615
115	0xbecd073f	-0.4004459
116	0xbe0a8a74	-0.13529378
117	0x3dda9330	0.10672605
118	0xbec1fa85	-0.37886444
119	0xbe974236	-0.29542702
120	0xbec62fee	-0.38708442
121	0xbd27451f	-0.040837403
122	0x3cb5e31b	0.022203019
123	0x3eaee5ab	0.34159598
124	0x3dc1415a	0.09436293
125	0x3e3b5210	0.18293023
126	0xbebe6768	-0.37188268
127	0xbe521c04	-0.205185
128	0xbe12b622	-0.1432729
129	0xbea64529	-0.3247464
130	0xbec1810f	-0.37793776
131	0xbe36bd95	-0.17845757
132	0x3ecb655d	0.39725772
133	0x3e531f38	0.20617378
134	0x3e0d1eef	0.13781331
135	0xbd98d231	-0.07461966
136	0xbe245fda	-0.1605219
137	0xbdd3209a	-0.10308953
138	0x3ec0bfc4	0.37646306
139	0x3c87af89	0.016563194
140	0xbe874e75	-0.26427045
141	0x3e00c2c4	0.12574297
142	0x3ecc8d05	0.3995134
143	0x3bd62a4d	0.0065358044
144	0x3c34da74	0.011038411
145	0xbeb71d33	-0.35764465
146	0x3e7ed35b	0.24885313
147	0x3e922246	0.28541774
148	0x3eb45799	0.35223082
149	0xbe968df9	-0.29405192
150	0xbeb5bb2a	-0.35494357
151	0x3e49db58	0.19712579
152	0xbe1bab61	-0.15202095
153	0x3e9abd06	0.30222338
154	0x3ea40d31	0.32041314
155	0xbda40cca	-0.08010252
156	0x3d5ce413	0.053928446
157	0xbd9e07bb	-0.07716318
158	0x3e99180f	0.29901168
159	0x3e8f9ed6	0.2805087
160	0xbde67b7b	-0.11254021
161	0xbe2b5a4b	-0.16733663
162	0xbdb29ffe	-0.08721922
163	0xbdd4edb4	-0.10396901
164	0xbed0fe6d	-0.4081911
165	0xbd632ced	-0.055462766
166	0x3e33c182	0.17554286
167	0xbe4bef47	-0.19915496
168	0xbdb4652c	-0.088083595
169	0xbea261ee	-0.3171534
170	0x3bd3d5c0	0.00646469
171	0xbdf706bc	-0.12061831
172	0x3e3e37d0	0.18575978
173	0xbd39d578	-0.045369595
174	0x3e56d6ee	0.20980427
175	0xbeb7dd46	-0.35911006
176	0x3d23c798	0.03998527
177	0xbec3bb3c	-0.38228786
178	0xbd4a33c2	-0.049365766
179	0xbec296ba	-0.3800562
180	0xbe280798	-0.16409147
181	0xbe4ad6f6	-0.19808564
182	0x3ec8beb1	0.39207986
183	0x3e9faa63	0.31184682
184	0x3d4a3b87	0.049373176
185	0x3db9f71e	0.09080337
186	0x3c91d750	0.017802864
187	0xbe74b294	-0.23896247
188	0xbebaa541	-0.36454204
189	0xbcfd9ce0	-0.030958593
190	0xbe85b592	-0.2611509
191	0xbca07ff0	-0.019592255
192	0x3e22cbfa	0.15898123
193	0xbe43aa13	-0.19107847
194	0x3c9505b2	0.018191192
195	0x3e85a8f6	0.2610547
196	0xbc8b6fc5	-0.01702107
197	0xbe0ce4e9	-0.13759197
198	0xbe8f06d9	-0.27934912
199	0xbd1a581e	-0.03768169
200	0xbc530dce	-0.012881709
201	0x3ecc586b	0.39911208
202	0xbe6e21a2	-0.23255017
203	0x3e99bd0d	0.30027047
204	0xbd08283a	-0.033241488
205	0xbe8a6b54	-0.2703501
206	0x3eb9b124	0.3626796
207	0xbea63967	-0.3246567
208	0xbe74cba3	-0.23905806
209	0x3ebc8d42	0.3682652
210	0xbe50fa81	-0.2040806
211	0xbdc47584	-0.09592727
212	0x3cd36e90	0.025809556
213	0xbe9819a5	-0.29707065
214	0xbd4443e0	-0.047916293
215	0x3e8f42be	0.27980608
216	0x3e2ac4cd	0.16676636
217	0x3e93e3a0	0.28884602
218	0x3ec9f919	0.3944786
219	0x3da5dcdf	0.080987684
220	0x3ea7392c	0.32660806
221	0xbe990448	-0.2988608
222	0xbd0eb8d8	-0.03484425
223	0x3da40034	0.08007851
224	0xbe8ce716	-0.27520055
225	0xbe1b384a	-0.15158191
226	0xbea814ad	-0.32828274
227	0xbe153030	-0.14569163
228	0xbdf92f0d	-0.12167177
229	0xbd0c10c8	-0.03419569
230	0xbe8b05f2	-0.27152973
231	0x3e48658d	0.19569989
232	0xbe9666c1	-0.2937527
233	0xbcf883da	-0.03033631
234	0xbdcf97c8	-0.10136372
235	0x3e211820	0.15731859
236	0xbe3379fd	-0.17527004
237	0xbea6677b	-0.32500824
238	0xbec35f38	-0.38158584
239	0x3cb77f30	0.022399515
240	0x3ecf9c21	0.40548804
241	0xbd2a4d5b	-0.04157768
242	0x3ea74707	0.32671377
243	0x3e2e21bc	0.17005056
244	0x3e0364e6	0.12831458
245	0xbde454e4	-0.11149004
246	0xbdb896d0	-0.0901314
247	0xbe0bc646	-0.13649854
248	0xbe5bf55f	-0.2148032
249	0xbd9cbf24	-0.07653645
250	0xbdde9548	-0.10868317
251	0xbe0c7542	-0.13716605
252	0xbe4df4f2	-0.2011297
253	0x3e5db7ba	0.21652117
254	0x3ea15c9f	0.31515977
255	0xbe832d71	-0.25620607

fc1.bias f4 [128]
0	0x3e240260	0.16016531
1	0xbd92fee7	-0.07177525
2	0x3eb35075	0.3502232
3	0xbe4e640f	-0.20155357
4	0xbe1441df	-0.14478253
5	0x3d425f2e	0.04745405
6	0x3c5a90cc	0.013340186
7	0x3e85bc72	0.26120335
8	0xbeb6081d	-0.35553065
9	0xbea516c9	-0.32243946
10	0x3eaa77ab	0.33294424
11	0x3ebde21f	0.3708658
12	0xbe7d240f	-0.24720787
13	0xbe891f04	-0.26781476
14	0x3e8c0948	0.2735083
15	0x3d276528	0.040867954
16	0x3e2a9d67	0.16661607
17	0xbe196363	-0.1497932
18	0x3d08e877	0.03342482
19	0xbdb70fe3	-0.08938577
20	0xbe8246b8	-0.2544458
21	0xbdb04644	-0.08607152
22	0x3d631516	0.05544003
23	0xbe0e7635	-0.1391228
24	0x3ebf3148	0.37342286
25	0x3da76802	0.08174135
26	0x3ea7506e	0.3267855
27	0xbd288ae8	-0.041148096
28	0xbe725249	-0.23664202
29	0x3e29a2ce	0.16566011
30	0x3e732d21	0.23747684
31	0xbe5f5dc9	-0.2181312
32	0x3e1f764a	0.15572467
33	0xbe4fc894	-0.20291358
34	0x3e921d97	0.285382
35	0xbe929949	-0.28632572
36	0x3d52d60f	0.051473673
37	0xbea48444	-0.3213216
38	0x3da38a81	0.07985402
39	0xbebd9d3a	-0.37034017
40	0xbebe4843	-0.37164506
41	0xbebcadde	-0.368514
42	0x3e874b0c	0.26424444
43	0x3d6b69f7	0.057474103
44	0xbdaa7238	-0.08322567
45	0x3ecd6b54	0.40120947
46	0x3db6ee1a	0.08932133
47	0xbe98d0bd	-0.29846755
48	0xbe1703b5	-0.14747508
49	0xbe9a0aee	-0.30086464
50	0xbe8242d2	-0.25441605
51	0x3d88b55f	0.06675219
52	0x3c101042	0.008792939
53	0xbeb359bb	-0.35029396
54	0x3ecb80d6	0.39746732
55	0x3eb1dd26	0.34739035
56	0xbe842e98	-0.25816798
57	0x3df95fa7	0.12176447
58	0xbdb547ef	-0.08851611
59	0x3eb71855	0.3576075
60	0xbe5bcc0f	-0.21464561
61	0xbe03037c	-0.12794298
62	0x3e8e502c	0.2779554
63	0xbe399c48	-0.18126023
64	0xbd01c8d9	-0.031685684
65	0x3e6bf7c3	0.23043732
66	0xbd2ef70c	-0.04271607
67	0x3e9d793b	0.30756554
68	0xbe908335	-0.28225103
69	0x3e2d85bc	0.16945547
70	0xbe66a559	-0.22524013
71	0xbeb50aca	-0.35359794
72	0xb8af15d6	-8.3487175e-05
73	0x3cbb80ad	0.022888506
74	0xbe8af005	-0.27136245
75	0xbdefb762	-0.11704899
76	0xbea149a7	-0.31501505
77	0xbd9a3550	-0.075297
78	0x3d7dd9ee	0.061975412
79	0x3eb479f0	0.3524928
80	0x3ea6f2af	0.32607028
81	0xbe084018	-0.133057
82	0x3e043776	0.12911782
83	0x3e47702c	0.19476384
84	0xbe976d83	-0.29575738
85	0xbe99f0fb	-0.30066666
86	0xbe353688	-0.17696583
87	0x3ccaab44	0.024739869
88	0x3ebe68ec	0.37189424
89	0xbe6ac784	-0.22927672
90	0xbe9cd38e	-0.30630153
91	0xbe9eb47c	-0.30997074
92	0xbd6ea85f	-0.05826604
93	0xbe396dac	-0.18108243
94	0xbdc84e17	-0.097805195
95	0x3ebe7315	0.37197176
96	0x3ebb44ea	0.36576015
97	0x3cc31c9f	0.023817359
98	0xbec7e92a	-0.39045078
99	0x3eb147d4	0.34625113
100	0xbe1f2a6c	-0.15543526
101	0x3eab2bdb	0.33431897
102	0x3db6b2bf	0.08920812
103	0xbe56d1d3	-0.20978479
104	0xbe41bbee	-0.18919346
105	0x3d898ab0	0.06715906
106	0xbe830159	-0.25586966
107	0x3ded5d30	0.1159004
108	0xbe0fccfe	-0.14043042
109	0x3e43a714	0.19106704
110	0x3ec34f70	0.38146544
111	0x3e81355b	0.2523602
112	0x3dc14dd1	0.094386704
113	0xbdb5e757	-0.08882015
114	0xbd92ef06	-0.07174496
115	0x3dae72e5	0.08518008
116	0xbe165f8c	-0.14684886
117	0x3ecf966a	0.40544444
118	0x3e4cc419	0.1999668
119	0xbed0a820	-0.4075327
120	0xbe38bbcb	-0.18040387
121	0xbe7fe259	-0.24988689
122	0xbe9ee0d6	-0.3103091
123	0xbe968204	-0.2939607
124	0xbec0b680	-0.37639236
125	0xbb8da1b2	-0.004322254
126	0xbe80b398	-0.2513702
127	0xbda01416	-0.07816331

fc2.weight f4 [64, 128]
0	0xbd4e8437	-0.05041906
1	0x3c725d8f	0.014792814
2	0x3d85bef8	0.06530565
3	0xbd3878f1	-0.045037214
4	0x3d591fa8	0.053008705
5	0x3d194367	0.037417796
6	0xbdaf1e65	-0.08550719
7	0x3d2ddb6e	0.042445593
8	0x3d014d01	0.031567577
9	0xbd383bcc	-0.0449789
10	0xbd2fede5	-0.042951483
11	0x3d560743	0.05225302
12	0xbcaaa640	-0.020831227
13	0x3afd8780	0.001934275
14	0x3d99e6d5	0.07514731
15	0x3c527833	0.012846041
16	0xbd26783b	-0.040642004
17	0x3d88e90b	0.066850744
18	0x3d90b513	0.07065787
19	0xbd89436c	-0.06702313
20	0x3d14575c	0.036216125
21	0xbd986056	-0.074402496
22	0x3cce6d41	0.02519858
23	0xbda44a75	-0.08022014
24	0x3b838d0e	0.0040146178
25	0xbd7a6199	-0.061128233
26	0xbc52d771	-0.012868748
27	0x3ca3cf64	0.019996352
28	0xbce14f5c	-0.027503662
29	0xbd8d00e5	-0.06884936
30	0xbbc2b897	-0.005942415
31	0xbd99f657	-0.07517689
32	0xbc689469	-0.01419554
33	0x3da7c79d	0.0819237
34	0x3d126e01	0.03574944
35	0x3d4413ba	0.047870375
36	0xbb9860b9	-0.004650202
37	0x3d217ec6	0.03942754
38	0x3d4b8396	0.049686037
39	0xbca80760	-0.02051133
40	0xbcae6c9d	-0.021292025
41	0xbc80f2f8	-0.015740857
42	0xbb745c36	-0.0037286407
43	0x3d72d66b	0.059286516
44	0x3c1e8280	0.009674668
45	0x3cf7d83f	0.030254481
46	0x3d64eb6e	0.055888586
47	0xbd492eee	-0.04911702
48	0x3d02d1c2	0.031938322
49	0xbda5591e	-0.080736384
50	0xbc106350	-0.00881274
51	0xba92f050	-0.0011210535
52	0xbd22de3a	-0.039762713
53	0x3c936c57	0.017995996
54	0x3d3eaac0	0.04654956
55	0xbd37bb0f	-0.044856127
56	0x3d53b74a	0.05168847
57	0xbc9a8866	-0.018863868
58	0xbd0aa286	-0.0338464
59	0x3c2da0a2	0.01059738
60	0x3a943dc0	0.0011309907
61	0xbd30db57	-0.04317793
62	0xbda9f76c	-0.08299145
63	0x3c08bf2f	0.008346363
64	0x3b6b6147	0.0035916136
65	0xbd1036bf	-0.03520846
66	0x3d9bd09d	0.07608149
67	0xbd7a56d8	-0.061117977
68	0xbcf7f060	-0.030265987
69	0xbd903e28	-0.07043105
70	0x3d85b8bd	0.06529377
71	0x3d20c97d	0.039254654
72	0xbd82f5d7	-0.063945465
73	0x3d25bea7	0.040465023
74	0xbd626f85	-0.055282135
75	0x3bab5cd0	0.00522957
76	0xbcfd0722	-0.03088719
77	0xbd5ef272	-0.054430433
78	0x3c527300	0.012844801
79	0x3d3cf107	0.0461283
80	0xbd94b988	-0.0726195
81	0xbd38351a	-0.044972517
82	0x3d8f869c	0.070080966
83	0x3d286d46	0.041119836
84	0xbd5acafa	-0.05341623
85	0xbd7fadf9	-0.062421773
86	0x3d34151b	0.04396544
87	0x3d9ff9f6	0.07811348
88	0x3d8c8816	0.06861894
89	0x3d2f0309	0.042727504
90	0x3c70437a	0.014664525
91	0x3d9c6d69	0.07638056
92	0xbcee6bbc	-0.029104106
93	0x3d6c3716	0.05766972
94	0xbd7cd039	-0.061722014
95	0xbd56b0cf	-0.05241471
96	0xbd524438	-0.05133459
97	0x3da29516	0.07938592
98	0x3d61881a	0.055061437
99	0x3cf7d7aa	0.030254204
100	0xbda16a06	-0.078815505
101	0x3cf81fc9	0.030288594
102	0xbd4bac44	-0.049724832
103	0xbd2cfafb	-0.04223154
104	0x3c0e489d	0.008684305
105	0xbc855aa3	-0.01627857
106	0x3d566392	0.05234105
107	0xbd869bf7	-0.06572717
108	0xbc18986b	-0.009313683
109	0xbda45dc4	-0.08025697
110	0xbd91db9b	-0.071219645
111	0xbd7bce90	-0.06147629
112	0xbd6f0980	-0.05835867
113	0xbd2972c0	-0.0413692
114	0x3cbc18bb	0.022961011
115	0x3d26b643	0.040701162
116	0xbd2dc0f7	-0.042420354
117	0x3c7a3bc1	0.0152730355
118	0xbd997cf8	-0.07494539
119	0xbc9d20d3	-0.01918069
120	0xbdb3809a	-0.08764763
121	0x3cf3b518	0.029749438
122	0xbd756881	-0.059914116
123	0xbdb12356	-0.08649318
124	0x3cffcf2e	0.03122672
125	0xbd903f68	-0.07043344
126	0x3d810c01	0.06301118
127	0x3d959c69	0.073052235
128	0xbcd2e041	-0.025741698
129	0xbbcb2680	-0.006199658
130	0x3d0ffdab	0.035154026
131	0xbd5599d1	-0.052148644
132	0xbcb2c614	-0.021822967
133	0x3d7c358b	0.0615745
134	0x3a266e0c	0.0006348796
135	0xbd82b60e	-0.063823804
136	0x3da442de	0.080205664
137	0x3d9fd625	0.07804517
138	0x3bc9d149	0.006158982
139	0xbd372e77	-0.044722047
140	0x3d0a2642	0.03372789
141	0x3cfa09a4	0.030522175
142	0xbd36f565	-0.04466762
143	0x3dafb792	0.08579935
144	0x3bb7f610	0.0056140497
145	0xbd50717c	-0.050889477
146	0x3d83d886	0.06437783
147	0x3ca74300	0.02041769
148	0xbc8d48a0	-0.017246544
149	0xbda32c56	-0.07967441
150	0x3daf8071	0.0856942
151	0x3d95212c	0.07281718
152	0xbd945aed	-0.07243905
153	0x3d8ab04d	0.06771908
154	0xbd614521	-0.054997567
155	0x3cafa780	0.021442175
156	0xbb09f420	-0.002105005
157	0x3db05039	0.08609051
158	0x3c7be6d7	0.015374861
159	0xbda76f84	-0.08175567
160	0x3b9e3d10	0.0048290566
161	0xbd7df9cb	-0.0620058
162	0xbd8e2396	-0.06940381
163	0x3cf5f19c	0.030022435
164	0x3d5e70ce	0.054306798
165	0xbbb6a730	-0.0055741295
166	0xbbbc7070	-0.0057507083
167	0x3cf65068	0.030067638
168	0x3dafac9e	0.08577846
169	0x3d811df1	0.06304539
170	0xbd98b892	-0.07457079
171	0xbd04559f	-0.032308217
172	0xbd3f9a6b	-0.046778124
173	0xbd8b3334	-0.067968756
174	0xbc5df94f	-0.013548209
175	0xbd0ff8d9	-0.03514943
176	0xbd0fbf79	-0.035094712
177	0x3d9f1797	0.07768171
178	0x3cabe27c	0.02098202
179	0x3d9a15a0	0.07523656
180	0xbd095bd3	-0.033534836
181	0x3cb1933f	0.021676658
182	0x3d80cd73	0.06289186
183	0x3c9e06ef	0.019290416
184	0xbc2cdc40	-0.010550559
185	0xbc0bbff1	-0.008529649
186	0x3d943f96	0.072386906
187	0x3d1f203a	0.038849093
188	0x3d86abab	0.06575712
189	0xbd098cab	-0.033581417
190	0xbcc52a82	-0.02406812
191	0xbd2a10d8	-0.04151997
192	0x3d84ebcf	0.064902894
193	0xbda7b14e	-0.08188115
194	0xba41fd32	-0.0007400095
195	0x3b5a3780	0.003329724
196	0x3d8583a1	0.06519247
197	0x3daff78c	0.08592138
198	0x3b2cd980	0.0026374757
199	0x3d487deb	0.04894821
200	0x3d6a368d	0.05718093
201	0xbd8e0f57	-0.069365196
202	0x3da35c59	0.07976598
203	0xbd904b9e	-0.07045673
204	0xbc3865c0	-0.011254728
205	0x3d9e4629	0.07728226
206	0x3d89525e	0.067051634
207	0xbd2b721e	-0.041856878
208	0x3d75f950	0.060052216
209	0x3ce6232f	0.028092949
210	0xbd983725	-0.07432393
211	0xbd2235ab	-0.039601963
212	0x3bab00d0	0.0052186027
213	0xbd69dbd3	-0.057094406
214	0xbcad7330	-0.02117309
215	0xbd28d862	-0.041221984
216	0x3cdea79b	0.02717953
217	0x3d2990c6	0.041397832
218	0xbb37c700	-0.0028042197
219	0xbcc3670c	-0.023852848
220	0xbce32896	-0.027729314
221	0xbd2c3abf	-0.042048212
222	0x3cbbba88	0.022916093
223	0xbd9e927a	-0.07742782
224	0xbd3072d0	-0.043078244
225	0x3cc781b8	0.024353847
226	0xbc97185c	-0.018444233
227	0xbd9135eb	-0.07090362
228	0x3d839029	0.06423981
229	0x3da2e071	0.07952965
230	0xbc9976ae	-0.018733349
231	0x3d14596c	0.03621809
232	0xbd2c6bcb	-0.042094987
233	0x3d8701c2	0.06592132
234	0xbd9fa8f1	-0.07795895
235	0xbd92a406	-0.07160191
236	0xbd2f5693	-0.042807173
237	0xbd0255d1	-0.031820122
238	0xbd5a9285	-0.05336239
239	0x3d59e89c	0.05320035
240	0xbd098dda	-0.033582546
241	0xbd6bfed7	-0.05761608
242	0xbd41271b	-0.047156435
243	0xba0e815d	-0.0005436147
244	0x3d1c331a	0.03813467
245	0xbb0d96b4	-0.0021604719
246	0xbd28c72b	-0.041205566
247	0xbcacfd48	-0.021116868
248	0xbd6f231e	-0.0583831
249	0x3ceebb54	0.02914206
250	0x3d20954e	0.039204888
251	0x3cca6804	0.024707802
252	0x3d64a932	0.05582542
253	0x3d92489e	0.07142757
254	0xbd5f230c	-0.054476783
255	0xbd738e66	-0.059461974

fc2.bias f4 [64]
0	0x3d5859bf	0.052819964
1	0xbc421285	-0.011845236
2	0xbd53d1fb	-0.051713925
3	0xbd135037	-0.03596517
4	0x3d2c9b3e	0.042140238
5	0x3c01d9fa	0.007925505
6	0x3d8d404e	0.06897031
7	0x3d704dc7	0.058667924
8	0xbd0f9f4e	-0.035064034
9	0x3d546663	0.051855456
10	0x3d7d6618	0.061864942
11	0xbc9ae2f8	-0.018907055
12	0xbb860132	-0.004089498
13	0x3ccf54a1	0.025308909
14	0xbd1af9af	-0.037835773
15	0xbc8e1023	-0.017341679
16	0x3cc3fedc	0.023925237
17	0xbcc508f9	-0.02405213
18	0x3d44ae83	0.04801799
19	0x3cadf924	0.021236964
20	0x3d711051	0.05885345
21	0x3c8641bc	0.016388766
22	0xbdaf02ee	-0.08545481
23	0x3da09795	0.07841412
24	0xbc1d9dc8	-0.0096201375
25	0x3d4f378a	0.050590076
26	0x3d467f30	0.04846114
27	0x3d639ffc	0.055572495
28	0xbd82c872	-0.06385888
29	0xbcfa6caf	-0.030569403
30	0x3bd75d8d	0.0065724314
31	0xbd94e5ae	-0.072703704
32	0x3d9a132d	0.07523189
33	0xbd907072	-0.07052697
34	0x3bd782b0	0.0065768585
35	0xbb208feb	-0.0024499844
36	0xbd42ed12	-0.04758937
37	0xbd1c095c	-0.038094863
38	0x3d41215f	0.047150966
39	0x3d55bb4b	0.05218057
40	0xbdb01c09	-0.08599097
41	0x3da2506a	0.07925494
42	0x3d90253b	0.07038351
43	0x3ce630fe	0.028099533
44	0xbd201865	-0.039085764
45	0x3c7c16bf	0.0153862825
46	0x3d6642c2	0.05621601
47	0x3d87e69c	0.06635782
48	0x3c6fdfe6	0.014640784
49	0xbcffbbba	-0.031217445
50	0xbab19d39	-0.0013550884
51	0xbc410edc	-0.011783328
52	0xbd257d41	-0.040402655
53	0xbdadb05c	-0.084809035
54	0xbc97514c	-0.018471383
55	0xbd4b1056	-0.049576126
56	0x3cc70430	0.024293989
57	0x3cf87800	0.030330658
58	0x3d82345a	0.063576415
59	0xbd422486	-0.047398113
60	0x3da69a09	0.081348486
61	0x3d4bdb92	0.049769945
62	0x3db0fc7f	0.0864191
63	0xbd2a8e6c	-0.04163973

fc3_action.weight f4 [11, 64]
0	0xbdda0c8c	-0.106469244
1	0xbdd9b829	-0.10630829
2	0xbde7775b	-0.11302062
3	0x3dc9d98f	0.09855949
4	0xbdaa8d8b	-0.083277784
5	0x3c5e07cc	0.013551664
6	0xbdf10571	-0.11768616
7	0x3d73bdb7	0.059507098
8	0xbdb4a4a1	-0.08820463
9	0x3cfd76d7	0.030940456
10	0xbd044a24	-0.03229727
11	0x3dbbfab4	0.09178677
12	0x3c37fe18	0.011230014
13	0xbdee58f9	-0.11638064
14	0x3bbe4d7d	0.005807577
15	0xbd272f59	-0.04081664
16	0x3ce5dc08	0.02805902
17	0xbdc8ebcf	-0.09810602
18	0x3d628b24	0.055308476
19	0xbd7cbb98	-0.06170234
20	0xbd9095ba	-0.07059808
21	0xbd8d2b84	-0.068930656
22	0xbc4f0110	-0.012634531
23	0xbd9a8829	-0.07545502
24	0x3dd629ef	0.10457217
25	0x3dcf8f7a	0.10134788
26	0x3d85955d	0.065226294
27	0x3cd7405d	0.026275808
28	0xbd8a1d6e	-0.067438945
29	0x3b94d403	0.0045418753
30	0xbc4972b3	-0.012295413
31	0x3db62576	0.08893864
32	0x3cce26f0	0.025165051
33	0xbdd1257e	-0.10212229
34	0x3dee5e51	0.11639083
35	0xbcc5f913	-0.02416662
36	0x3cbe399d	0.023220832
37	0xbd743792	-0.05962331
38	0xbda73e86	-0.08166222
39	0xbddc6745	-0.107618846
40	0x3dae768a	0.08518703
41	0xbda893c5	-0.0823131
42	0x3da7c3c8	0.08191639
43	0xbdea57af	-0.114425056
44	0xbd12264c	-0.035681054
45	0xbd93f000	-0.07223511
46	0x3d51852c	0.051152393
47	0xbde74c9f	-0.11293911
48	0x3d83643a	0.06415601
49	0x3d402c0c	0.046917006
50	0xbd379922	-0.044823773
51	0xbd04df3d	-0.03243946
52	0xbd05accc	-0.032635495
53	0xbd3c57ea	-0.04598228
54	0x3dfc8924	0.12330845
55	0x3df16332	0.11786498
56	0x3d018c38	0.031627864
57	0xbcd2e9e9	-0.025746303
58	0x3d1d4613	0.038396906
59	0xbda3f470	-0.08005607
60	0xbda4a627	-0.080395035
61	0xbd4ca30c	-0.04996018
62	0xbd9b2528	-0.07575446
63	0x3dd8d810	0.10588086
64	0x3dfa7fe2	0.12231423
65	0x3dd56f50	0.10421622
66	0x3dcb732c	0.09934077
67	0x3d19cace	0.037546925
68	0x3d3d5d5f	0.046231624
69	0xbdc30bd2	-0.09523739
70	0xbdbf215c	-0.09332535
71	0x3df34f38	0.11880344
72	0x3c087520	0.008328706
73	0xbd931e4e	-0.071835145
74	0x3c44099d	0.011965183
75	0xbd19e821	-0.03757489
76	0xbce57535	-0.02800999
77	0xbc89bc64	-0.016813464
78	0xbd8a47d4	-0.067519814
79	0x3da337c1	0.079696186
80	0x3deffd96	0.117182896
81	0xbddf38cc	-0.10899505
82	0xbda31939	-0.07963795
83	0xbc3cf920	-0.011534005
84	0xbd1883f5	-0.03723522
85	0xbdf1727c	-0.11789414
86	0x3c927060	0.01787585
87	0x3d99ec68	0.07515794
88	0x38d1e512	0.00010008564
89	0xbc84f513	-0.016230142
90	0x3d154f0f	0.03645235
91	0xbd1b04ce	-0.03784638
92	0x3d4063d4	0.046970204
93	0x3c0d3920	0.008619577
94	0x3dc65e0e	0.09685908
95	0x3db94b0a	0.09047516
96	0xbda94b7b	-0.0826635
97	0xba9bbf11	-0.0011882504
98	0x3d0b264a	0.033972062
99	0x3c796598	0.015221976
100	0x3d55bdb7	0.05218288
101	0x3c1515ea	0.009099463
102	0xbc9fd379	-0.019510018
103	0xbdad65a5	-0.08466653
104	0xbd1d6f5d	-0.038436282
105	0x3d43d89b	0.047813993
106	0xbbd76f56	-0.0065745516
107	0x3dec7af7	0.11546891
108	0xbd281154	-0.04103215
109	0x3ddb6118	0.107118785
110	0x3d2b2ce4	0.041790858
111	0x3d8166a7	0.063184075
112	0xbdeeaf78	-0.11654562
113	0x3bce80a0	0.0063019544
114	0x3d95ba83	0.07310965
115	0xbd864545	-0.06556181
116	0x3d9378a9	0.072007485
117	0x3d9e25b2	0.077220336
118	0xbc442618	-0.011971973
119	0xbca34b58	-0.019933388
120	0xbc5a0e5c	-0.013309088
121	0x3cae5d26	0.021284651
122	0xbd489caf	-0.04897755
123	0x3ddd4b04	0.10805324
124	0xbde0fd22	-0.10985781
125	0x3cb8f718	0.022578761
126	0x3b408cc0	0.0029380769
127	0xbcf1723e	-0.02947342
128	0xbd57ff14	-0.052733496
129	0x3cbbc710	0.022922069
130	0xbc8c63eb	-0.017137488
131	0x3d2bdb30	0.04195708
132	0xbd777106	-0.060410522
133	0x3bb38580	0.005478561
134	0xbbde0204	-0.0067751426
135	0x3daff046	0.085907504
136	0x3d3be3d8	0.045871586
137	0xbddc86f5	-0.107679285
138	0xbd91e8c7	-0.07124477
139	0xbda5aa67	-0.08089142
140	0x3dc6eaf9	0.09712786
141	0xbdf6bf94	-0.120482594
142	0x3da705f9	0.08155436
143	0x3de19c7b	0.110161744
144	0xbd3f5778	-0.046714276
145	0x3dd53eff	0.10412406
146	0x3d942238	0.07233089
147	0xbde5f0c0	-0.1122756
148	0x3d59f828	0.053215176
149	0xbd4704b4	-0.04858847
150	0xbdb77b38	-0.08959049
151	0xbde5039c	-0.11182329
152	0xbd906bed	-0.07051835
153	0xbd82df76	-0.06390278
154	0xbbf082e5	-0.0073398226
155	0xbdf4d6cb	-0.11955031
156	0x3d016e44	0.031599298
157	0xbda8e1f6	-0.08246224
158	0xbd47a48e	-0.048740916
159	0x3dbc1800	0.09184265
160	0xbdb47a84	-0.088124305
161	0x3df3b611	0.11899961
162	0x3d663cb1	0.056210224
163	0xbd821710	-0.06352055
164	0x3d76d81a	0.060264684
165	0x3de2f776	0.11082356
166	0xbdd0d5f2	-0.10197057
167	0x3c3b3a1a	0.011427427
168	0x3dd41f65	0.103575505
169	0xbdd05b1f	-0.1017363
170	0x3cd13425	0.02553756
171	0xbcad1fe3	-0.021133369
172	0x3ca59d28	0.02021654
173	0xbda32611	-0.07966245
174	0xbd71807c	-0.058960423
175	0xbddd532a	-0.10806878
176	0xbd509fda	-0.050933696
177	0x3d03d5c4	0.032186285
178	0xbd86bab2	-0.06578578
179	0x3bd32ce8	0.006444562
180	0xbde2792e	-0.110582694
181	0x3dbb3b9c	0.09142229
182	0xbd6a5eb7	-0.057219233
183	0xbdec1f4e	-0.115294084
184	0x3df7e9bd	0.12105129
185	0x3dc2ac8b	0.09505566
186	0x3c8b0c71	0.016973706
187	0xbdf300ed	-0.11865411
188	0xbd205957	-0.0391477
189	0xbdd4f560	-0.10398364
190	0xbdd731f8	-0.10507578
191	0x3d92b64c	0.071636766
192	0xbd23abe0	-0.039958835
193	0x3dc546e8	0.09632665
194	0xbb230d62	-0.0024879803
195	0x3d1881fc	0.037233338
196	0xbd9cee67	-0.07662659
197	0xbd2d6200	-0.04232979
198	0xbdb18572	-0.08668031
199	0x3dfae056	0.1224982
200	0x3c7de260	0.015495867
201	0xbc12a079	-0.0089493925
202	0xbd377409	-0.044788394
203	0x3b53cf61	0.0032319652
204	0xbd251714	-0.040305212
205	0xbdeb26aa	-0.11481984
206	0x3db6cb20	0.08925462
207	0x3da64dac	0.081202835
208	0xbd24db08	-0.040247947
209	0xbd33ae14	-0.043867186
210	0x3d7ac450	0.061222374
211	0x3d9a0cf2	0.07522
212	0x3df0b2f5	0.11752883
213	0xbdf383c4	-0.11890367
214	0xbd4b3264	-0.049608603
215	0xbb941ddb	-0.0045201606
216	0xbdfc288c	-0.12312421
217	0x3dabd897	0.083909206
218	0xbd6c5238	-0.057695597
219	0x3df1b872	0.11802758
220	0x3d9a1214	0.075229794
221	0xbd4422dc	-0.047884807
222	0x3cd09c78	0.025465235
223	0xbd6aade0	-0.057294726
224	0x3bfdf535	0.007750178
225	0xbd81a01c	-0.063293666
226	0x3d9b4174	0.075808436
227	0x3d3a9f6f	0.045562204
228	0xbcdcf0f6	-0.026970368
229	0x3c705323	0.014668259
230	0x3d8b43c0	0.06800032
231	0x3b8a5d23	0.0042225285
232	0xbd9ff191	-0.07809747
233	0x3d8907cd	0.06690941
234	0xbd740086	-0.05957081
235	0xbdfc90be	-0.12332295
236	0xbd72cd24	-0.05927767
237	0x3de7d43c	0.11319777
238	0x3cd92a68	0.026509479
239	0xbdb495e4	-0.08817652
240	0xbd98dac4	-0.07463601
241	0xbd8b6c6a	-0.06807788
242	0xbdb58c3f	-0.088646404
243	0xbdf40f5b	-0.11916991
244	0x3ce3e07b	0.027817002
245	0xbdc91585	-0.09818558
246	0xbd319331	-0.043353263
247	0xbd14e904	-0.036355034
248	0xbc46654c	-0.012109112
249	0xbdb9b060	-0.09066844
250	0xbdece388	-0.11566836
251	0xbdd52f93	-0.10409465
252	0xbdc537f8	-0.09629816
253	0x3d3c81f8	0.046022385
254	0xbdb20a40	-0.08693361
255	0x3ba51d85	0.0050389194

fc3_action.bias f4 [11]
0	0xbd9f24e7	-0.077707104
1	0xbd55f961	-0.05223978
2	0xbd408c16	-0.047008596
3	0xbdb83e07	-0.08996206
4	0x3d7b8e95	0.061415274
5	0x3cc57944	0.024105676
6	0xbd2556a3	-0.040365826
7	0x3d3298a3	0.043602597
8	0x3c52d0f5	0.012867202
9	0x3d96057f	0.07325267
10	0x3de28f05	0.11062435
