traditional_vrpb_strict_train_v3_final.pth (torch, 43017 bytes, 6 tensors)

fc1.weight f4 [128, 6]
0	0xbeb824b4	-0.35965502
1	0xbd919c13	-0.07109847
2	0x3eb632b3	0.35585555
3	0xbecfd75d	-0.40593997
4	0x3e2695e8	0.16268122
5	0x3e936619	0.28788832
6	0x3e5569e0	0.2084117
7	0x3eb4fd1b	0.35349354
8	0x3e621905	0.22079857
9	0xbdd524c1	-0.10407401
10	0xbeada815	-0.339173
11	0xbdf26187	-0.11835008
12	0x3d69989b	0.0570303
13	0xbecf42a0	-0.40480518
14	0x3d62abbd	0.055339564
15	0x3da563ef	0.080757014
16	0xbe3ec250	-0.18628812
17	0x3e0b0956	0.1357778
18	0x3e431565	0.1905113
19	0xbecd1252	-0.4005304
20	0x3e3aead5	0.18253644
21	0xbc417106	-0.011806732
22	0x3ecc57ac	0.39910638
23	0xbdb4e7a6	-0.08833246
24	0x3d859110	0.06521809
25	0xbdc3fcf0	-0.095697284
26	0x3e70c981	0.23514368
27	0xbe8d05cc	-0.27543485
28	0xbe9f8c2f	-0.3116164
29	0xbe363bff	-0.17796324
30	0xbebb61c1	-0.36598018
31	0x3dfa260c	0.12214288
32	0x3ec3b0e0	0.38220882
33	0x3e2f6f61	0.17132331
34	0x3e26ce14	0.1628955
35	0xbeb8de97	-0.36107323
36	0xbe516211	-0.20447566
37	0xbe118e2a	-0.14214388
38	0x3daa58f4	0.08317748
39	0x3e40bd09	0.18822111
40	0xbeb0e606	-0.34550494
41	0xbd5eddd1	-0.05441076
42	0xbe51651c	-0.20448726
43	0xbe8dba66	-0.27681273
44	0x3eae6f4c	0.34069288
45	0xbe5760f7	-0.21033083
46	0xbbdc8e55	-0.0067308345
47	0xbea56690	-0.3230481
48	0xbe8478c2	-0.2587338
49	0x3eb2ed3a	0.34946615
50	0x3eb7e58c	0.35917318
51	0x3deedaeb	0.11662849
52	0x3d771519	0.060322855
53	0xbea1f02c	-0.3162855
54	0xbe8394f4	-0.2569958
55	0xbdf11f40	-0.117735386
56	0xbd821828	-0.06352264
57	0x3ec245ba	0.37943822
58	0xbd3a5230	-0.045488536
59	0x3deffae0	0.117177725
60	0xbe290c7e	-0.16508672
61	0xbe74ccd6	-0.23906264
62	0xbe025b20	-0.12730074
63	0xbd218419	-0.03943262
64	0xbe9de5b2	-0.30839306
65	0x3e009666	0.12557372
66	0x3eb7e539	0.3591707
67	0xbe886cfe	-0.26645654
68	0x3e75a0f0	0.23987174
69	0xbcb3d295	-0.021951
70	0xbdb5c9b9	-0.08876366
71	0x3e1335bd	0.14375968
72	0xbdee22a7	-0.11627703
73	0x3cbea914	0.023273982
74	0x3ea0801e	0.31347746
75	0xbe0030b7	-0.12518583
76	0xbec930e9	-0.39295128
77	0x3dbb412c	0.0914329
78	0x3d80f3ad	0.062964775
79	0xbc951079	-0.018196331
80	0xbd9ecf8a	-0.07754429
81	0x3df4ab3e	0.11946724
82	0xbce101e6	-0.027466726
83	0x3e7a48c3	0.24441819
84	0x3e0b4a54	0.13602573
85	0x3e4ce3d8	0.2000879
86	0xbd224c98	-0.039623827
87	0xbe50f454	-0.20405704
88	0x3d8c5924	0.0685294
89	0xbe8f5154	-0.27991736
90	0x3c66ba75	0.014082541
91	0x3e92b2d2	0.28652054
92	0xbdf748bd	-0.120744206
93	0xbe3f9437	-0.18708883
94	0xbe3e85cf	-0.18605731
95	0xbdc7d48e	-0.097573385
96	0x3d8af33e	0.06784676
97	0x3c21d873	0.009878266
98	0xbe9a4f7d	-0.3013877
99	0xbe6db9ff	-0.23215483
100	0xbd0d5179	-0.034501527
101	0x3ea70937	0.32624218
102	0xbe9e618b	-0.30933794
103	0x3e3268a9	0.17422737
104	0x3ec0a2e5	0.3762428
105	0xbd84c6fc	-0.06483266
106	0xbea540f6	-0.32276124
107	0xbd11649c	-0.03549634
108	0x3e35df6b	0.17761008
109	0x3e8e5be8	0.27804494
110	0x3e8bbf1a	0.27294236
111	0xbdfb5ede	-0.12273954
112	0xbe467646	-0.19381055
113	0x3e23e628	0.16005766
114	0xbdd9788e	-0.10618697
115	0x3e444b1d	0.19169278
116	0xbe97fe0c	-0.2968601
117	0x3e872531	0.26395562
118	0x3e6bad64	0.23015362
119	0x3e642af7	0.22282015
120	0x3eb956cf	0.36199042
121	0x3e3fc824	0.18728691
122	0xbe8fa131	-0.28052667
123	0x3e2d33e1	0.16914321
124	0x3e390b2e	0.18070671
125	0xbe254e2f	-0.16143106
126	0xbddb00c4	-0.106935054
127	0x3dea7f58	0.1145007
128	0x3dbb4868	0.0914467
129	0xbe932d18	-0.2874534
130	0xbebbbd4e	-0.36667866
131	0x3b9e6ec0	0.00483498
132	0x3e7f681c	0.24942058
133	0xbec15492	-0.37759835
134	0xbece61fc	-0.4030913
135	0x3eb3620b	0.35035738
136	0x3e55253f	0.2081499
137	0xbe878cf6	-0.26474732
138	0x3d91ddbf	0.07122373
139	0xbe12881a	-0.14309731
140	0x3e3ff5ff	0.18746184
141	0xb9635b4a	-0.00021682415
142	0x3ebfb86a	0.37445384
143	0xbe82b6dc	-0.25530136
144	0xbea9abc8	-0.3313887
145	0x3d324c50	0.04352981
146	0x3eaeab86	0.34115237
147	0x3d9cb515	0.07651726
148	0xbd8d836f	-0.069098346
149	0xbe90bfee	-0.2827143
150	0x3d561730	0.052268207
151	0xbebdff4f	-0.37108847
152	0xbe4d93ea	-0.20075956
153	0xbebe75e4	-0.37199318
154	0xbe96e482	-0.29471213
155	0x3d6a70c8	0.057236463
156	0xbe592da7	-0.21208821
157	0xbe4a130e	-0.19733831
158	0x3ec25a98	0.37959743
159	0xbe1e4490	-0.15455842
160	0xbea600c6	-0.32422465
161	0xbe94f0d9	-0.29090002
162	0x3eb7f2b1	0.35927346
163	0xbe67766a	-0.22603765
164	0x3da1483c	0.07875106
165	0x3cf38cfc	0.029730313
166	0x3e691b81	0.22764398
167	0x3e80ef7f	0.2518272
168	0x3eb074e1	0.34464172
169	0xbe81fc7d	-0.25387946
170	0x3eaccc11	0.3374944
171	0xbe4696f1	-0.19393517
172	0xbe810da9	-0.25205734
173	0xbd3b4e31	-0.045728866
174	0xbeba4b14	-0.36385405
175	0xbeae2a4d	-0.34016648
176	0x3e7728c2	0.24136642
177	0x3db73329	0.08945305
178	0xbec40dd4	-0.382918
179	0xbe2942b7	-0.16529356
180	0x3eade93a	0.33967
181	0xbe438f9b	-0.1909775
182	0x3dc735d0	0.09727061
183	0x3ec861b3	0.3913704
184	0x3e92dd51	0.28684476
185	0xbecd07b2	-0.40044934
186	0xbdcef71f	-0.10105728
187	0x3e512f13	0.20428114
188	0xbe8d6b9a	-0.27621156
189	0x3eb5c299	0.3550003
190	0xbea5393a	-0.32270223
191	0xbe3a65f1	-0.1820295
192	0x3daf7507	0.08567243
193	0xbe9b8838	-0.30377364
194	0xbd9a797d	-0.07542703
195	0x3e8bbffd	0.27294913
196	0xbe736f94	-0.23773032
197	0x3eb95940	0.36200905
198	0x3d765688	0.060141116
199	0xbe9ad82d	-0.30243054
200	0x3c968138	0.018372163
201	0x3e8af1cb	0.27137598
202	0x3cfa4756	0.030551594
203	0xbe0e1eaa	-0.13878885
204	0xbdca9d01	-0.09893227
205	0xbd256ba0	-0.040385842
206	0xbda9bf1c	-0.08288404
207	0x3e3b0302	0.18262866
208	0x3ebdcade	0.37068838
209	0xbe88f34a	-0.26748115
210	0x3e7a2547	0.24428283
211	0xbec5f7e5	-0.3866569
212	0xbe711048	-0.23541367
213	0xbe20bf40	-0.15697956
214	0x3e700828	0.23440611
215	0xbe62e907	-0.22159205
216	0xbeaf2b50	-0.34212732
217	0x3ebe0a70	0.37117338
218	0xbe964812	-0.2935186
219	0xbe913631	-0.28361657
220	0x3e78c0a8	0.24292243
221	0xbea50a88	-0.32234597
222	0x3b9a41fe	0.004707574
223	0xbea9cb69	-0.33163002
224	0xbda4e1e4	-0.08050898
225	0xbeb4aa90	-0.3528638
226	0xbec2556b	-0.37955794
227	0x3e21169b	0.1573128
228	0xbe83bf11	-0.2573171
229	0xbe930bc6	-0.2871992
230	0x3ecdd7d0	0.40203714
231	0xbe0256be	-0.12728402
232	0xbe9618c1	-0.2931576
233	0x3d67f1bc	0.05662702
234	0xbe9ab2cd	-0.3021454
235	0x3ecca6fa	0.39971143
236	0xbe4db296	-0.20087656
237	0x3dd610af	0.10452401
238	0x3de55327	0.11197501
239	0xbce5c6af	-0.028048841
240	0x3e70800f	0.2348635
241	0xbd77b63f	-0.060476538
242	0x3cd05118	0.025429294
243	0xbe2db375	-0.16962989
244	0x3e8cd1e2	0.27503878
245	0x3eb07991	0.34467748
246	0xbe45712f	-0.19281457
247	0x3e49fbc7	0.19724952
248	0xbe5fd64a	-0.21859089
249	0x3ea833a8	0.3285191
250	0xbd0ee45b	-0.034885745
251	0xbe94ff41	-0.29100993
252	0x3ed074f2	0.40714222
253	0xbe99d343	-0.30043992
254	0x3ec52fd7	0.3851306
255	0x3e87f999	0.26557615

fc1.bias f4 [128]
0	0x3d6eb93e	0.05828213
1	0x3d96b90e	0.07359515
2	0x3e9f912a	0.3116544
3	0xbebe6f25	-0.37194172
4	0x3db12e85	0.08651451
5	0x3eaf1e23	0.3420268
6	0x3d9dcb71	0.07704819
7	0xbcc91e0b	-0.024550458
8	0xbe78a2cd	-0.24280854
9	0xbec41ff0	-0.38305616
10	0x3da4004b	0.080078684
11	0x3e1690ec	0.14703721
12	0x3e0e7d19	0.13914908
13	0x3e95367a	0.29143125
14	0xbe9031ba	-0.28162938
15	0x3e93c01e	0.2885751
16	0x3eb5f98e	0.35541958
17	0x3e679c43	0.22618203
18	0x3e7c2da1	0.24626781
19	0xbe33e330	-0.17567134
20	0x3e11c74c	0.14236182
21	0xbe6b950e	-0.23006079
22	0xbd52845d	-0.051395763
23	0xbe592152	-0.21204117
24	0xbe47d544	-0.19514948
25	0xbec84b68	-0.3912003
26	0xbebff4ee	-0.37491554
27	0x3ec0fc62	0.37692553
28	0x3e739821	0.23788501
29	0x3e214ebb	0.1575269
30	0xbe43957d	-0.19099994
31	0x3ed1cf00	0.4097824
32	0x3eae5d56	0.34055585
33	0xbe38a633	-0.1803215
34	0x3e9ab731	0.3021789
35	0xbe6060a0	-0.2191186
36	0xbe9210e8	-0.28528523
37	0x3ec0011f	0.37500855
38	0x3e98c843	0.29840288
39	0x3eba364e	0.36369556
40	0x3de3dec8	0.111264765
41	0x3e850b8a	0.25985366
42	0xbe838c4a	-0.2569297
43	0xbe34eb4a	-0.1766788
44	0x3e3af73c	0.18258375
45	0xbec3169c	-0.38103187
46	0xbd4a3efc	-0.049376473
47	0xbe0470ae	-0.12933609
48	0x3d6eab44	0.0582688
49	0xbebf6b9d	-0.3738679
50	0x3ec60ba3	0.38680753
51	0xbe4256a4	-0.18978363
52	0x3ecd1685	0.40056244
53	0x3e744453	0.23854189
54	0x3ea13ee5	0.31493297
55	0xbe5588ff	-0.20853041
56	0xbb3be8f9	-0.0028672798
57	0x3dc2e5ad	0.095164634
58	0x3e5f483d	0.218049
59	0xbcf95cc3	-0.03043974
60	0xbe47834b	-0.19483678
61	0xbe511a35	-0.20420153
62	0x3e77ac12	0.24186733
63	0x3e9c3504	0.30509198
64	0xbeb03740	-0.34417152
65	0xbea7799c	-0.32709968
66	0xbdea94ec	-0.11454186
67	0xbdd8b35c	-0.10581085
68	0xbe1abe0a	-0.15111557
69	0xbd75d41f	-0.060016748
70	0xbea18611	-0.31547597
71	0xbead9707	-0.33904287
72	0x3d4482c4	0.04797627
73	0x3deb41b0	0.11487138
74	0xbdd7302b	-0.10507234
75	0xbcf31644	-0.029673703
76	0x3e616464	0.22010952
77	0x3e6fc12e	0.23413536
78	0xbe160557	-0.14650474
79	0x3daba79f	0.083815806
80	0x3e9c43f5	0.30520597
81	0x3dda3999	0.10655517
82	0x3e91c481	0.28470233
83	0x3dcb2e14	0.09920898
84	0xbe8a494e	-0.27009052
85	0x3c23d284	0.009998921
86	0x3ec82670	0.39091825
87	0x3d8f01e5	0.06982783
88	0xbd564061	-0.05230749
89	0x3e8fb9ad	0.28071347
90	0x3e46b491	0.19404818
91	0x3e05b6e1	0.13058044
92	0xbebac1b8	-0.3647592
93	0x3e55484c	0.2082836
94	0x3e75a79d	0.2398972
95	0x3df1ca6a	0.118061855
96	0x3ebf9c2c	0.37423837
97	0xbeccb0d5	-0.39978662
98	0xbe8441fb	-0.2583159
99	0xbea9b6de	-0.3314733
100	0x3c39a01b	0.011329676
101	0x3e8b353a	0.27189046
102	0xbdfd0158	-0.12353772
103	0xbcbca256	-0.023026627
104	0xbe640c05	-0.2227021
105	0xbdedf409	-0.11618812
106	0xbe930a91	-0.28719
107	0xbe8c651e	-0.27420896
108	0xbe154770	-0.14578032
109	0xbe798652	-0.24367645
110	0x3d49ab4e	0.049235635
111	0xbeb17d19	-0.34665754
112	0xbeb045b5	-0.34428182
113	0xbc8669d0	-0.016407877
114	0x3e208a58	0.15677774
115	0xbe838910	-0.25690508
116	0xbd9a7292	-0.07541384
117	0x3ecd75b5	0.40128866
118	0x3d2853ac	0.04109542
119	0x3e8e3a19	0.277787
120	0x3d53b71c	0.0516883
121	0xbe91e332	-0.2849365
122	0xbe03f45c	-0.12886184
123	0x3e87afaf	0.26501223
124	0x3ead931a	0.33901292
125	0x3e886c12	0.2664495
126	0x3deaa685	0.11457542
127	0x3eb36c58	0.35043597

fc2.weight f4 [64, 128]
0	0x3d6a1a39	0.057153914
1	0xbc472b0d	-0.01215626
2	0xb94071fc	-0.0001835301
3	0xbc2a543e	-0.010396061
4	0xbc0fa6ba	-0.008767778
5	0xbd82b57c	-0.06382272
6	0xbd71bc59	-0.059017513
7	0xbdaf3071	-0.08554161
8	0x3d73e38e	0.059543185
9	0x3da814e9	0.08207113
10	0x3ccb0208	0.024781242
11	0xbd3ee4e4	-0.046605006
12	0x3d6c484a	0.057686128
13	0xbd982a57	-0.07429951
14	0xbd15e37b	-0.036593895
15	0x3d669a2f	0.056299385
16	0x3cc74d37	0.024328811
17	0xbc7a4baa	-0.015276829
18	0xbd8bb54d	-0.0682169
19	0xbd631053	-0.05543549
20	0x3d0ce22e	0.03439539
21	0x3cbb7cc4	0.022886641
22	0xbac63359	-0.0015121504
23	0x3c583cbe	0.013198076
24	0x3d76d33e	0.06026005
25	0x3d0aacc6	0.033856176
26	0x3d0c953c	0.03432201
27	0x3d640d39	0.055676673
28	0x3d890130	0.066896796
29	0xbd2ea3e1	-0.042636756
30	0x3d172265	0.036898036
31	0x3c1bed30	0.009516999
32	0x3d948615	0.072521366
33	0xbd85505c	-0.06509468
34	0x3d018a4f	0.031626042
35	0xbcd8df16	-0.026473563
36	0x3da5a059	0.080872245
37	0xbdbc39dd	-0.09190724
38	0xbc70ebb1	-0.014704631
39	0x3d840f2e	0.06448208
40	0xbbc713ad	-0.0060753436
41	0x3daedf9f	0.08538746
42	0xbda28145	-0.079348125
43	0x3c8488e4	0.016178556
44	0xbcec886f	-0.02887365
45	0xbcae4968	-0.021275237
46	0xbdaeebc0	-0.085410595
47	0xbd7a4a25	-0.061105866
48	0x3d1c7e55	0.038206417
49	0xbc7a3d3d	-0.015273389
50	0x3d093355	0.03349622
51	0x3d95fbae	0.07323395
52	0xbd07bde9	-0.033140097
53	0xbc3770ab	-0.011196296
54	0x3d74e5ec	0.059789583
55	0xbd124471	-0.035709802
56	0xbcff663e	-0.031176683
57	0xbc848726	-0.016177725
58	0xbd512d36	-0.051068507
59	0x3d887164	0.066622525
60	0x3d33dbae	0.043910675
61	0x3c836160	0.016037643
62	0x3c47dca5	0.012198602
63	0xbdb0e2bb	-0.086369954
64	0xbd5476eb	-0.05187122
65	0xbd06c937	-0.032906737
66	0x3cb13abc	0.021634452
67	0x3d3413f1	0.04396433
68	0xbdb3cf1d	-0.08779738
69	0xbd254ab7	-0.040354457
70	0xbd953bb4	-0.07286778
71	0x3c2b5468	0.010457136
72	0xbc861191	-0.016365798
73	0x3ca889a3	0.020573443
74	0xbd909b62	-0.07060887
75	0x3d58d5fb	0.052938443
76	0xbbff43f2	-0.007790082
77	0x3d3fd0de	0.04683005
78	0xbd1ca55b	-0.038243633
79	0x3b152be6	0.0022761761
80	0x3c8637fe	0.016384121
81	0x3cea9aaf	0.028638212
82	0xbd7c92f4	-0.061663583
83	0x3db3720d	0.08761988
84	0xbdaec067	-0.085327916
85	0x3d58bc86	0.052914165
86	0x3d12eea6	0.035872124
87	0x3d99fbc4	0.075187236
88	0xbd6c7ccb	-0.0577362
89	0xbc1c1b1f	-0.009527951
90	0x3cd92a57	0.026509447
91	0xbcba2768	-0.022723868
92	0x3c47bfa0	0.012191683
93	0xbd82c0ea	-0.06384452
94	0x3db33ba2	0.087516084
95	0xbda3f0da	-0.08004923
96	0x3c93bbe8	0.018033937
97	0xbd8c8cb2	-0.06862773
98	0xbcdf2bb5	-0.02724252
99	0xbd6a0ba8	-0.057140023
100	0x3d289a75	0.041162927
101	0xbd5739c6	-0.05254533
102	0xbd72d380	-0.059283733
103	0xbd308c7f	-0.043102738
104	0xbd1ee8ca	-0.038796224
105	0xbb8c54a6	-0.004282552
106	0xbd64088a	-0.055672206
107	0x3ca7c4b0	0.02047953
108	0x3d8283f4	0.06372824
109	0xbd4e5a2e	-0.05037897
110	0x3c5d75ea	0.013516882
111	0x3d0fab0c	0.035075232
112	0x3d388e1a	0.045057394
113	0x3d38f27e	0.045153134
114	0xbcca527d	-0.024697537
115	0xbcc58279	-0.024110066
116	0x3d675840	0.056480646
117	0x3da83c14	0.08214584
118	0xbb9ee08c	-0.0048485454
119	0x3d99279a	0.074782565
120	0xbd268978	-0.040658444
121	0xbdaa38aa	-0.08311589
122	0xbdb07cdb	-0.08617564
123	0xbd819757	-0.06327694
124	0xbd0462c7	-0.032320764
125	0xbd42e819	-0.047584627
126	0xbb382aa3	-0.0028101585
127	0x3d0ca5cc	0.034337804
128	0x3d39ed02	0.045392044
129	0x3d952071	0.07281578
130	0xbdab6fac	-0.08370909
131	0x3d22e7ea	0.03977195
132	0xbd2cffec	-0.042236254
133	0x3dacca01	0.08436967
134	0xbd1d33c1	-0.038379434
135	0x3ce46540	0.027880311
136	0xbda91f3b	-0.0825791
137	0x3d971c95	0.073784985
138	0xbc65d7d8	-0.014028512
139	0xbd8ac520	-0.0677588
140	0x3da77231	0.08176077
141	0xbd01efa6	-0.031722687
142	0x3da46aa5	0.08028153
143	0x3c486088	0.012230046
144	0xbd424077	-0.04742476
145	0x3d889829	0.06669647
146	0xbd3a35e4	-0.04546155
147	0x3d83eec5	0.06442026
148	0xbd14b77b	-0.036307793
149	0x3d081382	0.03322173
150	0x3d7d37a2	0.061820634
151	0xbd3c1618	-0.045919508
152	0x3c0e4300	0.008682966
153	0xbb986da0	-0.00465174
154	0xbb8ff840	-0.0043936074
155	0x3cce4258	0.02517812
156	0xbc03be40	-0.008040965
157	0xbd2be667	-0.041967776
158	0x3d5bae1e	0.053632848
159	0x3d8dc919	0.06923122
160	0x3d920bfd	0.07131193
161	0xbd1d5884	-0.038414493
162	0x3c401f58	0.011726223
163	0x3d0f7270	0.035021245
164	0xbd361f4b	-0.044463437
165	0xbd843992	-0.06456293
166	0x3da5a46b	0.08088001
167	0x3d88a797	0.0667259
168	0xbd07960f	-0.03310209
169	0xbcadde14	-0.02122406
170	0x3c2edbf8	0.010672562
171	0x3da873b5	0.08225194
172	0xbc9bac20	-0.019002974
173	0x3d931851	0.07182372
174	0x3c0aeac0	0.00847882
175	0xbca815d4	-0.020518221
176	0x3cdd2cf4	0.026998974
177	0xbc7ef038	-0.015560202
178	0xba8d2300	-0.0010767877
179	0xbd4a87dd	-0.049445976
180	0xbd454298	-0.048159212
181	0x3d96b699	0.073590465
182	0xbd482a59	-0.04886851
183	0xbcf0cce8	-0.029394582
184	0xbda1a2c3	-0.078923725
185	0xbdab201c	-0.08355734
186	0xbcdac620	-0.026705801
187	0x3d9d7e07	0.076900534
188	0x3c657080	0.014003873
189	0x3d4182be	0.047243826
190	0x3d049d96	0.03237685
191	0xbd519a2b	-0.051172417
192	0x3cb7f5a4	0.022455998
193	0xbcc52f28	-0.024070337
194	0xbd043db5	-0.03228541
195	0xbbe97750	-0.007124819
196	0x3d39773e	0.045279734
197	0xbdab7e0e	-0.083736524
198	0xbd9aa93a	-0.07551809
199	0x3dab5ee3	0.083677076
200	0xbd592097	-0.053009596
201	0x3d81be55	0.06335131
202	0xbd333168	-0.04374829
203	0xbc1358b0	-0.008993313
204	0xbd045366	-0.032306097
205	0x3d12bfa4	0.035827294
206	0xbd137a30	-0.0360052
207	0x3ccadd98	0.024763867
208	0x3d5c8c06	0.053844474
209	0xbd80f383	-0.06296446
210	0x3c9ac078	0.018890604
211	0xbda9aa42	-0.08284427
212	0x3db33aff	0.08751487
213	0x3d014be0	0.0315665
214	0xbd1971a9	-0.03746191
215	0xbd961720	-0.073286295
216	0xbd637dfd	-0.055540074
217	0xbd2e7014	-0.042587355
218	0xbdac9d12	-0.08428396
219	0xbbc6c810	-0.00606633
220	0x3be72840	0.0070543587
221	0xbd7f530a	-0.06233505
222	0xbc5a8890	-0.013338223
223	0xbd512338	-0.051058978
224	0xbd468810	-0.048469603
225	0x3cd28430	0.025697798
226	0x3d5393da	0.051654674
227	0xbbfb21a0	-0.0076639205
228	0xbd8cdf35	-0.06878511
229	0xbcae651c	-0.021288447
230	0x3d531142	0.05153013
231	0x3c3c7cd8	0.011504374
232	0xbd4c26b4	-0.049841598
233	0xbadedd40	-0.0017003193
234	0x3d8fed71	0.0702771
235	0xbd83bee9	-0.064328976
236	0xbd9ec15f	-0.07751726
237	0x3d5808ce	0.05274277
238	0x3d527eca	0.051390447
239	0x3d71d5be	0.05904173
240	0x3da74cb7	0.08168929
241	0xbcbfc210	-0.023407966
242	0xbdac2a97	-0.08406561
243	0xbda6d07e	-0.081452355
244	0x3da71181	0.081576355
245	0x3c8a090c	0.016850017
246	0x3ce6fa08	0.028195396
247	0xbd873cf7	-0.06603425
248	0xbd91db5a	-0.07121916
249	0xbbff03a0	-0.0077824146
250	0x3da507fd	0.08058164
251	0x3cd1ea90	0.025624543
252	0xbd1d00b9	-0.038330767
253	0x3d9f9a01	0.07793046
254	0xbdae510b	-0.085115515
255	0xbc2cb258	-0.010540567

fc2.bias f4 [64]
0	0xbd0869ff	-0.03330421
1	0xbc1cda28	-0.009573497
2	0xbd667739	-0.056266043
3	0x3c788822	0.015169175
4	0x3da579c5	0.08079866
5	0x3cf86568	0.030321792
6	0x3cf290b7	0.029610021
7	0xbdac215c	-0.084048
8	0x3cb4fd0c	0.022093318
9	0x3c124c4a	0.008929322
10	0xbd918001	-0.07104493
11	0x3d118414	0.03552635
12	0x3d69ded4	0.05709727
13	0xbd689a52	-0.056787796
14	0x3d33c913	0.04389293
15	0xbd97a41c	-0.07404348
16	0x3db77e7a	0.0895967
17	0x3c7446a0	0.014909416
18	0xbd7befbd	-0.06150793
19	0xbda40c8f	-0.08010208
20	0x3d69dbbf	0.05709433
21	0xbbfff381	-0.0078110103
22	0xbd389ebf	-0.045073267
23	0xbcf9d89b	-0.030498793
24	0x3c38f53d	0.011288938
25	0x3ca0af0f	0.019614724
26	0x3d829355	0.063757576
27	0xbd90e96d	-0.070757724
28	0xbbe5d14a	-0.0070134746
29	0x3cceb6fa	0.025233734
30	0x3d77d26e	0.060503416
31	0xbc4c9e96	-0.012488982
32	0xbd1ae2cd	-0.03781395
33	0x3d2e2f3f	0.042525526
34	0x3d2c0a8b	0.042002242
35	0x3db3663f	0.08759736
36	0x3c95b32a	0.018273909
37	0x3d805d8f	0.06267845
38	0xbdace249	-0.08441598
39	0xbc57247c	-0.013131257
40	0xbbfce7f1	-0.0077180793
41	0x3da956d3	0.082685135
42	0xbcb595e0	-0.022166193
43	0x3d17b6d7	0.037039604
44	0x3da3ef7f	0.08004665
45	0x3c835351	0.01603094
46	0x3c8001ac	0.015625797
47	0x3d956732	0.072950736
48	0x3d61a214	0.05508621
49	0x3d3d965e	0.04628598
50	0xbd85274c	-0.06501636
51	0x3d772586	0.06033852
52	0x3dabfa98	0.08397406
53	0x3d9705e8	0.073741734
54	0x3d7ff6db	0.06249128
55	0x3d685022	0.056717046
56	0xbd80e06d	-0.06292806
57	0x3d8a2ac9	0.06746442
58	0xbd751e4b	-0.059843343
59	0xbd71a4e8	-0.058995157
60	0x3b38a41b	0.0028173986
61	0xbda81540	-0.08207178
62	0x3b303485	0.0026886773
63	0x3ca04544	0.019564278

fc3_action.weight f4 [11, 64]
0	0x3daf00ea	0.08545096
1	0xbc53b610	-0.012921825
2	0xbdc6d135	-0.09707872
3	0xbd16c183	-0.03680564
4	0x3d9e6379	0.07733817
5	0x3dc4e90f	0.09614765
6	0x3d99214f	0.07477056
7	0xbd16c3d8	-0.036807865
8	0x3c925d85	0.01786686
9	0x3d6e07a6	0.058112763
10	0x3d8476c2	0.06467964
11	0x3de29fcc	0.11065635
12	0xbe048c42	-0.12944129
13	0x3caab91c	0.02084022
14	0x3dee4e87	0.11636072
15	0xbd72a586	-0.059239887
16	0xbdf50709	-0.119642325
17	0xbdee9079	-0.1164865
18	0x3c1f8910	0.009737268
19	0x3deb2007	0.11480718
20	0xbd7da5bb	-0.06192563
21	0x3df12b8b	0.11775883
22	0x3debc9c9	0.11513097
23	0x3dbe024f	0.09277784
24	0x3d829bf1	0.063774
25	0xbdfc7c50	-0.12328398
26	0xbdd8edf2	-0.105922595
27	0xbc83bb12	-0.016080413
28	0xbdf25367	-0.11832314
29	0x3d5e2934	0.054238513
30	0x3dcea336	0.10089724
31	0x3dbee422	0.09320857
32	0x3dd01216	0.101596996
33	0xbb17bc73	-0.0023153096
34	0x3d420f4a	0.047377862
35	0x3dfc0316	0.12305276
36	0x3daa0b64	0.08302954
37	0xbdf972d8	-0.12180108
38	0xbd0aa8f7	-0.033852544
39	0x3da8c5d3	0.08240857
40	0x3cd17782	0.025569681
41	0x3d53eafc	0.05173777
42	0xbb9515e8	-0.0045497306
43	0x3bc1e0e7	0.005916703
44	0x3d5ec9f3	0.054391813
45	0xbdf04eca	-0.11733778
46	0x3a1bae00	0.0005938709
47	0x3df0825e	0.117436156
48	0xbd2f3e7b	-0.042784195
49	0x3dbb87a5	0.091567315
50	0xbd6cb062	-0.0577854
51	0x3da357e6	0.0797575
52	0xbdbf31ac	-0.09335646
53	0xbca0488e	-0.019565847
54	0x3d2ec30b	0.042666476
55	0x3dca494b	0.09877261
56	0x3cd39467	0.0258276
57	0x3dd966b4	0.10615292
58	0x3df3e565	0.11908988
59	0xbc214ab0	-0.009844467
60	0xbda1ff2f	-0.079100005
61	0x3df4845a	0.119393066
62	0x3d7d40f8	0.061829537
63	0xbddafdc4	-0.10692933
64	0x3dfeefdf	0.124480955
65	0x3de4c626	0.11170606
66	0x3c018c82	0.007907035
67	0xbd034f7e	-0.03205823
68	0x3dac6c66	0.08419113
69	0x3d8af65c	0.067852706
70	0x3d9f2442	0.077705875
71	0x3ccd90d0	0.025093466
72	0x3bef8fce	0.007310844
73	0xbd820939	-0.06349415
74	0xbdacefda	-0.084441856
75	0xbd529358	-0.05141005
76	0x3dab2adb	0.083577834
77	0xbdb304e6	-0.08741169
78	0x3cc8453a	0.024447072
79	0x3dce7476	0.10080807
80	0x3ba75f2c	0.005107781
81	0xbde907f1	-0.11378468
82	0xbde84ebc	-0.113431424
83	0x3d2821ac	0.041047737
84	0xbdd1b516	-0.102396175
85	0xbd554184	-0.052064434
86	0x3dd34fec	0.10317978
87	0xbacf1659	-0.0015799507
88	0xbd9fcb94	-0.07802501
89	0xbde0dff1	-0.109802134
90	0x3d0f3cc0	0.034970045
91	0x3d9baa78	0.07600874
92	0xbddcf43d	-0.10788772
93	0x3da4e2b2	0.08051051
94	0xbdbbc084	-0.09167579
95	0xbbcf64ba	-0.006329146
96	0x3d9ec00c	0.07751474
97	0xbdc6eb8a	-0.09712894
98	0xbdd861e4	-0.10565546
99	0xbddcfc94	-0.10790363
100	0xbdf223b0	-0.11823213
101	0x3caf3548	0.021387711
102	0x3dea3b5c	0.11437103
103	0xbd816e3a	-0.06319852
104	0x3d2df6fe	0.04247188
105	0xba0ed800	-0.00054490566
106	0x3d16653b	0.036717635
107	0xbdaeb9d8	-0.08531541
108	0x3c7127d9	0.014718973
109	0x3c465e03	0.012107375
110	0xbd65a4ac	-0.056065246
111	0xbca2846c	-0.019838534
112	0x3cb2ddc8	0.02183427
113	0xbdd21f2c	-0.10259852
114	0xbdf0a866	-0.117508695
115	0x3d84ce7e	0.06484698
116	0x3c32f29c	0.0109221
117	0x3dbbbfbc	0.0916743
118	0xbc8e3675	-0.017359952
119	0x3dbc0027	0.091797166
120	0x3d8a7c80	0.06762028
121	0xbddfca54	-0.10927263
122	0xbdb782fa	-0.08960529
123	0x3d92073d	0.07130287
124	0x3dbfa573	0.09357729
125	0xbccd8c4d	-0.025091315
126	0xbc30a631	-0.010781811
127	0xbd55bc0d	-0.052181292
128	0xbd77c4a3	-0.06049026
129	0x3dacd5bc	0.08439204
130	0xbd4e2bb7	-0.05033466
131	0x3ad89d2c	0.0016526333
132	0x3dabe120	0.083925486
133	0x3d1058cd	0.035240937
134	0x3ddc820a	0.107669905
135	0x3dceae82	0.100918785
136	0x3d9c2a6c	0.07625279
137	0x3dc8e125	0.09808568
138	0xbd1ea3c8	-0.038730413
139	0x3dfd653c	0.123728245
140	0x3db34ecf	0.08755266
141	0x3df3641e	0.1188433
142	0x3d3205e4	0.04346265
143	0x3dbd88c8	0.092546046
144	0x3ca8a843	0.020588046
145	0x3d006cc9	0.031353746
146	0xbcde90d0	-0.027168661
147	0xbda301a2	-0.07959296
148	0x3de980e0	0.11401534
149	0xbd8994e8	-0.06717855
150	0xbbdfdcfd	-0.006831764
151	0x3da156a7	0.07877856
152	0xbb8042dc	-0.0039142203
153	0x3b338e03	0.0027397878
154	0xbde6bfc9	-0.11267049
155	0x3d92268a	0.07136257
156	0xbdb2415b	-0.08703872
157	0xbd91e7bf	-0.0712428
158	0xbdc769c2	-0.097369686
159	0xbd139e25	-0.03603949
160	0xbc8af1b0	-0.016960949
161	0xbd79f56c	-0.06102507
162	0xbd140564	-0.036137953
163	0x3ddf27b4	0.10896245
164	0x3c32edde	0.01092097
165	0xbb81028d	-0.0039370717
166	0xbd00ec08	-0.031475097
167	0xbd6521f3	-0.05594058
168	0x3d3a5f90	0.04550129
169	0x3ba6fe60	0.005096242
170	0xbd402fbb	-0.04692052
171	0x3ddbc09b	0.10730096
172	0xbd65011a	-0.055909254
173	0xbd192423	-0.03738798
174	0xbc69ecf0	-0.014277682
175	0x3da8e42f	0.082466476
176	0xbd4d92c8	-0.05018881
177	0x3c4b64a0	0.012414128
178	0xbc999bb5	-0.018751005
179	0x3c6860a0	0.014183193
180	0x3dc0e9d3	0.094195984
181	0xbdf419e9	-0.119190045
182	0xbd96f70b	-0.073713385
183	0x3d61064f	0.054937657
184	0xbdbfa704	-0.093580276
185	0x3dd68d93	0.10476222
186	0xbd1c7a74	-0.038202718
187	0x3d8c648f	0.068551175
188	0xbcbf381d	-0.023342187
189	0x3db38985	0.08766464
190	0xbd4e7089	-0.05040029
191	0xbd8153f4	-0.06314841
192	0x3d4570ba	0.048203208
193	0x3ca69ba0	0.02033788
194	0xbded3e5b	-0.11584159
195	0x3cf9c863	0.03049106
196	0xbc875ab1	-0.016522737
197	0x3d7e5ac5	0.062098283
198	0xbdce971e	-0.10087417
199	0xbd475f34	-0.048674777
200	0x3d88fde9	0.066890545
201	0xbdff6da1	-0.12472082
202	0x3c78c480	0.015183568
203	0x3da001ec	0.078128666
204	0x3d9fd997	0.07805174
205	0xbdcabc37	-0.098991804
206	0x3d6413d3	0.05568297
207	0x3dd3184d	0.103073694
208	0xbdb7a008	-0.089660704
209	0xbcdc6c49	-0.026907103
210	0x3dbcbe48	0.09215981
211	0x3d89679c	0.06709215
212	0xbd851fd2	-0.0650021
213	0x3de74d48	0.11294037
214	0xbdf77d92	-0.120844975
215	0x3d21ffb0	0.039550483
216	0x3d4a9c94	0.04946573
217	0xbd3bdf52	-0.04586727
218	0x3def1d6a	0.11675532
219	0x3cf07090	0.029350549
220	0x3d311b61	0.043239
221	0x3d798509	0.060917888
222	0x3cbc7590	0.023005277
223	0x3dc59977	0.09648412
224	0xbc1caa90	-0.00956215
225	0xbdced68e	-0.10099517
226	0xbd86454a	-0.065561846
227	0xbde17612	-0.11008848
228	0x3ce15f24	0.027511187
229	0xbdddf6a3	-0.10838058
230	0xbda3add0	-0.079921365
231	0xbdd90dd7	-0.10598343
232	0xbd07302a	-0.033004917
233	0xbdda03bc	-0.106452435
234	0xbdddde3e	-0.10833405
235	0xbc459493	-0.012059349
236	0xbb9bda0a	-0.004756217
237	0x3dec1a45	0.11528448
238	0xbdf548f2	-0.11976804
239	0xbdf9a803	-0.12190249
240	0xbd514bf0	-0.05109781
241	0x3d87219a	0.06598206
242	0xbd4c2162	-0.049836524
243	0x3d13d1fc	0.03608893
244	0xbd9db8c6	-0.07701258
245	0xbddcc61a	-0.107799724
246	0x3d3c5b33	0.04598541
247	0xbdc011e3	-0.093784116
248	0x3de6bb45	0.112661876
249	0xbda746ae	-0.08167778
250	0xbdfcc8f0	-0.12343013
251	0xbde8ae0c	-0.11361322
252	0xbd817d3b	-0.06322714
253	0x3d6d674e	0.057959847
254	0x3df69f81	0.12042142
255	0xbbcd2241	-0.006260187

fc3_action.bias f4 [11]
0	0x3d599ca5	0.053127903
1	0xbd282062	-0.041046508
2	0x3d4d61c2	0.050142057
3	0xbd107daf	-0.03527611
4	0xbd27b274	-0.04094167
5	0xbd9a8bd1	-0.07546199
6	0x3d5632b5	0.05229445
7	0x3dbc972c	0.09208521
8	0xbde7c628	-0.11317092
9	0x3da2d2ce	0.07950364
10	0x3b7b26a4	0.0038322592
