traditional_vrpb_policy_final.pth (torch, 42909 bytes, 6 tensors)

fc1.weight f4 [128, 6]
0	0x3ecc0b42	0.3985234
1	0x3e00affb	0.12567131
2	0xbb896fb2	-0.0041942233
3	0xbe513068	-0.20428622
4	0x3ebfe1b9	0.374769
5	0x3ca70c87	0.020391716
6	0xbe131773	-0.14364414
7	0x3e8a9a2c	0.2707075
8	0xbe245fa7	-0.16052113
9	0xbe3edcd7	-0.18638931
10	0x3ea50e6b	0.32237563
11	0xbecc878c	-0.39947164
12	0x3ea34a4e	0.31892627
13	0x3eb5606a	0.3542512
14	0x3d8f87e2	0.070083395
15	0xbe87e265	-0.26539913
16	0x3ebf20ba	0.37329656
17	0x3e1f4b74	0.15556127
18	0xbddebd4c	-0.10875949
19	0x3e1ae5f0	0.15126777
20	0x3d200a20	0.039072156
21	0xbdbd4490	-0.09241593
22	0xbc6502c0	-0.013977706
23	0x3d16b790	0.036796153
24	0x3ec3c3fb	0.3823546
25	0x3e4f1316	0.20222124
26	0x3ec8d997	0.39228508
27	0xbe25b1ee	-0.16181156
28	0x3d1e8362	0.038699515
29	0xbea151e4	-0.3150779
30	0xbca64a66	-0.020299148
31	0x3ed0c821	0.40777686
32	0x3daa3800	0.083114624
33	0x3cb0d76c	0.021587096
34	0x3e4c88dd	0.19974084
35	0x3e2f094e	0.17093393
36	0xbd97f3d1	-0.07419551
37	0x3e3970e6	0.18109474
38	0xbec486bc	-0.38384044
39	0xbe8f9be3	-0.2804862
40	0x3e8b74e2	0.27237612
41	0x3e37f800	0.17965698
42	0xbe852a59	-0.2600887
43	0x3e4a1b8b	0.1973707
44	0xbe30c628	-0.1726309
45	0xbe014eb7	-0.12627684
46	0xbecb81ac	-0.3974737
47	0x3e5830a3	0.21112303
48	0x3e6cbdea	0.23119321
49	0x3e301aa4	0.17197663
50	0x3e14d452	0.14534119
51	0xbec6d4d7	-0.3883426
52	0x3e63d712	0.22250012
53	0xbc2c06b1	-0.010499642
54	0x3c77f009	0.015132912
55	0xbd7151c4	-0.05891587
56	0x3e64ac28	0.22331297
57	0x3e1632da	0.14667836
58	0x3c04c564	0.008103702
59	0x3dcee265	0.10101775
60	0xbe9aab60	-0.30208874
61	0xbe19aff0	-0.15008521
62	0x3e100c4d	0.14067192
63	0x3ebee55b	0.3728436
64	0x3e51350f	0.20430396
65	0xbe524491	-0.20533969
66	0x3e854c67	0.26034853
67	0x3e8621a5	0.26197544
68	0x3e81ba39	0.2533739
69	0x3e627696	0.2211555
70	0xbdf51731	-0.11967314
71	0xbeb9209f	-0.361577
72	0x3d101bf8	0.035182923
73	0xbe9d9ea0	-0.30785084
74	0xbe9331e1	-0.28748992
75	0x3ea22690	0.31670046
76	0xbeb68834	-0.3565079
77	0x3d4489f0	0.04798311
78	0xbe3b486a	-0.18289343
79	0x3d6df8a8	0.058098465
80	0xbebf53e9	-0.37368706
81	0xbddfd2b8	-0.10928863
82	0xbe8e7e98	-0.27830958
83	0xbe4f4aa4	-0.20243317
84	0x3e5beed9	0.21477832
85	0xbe81c2b3	-0.25343856
86	0xbe5d368e	-0.21602842
87	0xbe19f1ca	-0.15033641
88	0xbea47084	-0.32117093
89	0x3e38381b	0.17990153
90	0x3e275d22	0.16344121
91	0xbdec8700	-0.11549187
92	0x3d6f087b	0.058357697
93	0xbdcecb4d	-0.1009737
94	0xbe95a387	-0.29226324
95	0x3d74fdb0	0.059812248
96	0xbd341d84	-0.04397346
97	0x3e86121b	0.26185688
98	0x3e9edbc2	0.31027037
99	0x3df9307d	0.121674515
100	0xbe23cfb7	-0.15997206
101	0x3de99133	0.11404648
102	0x3e54c9b5	0.2078007
103	0x3e8f254e	0.2795815
104	0x3e7dd686	0.24788865
105	0xbcf4cf50	-0.02988401
106	0x3e791795	0.24325402
107	0x3df1d468	0.118080914
108	0x3e9e094f	0.30866477
109	0xbdbdbcb6	-0.092645094
110	0xbeb5ca50	-0.35505915
111	0x3eb2ba35	0.3490769
112	0x3eb1ff04	0.34764874
113	0xbe9b5fb7	-0.30346462
114	0x3ea41874	0.32049906
115	0xbecd073f	-0.4004459
116	0xbe0c3141	-0.13690664
117	0x3dda9330	0.10672605
118	0xbec3259d	-0.38114634
119	0xbe974236	-0.29542702
120	0xbec61648	-0.38688874
121	0xbd2631e7	-0.040574934
122	0x3cb9d0c6	0.022682559
123	0x3eaf56cc	0.34245908
124	0x3dc325b3	0.09528675
125	0x3e3b7201	0.18305208
126	0xbebe6768	-0.37188268
127	0xbe521c04	-0.205185
128	0xbe12b622	-0.1432729
129	0xbea64529	-0.3247464
130	0xbec1810f	-0.37793776
131	0xbe36bd95	-0.17845757
132	0x3ecb7c17	0.3974311
133	0x3e5447a1	0.2073045
134	0x3e0cd46f	0.13752912
135	0xbd99a146	-0.075014636
136	0xbe23c262	-0.1599212
137	0xbdd177c4	-0.102279216
138	0x3ec3226e	0.38112205
139	0x3ca2cd00	0.019873142
140	0xbe85246d	-0.26004353
141	0x3e03238f	0.12806533
142	0x3ecdb520	0.4017725
143	0x3c216f7d	0.009853241
144	0x3c3daffb	0.011577602
145	0xbeb70f87	-0.35754034
146	0x3e7fe708	0.24990475
147	0x3e928875	0.28619733
148	0x3eb4ab19	0.35286787
149	0xbe965dff	-0.29368588
150	0xbeb60c76	-0.35556382
151	0x3e490988	0.19632542
152	0xbe1c1f11	-0.15246226
153	0x3e9a2dda	0.30113107
154	0x3ea37ae5	0.319297
155	0xbda6b115	-0.081392445
156	0x3d6d64c7	0.057957437
157	0xbd97e153	-0.07416024
158	0x3e9aae0a	0.30210906
159	0x3e912727	0.28350183
160	0xbde1e746	-0.1103044
161	0xbe27b335	-0.16376956
162	0xbdb60b3d	-0.08888862
163	0xbdd4edb4	-0.10396901
164	0xbed1d800	-0.40985107
165	0xbd5d5ff1	-0.054046575
166	0x3e352dae	0.17693207
167	0xbe4bef47	-0.19915496
168	0xbdb4652c	-0.088083595
169	0xbea261ee	-0.3171534
170	0x3bd3d5c0	0.00646469
171	0xbdf706bc	-0.12061831
172	0x3e3e37d0	0.18575978
173	0xbd39d578	-0.045369595
174	0x3e5728c1	0.2101164
175	0xbeb7dd46	-0.35911006
176	0x3d296047	0.041351583
177	0xbec3bb3c	-0.38228786
178	0xbd484683	-0.04889537
179	0xbec296ba	-0.3800562
180	0xbe25169c	-0.16121906
181	0xbe4817f3	-0.19540386
182	0x3ec9fb1d	0.39449397
183	0x3ea09c81	0.31369403
184	0x3d505e36	0.050871097
185	0x3dbea7ca	0.09309347
186	0x3c91d750	0.017802864
187	0xbe74b294	-0.23896247
188	0xbebaa541	-0.36454204
189	0xbcfd9ce0	-0.030958593
190	0xbe85b592	-0.2611509
191	0xbca07ff0	-0.019592255
192	0x3e26b5d3	0.16280298
193	0xbe40f5a9	-0.18843712
194	0x3cb38a26	0.02191646
195	0x3e86b6a4	0.2631122
196	0xbc817167	-0.015801145
197	0xbe09abc2	-0.13444427
198	0xbe8d5ce1	-0.27609923
199	0xbd0d9fda	-0.034576274
200	0xbc38361c	-0.011243369
201	0x3ecd8f96	0.4014861
202	0xbe6c44e9	-0.23073162
203	0x3e9ba45d	0.30398837
204	0xbceeb546	-0.029139172
205	0xbe884129	-0.26612213
206	0x3ebb71ce	0.36610264
207	0xbea4ebc1	-0.32211116
208	0xbe72439c	-0.23658603
209	0x3ebeb9eb	0.3725122
210	0xbe50fa81	-0.2040806
211	0xbdc47584	-0.09592727
212	0x3cd36e90	0.025809556
213	0xbe9819a5	-0.29707065
214	0xbd4443e0	-0.047916293
215	0x3e8f42be	0.27980608
216	0x3e2aaf12	0.16668347
217	0x3e93aae3	0.28841314
218	0x3ec9784a	0.39349586
219	0x3da7104f	0.081574075
220	0x3ea77b40	0.3271122
221	0xbe99245f	-0.2991056
222	0xbd0eb8d8	-0.03484425
223	0x3da40034	0.08007851
224	0xbe8ce716	-0.27520055
225	0xbe1b384a	-0.15158191
226	0xbea814ad	-0.32828274
227	0xbe153030	-0.14569163
228	0xbdf2d338	-0.11856693
229	0xbd01fb89	-0.031734023
230	0xbe8b05f2	-0.27152973
231	0x3e4cc719	0.19997825
232	0xbe96505c	-0.29358184
233	0xbce188e3	-0.027531093
234	0xbdcf97c8	-0.10136372
235	0x3e211820	0.15731859
236	0xbe3379fd	-0.17527004
237	0xbea6677b	-0.32500824
238	0xbec35f38	-0.38158584
239	0x3cb77f30	0.022399515
240	0x3ecf1f2b	0.40453467
241	0xbd31d3f5	-0.04341503
242	0x3ea70840	0.32623482
243	0x3e2d1d88	0.16905797
244	0x3e026e41	0.12737371
245	0xbde603dd	-0.112312056
246	0xbdb896d0	-0.0901314
247	0xbe0bc646	-0.13649854
248	0xbe5bf55f	-0.2148032
249	0xbd9cbf24	-0.07653645
250	0xbdde9548	-0.10868317
251	0xbe0c7542	-0.13716605
252	0xbe5102d7	-0.2041124
253	0x3e5b08ea	0.21390119
254	0x3e9ff5b0	0.31242132
255	0xbe83fa51	-0.25776914

fc1.bias f4 [128]
0	0x3e225bde	0.15855357
1	0xbd8f9e2a	-0.07012589
2	0x3eb33545	0.3500158
3	0xbe4e640f	-0.20155357
4	0xbe14ee5e	-0.14544055
5	0x3d53d23f	0.05171418
6	0x3c39427d	0.011307356
7	0x3e864144	0.2622167
8	0xbeb6b305	-0.35683456
9	0xbea669b3	-0.32502517
10	0x3eaadc7c	0.3337134
11	0x3ebe1358	0.37124133
12	0xbe7d240f	-0.24720787
13	0xbe891f04	-0.26781476
14	0x3e8c504a	0.27405006
15	0x3d35bd1a	0.044369794
16	0x3e2a01dc	0.16602272
17	0xbe1bdd17	-0.15221058
18	0x3d0954b7	0.033528056
19	0xbdbc994d	-0.09208927
20	0xbe81d438	-0.25357223
21	0xbdb04644	-0.08607152
22	0x3d664993	0.05622251
23	0xbe0b073a	-0.13576975
24	0x3ebf7a37	0.3739793
25	0x3da47365	0.08029822
26	0x3ea93571	0.33048585
27	0xbd23933e	-0.039935343
28	0xbe725249	-0.23664202
29	0x3e2a378e	0.16622755
30	0x3e761066	0.24029693
31	0xbe5f5dc9	-0.2181312
32	0x3e225623	0.15853171
33	0xbe4c49ed	-0.19950075
34	0x3e943d38	0.28952956
35	0xbe929949	-0.28632572
36	0x3d52d74b	0.05147485
37	0xbea48444	-0.3213216
38	0x3dacfea5	0.08447007
39	0xbebd9d3a	-0.37034017
40	0xbebea67a	-0.37236387
41	0xbebcadde	-0.368514
42	0x3e866a90	0.26253176
43	0x3d649f2e	0.055815868
44	0xbdaa7238	-0.08322567
45	0x3ecf7453	0.40518436
46	0x3db8a97f	0.09016704
47	0xbe98d0bd	-0.29846755
48	0xbe185765	-0.14877088
49	0xbe9a0aee	-0.30086464
50	0xbe8242d2	-0.25441605
51	0x3d8520b5	0.06500379
52	0x3c1f4934	0.009722043
53	0xbeb35898	-0.3502853
54	0x3ecc1f92	0.39867836
55	0x3eb25ff5	0.34838834
56	0xbe842e98	-0.25816798
57	0x3df4e5d9	0.119579025
58	0xbdb2a271	-0.087223895
59	0x3eb6df35	0.35717168
60	0xbe5afabf	-0.21384715
61	0xbe03aa88	-0.12858021
62	0x3e8ec3fe	0.27883905
63	0xbe393546	-0.18086728
64	0xbd06e5a3	-0.032933842
65	0x3e6b03b7	0.22950636
66	0xbd30e991	-0.043191496
67	0x3e9d2a4c	0.30696332
68	0xbe908940	-0.28229713
69	0x3e2f6648	0.17128861
70	0xbe64b63e	-0.22335145
71	0xbeb46826	-0.3523571
72	0xb974f3a4	-0.00023360417
73	0x3cd4adbf	0.025961755
74	0xbe89d877	-0.26922962
75	0xbdf08d19	-0.11745662
76	0xbea149a7	-0.31501505
77	0xbd9d0114	-0.07666221
78	0x3d783e77	0.060606446
79	0x3eb57f92	0.3544889
80	0x3ea6733b	0.3250979
81	0xbe0a2f39	-0.13494577
82	0x3e04d40e	0.12971517
83	0x3e4577d4	0.19283992
84	0xbe976d83	-0.29575738
85	0xbe993b73	-0.2992817
86	0xbe3728f6	-0.17886719
87	0x3cc2218f	0.023697643
88	0x3ebf7b94	0.3739897
89	0xbe6a3258	-0.22870767
90	0xbe9c7659	-0.30559042
91	0xbe9eb47c	-0.30997074
92	0xbd6a1302	-0.057147034
93	0xbe3a98ea	-0.18222395
94	0xbdc3845e	-0.095467314
95	0x3ec007c3	0.37505922
96	0x3ebacb89	0.3648341
97	0x3cce2c83	0.02516771
98	0xbec7e92a	-0.39045078
99	0x3eb1068e	0.34575313
100	0xbe1f2a6c	-0.15543526
101	0x3eab0f12	0.33409935
102	0x3db856c4	0.09000924
103	0xbe585b1b	-0.21128504
104	0xbe422dd9	-0.18962802
105	0x3d861bab	0.06548246
106	0xbe829c79	-0.25510004
107	0x3defc8ad	0.11708198
108	0xbe0eca50	-0.13944364
109	0x3e442e5a	0.19158307
110	0x3ec37989	0.3817866
111	0x3e80cccc	0.25156248
112	0x3dbf0ea2	0.09328963
113	0xbdb153ff	-0.08658599
114	0xbd978fa6	-0.07400446
115	0x3dafdee0	0.08587432
116	0xbe1576c9	-0.14596094
117	0x3ecf80a7	0.4052784
118	0x3e4f3ff5	0.20239241
119	0xbed166d5	-0.40898767
120	0xbe38f8d7	-0.18063675
121	0xbe7fe259	-0.24988689
122	0xbe9d83d7	-0.30764648
123	0xbe968204	-0.2939607
124	0xbec1e01d	-0.37866297
125	0xbb7a37bd	-0.0038180195
126	0xbe80b398	-0.2513702
127	0xbd9be444	-0.076118976

fc2.weight f4 [64, 128]
0	0xbd3fc2db	-0.046816688
1	0x3c671221	0.014103443
2	0x3d8d9a15	0.069141544
3	0xbd3878f1	-0.045037214
4	0x3d5ca1e4	0.05386533
5	0x3d2b3c33	0.041805457
6	0xbda99cdd	-0.082818724
7	0x3d3a2cd2	0.0454529
8	0x3cfe4e02	0.031043056
9	0xbd1ee0cc	-0.0387886
10	0xbd273ca3	-0.040829312
11	0x3d6200e2	0.055176623
12	0xbcaaa640	-0.020831227
13	0x3afd8780	0.001934275
14	0x3da2ab5d	0.07942841
15	0x3c8705d8	0.016482279
16	0xbd149b19	-0.036280725
17	0x3d90f6be	0.07078312
18	0x3d934e36	0.07192652
19	0xbd880f93	-0.066435955
20	0x3d251e37	0.04031202
21	0xbd986056	-0.074402496
22	0x3ce95007	0.028480543
23	0xbd9bcc58	-0.07607335
24	0x3bddb61a	0.006766093
25	0xbd7b3f2a	-0.061339535
26	0xbc15ba40	-0.009138644
27	0x3ca22ee7	0.019797755
28	0xbce14f5c	-0.027503662
29	0xbd8cdfbf	-0.06878614
30	0xbac30839	-0.001487977
31	0xbd99f657	-0.07517689
32	0xbc28d18c	-0.010303866
33	0x3db697d6	0.08915679
34	0x3d2258bf	0.039635416
35	0x3d4413ba	0.047870375
36	0xbb209860	-0.0024504885
37	0x3d217ec6	0.03942754
38	0x3d531aea	0.05153934
39	0xbca80760	-0.02051133
40	0xbc8794b1	-0.016550394
41	0xbc80f2f8	-0.015740857
42	0xb91459a3	-0.00014147772
43	0x3d7eaa1c	0.062173948
44	0x3c1e8280	0.009674668
45	0x3d0d5b98	0.03451118
46	0x3d70f3f4	0.0588264
47	0xbd492eee	-0.04911702
48	0x3d0359a9	0.03206793
49	0xbda5591e	-0.080736384
50	0xbc106350	-0.00881274
51	0x3aa568c3	0.0012619722
52	0xbd2294a4	-0.039692536
53	0x3c937e88	0.01800467
54	0x3d4ad5ee	0.049520425
55	0xbd276ed6	-0.040877186
56	0x3d53b74a	0.05168847
57	0xbc751468	-0.0149584785
58	0xbcf33b23	-0.029691285
59	0x3c496e57	0.0122943735
60	0x3a943dc0	0.0011309907
61	0xbd3098bf	-0.04311442
62	0xbda869b9	-0.0822329
63	0x3c1359af	0.00899355
64	0x3ba84952	0.0051356936
65	0xbcfb8fdd	-0.030708248
66	0x3da570d4	0.08078161
67	0xbd6ff034	-0.058578685
68	0xbd00638a	-0.031344928
69	0xbd86c9de	-0.06581472
70	0x3d891c2e	0.06694828
71	0x3d23a063	0.03994788
72	0xbd733748	-0.059378892
73	0x3d392dc3	0.045209657
74	0xbd4eb122	-0.050461896
75	0x3b990c0f	0.004670627
76	0xbcfd0722	-0.03088719
77	0xbd5c3707	-0.053763416
78	0x3c86f9b5	0.016476491
79	0x3d3f6f4e	0.046737008
80	0xbd948ff8	-0.07254022
81	0xbd3272f9	-0.043566678
82	0x3d8f4946	0.06996398
83	0x3d3b2088	0.04568532
84	0xbd5acafa	-0.05341623
85	0xbd6b6b94	-0.05747564
86	0x3d389298	0.045061678
87	0x3da6aed6	0.08138816
88	0x3d962b6a	0.07332499
89	0x3d4303c2	0.047611006
90	0x3c7ac7d5	0.015306433
91	0x3d9c6d69	0.07638056
92	0xbcf24988	-0.029576078
93	0x3d6bfcfc	0.05761431
94	0xbd6e9f5d	-0.05825745
95	0xbd43dd8d	-0.04781871
96	0xbd40322f	-0.04692286
97	0x3da7dd1e	0.08196472
98	0x3d61881a	0.055061437
99	0x3d0e0ef7	0.03468224
100	0xbda16a06	-0.078815505
101	0x3d03c7c0	0.03217292
102	0xbd387567	-0.04503384
103	0xbd2cfafb	-0.04223154
104	0x3c225c0d	0.009909642
105	0xbc4909e1	-0.012270422
106	0x3d566392	0.05234105
107	0xbd864f49	-0.06558091
108	0xbb8da1f6	-0.0043222858
109	0xbd9b49c3	-0.07582428
110	0xbd8b20fc	-0.06793401
111	0xbd767ea1	-0.060179356
112	0xbd5c2d15	-0.05375393
113	0xbd16af15	-0.036788065
114	0x3cea5ab4	0.028607704
115	0x3d33ca9c	0.043894395
116	0xbd1b8e2a	-0.037977375
117	0x3c71f6b9	0.014768296
118	0xbd905efb	-0.07049366
119	0xbc9110b0	-0.017708153
120	0xbda9702e	-0.0827335
121	0x3cf3b518	0.029749438
122	0xbd60385e	-0.054741256
123	0xbdb12356	-0.08649318
124	0x3d0f594d	0.034997273
125	0xbd88c1c1	-0.066775806
126	0x3d810c01	0.06301118
127	0x3d9d0110	0.07666218
128	0xbcd6c275	-0.026215771
129	0xbbcada26	-0.006190556
130	0x3d0e1e0f	0.034696635
131	0xbd5599d1	-0.052148644
132	0xbcb4c6ec	-0.02206751
133	0x3d7a0545	0.06104018
134	0x3adde68e	0.0016929673
135	0xbd82b60e	-0.063823804
136	0x3da447ce	0.08021508
137	0x3d9fd625	0.07804517
138	0x3bbac83c	0.0057001393
139	0xbd38afed	-0.04508965
140	0x3d0a2642	0.03372789
141	0x3cfa09a4	0.030522175
142	0xbd38b0dd	-0.045090545
143	0x3daf49d7	0.08559006
144	0x3bb1cffc	0.005426405
145	0xbd5176bf	-0.051138636
146	0x3d8284ed	0.0637301
147	0x3ca3ae55	0.019980589
148	0xbc8d48a0	-0.017246544
149	0xbda32c56	-0.07967441
150	0x3daec95a	0.085344985
151	0x3d93a7f2	0.072097674
152	0xbd953a45	-0.07286505
153	0x3d8ab4dd	0.06772778
154	0xbd62a65a	-0.055334426
155	0x3cafa780	0.021442175
156	0xbb09f420	-0.002105005
157	0x3daf7c9d	0.0856869
158	0x3c77792f	0.015104576
159	0xbda76f84	-0.08175567
160	0x3b909847	0.004412684
161	0xbd7df9cb	-0.0620058
162	0xbd8ea72a	-0.06965478
163	0x3cf5f19c	0.030022435
164	0x3d5cf783	0.053946983
165	0xbbb6a730	-0.0055741295
166	0xbbbc7070	-0.0057507083
167	0x3cf65068	0.030067638
168	0x3daf83ab	0.085700355
169	0x3d811df1	0.06304539
170	0xbd998cff	-0.07497596
171	0xbd0641a9	-0.032777462
172	0xbd3f9a6b	-0.046778124
173	0xbd8c392c	-0.06846842
174	0xbc6302f7	-0.013855687
175	0xbd0ff8d9	-0.03514943
176	0xbd0fbf79	-0.035094712
177	0x3d9f1797	0.07768171
178	0x3cabe27c	0.02098202
179	0x3d997985	0.07493881
180	0xbd095bd3	-0.033534836
181	0x3cb1a589	0.021685379
182	0x3d7ff0c4	0.06248547
183	0x3c9b03ab	0.018922647
184	0xbc2cdc40	-0.010550559
185	0xbc1299f4	-0.008947838
186	0x3d93eecc	0.07223281
187	0x3d1d23d9	0.038364265
188	0x3d86abab	0.06575712
189	0xbd098cab	-0.033581417
190	0xbcc89df6	-0.024489384
191	0xbd274f2e	-0.040846996
192	0x3d842483	0.064522766
193	0xbda8c448	-0.08240563
194	0xba6cd19e	-0.0009033921
195	0x3b5a3780	0.003329724
196	0x3d849ae6	0.06474857
197	0x3dae970c	0.08524904
198	0x3b2cd980	0.0026374757
199	0x3d495e7b	0.04916237
200	0x3d697cad	0.057003666
201	0xbd8ea591	-0.06965173
202	0x3da2a1ce	0.07941018
203	0xbd905948	-0.07048279
204	0xbc3865c0	-0.011254728
205	0x3d9d62d5	0.07684866
206	0x3d88c6d9	0.06678552
207	0xbd2da58f	-0.042394217
208	0x3d7443b1	0.059634868
209	0x3ce6bba9	0.028165655
210	0xbd987354	-0.07443872
211	0xbd244be6	-0.040111445
212	0x3bab00d0	0.0052186027
213	0xbd69dbd3	-0.057094406
214	0xbcad7330	-0.02117309
215	0xbd29cc87	-0.041454818
216	0x3cda676c	0.026660644
217	0x3d2990c6	0.041397832
218	0xbb37c700	-0.0028042197
219	0xbcc3670c	-0.023852848
220	0xbce0627d	-0.027390713
221	0xbd2c3abf	-0.042048212
222	0x3cbbba88	0.022916093
223	0xbd9f40d3	-0.07776036
224	0xbd328cd1	-0.043591324
225	0x3cc8f2c3	0.02452982
226	0xbc97185c	-0.018444233
227	0xbd922636	-0.071361944
228	0x3d839029	0.06423981
229	0x3da1fea5	0.07909898
230	0xbc995bb4	-0.018720485
231	0x3d14596c	0.03621809
232	0xbd2c6bcb	-0.042094987
233	0x3d862287	0.06549554
234	0xbd9fa8f1	-0.07795895
235	0xbd92e7fe	-0.07173155
236	0xbd30b88f	-0.04314476
237	0xbd0255d1	-0.031820122
238	0xbd5c92a3	-0.05385078
239	0x3d57ea21	0.052713517
240	0xbd098dda	-0.033582546
241	0xbd6ca05c	-0.057770118
242	0xbd41271b	-0.047156435
243	0xba930db3	-0.0011219293
244	0x3d21d679	0.039511178
245	0xbb202ae7	-0.0024439634
246	0xbd2a15b4	-0.041524604
247	0xbcacfd48	-0.021116868
248	0xbd6f231e	-0.0583831
249	0x3ceebb54	0.02914206
250	0x3d20954e	0.039204888
251	0x3cca6804	0.024707802
252	0x3d64a932	0.05582542
253	0x3d916e4e	0.07101117
254	0xbd5f230c	-0.054476783
255	0xbd759da9	-0.05996481

fc2.bias f4 [64]
0	0x3d67ebff	0.056621548
1	0xbc491157	-0.012272201
2	0xbd4363b9	-0.047702525
3	0xbd19ad2d	-0.03751867
4	0x3d352f81	0.044234756
5	0x3c3feff7	0.011714927
6	0x3d902288	0.07037836
7	0x3d6e3d6c	0.058164045
8	0xbd0f4970	-0.034982145
9	0x3d4a7334	0.049426273
10	0x3d815714	0.06315437
11	0xbc9bb7cf	-0.019008545
12	0xbba64bab	-0.0050749383
13	0x3cddfe30	0.027098745
14	0xbd1e480a	-0.03864292
15	0xbc775dec	-0.015098076
16	0x3cc3fedc	0.023925237
17	0xbcbc78f2	-0.02300689
18	0x3d4d016d	0.050050188
19	0x3cadf924	0.021236964
20	0x3d805e4d	0.062679864
21	0x3c8641bc	0.016388766
22	0xbdaf02ee	-0.08545481
23	0x3da48d38	0.08034748
24	0xbc29c5d5	-0.010362108
25	0x3d4272ff	0.04747295
26	0x3d4388d0	0.047737896
27	0x3d63a861	0.0555805
28	0xbd8121ae	-0.06305252
29	0xbd015473	-0.031574678
30	0x3c04e763	0.0081118075
31	0xbd94e5ae	-0.072703704
32	0x3d995747	0.0748735
33	0xbd91180e	-0.07084666
34	0x3bce4275	0.0062945434
35	0x39f332a3	0.000463863
36	0xbd4851ff	-0.048906323
37	0xbd171ccd	-0.0368927
38	0x3d4945e9	0.049138937
39	0x3d624b56	0.055247627
40	0xbdb329c2	-0.08748199
41	0x3daa0c21	0.08303095
42	0x3d8bb3dd	0.068214156
43	0x3cfb1c51	0.03065315
44	0xbd201865	-0.039085764
45	0x3c92af7d	0.017905945
46	0x3d6642c2	0.05621601
47	0x3d8bcfa5	0.068267144
48	0x3c383a4e	0.01124437
49	0xbcffbbba	-0.031217445
50	0xba44a56b	-0.0007501456
51	0xbc363388	-0.011120684
52	0xbd233b5a	-0.039851524
53	0xbdaceefe	-0.08444022
54	0xbcb00c17	-0.02149014
55	0xbd4b1056	-0.049576126
56	0x3cbea529	0.023272114
57	0x3d01db8a	0.03170351
58	0x3d7c05b5	0.06152888
59	0xbd38b17c	-0.045091137
60	0x3da54ebd	0.08071659
61	0x3d4bdb92	0.049769945
62	0x3db0fc7f	0.0864191
63	0xbd2a9f29	-0.041655693

fc3_action.weight f4 [11, 64]
0	0xbde2b04b	-0.110687815
1	0xbdd9b9e5	-0.1063116
2	0xbdeec646	-0.116589114
3	0x3dc12afa	0.09432025
4	0xbdae092e	-0.08497845
5	0x3bae540c	0.0053200778
6	0xbdfc2823	-0.12312343
7	0x3d725ef3	0.059172582
8	0xbdbb40ab	-0.09143194
9	0x3cd559e5	0.026043842
10	0xbd1611ad	-0.03663795
11	0x3dbbf4ef	0.09177577
12	0x3c0c80cd	0.00857563
13	0xbdfb410a	-0.122682646
14	0x3839d7fc	4.430859e-05
15	0xbd3c1277	-0.045916047
16	0x3ce5dc08	0.02805902
17	0xbdc9f805	-0.09861759
18	0x3d628b24	0.055308476
19	0xbd7cbb98	-0.06170234
20	0xbd9d8827	-0.076919846
21	0xbd8d2b84	-0.068930656
22	0xbc4f0110	-0.012634531
23	0xbda53a91	-0.08067811
24	0x3dd49838	0.10380596
25	0x3dc8aeb8	0.0979895
26	0x3d848272	0.06470193
27	0x3cbb1f57	0.022842092
28	0xbd87ba85	-0.06627373
29	0x3b15196b	0.0022750746
30	0xbc8fb618	-0.017542884
31	0x3db62576	0.08893864
32	0x3ccb89ab	0.024845919
33	0xbdd6021e	-0.104496226
34	0x3deb6916	0.11494653
35	0xbcf2f617	-0.02965836
36	0x3c973542	0.018458012
37	0xbd82d6b1	-0.063886054
38	0xbdb0e852	-0.086380616
39	0xbde8836d	-0.113531925
40	0x3da74e7b	0.08169266
41	0xbdb3a8d1	-0.087724335
42	0x3da2c50c	0.0794774
43	0xbdf5df71	-0.12005509
44	0xbd12264c	-0.035681054
45	0xbd9fddb1	-0.07805956
46	0x3d51852c	0.051152393
47	0xbdf361dc	-0.118838996
48	0x3d7bf16e	0.061509542
49	0x3d402c0c	0.046917006
50	0xbd45ae17	-0.04826173
51	0xbd18ce0b	-0.037305873
52	0xbd19c027	-0.037536766
53	0xbd4aeee7	-0.04954424
54	0x3df9127c	0.12161729
55	0x3df16332	0.11786498
56	0x3ce3db2b	0.027814468
57	0xbcf15870	-0.029461116
58	0x3d17cd65	0.037061114
59	0xbdad95a7	-0.084758095
60	0xbdac76de	-0.084211096
61	0xbd4ca30c	-0.04996018
62	0xbd9b2528	-0.07575446
63	0x3dd8d254	0.10586992
64	0x3e00dcf8	0.12584293
65	0x3dd56f50	0.10421622
66	0x3dcdfc3f	0.10057878
67	0x3d1fd01b	0.039016824
68	0x3d420a0d	0.047372866
69	0xbdc30bd2	-0.09523739
70	0xbdbc07d1	-0.09181178
71	0x3df34f38	0.11880344
72	0x3c087520	0.008328706
73	0xbd8feca0	-0.070275545
74	0x3c6142f1	0.01374887
75	0xbd13baee	-0.036066942
76	0xbcdf5997	-0.0272644
77	0xbc6181ed	-0.013763887
78	0xbd84b92c	-0.06480631
79	0x3da54cd3	0.08071294
80	0x3deffd96	0.117182896
81	0xbde38fb2	-0.11111392
82	0xbda8dfd0	-0.08245814
83	0xbc3cf920	-0.011534005
84	0xbd0e91ee	-0.03480714
85	0xbdf1727c	-0.11789414
86	0x3c927060	0.01787585
87	0x3d9dbf6a	0.07702525
88	0x39dc4db6	0.0004201957
89	0xbc71766e	-0.0147377085
90	0x3d150de6	0.036390208
91	0xbd152d04	-0.036419883
92	0x3d4063d4	0.046970204
93	0x3c0d3920	0.008619577
94	0x3dc9fcfe	0.098627076
95	0x3db94b0a	0.09047516
96	0xbda94b5d	-0.082663275
97	0x38df032a	0.00010634058
98	0x3d106202	0.035249718
99	0x3c92d27a	0.017922629
100	0x3d5c9383	0.053851616
101	0x3c23a4cd	0.009988022
102	0xbc9111ae	-0.017708626
103	0xbda8aff9	-0.08236689
104	0xbd11ab07	-0.035563495
105	0x3d4bac85	0.049725074
106	0xbbda81c3	-0.006668301
107	0x3dee466f	0.11634528
108	0xbd281154	-0.04103215
109	0x3ddd0607	0.10792165
110	0x3d2b2ce4	0.041790858
111	0x3d859aee	0.06523691
112	0xbdeb3248	-0.114842
113	0x3bce80a0	0.0063019544
114	0x3d9846a6	0.0743535
115	0xbd83901e	-0.064239725
116	0x3d967051	0.073456414
117	0x3d9ffa19	0.07811374
118	0xbc34df0d	-0.011039508
119	0xbca34b58	-0.019933388
120	0xbc4968de	-0.012293069
121	0x3ccc9b03	0.02497626
122	0xbd423fbf	-0.047424074
123	0x3de071a7	0.109591775
124	0xbddd74ba	-0.108132794
125	0x3cb8f718	0.022578761
126	0x3b408cc0	0.0029380769
127	0xbcf16fee	-0.029472318
128	0xbd5320d2	-0.05154497
129	0x3cbbc710	0.022922069
130	0xbc93d9c1	-0.01804817
131	0x3d282ad4	0.04105647
132	0xbd7e90d9	-0.062149856
133	0x3bb38580	0.005478561
134	0xbbf5a289	-0.0074961823
135	0x3daff046	0.085907504
136	0x3d3be3d8	0.045871586
137	0xbddd4e20	-0.10805917
138	0xbd951c28	-0.07280761
139	0xbda8bf72	-0.0823964
140	0x3dc49105	0.09597973
141	0xbdeff3a9	-0.11716396
142	0x3dab93b4	0.083777815
143	0x3ddf96fd	0.109174706
144	0xbd3f5778	-0.046714276
145	0x3ddc1d67	0.107477956
146	0x3d9bcc7f	0.07607364
147	0xbde5f0c0	-0.1122756
148	0x3d686700	0.056738853
149	0xbd4704b4	-0.04858847
150	0xbdb77b38	-0.08959049
151	0xbde57065	-0.11203078
152	0xbd91f42c	-0.0712665
153	0xbd832a68	-0.06404573
154	0xbbfc96f7	-0.007708426
155	0xbdf48e53	-0.11941209
156	0x3d016e44	0.031599298
157	0xbda8e1f6	-0.08246224
158	0xbd455b51	-0.04818279
159	0x3dbc1800	0.09184265
160	0xbdb47a66	-0.08812408
161	0x3df0d54c	0.11759433
162	0x3d6051af	0.0547654
163	0xbd83e648	-0.06440407
164	0x3d7e5142	0.062089212
165	0x3de2692a	0.11055215
166	0xbdcd8b38	-0.100363195
167	0x3c57f176	0.013180127
168	0x3dd8975c	0.105757445
169	0xbdd07ef7	-0.101804666
170	0x3cd5be80	0.026091814
171	0xbcb5714a	-0.022148747
172	0x3ca59d28	0.02021654
173	0xbda4ace0	-0.08040786
174	0xbd71807c	-0.058960423
175	0xbddcea03	-0.10786822
176	0xbd509fbf	-0.050933596
177	0x3d03d5c4	0.032186285
178	0xbd88c972	-0.06679048
179	0x3bc656ec	0.0060528424
180	0xbde3e393	-0.11127391
181	0x3dbc983a	0.092087224
182	0xbd6c8700	-0.057745934
183	0xbdec1f4e	-0.115294084
184	0x3df63bf7	0.12023156
185	0x3dc7742c	0.09738955
186	0x3c90f32f	0.017694084
187	0xbdf482b2	-0.11938991
188	0xbd2433f9	-0.040088627
189	0xbdd4f560	-0.10398364
190	0xbdd731f8	-0.10507578
191	0x3d92b1ea	0.07162841
192	0xbd226610	-0.039648116
193	0x3dc546e8	0.09632665
194	0xbaf74b3e	-0.0018867028
195	0x3d1a7edc	0.03771864
196	0xbd9b5f1f	-0.07586502
197	0xbd2d6200	-0.04232979
198	0xbdb068c4	-0.086137325
199	0x3dfae056	0.1224982
200	0x3c7de260	0.015495867
201	0xbc0c6073	-0.008567917
202	0xbd3622b6	-0.044466697
203	0x3b5e370c	0.0033907322
204	0xbd22f41b	-0.03978358
205	0xbde96b7d	-0.11397455
206	0x3db8e7e5	0.09028605
207	0x3da740da	0.08166666
208	0xbd24db08	-0.040247947
209	0xbd35029c	-0.04419194
210	0x3d7623ee	0.06009286
211	0x3d9a0cf2	0.07522
212	0x3df1dc1a	0.11809559
213	0xbdf383c4	-0.11890367
214	0xbd4b3264	-0.049608603
215	0xbb80a7f8	-0.0039262734
216	0xbdfb2172	-0.122622386
217	0x3daafd11	0.0834905
218	0xbd69fbab	-0.057124775
219	0x3df2595f	0.118334524
220	0x3d9a1214	0.075229794
221	0xbd4422dc	-0.047884807
222	0x3cd4b108	0.025963321
223	0xbd6aade0	-0.057294726
224	0x3bfdf5bc	0.007750241
225	0xbd80a99f	-0.06282353
226	0x3d9c4170	0.07629669
227	0x3d3bb616	0.045827948
228	0xbcd86925	-0.026417324
229	0x3c735859	0.014852607
230	0x3d8c934e	0.06864034
231	0x3ba681b5	0.0050813803
232	0xbd9dc361	-0.07703281
233	0x3d8a596e	0.067553386
234	0xbd752e3c	-0.059858546
235	0xbdfb8f7f	-0.12283229
236	0xbd72cd24	-0.05927767
237	0x3de887ae	0.11354004
238	0x3cd92a68	0.026509479
239	0xbdb36409	-0.087593146
240	0xbd9864ce	-0.07441102
241	0xbd8b6c6a	-0.06807788
242	0xbdb49181	-0.08816815
243	0xbdf2c890	-0.118546605
244	0x3ce7fae2	0.028317872
245	0xbdc880a9	-0.09790165
246	0xbd30711f	-0.04307663
247	0xbd14e904	-0.036355034
248	0xbc3f48b9	-0.011675053
249	0xbdb7b626	-0.08970289
250	0xbdec9ee4	-0.115537435
251	0xbdd3d9e6	-0.10344295
252	0xbdc2c3e6	-0.09510021
253	0x3d3c81f8	0.046022385
254	0xbdb20a40	-0.08693361
255	0x3ba5774d	0.005049622

fc3_action.bias f4 [11]
0	0xbda99949	-0.0828119
1	0xbd4fa8bc	-0.050698027
2	0xbd416018	-0.047210783
3	0xbdb73057	-0.08944767
4	0x3d80f97b	0.062975846
5	0x3cd51e59	0.026015447
6	0xbd204217	-0.03912553
7	0x3d345ff1	0.04403681
8	0x3c56fdf6	0.013122072
9	0x3d96757f	0.07346629
10	0x3de0a973	0.1096982
