traditional_vrpb_final.pth (torch, 46153 bytes, 6 tensors)

fc1.weight f4 [128, 5]
000000 5a 7f 5a be 58 e9 ce bd 58 6b 9c be a0 15 7d 3d
       -0.21337643 -0.101031005 -0.30550647 0.0617882
000010 68 c8 2d bd d3 71 f8 bd 53 62 cd 3e 4c e1 9d 3d
       -0.04242745 -0.12131085 0.40114078 0.077089876
000020 bb fc 88 3e e9 32 98 3e b0 2a 9c be a7 b3 c2 be
       0.26755318 0.2972634 -0.30501318 -0.3802769
000030 f6 33 81 be 79 9d 29 be 3c ae 6a 3e 7b e7 3f 3e
       -0.25234956 -0.16563977 0.22918028 0.18740647
000040 95 83 c3 be 86 13 86 3d 1d 4a 81 be ca 4e 9e 3e
       -0.38186327 0.065466926 -0.25251856 0.30919486
000050 c2 b2 99 be 7d ee e4 3e 0d 3c 84 be dc d8 a3 bd
       -0.30019194 0.44713202 -0.25827065 -0.08000347
000060 72 c7 bf 3d f8 72 a2 3e 02 f8 7b 3e f1 b9 bb 3c
       0.09364213 0.3172834 0.24606326 0.022915812
000070 74 d0 9e 3c f1 5f ca 3e a6 7e ca be 2d 46 14 3e
       0.019386508 0.39526322 -0.3954975 0.14479895
000080 ab ea b4 3e c0 f7 ab bd 6f 78 88 3e 4a 73 d0 3e
       0.35335287 -0.08396864 0.26654384 0.4071296
000090 a1 ec 2a be a2 40 cf 3e 97 72 ab be 6f 63 81 3e
       -0.1669183 0.40478998 -0.33485863 0.25271174
0000a0 bf c4 bd be ac 2a 95 3e ea 2d 72 3e 38 93 94 3e
       -0.37064168 0.2913412 0.23650327 0.2901857
0000b0 dc a0 a6 3d f3 81 83 3d 90 aa bf bd 9c 65 c4 3e
       0.0813615 0.0642127 -0.09358704 0.38358772
0000c0 cf f7 36 3d 8f e0 b5 bd 01 1b af be 82 fa 7b bd
       0.044669922 -0.08880722 -0.3420029 -0.0615182
0000d0 1d 4f 44 be a8 18 65 be be 40 0d be ec 10 89 3e
       -0.19170804 -0.22372687 -0.13794228 0.26770723
0000e0 11 c4 ae be 97 ce 6f be da 90 ae be 58 3a 3f be
       -0.34133962 -0.23418652 -0.34094888 -0.186746
0000f0 ee e6 ab be 7c c2 7f bb 06 a8 cc bc 13 93 03 bb
       -0.33574623 -0.0039025834 -0.024982464 -0.0020076677
000100 0c 0d 22 3e 60 93 75 bd e4 32 b9 3e 28 dc 4d bd
       0.1582529 -0.059955 0.3617164 -0.050258785
000110 26 46 33 be 51 56 90 be 35 2a c1 bd 4d db e4 3c
       -0.17507228 -0.28190854 -0.094318785 0.027936602
000120 8e fc 36 be d5 32 f7 3d 1d b5 ca 3e d6 6c 23 3e
       -0.1786978 0.12070242 0.39591303 0.15959486
000130 d1 c7 10 3e 31 07 8c be c7 d2 1a be 70 bf 9b be
       0.14138724 -0.27349237 -0.15119468 -0.30419493
000140 49 dd 1c ba 5f 71 d0 3e 11 ca 5a 3c be da 7f bd
       -0.0005983902 0.40711495 0.01335384 -0.06246447
000150 0a a2 13 3e 03 0b ca be 80 9e 87 3b e0 7e 67 3d
       0.14417282 -0.39461526 0.0041387677 0.05651748
000160 60 98 ed 3c 74 41 43 3e e7 33 a2 be b6 d5 c5 3e
       0.029003322 0.19067937 -0.31680223 0.3863961
000170 d6 a1 82 be 25 88 aa be 03 3d ab 3e ab dd d0 be
       -0.25514096 -0.33306995 0.33444986 -0.4079412
000180 45 95 48 3d da ee bc be b8 b0 b4 be 49 82 98 3e
       0.04897048 -0.3690098 -0.35291076 0.297869
000190 10 88 a8 3c 8b 39 b7 be cf 8b b3 3d 27 04 98 3e
       0.020572692 -0.3578609 0.08766901 0.29690668
0001a0 20 ea 72 be 94 15 0e 3e 67 80 d6 3d 27 3c f5 3d
       -0.23722124 0.13875419 0.104737096 0.11974364
0001b0 7d 19 83 bd 55 7c c2 be b2 72 97 be 0a 06 d3 be
       -0.06401346 -0.37985483 -0.29579693 -0.41215545
0001c0 63 64 ac be c8 6b 0c 3e 0a a2 93 be ce b6 b2 be
       -0.3367034 0.1371299 -0.28834563 -0.34905094
0001d0 cd 0d 30 3e 45 99 a4 3d 8d e4 3f bd f1 12 84 3c
       0.17192765 0.08037046 -0.046848822 0.016122313
0001e0 82 ac 13 3e a5 0c 2d 3e 1b e1 ce be cf 6f e1 3e
       0.14421275 0.16899355 -0.40406117 0.44030616
0001f0 1c 26 21 be eb 5d 22 be 60 71 8f 3e 02 b7 07 3d
       -0.15737194 -0.1585614 0.28016186 0.033133514
000200 25 3f 45 3e 4f 0f 18 3e 1f 05 bf 3e 3e 65 ba 3e
       0.19262369 0.1484959 0.37308595 0.36405367
000210 35 20 90 3e 6a d2 fa bd d1 0a 61 bc 37 fc d2 3e
       0.28149572 -0.122471645 -0.013735489 0.4120805
000220 f6 6f c1 3d 4a e0 b5 3c 33 07 bd be 59 0a 7a 3e
       0.09445183 0.022201676 -0.36919555 0.2441801
000230 e7 73 a6 3d 28 e7 71 3e 11 98 14 be 80 3e 95 3e
       0.08127575 0.23623335 -0.14511134 0.29149246
000240 63 c3 e4 be f1 68 b6 be 51 94 ae be 2c 73 a1 3e
       -0.44680318 -0.3562694 -0.3409753 0.31533182
000250 39 a9 04 3e 51 f6 a1 3e 7d 42 93 3d 50 9b b2 be
       0.12955178 0.31633237 0.07190416 -0.3488412
000260 fc 07 c6 3e 43 36 af 3e 71 00 19 be da 4b d2 3e
       0.38677967 0.34221086 -0.14941575 0.41073495
000270 1b a5 e3 bd 4f c4 93 be 95 52 c5 be 04 d3 df 3e
       -0.11115476 -0.2886071 -0.38539568 0.4371568
000280 8b 75 bd bd f7 45 18 3e 93 73 22 be db 51 d0 3e
       -0.09250935 0.1487044 -0.158644 0.4068745
000290 ea 4f 44 be 04 b4 e0 be 6e 2d 94 be 21 1b 60 be
       -0.1917111 -0.4388734 -0.2894091 -0.21885349
0002a0 d8 74 a2 be 58 a1 09 3e 83 86 e8 3d 36 18 5c bd
       -0.3172977 0.13440454 0.11353781 -0.053734027
0002b0 b8 1e 14 3b 06 3b 85 bd 5f a5 5c 3e ce e8 64 be
       0.0022601318 -0.065053985 0.21547459 -0.22354433
0002c0 4c 87 91 3e 06 30 8e 3d ab bc c7 be c7 5e b4 3e
       0.28423536 0.069427535 -0.3901113 0.3522856
0002d0 df 5c 45 be e0 49 ad 3e 4c b5 c7 be 19 77 c3 3e
       -0.19273709 0.33845425 -0.39005506 0.38176802
0002e0 2d 18 7e be 00 94 36 3a 5b 4e 7a be e8 fc 9b bd
       -0.2481391 0.0006964803 -0.24443953 -0.076165974
0002f0 34 b1 28 3e f0 c9 39 bd ba 5c c8 3e 08 a0 5c 3e
       0.16473848 -0.0453586 0.39133245 0.21545422
000300 03 5e 45 be c6 2f 5c be b0 4b b9 be b6 bb 75 be
       -0.19274144 -0.21502599 -0.36190557 -0.23997387
000310 29 b1 a8 bd 46 bd 18 3e b9 8e 9f 3e a7 7f 24 3e
       -0.082369156 0.14915952 0.31163576 0.1606432
000320 65 91 aa 3d 75 dc ab 3e 38 9b a9 be 49 d6 99 bd
       0.08328513 0.33566633 -0.33126235 -0.07511575
000330 6e ad b1 3e 0c 6a 74 3d 66 e5 da 3e 5c d3 01 be
       0.3470263 0.059671447 0.42753142 -0.12678283
000340 c9 e7 06 be 43 aa c3 bd 48 40 84 be 48 c5 15 3e
       -0.13174357 -0.09553959 -0.25830293 0.14626038
000350 d4 51 b0 be fc 3a 0d 3e 22 f3 d3 be 13 a6 40 3e
       -0.3443743 0.13792032 -0.41396433 0.18813352
000360 e6 f5 2b be 51 e8 ae be d9 05 e0 3e de f0 1f be
       -0.16793022 -0.34161618 0.4375446 -0.15619227
000370 07 f1 ba bd b8 ea dc 3e e8 ff cf be fb 36 d0 bd
       -0.091280036 0.43147826 -0.40624928 -0.10166737
000380 0c e4 bf 3d 9f 98 11 3e 02 ff cf 3e 07 f0 91 3e
       0.09369668 0.14218377 0.40624243 0.2850344
000390 45 7f 26 bc 90 cd 09 3e f0 1c a7 be ea 54 6b 3d
       -0.010162179 0.13457322 -0.32639265 0.057454027
0003a0 df 75 91 3e 81 7b d1 3e e7 b8 91 be da 6a 36 3d
       0.2841024 0.40914539 -0.28461382 0.044535495
0003b0 8d 85 b6 3d d6 1d ab 3e 44 dd d8 3c 3d 23 58 bd
       0.089121915 0.334212 0.026472695 -0.05276798
0003c0 0b b8 1a be e1 20 71 3e 1c 28 10 3e 03 38 36 3e
       -0.1510927 0.23547699 0.140778 0.17794804
0003d0 51 e1 4c be 73 33 5e bd 48 d0 55 3e 87 59 cb be
       -0.20007826 -0.054248285 0.20880234 -0.3971674
0003e0 22 51 c0 3e 47 28 43 bc 83 c0 9f be 84 d2 51 3e
       0.375619 -0.011911458 -0.31201562 0.20490462
0003f0 b8 e5 82 be de dd 5b be 84 73 bb be 58 7c 62 3e
       -0.25565886 -0.21471354 -0.3661157 0.22117746

fc1.bias f4 [128]
000000 02 aa a1 be 9c f6 e0 be 08 86 0d be 3b a8 4c be
       -0.31575018 -0.43938148 -0.1382066 -0.1998605
000010 5e 1f a2 3e 92 66 c2 3e 08 3e 92 be 88 1d 2f be
       0.31664556 0.3796888 -0.2856295 -0.17101109
000020 b9 86 b3 3e 8b d7 0c 3e 88 5e c0 3e f2 e3 ca be
       0.35063723 0.13754098 0.37572122 -0.39627033
000030 d7 60 ab 3e 4e 0e 80 be 5a 11 a3 3e 74 dc 25 bd
       0.3347232 -0.25010914 0.31849176 -0.040493444
000040 2a 3e 00 bd 7f 4d c0 be e8 0d c0 bd 44 87 0b be
       -0.031309284 -0.37559125 -0.093776524 -0.13625818
000050 31 43 8b be 39 4a 91 be a8 4d bb bd 83 ce 8f 3e
       -0.271997 -0.2837694 -0.09145671 0.28087243
000060 96 df 78 be d9 7c 43 38 3a 66 47 be da f1 67 bd
       -0.24304041 4.6607896e-05 -0.1947259 -0.056627132
000070 92 23 6b be 13 b6 de be cb cc d1 be 84 59 ab be
       -0.22962788 -0.43498287 -0.40976557 -0.33466733
000080 ef 0e 8b bd ed c4 b7 be 7b bd 85 be 25 fc 3b 3e
       -0.06789958 -0.3589243 -0.26121125 0.18357904
000090 bd 67 aa 3c 45 c8 b9 be 64 d3 7b 3d 7d 8f 6f be
       0.02080142 -0.36285606 0.061480895 -0.2339458
0000a0 cc 36 bf be 37 1d db bb a0 b1 45 bc dc 82 bc 3e
       -0.37346494 -0.0066868323 -0.012066275 0.36818588
0000b0 f7 ba 53 3d b9 a5 92 be 78 bc 89 3e da 94 59 3e
       0.051691975 -0.2864206 0.26901603 0.21248189
0000c0 df eb cd 3e 4f 2f f1 3d ee 88 98 3e a1 77 f1 bd
       0.40219018 0.117766015 0.2979197 -0.117903955
0000d0 88 50 9f be ac 27 61 3e 97 aa e3 3d 9a 24 92 3e
       -0.31116128 0.2198779 0.11116522 0.2854355
0000e0 2d c2 57 be f3 69 63 bc 4f a8 d4 bd 3a 31 02 3e
       -0.21070166 -0.013880241 -0.10383665 0.12714091
0000f0 b4 b4 c3 3e 06 f9 d9 be 8b a6 27 3e 18 5b fd 3d
       0.38223803 -0.42572802 0.16372125 0.123708904
000100 76 d4 c6 3e e4 0b b2 be f4 9f 85 be 2c e6 90 3b
       0.3883397 -0.34774697 -0.26098597 0.00442197
000110 28 b5 5c 3e d8 30 3a 3e 45 e5 bf 3c ad 97 b7 be
       0.2155348 0.18182695 0.023424754 -0.35857907
000120 31 15 95 3d 23 99 a5 3e 50 31 b5 3e f6 8f 58 3e
       0.072794326 0.32343397 0.35389185 0.21148667
000130 db b4 bf 3d f5 24 b9 be 93 ed 92 3e f1 17 8f 3d
       0.09360667 -0.36161008 0.2869688 0.06986988
000140 09 5d b3 3d d7 22 b3 3e 11 ce ab 3c 84 66 e6 3c
       0.087579794 0.34987518 0.020972284 0.028125055
000150 4a 26 04 bd e9 d5 3b be c8 25 34 bd 6b 3d f0 3c
       -0.032263078 -0.18343319 -0.043981344 0.029326161
000160 c4 fc f8 bd 31 36 12 3d ce 29 40 3e f2 92 b4 3e
       -0.12157586 0.035696212 0.18765947 0.3526836
000170 c4 b5 e2 be 2e b7 a7 bc f4 81 0b be be 2a 27 be
       -0.442793 -0.02047309 -0.13623792 -0.16324899
000180 68 ff 21 bd 75 b7 74 bd 2c b0 34 3e f8 51 8d 3d
       -0.039550215 -0.05974527 0.17645329 0.069004
000190 18 57 93 be ea 64 6d 3e 1b a3 69 3e 01 9e aa 3e
       -0.28777385 0.23183027 0.22816126 0.33323672
0001a0 35 95 22 bd 28 70 b7 3d ea 4d aa be 71 52 80 3e
       -0.039693076 0.08956939 -0.3326257 0.25062898
0001b0 1c a3 00 be ea b5 5e 3d c4 ce 96 be 30 9a ca be
       -0.12562221 0.054372706 -0.29454625 -0.3957076
0001c0 0f a7 01 3e 0a b1 0a 3d 63 d0 1c be d0 5c e2 be
       0.12661384 0.033860244 -0.15313868 -0.44211435
0001d0 8e 45 a5 3e e6 d4 a5 3e 26 52 49 be be 47 b4 be
       0.3227963 0.3238899 -0.19660243 -0.35210985
0001e0 48 72 bf 3e 80 a0 78 3e b7 63 d3 3e 73 a1 8c be
       0.37391877 0.24279976 0.41287014 -0.27466926
0001f0 bc e8 b7 bd de 02 82 3c fb f7 81 be a6 5f b7 be
       -0.089799374 0.015870508 -0.25384507 -0.3581516

fc2.weight f4 [64, 128]
000000 55 b8 8a 3d 04 23 c9 3c 09 54 ab 3d de 83 d0 3c
       0.0677344 0.02455283 0.08365638 0.025453504
000010 96 fd 2e bd 5c db a7 bd e6 2d 83 bd e5 4e 35 3d
       -0.042722307 -0.08196136 -0.06405239 0.044264693
000020 2f 8c ec 3c a6 98 6d 3d eb a9 8b 3d d4 3e b8 3c
       0.028875438 0.058006905 0.06819519 0.022490896
000030 68 03 48 bc 40 dc c0 3a 8c 70 5c 3d fd 5d 2f bd
       -0.012207843 0.0014714077 0.05381827 -0.042814244
000040 91 ea 4d ba 2e 6e e7 bc 93 42 05 3d 3e fb 9f 3d
       -0.00078550825 -0.02825078 0.032534193 0.078115925
000050 8a d3 80 bd 08 ad b2 3c 13 0c 82 3d ec 3c b2 bb
       -0.06290348 0.021811023 0.06349959 -0.0054393914
000060 0e 5c 26 3d 70 6a 2e 3d b0 70 77 bd ba eb 99 bd
       0.040615134 0.042581975 -0.0604102 -0.075156644
000070 98 19 ac bc f4 a7 ab bc 18 98 a8 3d 40 d9 8d bb
       -0.021008298 -0.02095411 0.082321346 -0.0043288767
000080 94 fc 39 bc eb 32 88 3d ec 3d 8a 3d 15 c6 23 3d
       -0.011351723 0.06650337 0.06750092 0.039983828
000090 b8 33 b1 3d 0c c0 f8 3c b7 50 b0 bd 17 ee 81 bd
       0.08652443 0.030365013 -0.08609145 -0.0634424
0000a0 14 f9 96 3d e6 22 89 bc 74 ad ae bc 52 43 3a bd
       0.07371727 -0.016740274 -0.021322943 -0.045474358
0000b0 de aa c8 bc 44 7a 76 3d 20 cc 85 bd 80 90 ab bd
       -0.024495538 0.060175195 -0.065330744 -0.083771706
0000c0 85 07 2d bd c9 fc 8d bd 4f 92 2c bd 06 ff 7c bd
       -0.0422435 -0.069329806 -0.04213172 -0.061766647
0000d0 7e 58 a6 bc 42 93 7f 3d fb 50 4a 3d 1e f3 96 3d
       -0.020305868 0.062396295 0.049393635 0.0737059
0000e0 ea 7e 5a 3d e2 50 98 bc 72 1d a1 bd 77 87 81 3c
       0.05334369 -0.018593255 -0.078669444 0.015811665
0000f0 2b 74 e3 bc 02 b4 07 3d e2 c1 c5 bb 03 ef a8 bd
       -0.027765354 0.033130653 -0.0060350755 -0.08248713
000100 e9 b8 8d 3d ab 4a 9e 3d 27 f9 b4 3d 1a 26 ab bc
       0.069200344 0.077290855 0.088365845 -0.020892192
000110 5c fb aa 3c de 3f be 3c cf 81 4c bd 19 42 71 bd
       0.02087181 0.023223814 -0.049928483 -0.058900926
000120 a7 89 1e 3d a8 42 63 3d 5d 42 9f 3d a1 30 00 3d
       0.038705494 0.05548349 0.0777633 0.031296376
000130 ed 6c a8 bd fe 65 21 3d c0 64 2c bd b3 6f 5a 3b
       -0.08223901 0.039403908 -0.04208827 0.0033330738
000140 a7 05 07 bc 46 6f 63 3d 37 83 51 3d a4 0e 38 3d
       -0.008241094 0.05552604 0.051150527 0.044935837
000150 61 b7 f4 bc 45 e4 79 3d 20 d2 f0 3c c6 e6 30 bd
       -0.029872598 0.06100871 0.02939707 -0.043188833
000160 9c 35 24 bd 8c 0b 6a bc 23 bd 2d 3d 04 03 71 3d
       -0.04009019 -0.01428498 0.042416703 0.058840767
000170 73 32 b3 3d 2d 99 71 3c ba 96 06 3d 26 f5 1a 3d
       0.08749857 0.014745993 0.032858588 0.037831448
000180 80 6f bd ba 0c fb a4 3c f4 88 a6 3d ea 83 73 bd
       -0.0014452785 0.02013924 0.081315905 -0.059451975
000190 9a 8c 3f 3d 32 a5 a5 bd ab 10 0c 3d 4c 14 86 bd
       0.046764947 -0.08088149 0.034195583 -0.0654684
0001a0 51 ab 9d 3d bd a1 84 3d 00 7f 5a 3b af 91 84 bd
       0.07698692 0.06476162 0.0033339858 -0.064730994
0001b0 2e 0b 92 3c bf 13 3d bd 59 bf ed ba fe de 25 3d
       0.017827597 -0.04616141 -0.0018138691 0.040495865
0001c0 1f 9f 96 3d 7b 18 c5 3b f1 36 8b 3d 00 e4 1f b9
       0.07354569 0.006014881 0.067975886 -0.00015248358
0001d0 0d 6b aa bd 41 82 db bb 58 ec 38 bd d5 df 2a 3d
       -0.083211996 -0.006698877 -0.04514727 0.04171737
0001e0 7b 0c e2 3c 15 19 9d 3d e7 50 85 bc 77 36 43 3d
       0.027593842 0.076708 -0.016273929 0.047659364
0001f0 3e 0a 98 3d 75 7a 35 3c ed 41 62 3d 4f 16 a2 3d
       0.074238285 0.011076559 0.055238653 0.07914411
000200 b6 51 4f bd 16 6f 96 bd c3 5b 10 3d ff 07 a2 bc
       -0.050615035 -0.07345407 0.03524376 -0.019779203
000210 08 01 80 bd 48 a4 b1 3d 8b 1f aa 3d fd b2 00 bd
       -0.06250197 0.08673912 0.083067976 -0.031420697
000220 82 d0 85 3c d2 98 88 3d e5 6b da 3a 54 ad c3 bc
       0.016334776 0.06669773 0.0016664235 -0.02388636
000230 76 0b 5a bd 21 20 a3 bd b2 e3 03 3d ae 07 78 bd
       -0.053233586 -0.079651125 0.03219957 -0.0605542
000240 17 f6 1b 3d 58 cc 0b bc ab f6 e6 3c e3 cb 0c 3d
       0.038076486 -0.008532606 0.028193792 0.03437413
000250 07 44 2d 3b bc 44 a6 b9 56 91 4c 3d 28 38 ad 3d
       0.0026438253 -0.00031713198 0.04994329 0.084579766
000260 85 c3 95 3d b7 bc 96 3d bb c9 0b 3d 90 84 8f 3d
       0.07312683 0.07360213 0.034127932 0.07007706
000270 a8 da 2b 3d 32 24 88 bd cb f0 90 3d fb e6 e5 3c
       0.041956574 -0.06647529 0.070771776 0.028064242
000280 3e c8 a6 bd 96 88 3d 3d d9 d3 39 bd 77 71 9a 3d
       -0.08143662 0.046272837 -0.04536805 0.07541173
000290 9d 82 91 bc a8 eb 5b 3c af 10 c4 3b 53 6f 2c 3d
       -0.017762477 0.013422884 0.005983434 0.042098355
0002a0 04 58 79 bd f9 f4 79 3d ba 91 5f 3d ac ee da 3b
       -0.060874954 0.06102464 0.054582335 0.006681284
0002b0 9b c8 ad 3d 6f 5d a3 bd f2 c5 35 bd ad e5 e4 bc
       0.08485528 -0.079768054 -0.04437823 -0.02794155
0002c0 eb 3c 21 bd fc 1e 74 3d 15 ab 00 bd e1 f4 99 bd
       -0.039364737 0.05959986 -0.031413157 -0.0751741
0002d0 00 54 91 bd 06 dc 0c 3d 98 3a 93 3d 40 5b e8 bc
       -0.070961 0.03438952 0.0718891 -0.028363824
0002e0 80 5d a3 bb 9d 7f 0d 3d ec 9a ad 3d 82 7c 5e 3d
       -0.0049855113 0.03454553 0.08476815 0.05431796
0002f0 66 b3 8a bd a8 71 90 3d 57 b8 84 bd 6f 70 2a 3d
       -0.06772499 0.07052928 -0.064804725 0.04161113
000300 87 cd 5c bd b9 0c 9f 3d 62 b9 ea bc 8a 3d a2 bd
       -0.053906944 0.077660985 -0.02865285 -0.07921894
000310 fb d2 1a bd fe de 8c bd 0e b2 69 3d 64 3a 9d bd
       -0.037798863 -0.0687847 0.05705457 -0.07677153
000320 68 be 02 bd 73 ff 4e bd 9f 0f 9a bb b8 32 86 3d
       -0.031919867 -0.050536584 -0.004701569 0.065526426
000330 dc 39 47 3d d9 ec 68 3d 1c 27 9b 3d c8 e8 2b 3d
       0.048639163 0.0568665 0.07575819 0.041970044
000340 a4 a9 64 3d 94 8c 6d 3d 36 d6 93 bc a6 45 cd 3c
       0.055825844 0.057995394 -0.01804648 0.025057625
000350 ce 77 52 3c 6c 3e 38 bd dd 28 98 3d e5 30 86 bb
       0.0128459465 -0.044981405 0.07429669 -0.004095184
000360 e0 63 ac 3d c1 24 27 3b 44 1e e0 bc 36 90 aa bc
       0.08417487 0.0025504085 -0.027358182 -0.020820718
000370 00 3a 8e bc 9a 0b 46 bd 92 7c f4 3c 56 1a b6 bc
       -0.01736164 -0.048350908 0.029844556 -0.022229355
000380 7f 5c 86 3d 47 42 66 bd ec 9f 04 bd ed 53 89 bd
       0.06560611 -0.05621555 -0.032379076 -0.06705461
000390 72 61 8b 3d f2 b3 04 3d 10 07 9c 3d e1 a8 57 3b
       0.068056956 0.03239817 0.076185346 0.0032907056
0003a0 4f a5 01 3d 0a ca aa 3d b3 2a 4a 3b 9a 66 76 bd
       0.03165179 0.08339317 0.0030848205 -0.060156442
0003b0 48 df 3c 3d 01 19 b6 bc 91 43 7b bd cc 23 82 b9
       0.046111375 -0.02222872 -0.061343733 -0.00024822203
0003c0 d4 3a 99 bd 37 e1 19 3d ab 7e 57 3d 93 45 2a bd
       -0.07481924 0.037568297 0.052611034 -0.041570257
0003d0 e8 f3 57 bc a6 ee 90 3d 32 da ab bd e7 55 57 bd
       -0.01318071 0.070767686 -0.08391227 -0.052572157
0003e0 5e 99 11 3d 60 b5 df bc 46 c6 b6 3c 76 71 4b bc
       0.035546653 -0.027308166 0.022311341 -0.012417188
0003f0 9b 6d ef 3b a8 18 b0 bd 7a 89 83 3d 56 c6 6f bd
       0.007306767 -0.08598453 0.06422706 -0.058538757

fc2.bias f4 [64]
000000 43 db a5 3c 7b dc 86 bc 23 88 8c 3d 73 fe f9 bc
       0.020246154 -0.016462555 0.068619035 -0.030516839
000010 3b ea 1c 3d 92 91 bd 3a f7 e1 ec 3c b3 3f b0 bd
       0.038309317 0.0014462939 0.028916342 -0.086059
000020 af 86 02 3d 50 cb 72 3d cc 24 6e 3d f1 9d 0a 3d
       0.031866726 0.059275925 0.05814056 0.03384203
000030 9b 77 b9 3c d8 a5 bb 3b d7 ca 74 bc 1b 39 38 3d
       0.02264004 0.005726557 -0.014940939 0.044976335
000040 86 b1 46 3d 38 7f e9 bc 92 da 66 bc 05 c0 d0 bc
       0.048509143 -0.028503045 -0.014090197 -0.025482187
000050 a8 74 80 bd ad 38 6b bd 87 3c 0a 3c 6c 6e 4f 3d
       -0.062722504 -0.057427097 0.008437282 0.050642416
000060 17 53 95 bd 26 62 9c bd 06 78 3c 3d 94 50 53 bc
       -0.07291239 -0.07635908 0.0460129 -0.012897629
000070 73 69 81 3d d9 d5 42 bd 74 01 86 bd 33 32 8c bd
       0.06318941 -0.047567222 -0.06543246 -0.06845512
000080 a2 ad b0 bd 58 67 59 3d 65 89 10 3d d4 65 65 3d
       -0.08626868 0.053077072 0.03528728 0.056005314
000090 7b b9 74 3d a1 2d 9a bd b0 f2 9a 3d ff d2 9f 3d
       0.0597472 -0.07528234 0.0756582 0.07803916
0000a0 f3 c3 49 bd b7 97 33 3d 77 dc 99 3d 25 b3 43 bd
       -0.049259137 0.04384586 0.075127535 -0.047778267
0000b0 fc 86 88 3c 0d 40 c5 bc 78 33 23 bd d0 2c 91 3b
       0.016665928 -0.024078393 -0.039844006 0.004430391
0000c0 c7 e5 29 bd 59 ad 20 bd 50 10 84 3c b0 5f b7 bd
       -0.0414789 -0.039227817 0.01612106 -0.08953798
0000d0 57 0f d7 bb 5f e7 13 3d 31 fd b0 3b f4 29 46 3c
       -0.006563108 0.036109325 0.0054012765 0.012094963
0000e0 57 f5 2d 3d 70 e8 e8 3c a8 d4 0b 3d 61 7b 24 bd
       0.042470302 0.028431147 0.03413835 -0.040156726
0000f0 1c 60 8f 3d 84 28 81 bd 8c e2 9c bd 20 f6 8c bd
       0.07000753 -0.06306556 -0.07660398 -0.06882882

fc3_action.weight f4 [26, 64]
000000 da c7 f3 bd 7b 63 c2 b9 ec 2d 27 3d 4d 21 ae bd
       -0.11903353 -0.00037076682 0.04081528 -0.08502445
000010 28 df c8 3d 90 b4 41 bd 80 c7 cd bd 16 cb ac bd
       0.09808189 -0.04729134 -0.10047817 -0.08437173
000020 b8 ae 8b 3c 02 96 b7 bd 70 99 14 3c 3b 32 b3 bc
       0.017051086 -0.089641586 0.0090697855 -0.021874538
000030 3c e2 38 bd d7 0e f3 3c 20 d1 8f bd e9 35 94 bd
       -0.04513763 0.029670162 -0.07022309 -0.07236845
000040 02 a2 a4 3d 60 7a e3 3d 24 5b fb 3d b4 7f a4 3d
       0.08038713 0.111073256 0.12273243 0.0803217
000050 e0 ce c1 bb df 0b 31 3d 09 7a 87 bd 6e db 00 bc
       -0.005914554 0.04322421 -0.06615073 -0.007864816
000060 89 8f cd 3c f8 ae 58 3d 60 6c c0 bc 5f c9 cb bc
       0.025092857 0.05290124 -0.023489177 -0.024876295
000070 53 4d ca bd 98 20 e1 3d 82 ce e7 3a ce 4c 00 3e
       -0.0987803 0.10992545 0.0017685445 0.12529299
000080 92 82 e2 bd 78 a1 fb 3d 69 5b ee 3c 75 4e e3 ba
       -0.110600606 0.12286657 0.029096322 -0.0017342108
000090 c3 97 a8 3d 3a 24 e6 3d b1 30 c5 3c a0 0a 09 3d
       0.08232071 0.112373784 0.02407107 0.0334574
0000a0 d6 63 ce bd c5 17 71 3d a6 3f 68 3d b4 db 92 3d
       -0.10077636 0.05886056 0.056701325 0.07170811
0000b0 af 47 f4 3d 12 9b af bd 30 0c 92 bc cc c7 1f bd
       0.11927735 -0.08574499 -0.017828077 -0.0390089
0000c0 ca 7d da bd 7c 55 94 bd c1 4c 4b 3d ba e2 95 3d
       -0.106685236 -0.07242867 0.049633745 0.07318635
0000d0 87 f5 df 3d ea 95 d7 bd 7b dc dc 3d 70 ae b0 3d
       0.109355025 -0.10526641 0.10784241 0.08627021
0000e0 e9 5c f6 3d 84 39 55 3d 1c 77 5a 3d c0 01 54 bc
       0.1202944 0.052056804 0.053336248 -0.01293987
0000f0 9d 9f df bd b8 e3 8d bc 28 b4 26 3d c7 c4 49 3d
       -0.10919116 -0.017320499 0.040699154 0.049259927
000100 ce 5b f3 bd 14 8f d6 bb 7c f4 d8 bd d1 d8 83 3d
       -0.11882745 -0.006547818 -0.10593507 0.06437839
000110 28 29 fa 3a a8 7a 7c bd 97 aa 88 3c e8 d2 8b bc
       0.0019085752 -0.06164041 0.016682906 -0.017068341
000120 38 30 70 3d 7c 82 83 3d 94 04 2d bd dc 36 c6 3d
       0.058639735 0.06421372 -0.042240694 0.09678432
000130 61 06 c9 3d a7 a7 f7 3d 89 9d b1 3d 76 06 d8 bd
       0.0981567 0.12092524 0.086726256 -0.10548107
000140 1c ba 39 3d 0f 4d 79 3d ef d5 3c bd 3f 87 2b bd
       0.045343503 0.060864504 -0.04610246 -0.041877028
000150 74 4d 85 3d 76 f2 01 bc f9 94 83 bd 91 ff c6 39
       0.06508914 -0.007931342 -0.06424899 0.00037955915
000160 ba f3 92 bd 6e b3 d1 3d 48 96 95 bc fa 5f 9f bd
       -0.071753934 0.102393016 -0.018260136 -0.07781978
000170 f2 f4 d9 3d 30 49 05 bd 34 cc 2c 3d ce 73 72 bd
       0.10642423 -0.0325405 0.04218693 -0.05919247
000180 92 e6 ff 3d 92 08 d3 bd c5 02 90 bd a7 f5 5f 3c
       0.1249515 -0.10304369 -0.07031778 0.013669408
000190 e3 f1 ff 3d ea b8 a3 bd b7 69 0d bd e0 e2 12 3d
       0.12497308 -0.07994254 -0.034524646 0.035860896
0001a0 fa 4b a8 bd ac d7 7a bd e1 be f5 bd a7 9c 7c bd
       -0.082176164 -0.061240837 -0.11999298 -0.061672833
0001b0 e4 64 e6 bd b9 eb bb 3c b0 04 a7 3c 7e 05 a6 3d
       -0.11249712 0.02293955 0.020387977 0.08106516
0001c0 73 e7 52 3d b0 0c d1 3d 7d 19 14 bd 71 9c af 3d
       0.05149026 0.10207498 -0.03615712 0.08574761
0001d0 0e 5f d3 3d 61 0c b0 3c 01 76 a3 3d 95 ee 72 bd
       0.103208646 0.021490278 0.07981492 -0.05930956
0001e0 78 96 93 3d 46 d5 e4 bd 56 1e a4 bd a4 ee e0 3d
       0.07206434 -0.11173491 -0.080135986 0.10983017
0001f0 02 5d 76 3d a8 0a f9 bd be e3 87 bd 8c 6e 67 3d
       0.060147293 -0.12160236 -0.06635235 0.05650191
000200 b2 7c 7c 3d d1 62 bc 3d 5f aa e0 bd 81 c5 bb bb
       0.061642356 0.09198535 -0.10969996 -0.0057303314
000210 25 5b fd 3d 87 35 29 bd ce a5 86 bd d8 32 d4 bd
       0.123709 -0.041310813 -0.065745935 -0.1036126
000220 0c 46 8f 3d d8 bd b9 bd 6d ca 01 3e 8d 1f a8 3d
       0.06995782 -0.09069413 0.12674876 0.08209143
000230 bf 03 6e bd 68 4c 2f 3d 16 43 d6 3c cb 70 fd 3c
       -0.05810904 0.042797476 0.026155036 0.030937573
000240 bc 8b a6 3d 0b 6a 6f 3c ef 41 d6 3d f2 d1 cb ba
       0.08132121 0.014612685 0.104617946 -0.001555024
000250 b0 df 8a bd c7 73 06 bd b1 0e 26 3c 49 08 b2 3d
       -0.06780946 -0.032825258 0.010135339 0.086929865
000260 13 7f 6d 3c 1c ff 20 3d 3e e2 bd 3d 37 a7 e5 bc
       0.014495629 0.03930579 0.09271668 -0.028033836
000270 8f 9e 04 3d e8 c5 f7 3d 33 79 04 bd f0 6c 37 bd
       0.032377776 0.120982945 -0.032342147 -0.044781625
000280 6e 7b d6 bd ae 97 dc 3d f1 6f 21 3c 3b d4 ea 3d
       -0.10472761 0.10771118 0.009853349 0.11466261
000290 52 2c 26 bc d4 3e 22 3d a5 e3 a0 3d 94 e7 cb 3d
       -0.010142403 0.0396107 0.0785592 0.099562794
0002a0 10 0b 7c 3c 6f 2b 9d bd 74 63 bd bc c0 f2 d8 3c
       0.015383497 -0.076743 -0.023118712 0.02648294
0002b0 dc 76 c2 3b 57 f1 a5 3d 49 d3 c4 bd 20 dc f3 bd
       0.0059345793 0.081026725 -0.09610612 -0.1190722
0002c0 e1 00 ad 3d c4 1f 33 bd fe 36 bc 3d 0b 74 15 bd
       0.08447433 -0.043731466 0.091901764 -0.03648762
0002d0 eb 3c 97 bc 30 87 a8 bd 63 28 90 bd 97 aa 34 3b
       -0.018461665 -0.0822891 -0.07038953 0.00275675
0002e0 da d7 d6 bd d4 75 47 bd fd ae d1 ba 04 ed 9d bd
       -0.10490389 -0.048696354 -0.0015997585 -0.07711223
0002f0 22 d2 ef bc c0 bc d1 3b 50 79 95 bd 30 14 94 3d
       -0.029275004 0.0064006746 -0.07298529 0.07230413
000300 63 b6 a6 3c e1 5a 92 bd f2 66 d4 3c 40 d8 e5 3d
       0.02035064 -0.0714624 0.025927994 0.11222887
000310 42 ce aa bd 1a 30 85 3d f4 c3 e4 bc 60 0d 72 bc
       -0.08340122 0.06503315 -0.027925469 -0.014773697
000320 09 7a da 3c 31 57 91 3d 05 a5 e2 3a 30 fe 48 3c
       0.026669519 0.070967086 0.0017291611 0.012267634
000330 a0 9e c0 bd f4 f5 55 bc 63 11 b6 bd 24 0e e7 3d
       -0.09405255 -0.013059128 -0.08890035 0.11281994
000340 20 fb 92 bb 05 3a fc bd 80 c4 80 bd 06 0d ee 3d
       -0.004485503 -0.12315754 -0.062874794 0.11623578
000350 e4 e7 7b 3d b2 60 dd bd cf c1 54 bd af ff 83 3b
       0.061500445 -0.10809459 -0.051942643 0.0040282826
000360 da 9d 82 3d 80 96 f0 bd 0e 77 91 bd 3d e6 a0 3d
       0.06377764 -0.117474556 -0.07102786 0.078564145
000370 3c a3 ea 3d 54 7d fa 3b 54 00 b9 3d 64 a2 9c 3d
       0.11456916 0.007644335 0.09033266 0.07648161
000380 d4 57 bf 3d 8e b7 da 3d bb f1 86 3d 13 1e da 3d
       0.09342924 0.106795415 0.06589075 0.106502675
000390 a8 e7 d2 3d 38 86 6a 3d d2 9f aa 3d 5a 27 ea bd
       0.10298091 0.057256907 0.083312646 -0.11433287
0003a0 08 97 ba bc b0 48 82 bd 5c a9 b2 bd 0b 8e 75 3d
       -0.022777095 -0.0636152 -0.08723709 0.059949916
0003b0 82 5e bc bd d0 79 ff 3c f6 f8 11 bd 30 5e 14 bc
       -0.091977134 0.031186014 -0.03563782 -0.009055659
0003c0 1e ae 3d 3c dc 78 98 3d 2e f8 93 3d 20 2c e3 bb
       0.011577157 0.07444927 0.07225071 -0.0069327503
0003d0 16 f7 cd 3c ae 8e f2 bd a6 bc c5 bd af a3 f9 bc
       0.025142234 -0.1184362 -0.096551225 -0.030473558
0003e0 d3 4f e4 bd 6c 6c b4 3d e0 60 3b bd 10 e9 b0 3c
       -0.11148038 0.08809742 -0.045746684 0.021595508
0003f0 ed a8 bd bd a0 32 06 3d 50 f4 a3 bd 02 ab 56 bd
       -0.09260736 0.032763124 -0.08005583 -0.05240918

fc3_action.bias f4 [26]
000000 94 5b be bd 88 9a 47 bb 41 e8 6d bd 22 17 f5 bd
       -0.09294811 -0.0030457098 -0.058082823 -0.11967303
000010 75 7d 67 bc e4 af a8 bc dd f5 6a bd a2 b2 8d 3d
       -0.014129032 -0.020591684 -0.05736338 0.06918837
000020 d2 a2 28 3c f6 99 c1 3d 60 6e ff 3d 26 81 f0 3c
       0.010292726 0.09453194 0.12472224 0.029358458
000030 f8 72 6a bd ab b2 05 bd a5 e4 3d 3d 03 f4 e6 ba
       -0.05723855 -0.032641094 0.04636063 -0.0017620329
000040 6e 15 8b 3d 94 89 56 3d a3 97 40 bd 5c 1b 9f 3d
       0.06791197 0.0523773 -0.047019612 0.0776889
000050 f4 e0 bb bd 43 e7 b2 bd 7c 61 a7 3d 4f 74 75 bc
       -0.09173766 -0.08735516 0.081728905 -0.014981343
000060 2b 65 1c 39 60 f0 3d 3d
       0.00014915007 0.046371818
